turtlebot3_machine_learning/turtlebot3_td3/steer_only/models12_PER/TD3_stage2_actor_target.pth (torch_old, 48103 bytes, 5 tensors)

l1.weight f4 [128, 26]
0	0x3e3977c6	0.18112096
1	0xbe221374	-0.15827733
2	0x3e687d23	0.22703986
3	0x3b8bdc89	0.004268233
4	0x3e065146	0.13116941
5	0x3db9fd70	0.090815425
6	0x3e22c49c	0.15895313
7	0xbe4d910a	-0.2007486
8	0xbdf0dfff	-0.11761474
9	0xbca521fd	-0.020157808
10	0x3d58e6f1	0.052954618
11	0x3d9b7580	0.07590771
12	0x3df07c0d	0.11742411
13	0xbceaa467	-0.028642846
14	0x3dad4d0b	0.084619604
15	0xbc455f21	-0.012046606
16	0x3d2e149b	0.04250012
17	0x3dd5c5ba	0.10438104
18	0x3db3ca0d	0.087787725
19	0x3d57a05f	0.052643176
20	0xbdc6e135	-0.097109236
21	0x3e2932ee	0.16523334
22	0x3e40f9ca	0.18845287
23	0xbdf76cd0	-0.12081301
24	0xbe3e9380	-0.18610954
25	0x3e16fe31	0.14745404
26	0xbd1a3ca9	-0.037655506
27	0x3d73f495	0.059559423
28	0xbe2b41bf	-0.16724299
29	0xbd988d1f	-0.07448792
30	0xbd47256e	-0.04861968
31	0xbdc2c361	-0.09509922
32	0xbd4d727b	-0.050158005
33	0x3dd929d4	0.10603681
34	0x3daae813	0.08345046
35	0x3d893680	0.06699848
36	0xbca9ca91	-0.020726474
37	0xbe2deafc	-0.1698417
38	0xbdc16584	-0.09443191
39	0xbe40ec6d	-0.1884019
40	0x3e0ce729	0.13760056
41	0x3e09012d	0.13379355
42	0xbdfc95af	-0.123332374
43	0x3dcf78fb	0.10130497
44	0x3e2867a8	0.16445792
45	0xbd162db8	-0.036664695
46	0xbda26738	-0.07929844
47	0xbe0e99fd	-0.1392593
48	0x3cbfd7f2	0.0234184
49	0x3e363f72	0.1779764
50	0x3ddbac21	0.1072619
51	0x3e2cee05	0.16887672
52	0xbdcb7335	-0.09934083
53	0x3d4e9ec4	0.05044438
54	0xbdb26075	-0.08709804
55	0x3c1ce9a3	0.009577188
56	0xbe790608	-0.24318707
57	0x3d823df9	0.063594766
58	0x3e07437c	0.13209337
59	0x3e2d21d4	0.16907436
60	0x3e7b3d1b	0.24535029
61	0x3e4316e2	0.19051698
62	0x3d28387d	0.041069496
63	0x3e1c827c	0.15284151
64	0x3d74f884	0.059807315
65	0x3db3297c	0.08748147
66	0x3dd5364e	0.104107484
67	0xbe005c58	-0.12535226
68	0xbe948e81	-0.29014972
69	0xbe11c8f3	-0.14236812
70	0x3db2f7b1	0.0873865
71	0x3e5b6a70	0.21427321
72	0x3c48713b	0.0122340275
73	0x3e9921ca	0.29908592
74	0xbe770959	-0.2412466
75	0xbdbea6c3	-0.09309151
76	0x3e228812	0.15872219
77	0x3e0c14fb	0.13679878
78	0xbe024f0b	-0.12725465
79	0xbe0dc28d	-0.13843746
80	0xbdd8b27b	-0.105809174
81	0x3de82e77	0.113369875
82	0x3d869fe6	0.06573467
83	0x3e3fb7a0	0.18722391
84	0xbe1ac5d2	-0.15114525
85	0xbb7eb57a	-0.0038865493
86	0xbe1c8e64	-0.15288693
87	0x3dbff548	0.093729556
88	0x3d13ede7	0.036115553
89	0xbd9e2807	-0.07722478
90	0x3e4c17a7	0.19930898
91	0x3e1c2ee5	0.15252264
92	0x3e19ec8f	0.15031646
93	0x3e3d9968	0.18515551
94	0xbca80a57	-0.020512743
95	0x3e00ffbb	0.12597553
96	0x3e3d6c38	0.18498313
97	0x3d56017b	0.052247506
98	0x3d5c1954	0.053735092
99	0xbdf3d9af	-0.11906754
100	0xba730470	-0.00092703756
101	0xbe0836dc	-0.13302177
102	0x3e383bd9	0.1799158
103	0xbd167a6b	-0.03673784
104	0x3b7af703	0.0038294203
105	0xbe108b1a	-0.14115563
106	0x3d9e927b	0.07742783
107	0xbc034f7a	-0.008014554
108	0x3c27b48a	0.010235915
109	0x3d9b57c8	0.07585102
110	0xbd0ca343	-0.034335386
111	0xbdccfa0e	-0.10008632
112	0xbcf45d65	-0.02982969
113	0xbca39eda	-0.019973207
114	0xbb1adc72	-0.002362993
115	0x3cdb3e7f	0.026763199
116	0x3ceb3ceb	0.028715571
117	0x3c9ea5c6	0.019366156
118	0x3c065472	0.008198844
119	0xbd4cf6de	-0.05004012
120	0x3bdd1955	0.0067474046
121	0x3db16117	0.086610965
122	0x3d1a7fe6	0.03771963
123	0x3cb99763	0.022655195
124	0xbd8913a9	-0.06693203
125	0xbd8b5b52	-0.06804527
126	0xbd0913c2	-0.03346611
127	0xbe1962ad	-0.14979048
128	0x3f8ab3fa	1.0836174
129	0x3dabe2da	0.08392878
130	0x3d169747	0.036765363
131	0xbe173033	-0.1476448
132	0xbd75dcd3	-0.060025048
133	0x3de667fe	0.11250304
134	0xbdac4682	-0.08411886
135	0xbe3a3dcf	-0.1818764
136	0xbdc3014f	-0.09521734
137	0xbe06c1d4	-0.13159877
138	0x3cdff682	0.027339224
139	0xbd27cc75	-0.04096647
140	0xbc99ecae	-0.018789615
141	0x3dd79e6e	0.10528265
142	0x3da3f185	0.080050506
143	0xbc3935d3	-0.011304337
144	0x3e218e69	0.15776981
145	0x3cdf94e0	0.027292669
146	0xbda314ab	-0.079629265
147	0xbd78d6e5	-0.060751814
148	0x3c2a96bc	0.010411914
149	0xbc2521c5	-0.010078852
150	0x3de2e765	0.11079291
151	0x3dce3ac1	0.100698
152	0x3e2010ea	0.15631452
153	0xbac7d72c	-0.0015246621
154	0x3f82121b	1.0161775
155	0xbe845d36	-0.25852364
156	0x395ed1f1	0.00021249779
157	0x3df85b25	0.121267594
158	0x3d66f022	0.056381352
159	0xbe731fb8	-0.23742568
160	0xbe5828f4	-0.21109372
161	0xbf1a6679	-0.6031261
162	0xbe034b15	-0.1282161
163	0x3e0c68a2	0.13711789
164	0xbd8fab45	-0.07015089
165	0x3e1b0ce1	0.15141632
166	0xbcee2049	-0.02906813
167	0x3d8e0f4d	0.06936512
168	0xbd221893	-0.039574217
169	0xbd1c7bb7	-0.03820392
170	0x3a50585d	0.00079477375
171	0xbd149c27	-0.03628173
172	0xbb1ed27c	-0.0024234345
173	0x3df260f2	0.11834897
174	0x3d0de803	0.03464509
175	0xbcafb31d	-0.021447713
176	0xbe204274	-0.1565035
177	0x3e1ed414	0.15510589
178	0xbe4205dc	-0.18947548
179	0xbc897b12	-0.016782317
180	0x3eb0f82a	0.34564334
181	0x3d8c1bd5	0.06841246
182	0xbe3d0eb2	-0.18462637
183	0x3ca2cf27	0.019874169
184	0xbd672010	-0.05642706
185	0xbd933e32	-0.07189597
186	0xbc1cc7fd	-0.009569165
187	0xbe1c1a86	-0.15244493
188	0xbd0e6b8c	-0.034770533
189	0xbe965cd6	-0.29367703
190	0xbd15ed25	-0.03660311
191	0x3ea22443	0.3166829
192	0x3ddb70ad	0.107148506
193	0xbdf73d50	-0.12072241
194	0x3e495358	0.196607
195	0x3dab888d	0.08375654
196	0x3e798897	0.24368511
197	0x3d0e7830	0.03478259
198	0x3d9b8db5	0.07595388
199	0x3c0866dc	0.008325305
200	0x3db0a288	0.086247504
201	0xbd730c26	-0.059337758
202	0xbd830e33	-0.06399193
203	0xbe008023	-0.1254888
204	0xbe1a0e4b	-0.15044515
205	0xbda74758	-0.081679046
206	0x3c5fff40	0.013671696
207	0xbe8f012e	-0.27930588
208	0x3d612cf3	0.054974508
209	0x3daae27f	0.08343982
210	0xbdae2e9c	-0.08504984
211	0x3c2fa28a	0.010719905
212	0xbe548f8a	-0.20757881
213	0xbd1cb66c	-0.03825991
214	0x3caee87c	0.021351092
215	0xbe2763e6	-0.16346702
216	0x3da7e3a6	0.08197717
217	0x3e646898	0.22305524
218	0x3e11dc22	0.1424413
219	0x3c2ebcf9	0.010665172
220	0xbc94857f	-0.018130062
221	0x3dee8be1	0.116477735
222	0xbd93ca64	-0.07216337
223	0xbdc31468	-0.095253766
224	0x3e3e2222	0.18567708
225	0x3d284479	0.041080926
226	0x3c47f640	0.012204707
227	0x3e9c272a	0.3049863
228	0x3e83ac16	0.2571723
229	0x3ce8c2c6	0.028413188
230	0x3d927196	0.07150571
231	0xbc18a79b	-0.009317304
232	0x3ebe227b	0.37135682
233	0xbc83e969	-0.01610251
234	0xbc4572f7	-0.012051336
235	0xbd1abbcd	-0.037776757
236	0x3e2061b4	0.15662271
237	0xbcaecae4	-0.02133698
238	0xbf183a1a	-0.59463656
239	0xbf2837d8	-0.6571021
240	0xbe228256	-0.15870032
241	0xbde29361	-0.110632665
242	0x3d22188b	0.039574187
243	0xbd824a95	-0.06361882
244	0x3d8bece3	0.06832292
245	0xbc99dbde	-0.018781599
246	0x3df0962e	0.117473945
247	0x3d539f87	0.05166581
248	0x3ccb40c7	0.024811162
249	0x3caa5876	0.020794135
250	0x3b9f6756	0.0048646135
251	0x3d5133f1	0.051074926
252	0x3db50b04	0.08839992
253	0x3aaed426	0.0013338372
254	0xbc5e7f63	-0.013580176
255	0x3e3be66d	0.18349619

l1.bias f4 [128]
0	0x3e368055	0.17822392
1	0xbdf5befc	-0.11999318
2	0x3e0bcc1f	0.13652085
3	0x3e3945d4	0.18093044
4	0xbd41ad81	-0.047284607
5	0x3db98dbe	0.09060238
6	0x3d40f8e9	0.04711238
7	0x3e622859	0.22085704
8	0xbe1642ba	-0.14673892
9	0xbda8a255	-0.082340874
10	0x3d0efdca	0.03491
11	0x3e14b905	0.14523704
12	0xbe357b49	-0.17722811
13	0x3d806f3c	0.06271216
14	0x3e2e027c	0.16993135
15	0xbe04fbc1	-0.12986661
16	0x3bc07260	0.0058730096
17	0xbc361f92	-0.011115925
18	0xbc7d419a	-0.015457535
19	0x3e345258	0.17609537
20	0xbdd16ed8	-0.1022622
21	0xbe55b172	-0.20868471
22	0xbc0fc4c3	-0.008774939
23	0x3cc44af4	0.023961522
24	0xbcc1a5e1	-0.023638668
25	0xbdf02dea	-0.117275074
26	0x3e57c6a7	0.21071874
27	0x3e15aee3	0.14617495
28	0x3da85c03	0.08220675
29	0x3d853803	0.06504824
30	0xbdbc33cf	-0.09189569
31	0x3dff8052	0.12475647
32	0xbe30c44f	-0.17262386
33	0x3da864fa	0.08222385
34	0x3dc8e93e	0.098101124
35	0xbe1ef334	-0.15522462
36	0x3d2c3181	0.042039398
37	0xbd3dd8b1	-0.04634923
38	0xbe4d18b7	-0.20028959
39	0xbdadee2a	-0.08492692
40	0x3da92a9b	0.082600795
41	0x3e3439c5	0.17600162
42	0xbe109a4e	-0.14121363
43	0xbb0bb6d8	-0.00213187
44	0x3d9ebeb6	0.07751219
45	0x3e0bffcf	0.13671802
46	0x3d83a8b4	0.06428662
47	0xbd502907	-0.050820377
48	0xbe3b2c71	-0.18278672
49	0x3e72ead2	0.2372239
50	0x3d433420	0.047657132
51	0x39eb680b	0.0004490021
52	0x3b1eb3fa	0.002421616
53	0xbdfb197e	-0.122607216
54	0x3c500144	0.012695614
55	0x3e2a1e9b	0.16613238
56	0xbe0552d4	-0.13019878
57	0x3de6c511	0.11268056
58	0xbe0fd711	-0.14046885
59	0xbd7567c9	-0.05991343
60	0x3e1093dd	0.14118905
61	0xbe2a8fb7	-0.16656385
62	0xbe2bd683	-0.16781048
63	0xbe3911ed	-0.18073244
64	0x3e59d472	0.21272448
65	0xbd82dafb	-0.063894235
66	0x3da88b79	0.08229727
67	0xbe0f47bc	-0.13992208
68	0xbd5536b3	-0.05205412
69	0x3e24c7f7	0.16091906
70	0xbcc756c2	-0.024333362
71	0xbdaf7b65	-0.085684575
72	0xbc8a4bef	-0.016881911
73	0xbd508c74	-0.050915197
74	0xbe279737	-0.16366278
75	0x3d895b4c	0.067068666
76	0xbdb77910	-0.08958638
77	0xbde3e692	-0.11127962
78	0x3c5baefa	0.013408417
79	0xbd11afc8	-0.03556803
80	0x3df4fa83	0.11961844
81	0x3e3a4631	0.18190838
82	0xbdcd26e8	-0.100171864
83	0x3e2d244b	0.16908376
84	0xbe0d6471	-0.13807847
85	0xbcab855b	-0.020937612
86	0xbe321411	-0.17390467
87	0x3e2901ed	0.16504641
88	0xbde32e1f	-0.11092781
89	0x3dd0b51d	0.101907946
90	0xbe27a6ed	-0.16372271
91	0xbd1b9fdb	-0.037994247
92	0xbcb39518	-0.02192168
93	0xbdcb7d7e	-0.09936045
94	0x3d045b9c	0.032313928
95	0xbe87ac74	-0.2649876
96	0xbd9d8511	-0.07691396
97	0x3d805e92	0.06268038
98	0xbce2b971	-0.027676316
99	0x3dbec9bd	0.09315822
100	0xbe059031	-0.13043286
101	0xbe1d2035	-0.15344317
102	0xbd8f7da2	-0.070063844
103	0x3d71e804	0.059059158
104	0x3e287956	0.16452536
105	0xbde3c085	-0.111207046
106	0x3e33574a	0.17513767
107	0x3e12d72c	0.14339894
108	0x3e22b5fd	0.15889736
109	0x3c2cddeb	0.010550956
110	0xbd461aa6	-0.048365258
111	0xbdbcfa62	-0.09227444
112	0xbe1fc9dc	-0.15604347
113	0x3e1c4982	0.15262416
114	0xbd772eba	-0.060347296
115	0x3e135774	0.1438883
116	0xbe512b79	-0.2042674
117	0x3e097fcd	0.13427658
118	0xbe820169	-0.253917
119	0x3e570d2b	0.21001117
120	0xbe346404	-0.17616278
121	0x3e1882ee	0.14893696
122	0xbd1053f9	-0.035236333
123	0x3d9c0da5	0.0761979
124	0x3deaa929	0.11458046
125	0xbd135fc6	-0.03598001
126	0xbd116b0a	-0.03550247
127	0x3e1ae003	0.15124516

l2.weight f4 [64, 128]
0	0x3d835006	0.06411748
1	0x3a638444	0.0008679072
2	0x3c73743a	0.014859254
3	0x3cb7bb85	0.022428283
4	0xbf4988d8	-0.7872443
5	0x3e2c3e3b	0.16820614
6	0x3ead5c68	0.33859563
7	0x3d560678	0.052252263
8	0x3d646e52	0.055769272
9	0x3d82a870	0.06379783
10	0x3db61b95	0.088919796
11	0x3d267d52	0.04064686
12	0x3c9b2e03	0.018942839
13	0x3a120770	0.0005570566
14	0xbd1ef738	-0.038809985
15	0xbe120386	-0.14259157
16	0xbd4001ad	-0.0468766
17	0x3d113681	0.03545237
18	0x3d296e44	0.041364923
19	0x3e032934	0.12808686
20	0xbd2ce9fd	-0.042215336
21	0x3dbe0d7c	0.09279916
22	0x3dbb2c3a	0.09139295
23	0x3e082da5	0.13298662
24	0x3e849b4c	0.25899732
25	0xbde093cd	-0.10965691
26	0x3e092a7b	0.13395111
27	0xbeb6db5f	-0.35714242
28	0x3c9433cc	0.018091105
29	0x3c02039b	0.00793543
30	0x3d11bf7d	0.035583008
31	0x3d8f60df	0.070008986
32	0x3ca77111	0.020439656
33	0x3d33c032	0.043884464
34	0x3db9dbed	0.09075151
35	0x3a38ad00	0.0007044822
36	0x3cc110dc	0.02356761
37	0xbde18519	-0.110117145
38	0xbe824627	-0.25444147
39	0x3c52db5e	0.012869684
40	0xbd5f14e9	-0.0544633
41	0x3d33ad5b	0.043866497
42	0x3d3e2ae8	0.046427637
43	0x3d8ee831	0.06977881
44	0xbf18caaf	-0.5968427
45	0xbced0627	-0.028933598
46	0x3ebd1b10	0.3693471
47	0x3d87949a	0.066201404
48	0xbc8e39b4	-0.0173615
49	0xbdc08f48	-0.09402329
50	0xbda8c2e3	-0.08240297
51	0x3b9430dc	0.004522426
52	0xbcde45e2	-0.027132932
53	0xbd9b8d2b	-0.07595285
54	0xbdbb0887	-0.09132486
55	0xbc020a18	-0.007936977
56	0x3f1f3966	0.6219696
57	0x3ee50331	0.44728997
58	0x3dcdcb5b	0.100485526
59	0xbdcc3690	-0.099713445
60	0xbe45b09e	-0.19305655
61	0x3e851dc4	0.25999272
62	0xbda9e24e	-0.08295117
63	0xbd687e34	-0.05676098
64	0xbe43e620	-0.19130754
65	0x3dcf8bdf	0.101341
66	0xbcd02990	-0.025410444
67	0xbdf70f91	-0.12063516
68	0x3dda152a	0.10648568
69	0x3d8b9962	0.06816365
70	0x3d934995	0.07191769
71	0x3dace110	0.08441365
72	0xbe519eee	-0.20470783
73	0xbca37085	-0.019951114
74	0x3d7090e3	0.058731925
75	0xbcd3504b	-0.025795123
76	0x3cd1d4ca	0.025614161
77	0x3c316db7	0.010829381
78	0xbd45ac70	-0.048260152
79	0x3d84b60d	0.06480036
80	0xbda75cf6	-0.08172028
81	0xbd8ec73d	-0.069715954
82	0xbeba7a5b	-0.36421475
83	0xbdcd2bc7	-0.100181155
84	0x3e281b06	0.16416559
85	0x3dcab670	0.098980784
86	0x3ea9f24b	0.33192667
87	0x3dbf4491	0.0933925
88	0xbbc2b73b	-0.005942253
89	0x3e239861	0.15976097
90	0x3d9cae86	0.07650475
91	0xbc10df1b	-0.008842255
92	0xbebf270f	-0.37334487
93	0xbea1f252	-0.31630188
94	0x3d6ad6aa	0.057333626
95	0x3eea6843	0.4578267
96	0x3ec81b32	0.39083248
97	0xbd40fa16	-0.0471135
98	0x3d3c0d43	0.045911085
99	0xbd96125d	-0.07327721
100	0xbe009512	-0.12556866
101	0xbeb8d1b8	-0.36097503
102	0xbd3813e0	-0.04494083
103	0x3d40b63b	0.04704879
104	0x3cf38b54	0.029729523
105	0x3d585e88	0.052824527
106	0x3d4b5214	0.049638823
107	0x3f15c245	0.58499557
108	0x3e5c5d09	0.21519865
109	0xbd43f76e	-0.04784339
110	0xbc783c4a	-0.015151093
111	0xbb7e85f7	-0.0038837173
112	0xbe431a89	-0.19053091
113	0xbd671a6f	-0.056421693
114	0xbe3c1bcc	-0.18369979
115	0x3d84e693	0.06489291
116	0x3cab1e49	0.020888465
117	0xba9ff71b	-0.001220438
118	0xbe0b229a	-0.13587418
119	0x3c68ed2d	0.014216703
120	0x3f254799	0.64562374
121	0x3cdd185a	0.02698915
122	0xbd02c784	-0.031928554
123	0x3d8b7214	0.06808868
124	0x3cc5d507	0.02414943
125	0xbd95a825	-0.07307462
126	0xbe4bf456	-0.19917426
127	0xbceb88bc	-0.028751723
128	0x3d67d77b	0.056601983
129	0xbb359535	-0.0027707343
130	0x3da72b2f	0.081625335
131	0x3c305308	0.010761984
132	0xbf207450	-0.6267748
133	0x3e86822e	0.26271194
134	0x3e87f68e	0.26555294
135	0x3e1647a6	0.14675769
136	0x3d361d44	0.044461504
137	0x3e4f9364	0.20271069
138	0xbcdf6c9c	-0.027273469
139	0x3d97a7c5	0.074050464
140	0x3dd0ea5b	0.1020095
141	0x3d2cc915	0.042183954
142	0x3e0846f1	0.13308312
143	0xbdcee995	-0.10103146
144	0xbd43c43f	-0.047794577
145	0x3c95cc52	0.018285904
146	0x3db2346f	0.08701407
147	0x3e03f6c1	0.12887098
148	0x3d4b5752	0.049643822
149	0x3c410a92	0.011782305
150	0x3d9c8ec4	0.07644418
151	0x3dcaf659	0.09910268
152	0x3e65bb62	0.22434762
153	0xbdfe11ef	-0.12405764
154	0x3de98d32	0.11403884
155	0xbe95384d	-0.29144517
156	0x3db7cf5c	0.089750975
157	0x3be4c652	0.0069816494
158	0x3e0047fa	0.12527457
159	0xbbc6070d	-0.006043321
160	0x3c4e9c6f	0.012610539
161	0xbcd077e4	-0.025447793
162	0x3c7c2d08	0.015391596
163	0xbc9744cc	-0.018465422
164	0x3d920bd9	0.07131166
165	0xbe327bc6	-0.17430028
166	0xbe332909	-0.17496122
167	0x3dc99765	0.09843329
168	0x3cca7af6	0.024716835
169	0x3d0aafce	0.033859067
170	0xbdaa4079	-0.083130784
171	0x3d2b2d04	0.041790977
172	0xbf02653c	-0.5093572
173	0xbdfafe78	-0.12255567
174	0x3e604dd8	0.21904695
175	0x3bf7789a	0.0075522186
176	0x3c59d920	0.013296396
177	0xbc2197e0	-0.00986287
178	0xbe131d19	-0.14366569
179	0x3dddad84	0.10824111
180	0xbca36666	-0.019946288
181	0x3d653118	0.055955023
182	0xbd858884	-0.06520179
183	0xbd333bac	-0.04375808
184	0x3f1529de	0.5826701
185	0x3ebed431	0.37271264
186	0x3e1db5db	0.15401404
187	0xbd0cd815	-0.03438576
188	0xbe1fb93f	-0.1559801
189	0x3ea2cb6e	0.3179583
190	0xbb73b49c	-0.003718651
191	0xbd7d8026	-0.06188979
192	0xbe1c26ab	-0.15249126
193	0xbd3997be	-0.04531073
194	0x3da4c192	0.08044733
195	0xbca5cbff	-0.020238874
196	0xbbd8a45a	-0.006611389
197	0x3e1ffdf6	0.15624222
198	0x3dce2941	0.10066462
199	0xbc45af80	-0.012065768
200	0xbe4b4c80	-0.19853401
201	0x3d9301e1	0.07178093
202	0x3d9d4fdf	0.0768125
203	0xbc83cadd	-0.016087944
204	0x3c321fbd	0.010871825
205	0x3d311e7f	0.043241974
206	0x3d03259a	0.03201828
207	0x3d55bc2e	0.052181415
208	0x3d3ffda8	0.046872765
209	0xbde0ad2c	-0.1097053
210	0xbe945667	-0.2897217
211	0x3cde4d1a	0.027136374
212	0x3df7a0d7	0.12091225
213	0x3cf6a18c	0.030106328
214	0x3e973eab	0.2954
215	0xbd4797cc	-0.04872875
216	0xbd60f74c	-0.05492334
217	0x3e2613f8	0.16218555
218	0x3e02ae90	0.12761903
219	0x3d6a50cc	0.05720596
220	0xbe358f39	-0.17730416
221	0xbecba9ca	-0.39777976
222	0xbd8d29e8	-0.068927586
223	0x3eda8daa	0.42686206
224	0x3ece43b2	0.40286022
225	0x3d0332a1	0.032030705
226	0xbd4835c0	-0.048879385
227	0xbbcce1f1	-0.0062525203
228	0xbe10a021	-0.14123584
229	0xbed08dbc	-0.40733135
230	0x3d51871a	0.051154234
231	0xbde7c09f	-0.113160364
232	0x3caa024f	0.020753054
233	0xbda54378	-0.08069509
234	0x3d6adfba	0.05734227
235	0x3f04361a	0.5164505
236	0x3d2e84be	0.04260706
237	0x3bc05fee	0.0058708107
238	0xbcaa227a	-0.020768393
239	0xbd817ccf	-0.063226335
240	0xbd96e9cc	-0.07368812
241	0x3cfd1ee2	0.030898515
242	0xbe15a878	-0.14615047
243	0x3a38f31b	0.00070552685
244	0x3c772add	0.015085903
245	0x3d0deb2d	0.03464811
246	0xbe895fce	-0.26830906
247	0x3e373574	0.17891484
248	0x3f0767e3	0.52892894
249	0x3e12ffd8	0.14355409
250	0xbd83186f	-0.06401145
251	0x3dedb0e2	0.11606003
252	0xbc0fc779	-0.008775585
253	0xbc99b5a5	-0.018763373
254	0xbe233b96	-0.15940699
255	0xbda71bb6	-0.08159582

l2.bias f4 [64]
0	0xbd6eb495	-0.058277685
1	0xbd573429	-0.05253998
2	0xbdb0a361	-0.08624912
3	0x3b9de19d	0.004818155
4	0x3d9413a0	0.07230306
5	0x3d26145d	0.040546764
6	0xbd132e1e	-0.035932653
7	0x3c68f09c	0.014217522
8	0x3d55853c	0.052129015
9	0xbdaeac0f	-0.08528911
10	0xbd9438fc	-0.072374314
11	0xbcc1924d	-0.023629332
12	0xbd937be6	-0.07201366
13	0x3b92bbfe	0.004477977
14	0x3cecf05d	0.028923208
15	0xbd4f5c20	-0.050624967
16	0xbd1903f0	-0.03735727
17	0x3b152387	0.0022756772
18	0xbd81abbb	-0.06331583
19	0x3d58b11a	0.052903272
20	0xba861509	-0.0010229658
21	0xbd2bcce7	-0.041943457
22	0x3dc88d5c	0.09792587
23	0x3d9d3d12	0.07677664
24	0x3b79e7c5	0.003813253
25	0xbbcbb7ae	-0.0062169647
26	0xbd5fef02	-0.054671295
27	0x3d9115db	0.07084247
28	0xbcaa4979	-0.020786988
29	0xbc71f514	-0.014767904
30	0xbd9c401b	-0.07629415
31	0x3c741fe9	0.014900186
32	0xbc16ebfc	-0.0092115365
33	0x3ca9812d	0.020691479
34	0x3da42c0b	0.08016213
35	0xbd8fb53b	-0.07016989
36	0x3c37e759	0.011224591
37	0xbc8645dd	-0.016390735
38	0x3d32a999	0.043618772
39	0x3d1485f9	0.03626058
40	0xbd5c015a	-0.053712226
41	0x3c23a5aa	0.009988228
42	0x3d6c9cde	0.057766788
43	0x3b5f12a1	0.0034038203
44	0xbdad1313	-0.08450904
45	0x3cdd4e85	0.02701498
46	0x3dc533fa	0.09629054
47	0xbcb228c0	-0.021747947
48	0x3d66c085	0.056335945
49	0x3dae3c41	0.08507586
50	0x3d3d5cfc	0.046231255
51	0xbdc29299	-0.095006175
52	0x3dae8716	0.08521859
53	0xbdb29028	-0.08718902
54	0x3b80ec10	0.003934391
55	0x3dad8b38	0.084738195
56	0xbcae170e	-0.021251228
57	0xbd9c95f3	-0.07645788
58	0x3ca328ea	0.01991697
59	0x3d84e447	0.06488853
60	0xbc9b2190	-0.018936902
61	0x3d4078c8	0.046990186
62	0xbd31c5ad	-0.04340141
63	0x3d8f0633	0.06983604

l3.weight f4 [1, 64]
0	0xbdd73ada	-0.10509272
1	0xbde0a838	-0.10969585
2	0xbf52dcce	-0.8236817
3	0x3cf6a12b	0.030106148
4	0xbe53b8ee	-0.20676014
5	0xbe099f32	-0.13439634
6	0xbe7a0844	-0.24417216
7	0xbe2b6c88	-0.1674062
8	0x3e197140	0.14984608
9	0x3dbb6837	0.09150737
10	0xbf796b0f	-0.97428983
11	0xbe070753	-0.13186388
12	0xbddd1231	-0.10794485
13	0xbdbb8ca0	-0.091576815
14	0xbe30cef5	-0.17266448
15	0xbd8648c8	-0.06556851
16	0x3d74cc80	0.05976534
17	0xbe8a0221	-0.2695475
18	0xbdde0adc	-0.10841915
19	0xbd75bb7c	-0.059993252
20	0xbdecf011	-0.115692265
21	0xbd0bb92c	-0.03411214
22	0x3e38ee58	0.18059671
23	0xbdd9bae1	-0.106313474
24	0xbe21c543	-0.15797906
25	0xbf98e8e5	-1.1946074
26	0xbc3dd09f	-0.011585384
27	0xbe7766ed	-0.24160357
28	0x3ede03bd	0.43362227
29	0x3da4c356	0.0804507
30	0xbdab6f3b	-0.08370825
31	0xbde4f8df	-0.11180281
32	0xbf9a642f	-1.2061824
33	0xbe331ba4	-0.17491013
34	0xbe484751	-0.19558455
35	0x3f2177ed	0.6307362
36	0xbdaa3bbc	-0.08312175
37	0xbdaaab0e	-0.08333407
38	0xbe2d6afa	-0.1693534
39	0xbdd9b34a	-0.106299
40	0x3d9cc105	0.07654003
41	0x3e1caec6	0.15301046
42	0xbdfc9e77	-0.12334912
43	0xbf377cc7	-0.7167477
44	0x3f949366	1.1607482
45	0xbe4ccd76	-0.20000252
46	0x3f3dd6f4	0.7415612
47	0x3dc76db0	0.09737718
48	0x3e002499	0.12513961
49	0xbe325b55	-0.17417653
50	0x3e1ce6f1	0.15322472
51	0x3dedc46a	0.11609729
52	0xbe1e0f98	-0.15435636
53	0x3c5efa79	0.013609522
54	0xbdc0d642	-0.094158664
55	0xbe35ea3c	-0.17765135
56	0x3f6a92ff	0.9163055
57	0xbdd00171	-0.10156525
58	0x3e80a5dc	0.2512654
59	0xbd236fdc	-0.0399016
60	0x3d5468a0	0.05185759
61	0x3dcf901d	0.10134909
62	0xbdceb5c4	-0.10093263
63	0x3e0b2e87	0.13591968
