turtlebot3_machine_learning/turtlebot3_td3/steer&spd/model309/TD3_stage2_actor.pth (torch_old, 103102 bytes, 8 tensors)

l1.weight f4 [24, 60]
0	0x3e228c3d	0.15873809
1	0x3db3c4ea	0.08777793
2	0x3c91b58f	0.01778677
3	0x3c0f7ed7	0.008758268
4	0x3c73448b	0.014847885
5	0x3cae2ef9	0.021262633
6	0x3d323730	0.043509662
7	0xbbe4aaca	-0.0069783675
8	0xbd26d1ae	-0.04072731
9	0xbde5c0e6	-0.11218433
10	0xbd31028d	-0.043215323
11	0xbe08e1e6	-0.13367423
12	0xbe65b570	-0.22432494
13	0xbdfba161	-0.1228664
14	0xbd827e03	-0.06371691
15	0xbe4d3c24	-0.20042473
16	0xbdf04cf4	-0.11733428
17	0xbdb9a99d	-0.09065554
18	0xbdbee057	-0.09320133
19	0xbdc6dbbc	-0.0970988
20	0xbd3fa5f3	-0.04678912
21	0xbe124099	-0.14282455
22	0xbcf90f8e	-0.030402925
23	0xbce21228	-0.027596548
24	0xbe2ddb98	-0.169783
25	0xbd235fc6	-0.03988626
26	0xbdc89300	-0.09793663
27	0x3c1b66ed	0.009484989
28	0x3d3c010a	0.04589943
29	0x3dca8432	0.098884955
30	0x3e025441	0.12727453
31	0x3d7618c2	0.060082205
32	0xbd8c2c9a	-0.068444446
33	0xbdfe6985	-0.1242247
34	0xbd240971	-0.040048067
35	0xbdacf06d	-0.08444295
36	0xbd9c91b9	-0.07644982
37	0xbb9bd727	-0.004755873
38	0x3bedf12d	0.0072614164
39	0xbc13b733	-0.009015846
40	0x3d051059	0.032486293
41	0x3dc8c782	0.09803678
42	0x3c095ca3	0.008383903
43	0x3c029c93	0.0079719005
44	0x3df7cf4f	0.12100088
45	0x3e37894d	0.1792347
46	0x3e0e0b5c	0.13871521
47	0x3db09aea	0.086232975
48	0x3df26c92	0.118371144
49	0x3db1e971	0.086871035
50	0x3d19bd6d	0.037534166
51	0x3d498c23	0.04920591
52	0x3d9a4b2a	0.07533868
53	0xbcf526e0	-0.029925764
54	0x3d49a89c	0.049233064
55	0x3dc76f47	0.09738021
56	0x3db36ac0	0.08760595
57	0x3d991a5e	0.07475732
58	0x3d428cc1	0.047497515
59	0x3dc3f1f9	0.09567637
60	0x3e25fe86	0.16210374
61	0xbbad47f0	-0.0052881166
62	0x3d85cd2a	0.065332726
63	0x3d3918c8	0.04518965
64	0x3d276a24	0.040872708
65	0xbddf1fa9	-0.108947106
66	0xbd0571d7	-0.03257927
67	0x3cb5cc1a	0.02219205
68	0x3c7c8076	0.015411487
69	0x3cec0ea4	0.028815575
70	0x3dcaf27d	0.09909532
71	0x3d8b7144	0.06808713
72	0x3dd7b98c	0.10533437
73	0x3dad6c0d	0.08467875
74	0x3d9c2977	0.07625096
75	0x3d7a4fcc	0.061111256
76	0x3dccd70e	0.10001956
77	0x3da63700	0.08115959
78	0x3e094df3	0.13408642
79	0x3d9156df	0.070966475
80	0xbdc631a5	-0.09677438
81	0x3d824a0a	0.06361778
82	0x3d6ac68a	0.057318248
83	0x3c81d881	0.015850307
84	0x3d074fca	0.033035077
85	0x3d0f5ebe	0.035002463
86	0x3d17722e	0.036974125
87	0x3d7a12a2	0.061052926
88	0x3e03e3d4	0.12879878
89	0x3d98961a	0.074505046
90	0x3e188667	0.1489502
91	0x3dc2c4de	0.09510206
92	0x3ddda221	0.10821939
93	0x3e06f1ee	0.13178226
94	0x3da6aedd	0.08138821
95	0x3e3f518c	0.18683451
96	0x3e05c4c4	0.13063341
97	0x3e0610c9	0.1309234
98	0x3db75635	0.089519896
99	0x3d992c9b	0.07479211
100	0x3d59e0de	0.053192966
101	0x3dc23125	0.0948203
102	0x3d1f1650	0.03883964
103	0xbc1f48ae	-0.009721918
104	0xbc542238	-0.0129476115
105	0x3c8f3113	0.017479455
106	0xbe0f73a9	-0.14008965
107	0xbda1744f	-0.07883512
108	0xbdec8444	-0.11548665
109	0xbdfe9418	-0.124305904
110	0xbd9072bb	-0.07053133
111	0xbda5644a	-0.08075769
112	0xbe08a7f3	-0.13345318
113	0xbd84adfb	-0.06478497
114	0xbd082c2e	-0.033245258
115	0xbdad723d	-0.08469055
116	0xbccb1f5a	-0.024795223
117	0x3b7c78b1	0.0038524086
118	0xbdb864f4	-0.0900363
119	0xbd8b2fa3	-0.06796195
120	0x3e26acac	0.16276807
121	0x3d60ac62	0.054851897
122	0x3d817cd9	0.06322641
123	0x3ddb4adc	0.10707638
124	0x3d93938b	0.07205876
125	0x3d06494b	0.03278474
126	0x3db1d3cd	0.08682976
127	0x3cf3801d	0.029724175
128	0x3c0a7a0d	0.008451951
129	0xbd8c9a3f	-0.068653576
130	0xbd0933a8	-0.03349653
131	0xbd99acca	-0.0750366
132	0xbdd2681a	-0.10273762
133	0xbd66646e	-0.05624812
134	0xbdf3c5d0	-0.11902964
135	0xbdf7b963	-0.120959066
136	0xbd969a4f	-0.07353651
137	0xbd02a06c	-0.03189127
138	0x3cdac2a0	0.026704133
139	0x3d9e8bc2	0.077415004
140	0x3e025493	0.12727575
141	0x3e5fa27d	0.21839328
142	0x3e5a2a75	0.21305259
143	0x3e0323ed	0.12806673
144	0x3dd53385	0.10410217
145	0x3e26daae	0.16294357
146	0x3da258b0	0.07927072
147	0x3da40ab5	0.08009855
148	0x3e0a8205	0.13526161
149	0x3dac588d	0.08415327
150	0x3d28aca8	0.041180283
151	0x3e0666b3	0.13125114
152	0x3db4df2e	0.08831631
153	0x3db4adf1	0.08822239
154	0xba91c767	-0.0011122049
155	0x3cb8afc2	0.022544745
156	0xbc9f5a4c	-0.019452237
157	0xbceed7b8	-0.029155597
158	0xbd40dfa0	-0.047088265
159	0xbd8db405	-0.069191016
160	0xbd77dbb8	-0.060512275
161	0xbd90514c	-0.07046756
162	0xbe00d259	-0.12580241
163	0xbe09984c	-0.13437003
164	0xbe0759a7	-0.13217793
165	0xbd40c636	-0.04706403
166	0xbda5c376	-0.08093922
167	0xbd1d3cdb	-0.038388114
168	0xbd3a0bee	-0.045421533
169	0xbcdecbc7	-0.027196778
170	0xbd568288	-0.052370578
171	0x39c1eee9	0.0003698983
172	0xbc046937	-0.008081726
173	0xbd0d4bb9	-0.034496043
174	0x3d5a0756	0.053229652
175	0x3d3ed3ba	0.046588637
176	0x3cdcfa91	0.026974948
177	0x3dfb7d9b	0.12279817
178	0xbd6a94cd	-0.057270814
179	0x3d979087	0.07400613
180	0xbd1ce8ea	-0.03830806
181	0xbbd1843b	-0.006393937
182	0x3ce46bea	0.027883489
183	0x3ca2168c	0.019786142
184	0xbd8e00b5	-0.069337286
185	0xbd1a6ffd	-0.037704457
186	0xbcdaef08	-0.026725307
187	0xbd8fe1e4	-0.07025507
188	0xbd84d840	-0.06486559
189	0x3d0cb004	0.03434755
190	0xbca554d9	-0.02018206
191	0x3bf1c75e	0.0073785027
192	0x3ce9e587	0.02855183
193	0x3a8f1c7a	0.0010918521
194	0x3d8b34c6	0.06797175
195	0x3ccb9514	0.02485136
196	0x3ce47add	0.027890617
197	0x3d48d5cb	0.049032014
198	0x3cb9547f	0.022623299
199	0x3d5ffb42	0.054682977
200	0xbc36e933	-0.011163997
201	0x3cf4b27b	0.029870262
202	0x3dfbc612	0.12293638
203	0x3a338a10	0.0006848881
204	0xbd98a50e	-0.07453357
205	0xbcb9c758	-0.022678062
206	0x3c90a22f	0.01765546
207	0xbd0ea473	-0.0348248
208	0xbabac791	-0.0014250149
209	0x3dc8380b	0.09776314
210	0x3e0e87b8	0.1391896
211	0x3de1ce01	0.1102562
212	0x3e3195a5	0.17342241
213	0x3e667b5b	0.22507994
214	0x3e15cba1	0.1462846
215	0x3e2675c1	0.16255857
216	0x3e43989d	0.19101186
217	0x3d4674c4	0.0484512
218	0x3d10efe0	0.035385013
219	0xbd26aa6f	-0.040689882
220	0x3de64147	0.112429194
221	0xbd09e237	-0.033663
222	0xbc6f4b99	-0.014605426
223	0xbd7bea08	-0.061502486
224	0xbc78a51b	-0.015176083
225	0x3d7d2272	0.061800428
226	0x3cac972e	0.021068182
227	0x3ce5c4d7	0.028047962
228	0x3d956a9f	0.07295727
229	0x3d6019a8	0.054711968
230	0x3c52facb	0.0128771765
231	0x3d68a40d	0.056797076
232	0x3d2954a2	0.041340478
233	0x3980c10f	0.00024557902
234	0xbd7e44d1	-0.062077347
235	0xbd2ecb95	-0.04267462
236	0x3da7b278	0.08188337
237	0xbd834c8d	-0.06411085
238	0xbd8c6f7a	-0.068572
239	0xbdb8cad1	-0.09023059
240	0x3e027c62	0.12742761
241	0x3dc6617d	0.09686563
242	0x3c8583b8	0.01629816
243	0x3bb6733c	0.005567936
244	0x3d61cd4b	0.055127423
245	0x3ba0ce38	0.0049073957
246	0x3c5b8c79	0.0134001905
247	0xbcd07d9f	-0.025450526
248	0xbd6c9636	-0.05776044
249	0xbdf3b7c1	-0.11900283
250	0x3c67ee17	0.014155886
251	0xbc918c77	-0.017767174
252	0xbcef3248	-0.02919878
253	0x3bc3c55e	0.0059744557
254	0xbc0e48c0	-0.008684337
255	0x3ccff252	0.025384102

l1.bias f4 [24]
0	0x3e90455f	0.28177926
1	0xbe8da825	-0.27667347
2	0x3d211ddf	0.039335128
3	0xbe3ada00	-0.18247223
4	0x3f17a862	0.59241307
5	0x3ec8487f	0.3911781
6	0x3ef2af22	0.4739924
7	0xbd5e4fa8	-0.054275185
8	0xbe034f59	-0.12823237
9	0x3e134698	0.14382398
10	0x3e65f182	0.22455409
11	0x3d8e7afd	0.06957052
12	0x3dbd0280	0.092289925
13	0xbcbf88b3	-0.023380613
14	0x3e4652a8	0.19367468
15	0x3dfe530d	0.124181844
16	0x3e30e35f	0.17274235
17	0x3df5dc8f	0.12004959
18	0xbde00560	-0.10938525
19	0x3edb20be	0.42798418
20	0xbdf5c730	-0.120008826
21	0x3d7368b4	0.059426025
22	0x3f132751	0.5748187
23	0x3d5a20ee	0.05325406

l2.weight f4 [256, 28]
0	0xbdc902f9	-0.0981502
1	0xbd27e906	-0.040993713
2	0xbdcd4232	-0.100223914
3	0xbe900dcf	-0.28135535
4	0x3d2edf5a	0.042693473
5	0x3d8fe04f	0.07025205
6	0x3db03f40	0.08605814
7	0xbd850300	-0.06494713
8	0xbc13cd60	-0.009021133
9	0x3e4d9be4	0.20078999
10	0xbe8336e2	-0.2562781
11	0x3e1559eb	0.14585082
12	0x3de9bde1	0.1141317
13	0xbe6b7b3c	-0.22996229
14	0xbe2749a4	-0.16336685
15	0xbe558ec2	-0.20855239
16	0x3e16d104	0.1472817
17	0xbea9c082	-0.33154684
18	0x3d8b5be3	0.068046354
19	0xbded5fe4	-0.11590555
20	0xbe68480c	-0.22683734
21	0x3e1f6ee1	0.1556964
22	0xbe952315	-0.29128328
23	0x3e0b7a7f	0.13620947
24	0x3e00b5a2	0.12569287
25	0xbe39a916	-0.18130907
26	0xbf842ff4	-1.0327134
27	0x3dca559d	0.09879611
28	0x3e0e58ed	0.1390111
29	0x3d77b7ef	0.060478147
30	0xbd96291b	-0.07332059
31	0xbe07c855	-0.13260014
32	0xbe48c973	-0.19608097
33	0x3e4c8add	0.19974847
34	0xbda08d69	-0.07839472
35	0xbd9779ce	-0.07396279
36	0xbdfe8c04	-0.124290496
37	0x3dfb8ba3	0.12282493
38	0x3dfd2708	0.1236096
39	0xbd61ddbc	-0.055143103
40	0x3cfd2491	0.030901225
41	0x3d6224a2	0.055210717
42	0x3d5b4c6f	0.05353969
43	0x3dffd660	0.12492061
44	0xbe18d09c	-0.14923328
45	0x3e9ee5aa	0.31034595
46	0x3d0d123a	0.03444121
47	0xbd9b4892	-0.07582201
48	0x3e01a73d	0.12661453
49	0x3e34ab7f	0.17643546
50	0xbf2e1702	-0.6800386
51	0x3e03f35c	0.12885803
52	0x3f17e75d	0.5933741
53	0xbdb03032	-0.086029425
54	0x3eb2b879	0.34906366
55	0xbda67e19	-0.0812952
56	0x3e08e25e	0.13367602
57	0xbe883907	-0.26606008
58	0xbe281a3b	-0.16416256
59	0xbd97b070	-0.074067
60	0xbe0fdc60	-0.1404891
61	0x3dc5aa45	0.09651617
62	0x3f0d6f37	0.55247825
63	0x3d8cf3ac	0.06882414
64	0xbd58987c	-0.052879795
65	0x3e14b083	0.14520459
66	0x3e63ec3c	0.22258085
67	0x3db9f8dc	0.09080669
68	0xbdd87646	-0.10569434
69	0xbd360fc8	-0.044448644
70	0xbdded102	-0.10879709
71	0xbe1fffe0	-0.15624952
72	0xbdb1ee14	-0.08687988
73	0x3d986f21	0.07443071
74	0x3d416880	0.0472188
75	0x3e085d0b	0.13316743
76	0xbe807b63	-0.25094137
77	0xbe19bd7d	-0.1501369
78	0xbdc7063f	-0.09717988
79	0xbe864ae2	-0.26229006
80	0xbe0840d1	-0.13305975
81	0x3eb6169a	0.3556412
82	0x3db917a7	0.090377145
83	0x3daaa4db	0.08332225
84	0xbd9dbd27	-0.077020936
85	0xbe3deee6	-0.18548164
86	0x3dd99bc9	0.10625417
87	0xbceaf9b8	-0.028683528
88	0xbe86ecf2	-0.2635265
89	0x3da8e6b5	0.08247129
90	0xbe333f38	-0.17504585
91	0xbd28695c	-0.041116104
92	0x3dfcebbe	0.12349652
93	0x3dd98e08	0.106227934
94	0xbd789ac8	-0.060694486
95	0xbd8db331	-0.06918944
96	0xbec6e86a	-0.38849193
97	0xbbe345db	-0.0069358177
98	0x3deb6a2a	0.114948586
99	0x3daef507	0.08542829
100	0xbd8df7ba	-0.06932016
101	0xbda174a0	-0.078835726
102	0xbe093853	-0.13400392
103	0x3d5f1cc3	0.05447079
104	0xbdc827a4	-0.09773186
105	0x3da95a8a	0.08269222
106	0xbe54a9ae	-0.20767853
107	0x3e3be3b3	0.18348579
108	0xbdaee8b2	-0.08540477
109	0xbeb3e10c	-0.35132635
110	0x3e33da6b	0.17563789
111	0x3c6af1cc	0.014339875
112	0xbe48ebad	-0.19621153
113	0x3d08a3af	0.033359226
114	0xbe029960	-0.1275382
115	0xbe27cad5	-0.16385968
116	0x3d9f0207	0.077640586
117	0xbd09c7e9	-0.033637915
118	0xbe4400a4	-0.1914087
119	0x3dbc4251	0.09192336
120	0x3d5d5a9c	0.05404149
121	0x3d075ec8	0.033049375
122	0xbe50ddf3	-0.20397167
123	0x3e334c44	0.17509562
124	0xbbcef7f0	-0.0063161775
125	0xbdbff1df	-0.09372305
126	0x3dd49c86	0.10381417
127	0xbe41ea5b	-0.18937056
128	0xbe1fbda9	-0.15599693
129	0x3cb45b1f	0.022016106
130	0xbc80ab88	-0.015706792
131	0xbc61d92c	-0.013784688
132	0xbe43c1a7	-0.19116841
133	0x3cd5e898	0.026111886
134	0xbe90b874	-0.28265727
135	0xbd749a30	-0.059717357
136	0xbebcec0a	-0.36898834
137	0xbdb001c0	-0.08594084
138	0xbe1f8eb1	-0.15581776
139	0x3da80873	0.082047366
140	0x3d3a5ba7	0.045497563
141	0x3b2658f3	0.0025382608
142	0x3dc2b550	0.09507239
143	0x3cbf2e68	0.023337558
144	0x3e33e6c9	0.17568506
145	0xbe0920d8	-0.13391435
146	0xbeba3e8e	-0.3637585
147	0x3e30101d	0.17193647
148	0x3e0d462d	0.13796301
149	0xbd278bbe	-0.040904753
150	0x3dca45ab	0.09876569
151	0xbc126c92	-0.008937018
152	0x3e15e515	0.14638169
153	0x3c6d9767	0.014501429
154	0x3d710d84	0.05885078
155	0x3d2dadef	0.042402204
156	0x3e299ba2	0.16563275
157	0x38be92d5	9.0872556e-05
158	0xbe0a2b1d	-0.13493009
159	0xbd817562	-0.06321217
160	0x3d0e4ff1	0.034744207
161	0x3d94665a	0.072460845
162	0x3d15852c	0.036503956
163	0xbd8d1b08	-0.068899214
164	0x3efdadd2	0.49546677
165	0x3e5f99e2	0.21836045
166	0xbd302894	-0.04300745
167	0xbdd0062d	-0.10157428
168	0x3e2ee0c0	0.17077923
169	0xbe9570ec	-0.29187715
170	0x3c327791	0.010892765
171	0xbe2ddb76	-0.16978249
172	0x3e836e0a	0.2566989
173	0xbd184750	-0.037177384
174	0x3e8fde3d	0.28099242
175	0x3e62690f	0.22110389
176	0x3e40e62d	0.18837805
177	0x3cab5adc	0.020917349
178	0xbc3cde54	-0.0115276165
179	0x3e0fba3d	0.14035888
180	0x3e32cc1e	0.17460677
181	0x3e0810c1	0.13287641
182	0xbe0bbbb1	-0.13645817
183	0xbc6f9f39	-0.014625364
184	0x3d270418	0.04077539
185	0xbda37564	-0.07981375
186	0xbeb5a9c3	-0.3548108
187	0x3cc1cdfa	0.023657788
188	0x3e027e91	0.12743594
189	0xbd189cac	-0.03725879
190	0xbdd71d3d	-0.10503624
191	0x3bab67c3	0.005230875
192	0x3d9e7fd0	0.07739222
193	0xbe627434	-0.2211464
194	0xbf0fc461	-0.56159025
195	0x3bca2ccb	0.0061698905
196	0x3db8ee49	0.09029824
197	0xbe3a8a05	-0.18216713
198	0xbd7fb528	-0.062428623
199	0xbde2a8cb	-0.11067351
200	0xbde026b7	-0.10944884
201	0xbe4055ca	-0.18782726
202	0x3e0f95f3	0.14022045
203	0xbd27ac1c	-0.04093562
204	0xbe3f200a	-0.18664566
205	0x3d692026	0.056915425
206	0xbe24a37e	-0.16077992
207	0xbe07fced	-0.13280077
208	0xbe35641d	-0.17713971
209	0xbe21f67d	-0.15816684
210	0xbb749bc0	-0.003732428
211	0xbe224d40	-0.15849781
212	0xbd6119a7	-0.054956105
213	0x3e159443	0.14607339
214	0xbdcc5543	-0.099772
215	0x3d95fb87	0.07323366
216	0x3df95ba2	0.12175681
217	0xbe230c9a	-0.15922776
218	0x3e26e73d	0.16299148
219	0xbdcc0d80	-0.099635124
220	0x3e0bce79	0.13652982
221	0xbe196ec0	-0.14983654
222	0x3e31b729	0.17355026
223	0xbd86643b	-0.06562086
224	0xbbc7f282	-0.006101907
225	0xbbc1404e	-0.0058975583
226	0x3c117a1d	0.008879212
227	0x3dd8eef4	0.10592452
228	0x3e4290dc	0.19000572
229	0x3d512b64	0.05106677
230	0xbdb6b66d	-0.08921514
231	0x3d3a54f0	0.04549116
232	0xbe3e7c9d	-0.18602224
233	0x3e89756e	0.26847404
234	0xbe381fec	-0.17980927
235	0x3e130368	0.14356768
236	0x3e10a0b3	0.14123802
237	0xbe1cc667	-0.1531006
238	0xbe367252	-0.17817047
239	0x3d722706	0.059119247
240	0x3d0ebb1a	0.034846403
241	0xbda992c1	-0.08279944
242	0x3d9984c9	0.0749603
243	0x3e23c7a1	0.15994121
244	0xbe131f2a	-0.14367357
245	0xbe2510da	-0.1611971
246	0x3df48aae	0.119405136
247	0xbd4e9cd4	-0.05044253
248	0x3f348e0b	0.7052924
249	0x3e8f75f6	0.28019685
250	0x3f09b550	0.53792286
251	0xbdee6b5a	-0.116415694
252	0x3e477a02	0.19480136
253	0xbd9b14cc	-0.07572326
254	0x3e1f0749	0.15530123
255	0x3d9bc6e8	0.07606298

l2.bias f4 [256]
0	0x3dfb7d51	0.122797616
1	0xbe8daa0f	-0.27668807
2	0x3e66d16a	0.22540823
3	0xbdf053b7	-0.11734717
4	0xbcd2ab8f	-0.025716571
5	0x3e4fe18d	0.20300885
6	0x3e9c738f	0.30556914
7	0xbd1c17a8	-0.038108498
8	0x3d4923d4	0.049106434
9	0xbe23ef7d	-0.16009326
10	0xbc9c56dd	-0.019084388
11	0xbe7f8119	-0.2495159
12	0xbca988dd	-0.020695144
13	0x3e0fdb19	0.14048423
14	0x3e3951eb	0.18097655
15	0x3e05bcce	0.13060305
16	0x3e99fc6a	0.3007539
17	0xbb67f29f	-0.0035392416
18	0x3e801572	0.2501636
19	0xbec3c008	-0.38232446
20	0xbe0e52b4	-0.13898736
21	0x3e1d1dad	0.15343352
22	0xbe3ea985	-0.18619354
23	0x3c4a403b	0.012344415
24	0x3dad8581	0.084727295
25	0x3de75bf0	0.112968326
26	0xbe3d2b45	-0.18473537
27	0x3d4157e5	0.047202963
28	0x3e6853cd	0.22688217
29	0x3eb68a90	0.3565259
30	0x3d4385d7	0.04773506
31	0xbe1f60f2	-0.15564325
32	0xbd8d2d1d	-0.0689337
33	0x3ea8f12c	0.329965
34	0x3e543984	0.20725065
35	0x3e142115	0.14465745
36	0x3e2ba185	0.16760834
37	0xbd8d83e9	-0.069099255
38	0x3e1c9071	0.15289475
39	0x3c487585	0.01223505
40	0x3e4a4b65	0.19755323
41	0x3d4e4bc7	0.050365236
42	0xbcc96f41	-0.024589183
43	0xbe451277	-0.19245325
44	0x3e8542a6	0.2602741
45	0x3cf23833	0.029567814
46	0xbe91ad06	-0.2845232
47	0x3d6ad8ee	0.057335787
48	0xbcd16a22	-0.025563303
49	0xbbf31adf	-0.007418975
50	0xbe1b615b	-0.15173857
51	0x3e45b2a8	0.19306433
52	0xbe8c0ed1	-0.27355054
53	0x3e3a28b7	0.18179594
54	0xbce5a81a	-0.028034259
55	0x3e50c234	0.20386583
56	0x3d81b48e	0.06333266
57	0x3dc3e021	0.095642336
58	0xbd2c5e75	-0.04208227
59	0x3d41fe4f	0.04736167
60	0x3e1fe7dd	0.15615793
61	0xbd0147b5	-0.031562526
62	0xbc874007	-0.016510023
63	0xbdd51101	-0.10403634
64	0x3ce9fbef	0.028562514
65	0x3d45ad52	0.048260994
66	0x3e006ac6	0.12540731
67	0xbe43dfc6	-0.19128332
68	0xbb5ae517	-0.0033400708
69	0xbcc1d5f5	-0.023661593
70	0xbde7cf9e	-0.11318897
71	0x3e1d29b7	0.15347944
72	0x3c2c2924	0.010507856
73	0xbe43d487	-0.19124041
74	0x3d147bc2	0.036250837
75	0xbe9266d0	-0.28594065
76	0xbdc20db9	-0.09475274
77	0xbd3d20ef	-0.046173986
78	0xbe0ba62e	-0.13637611
79	0x3da371e6	0.07980709
80	0x3e130ece	0.14361116
81	0x3e2711c2	0.16315368
82	0xbe3f00d5	-0.18652661
83	0x3d1bb4d0	0.038014233
84	0x3e526616	0.20546755
85	0xbe1199e8	-0.14218867
86	0x3c905dc5	0.017622838
87	0xbd96feff	-0.073728554
88	0x3cc7dd2e	0.024397459
89	0x3d0b69ed	0.034036566
90	0xbe44aed0	-0.1920731
91	0xbe391623	-0.1807485
92	0xbe14ff6b	-0.14550559
93	0x3e12f6db	0.1435198
94	0xbcfc3fad	-0.030792082
95	0x3cf5500f	0.029945401
96	0x3e065f69	0.13122334
97	0xbd546c48	-0.051861078
98	0x3d7c47f2	0.06159205
99	0x3d9d3cfa	0.07677646
100	0x3e2e48f6	0.1702002
101	0x3e62a2f5	0.22132476
102	0xbde3afed	-0.111175396
103	0x3deebad1	0.11656726
104	0x3e1a2543	0.15053277
105	0x3bd37402	0.006453038
106	0x3d9f3966	0.0777462
107	0xbce5c476	-0.028047781
108	0x3e6929a4	0.22769791
109	0x3dafc70c	0.08582887
110	0xbf2d3a81	-0.67667395
111	0xbe06449b	-0.13112108
112	0xbe143254	-0.14472324
113	0xbe03e027	-0.12878476
114	0xbc1fb3a4	-0.0097474195
115	0xbe1adde6	-0.1512371
116	0xbd23689a	-0.039894678
117	0xbdc0f5d0	-0.09421885
118	0x3d28f167	0.041245844
119	0xbd005d75	-0.031339128
120	0xbd4fef2f	-0.050765213
121	0xbd5df6c1	-0.0541904
122	0x3ea19d97	0.31565544
123	0x3d4f1c84	0.050564304
124	0xbe806d2d	-0.25083295
125	0x3d7f835a	0.062381126
126	0xbce992c9	-0.028512375
127	0xbc95acd5	-0.01827089
128	0x3ebe1b2d	0.37130108
129	0xbc9dc820	-0.019260466
130	0xbd03e956	-0.03220495
131	0x3d3d28c3	0.04618145
132	0xbe0c468e	-0.1369879
133	0xbd840fad	-0.064483024
134	0xbd146bbc	-0.036235556
135	0xbd47b4c1	-0.048756365
136	0xbbdd8ae4	-0.006760942
137	0x3de3c48c	0.11121473
138	0x3e353dff	0.17699431
139	0xbe4a4d62	-0.19756082
140	0x3dd19f3b	0.10235449
141	0x3e48084d	0.19534416
142	0x3da9491c	0.08265898
143	0xbd81eec4	-0.06344369
144	0xbd086470	-0.03329891
145	0xbe8c030a	-0.2734607
146	0x3d93afb8	0.0721125
147	0xbe2824d4	-0.16420299
148	0x3dff59b9	0.12468285
149	0x3e408210	0.18799615
150	0xbd35e8b0	-0.04441136
151	0xbe048c52	-0.12944153
152	0xbe0626ba	-0.1310071
153	0x3d01a77c	0.031653866
154	0xbe3ddb14	-0.18540603
155	0x3dc4695d	0.09590409
156	0xbda14e7a	-0.07876296
157	0xbe01ecc3	-0.12687974
158	0x3e01f077	0.12689386
159	0x3ed67515	0.41886202
160	0x3dd1522a	0.1022075
161	0xbbc7aa68	-0.006093312
162	0x3ccce04b	0.025009295
163	0x3dc527ca	0.0962673
164	0xbe7a3165	-0.24432905
165	0xbcb3158d	-0.021860862
166	0x3e275ade	0.16343257
167	0xbc552bc0	-0.013010919
168	0x3e530998	0.20609128
169	0xbe1a0c5b	-0.15043776
170	0xbe0a43af	-0.13502382
171	0x3de0a18b	0.10968312
172	0x3b802537	0.0039106864
173	0xbdad6c7f	-0.084679596
174	0xbe9869cc	-0.29768217
175	0xbe4ef288	-0.20209706
176	0xbe3c8320	-0.18409395
177	0xbe9e078d	-0.30865136
178	0xbdbc7cac	-0.09203467
179	0x3dd7e402	0.10541536
180	0x3d222c48	0.03959301
181	0xbe83aa23	-0.25715742
182	0xbde53afc	-0.11192891
183	0xbe09aef6	-0.13445649
184	0x3eac0334	0.33596194
185	0x3da8d04f	0.08242857
186	0x3eac1717	0.33611366
187	0x3d74b933	0.059746932
188	0x3cb4ebfa	0.022085179
189	0x3e3539ca	0.17697826
190	0x3d344eac	0.04402034
191	0x3e31dd6a	0.17369619
192	0x38408b70	4.590623e-05
193	0xbcf2c0e5	-0.029632995
194	0x3e5affbb	0.21386616
195	0x3e326c1d	0.17424054
196	0x3e3ba0c5	0.18323047
197	0xbe016b5f	-0.12638615
198	0xbdd4a9f7	-0.10383981
199	0xbe2d3ca9	-0.16917671
200	0x3d467b5c	0.04845749
201	0xbd318fb7	-0.043349948
202	0xbe1bf9a5	-0.1523195
203	0xbe6f67d7	-0.23379456
204	0x3f07da34	0.53067327
205	0x3e85dce4	0.2614509
206	0xba39a829	-0.0007082248
207	0x3e58b1b4	0.21161538
208	0xbebab87e	-0.3646888
209	0xbdbb4673	-0.091442965
210	0xbc3080c4	-0.010772888
211	0xbd02bacc	-0.031916425
212	0xbe6af512	-0.2294505
213	0xbc326db2	-0.010890411
214	0xbe720d0d	-0.23637791
215	0xbb635f51	-0.0034694264
216	0x3ded501a	0.11587544
217	0x3cbf71b6	0.023369651
218	0x3e2549a0	0.16141367
219	0xbe1b75c4	-0.15181643
220	0x3e69305b	0.22772352
221	0x3dbd1250	0.092320085
222	0x3e1fbf2c	0.1560027
223	0xbdb120e8	-0.086488545
224	0x3e9e859c	0.3096131
225	0x3d9bc744	0.07606366
226	0x3e00d3c2	0.12580779
227	0xbf04a009	-0.51806694
228	0xbe663411	-0.224808
229	0xbd86c0f7	-0.06579774
230	0x3e6476b3	0.22310905
231	0x3d78cd2c	0.060742542
232	0xbd2ce4a8	-0.04221025
233	0xbf0d2965	-0.5514129
234	0xbe38b0f4	-0.18036252
235	0xbe4c4f77	-0.19952188
236	0xbdaebb29	-0.08531792
237	0x3c8f3278	0.01748012
238	0xbd9729f4	-0.07381049
239	0x3e108f44	0.14117151
240	0xbd9ddaa0	-0.07707715
241	0x3cf39cd8	0.029737875
242	0xbd1f5828	-0.03890243
243	0x3da62d1f	0.08114075
244	0xbdaa6cbc	-0.08321521
245	0xbd6c1c7f	-0.057644363
246	0x3d93ba9c	0.07213327
247	0x3d96777e	0.0734701
248	0xbdbdbd2f	-0.092645995
249	0xbeb8687e	-0.3601722
250	0xbcb3f16c	-0.021965705
251	0x3e6ff601	0.23433687
252	0x3d088dd3	0.03333838
253	0xbc89f348	-0.016839638
254	0x3e771602	0.24129489
255	0x3e91240d	0.28347817

l3.weight f4 [64, 256]
0	0x3e0de84c	0.13858145
1	0x3e022371	0.12708832
2	0x3d461cbe	0.048367254
3	0xbf16ad95	-0.58858615
4	0xbd334df5	-0.043775517
5	0xbd2d8fcd	-0.042373467
6	0x3e0d62fc	0.13807291
7	0x3c32f454	0.01092251
8	0xbd919310	-0.07108128
9	0x3cd5249b	0.026018431
10	0xbd7d9f50	-0.06191951
11	0xbb68ba9b	-0.0035511616
12	0xbcc00c97	-0.023443503
13	0x3e8c955f	0.2745771
14	0xbd9eba3c	-0.07750365
15	0xbdb1197b	-0.08647438
16	0xbd2a3dd1	-0.04156286
17	0x3e04e257	0.12976967
18	0x3ce5ebb6	0.028066497
19	0x3d5bc69a	0.053656198
20	0x3bf15fa2	0.0073661366
21	0x3dcf14bc	0.10111377
22	0xbd221b78	-0.039576977
23	0x3e2fc56b	0.17165153
24	0x3d914f3a	0.070951894
25	0x3c193aa9	0.009352365
26	0xbca8ef40	-0.020621896
27	0x3d0a1b67	0.03371754
28	0xbc20a7ae	-0.009805603
29	0x3d1e7eac	0.038695022
30	0xbe7d0935	-0.24710543
31	0xbdc69572	-0.09696473
32	0xbec9deee	-0.39427894
33	0x3cfa5a49	0.03056063
34	0x3d3ddaf1	0.046351377
35	0xbcfc3eaa	-0.0307916
36	0x3e989645	0.29802147
37	0x3def0e53	0.11672654
38	0xbe2a8525	-0.16652353
39	0x3d8b1f10	0.06793034
40	0x3e9db168	0.30799413
41	0x3c40c4d0	0.011765674
42	0x3d95d843	0.07316639
43	0xbd9032ce	-0.0704094
44	0x3e0f015d	0.13965364
45	0xbd2a7bc2	-0.04162193
46	0xbe42a33c	-0.19007581
47	0xbd370973	-0.044686746
48	0x3d85a237	0.06525081
49	0x3e02ba2e	0.12766334
50	0x3df1c841	0.118057735
51	0xbe91a6b8	-0.2844751
52	0xbe7d897c	-0.24759477
53	0xbd14753b	-0.036244612
54	0x3db7648c	0.08954725
55	0x3d88d544	0.06681302
56	0xbd45150c	-0.048115775
57	0x3d10afb1	0.035323802
58	0xbdffcaf5	-0.12489883
59	0x3f033b54	0.512624
60	0x3dc28c5b	0.09499427
61	0x3d602325	0.054721016
62	0x3e9a2c95	0.30112138
63	0x3d93ff7c	0.07226464
64	0xbb3ce78e	-0.002882454
65	0x3d875656	0.06608264
66	0x3e5bfaa1	0.21482326
67	0x3e13a3f5	0.14418013
68	0xbbf909d0	-0.0076000467
69	0xbcbf1628	-0.023325995
70	0xbd3d67ef	-0.046241697
71	0x3d94dceb	0.07268699
72	0xbb844038	-0.004035976
73	0x3dca9632	0.09891929
74	0x3d713bd8	0.058894962
75	0x3d5f5bcf	0.054530915
76	0x3cd039d2	0.025418196
77	0x3d4ab1eb	0.049486082
78	0x3dddcc56	0.108299896
79	0x3e276a55	0.16349156
80	0x3da9f86f	0.08299338
81	0x3c19bd2c	0.009383481
82	0x3bb2bc0f	0.0054545472
83	0x3dd40b31	0.10353697
84	0xbda00fc0	-0.07815504
85	0xbefa9a64	-0.48945916
86	0x3b110c2b	0.0022132497
87	0xbe07bde8	-0.13256037
88	0x3d9a51cc	0.07535133
89	0xbc9e175c	-0.019298248
90	0x3d99ec59	0.07515783
91	0x3ba06e6b	0.0048959753
92	0xbd2f3b6f	-0.04278129
93	0x3c8092f9	0.015695082
94	0x3d2ca4a4	0.0421492
95	0xbe079ae4	-0.1324268
96	0x3d7a8480	0.061161518
97	0x3e1ebefd	0.15502544
98	0xbed4051b	-0.41410145
99	0x3d80d921	0.06291414
100	0x3dc36179	0.09540076
101	0x3db81973	0.08989229
102	0x37a83ae1	2.0054578e-05
103	0x3eaf0215	0.34181276
104	0xbe2bbc81	-0.16771127
105	0x3dc3ee64	0.09566954
106	0xbe993560	-0.29923534
107	0xbc8eaacc	-0.017415427
108	0xbf49c8ac	-0.78821826
109	0x3c622bd4	0.013804395
110	0xbe4af849	-0.19821276
111	0x3b8f4cfe	0.004373192
112	0xbd7aefde	-0.06126391
113	0x3dcc4fdb	0.09976169
114	0x3d772ee0	0.060347438
115	0xbb6c5b60	-0.0036065206
116	0x3ed1d74b	0.40984568
117	0xbd74fddc	-0.05981241
118	0xbe1e81da	-0.15479222
119	0x3d63a0c8	0.055573255
120	0x3b1f9370	0.0024349354
121	0xbe2ee4db	-0.17079489
122	0x3d8ee1b5	0.06976644
123	0xbcc6fadc	-0.024289541
124	0x3e4896cd	0.19588776
125	0x3d90a7cd	0.070632555
126	0x3d961eba	0.073300794
127	0x3c8c8ffc	0.0171585
128	0xbbd03823	-0.0063543483
129	0xbc8c28e8	-0.01710935
130	0x3d87f7cc	0.066390604
131	0xbe9257b8	-0.2858255
132	0x3da3a720	0.07990861
133	0x3d779a31	0.060449783
134	0xbd4b625c	-0.04965435
135	0x3e1dcff4	0.15411359
136	0x3d1a4225	0.037660737
137	0xbe4a6aec	-0.1976735
138	0x3c8d0358	0.017213508
139	0xbb15dc9d	-0.0022867091
140	0xbd6461ca	-0.05575732
141	0x3e552045	0.20813091
142	0x3d620c86	0.055187725
143	0x3dd16413	0.10224166
144	0x3ce02cd3	0.027365124
145	0xbe0a4d45	-0.13506038
146	0x3e063f1c	0.13110012
147	0xbd00412c	-0.031312153
148	0x3ec02f71	0.37536195
149	0x3d855601	0.065105446
150	0x3c268b50	0.010165051
151	0x3d4f4658	0.050604194
152	0x3c8559aa	0.016278107
153	0xbd443278	-0.047899693
154	0x3e940e6a	0.28917247
155	0x3c82c746	0.015964162
156	0x3d1d21fd	0.038362492
157	0xbe242875	-0.16031058
158	0x3e38c702	0.18044665
159	0xbcbe36d4	-0.023219503
160	0x3ea945d5	0.3306109
161	0x3db922f9	0.09039874
162	0xbd234d10	-0.039868414
163	0xbe0ff894	-0.14059669
164	0xbea118dd	-0.31464282
165	0xbbc41a56	-0.005984585
166	0x3da8ac08	0.08235937
167	0x3c1158c5	0.008871262
168	0x3c19150d	0.009343398
169	0x3f0cb782	0.5496751
170	0xbd825978	-0.06364721
171	0x3d39a6d6	0.045325123
172	0x3e86fb03	0.26363382
173	0x3d1294d1	0.035786454
174	0x3e21c6f2	0.15798548
175	0xbd0401b8	-0.0322282
176	0x3cae3366	0.021264743
177	0xbd898446	-0.06714682
178	0xbd8feefc	-0.070280045
179	0xbcb0bd2d	-0.021574581
180	0x3c0f80e8	0.008758761
181	0x3e47b2ce	0.19501802
182	0x3da1d054	0.079010636
183	0x3d489525	0.04897036
184	0xbd7cc90f	-0.061715182
185	0xbe87ca53	-0.2652155
186	0xbc4440a9	-0.011978307
187	0x3e257a58	0.16159952
188	0x3d016ecb	0.0315998
189	0x3e5771ca	0.21039501
190	0x3d1d7b5b	0.03844772
191	0xbccd0364	-0.02502603
192	0xbd8a0513	-0.06739249
193	0x3c1c68ae	0.009546442
194	0x3d350e86	0.044203304
195	0x3e5bdea6	0.21471652
196	0x3dda2e41	0.106533535
197	0xbe6d3b96	-0.23167261
198	0xbd2cfeaa	-0.042235054
199	0x3d8ce393	0.06879344
200	0x3b894614	0.004189262
201	0xbe3f2f94	-0.18670493
202	0xbe13d1c5	-0.1443549
203	0xbdc14e44	-0.09438756
204	0x3f2862db	0.6577584
205	0x3db46ede	0.08810209
206	0x3e1e2d64	0.15447003
207	0xbd2d9f1f	-0.042388078
208	0x3e1d88e8	0.15384257
209	0xbbc89490	-0.0061212257
210	0xbd345186	-0.04402306
211	0x3c879114	0.01654867
212	0x3dbf4eb0	0.0934118
213	0x3caf2f9e	0.02138501
214	0x3ea97f09	0.33104733
215	0x3d782fa7	0.06059232
216	0x3c3c8ae4	0.0115077235
217	0xbd5292bd	-0.05140947
218	0x3ddecd2f	0.108789794
219	0x3d80f3fc	0.06296536
220	0x3d478b48	0.048716813
221	0xbd23c834	-0.03998585
222	0xbeba397b	-0.3637198
223	0xbd9605b4	-0.073253065
224	0x3d54537d	0.051837433
225	0x3d720fb1	0.059096996
226	0x3c5c982d	0.013464016
227	0xbe030a8a	-0.12796989
228	0xbc9e2fbe	-0.019309875
229	0x3ec015ee	0.3751673
230	0x3d048d75	0.032361466
231	0xbd0737ca	-0.03301219
232	0xbbdc3a10	-0.006720789
233	0x3dcb17a5	0.09916619
234	0xbdd9c68c	-0.10633573
235	0xbd6086a9	-0.054815922
236	0xbdc040dd	-0.09387372
237	0xbd83db4e	-0.064383134
238	0xbe75c45d	-0.24000688
239	0xbcb8b7b8	-0.022548541
240	0x3cec7717	0.02886538
241	0x3dca384d	0.0987402
242	0x3e01d9ab	0.1268069
243	0x3c8a634c	0.016893052
244	0x3debaab8	0.115071714
245	0x3cc21a50	0.023694187
246	0xbcfc5362	-0.030801479
247	0x3d173a9f	0.03692114
248	0xbe3bc2d9	-0.18336047
249	0xbe2cca0f	-0.16873954
250	0x3d290138	0.041260928
251	0x3d9431a2	0.07236029
252	0xbdfce8ed	-0.123491146
253	0x3d181d9e	0.03713762
254	0x3d63e0a0	0.05563414
255	0xbe646d70	-0.22307372

l3.bias f4 [64]
0	0x3e1ad9b3	0.15122108
1	0xbd90b5b6	-0.070659086
2	0x3d4f6ce5	0.05064096
3	0x3e215caf	0.15758012
4	0x3d0cac27	0.034343865
5	0x3d87ac4d	0.06624661
6	0xbc871dbf	-0.016493676
7	0xbd3eba20	-0.04656422
8	0xbc62ed39	-0.013850504
9	0x3d2ca55c	0.042149886
10	0x3e52ad35	0.20573886
11	0x3d9450d5	0.0724198
12	0x3dd2bbef	0.10289752
13	0x3e255b6c	0.16148156
14	0xbd87b5b2	-0.066264525
15	0x3d4c5e9b	0.04989491
16	0x3e2440eb	0.16040389
17	0x3d83d42b	0.06436952
18	0x3d80796e	0.06273161
19	0x3d8840c1	0.06652976
20	0x3cf27b11	0.029599698
21	0x3d3fa303	0.04678632
22	0x3e20d607	0.15706645
23	0x3cf49c78	0.029859766
24	0x3e2d591a	0.16928521
25	0xbdd9e15a	-0.106386855
26	0x3c273b67	0.010207034
27	0xbd1054d6	-0.035237156
28	0x3d9ed531	0.07755507
29	0xbdc8a9c4	-0.09798005
30	0x3c9d8433	0.019228077
31	0x3b811f9c	0.0039405357
32	0xbd0de8f1	-0.03464598
33	0x3e00b9b7	0.12570845
34	0x3b9ac626	0.004723328
35	0xbcf783b3	-0.030214166
36	0x3ba22048	0.004947696
37	0x3e02b442	0.12764075
38	0xbdbba191	-0.09161676
39	0x3cbb6fb6	0.022880416
40	0x3c76004d	0.01501472
41	0x3d6c044d	0.05762129
42	0x3e03db3d	0.12876602
43	0xbb8ad884	-0.0042372365
44	0xbda15fa3	-0.078795694
45	0xbcde4a0a	-0.027134914
46	0x3e1fe3f6	0.15614304
47	0xbb963ddb	-0.0045850105
48	0xbd54bfb4	-0.051940635
49	0x3e0a969b	0.13534014
50	0x3e31916b	0.17340629
51	0x3d8ec3b9	0.06970925
52	0x3bd16598	0.0063902847
53	0x3dba1372	0.0908574
54	0xbd7cb894	-0.061699465
55	0xbde8e697	-0.113721065
56	0xbd21941b	-0.039447885
57	0xbe5391b2	-0.20661047
58	0xbe04064b	-0.12893026
59	0x3d51a5c2	0.05118347
60	0x3e3f83ae	0.18702576
61	0x3d9fe90d	0.07808123
62	0x3e157577	0.1459559
63	0xbdc5444d	-0.09632168

l4.weight f4 [2, 64]
0	0xbecd0d32	-0.4004913
1	0x3de8050d	0.11329088
2	0xbe3b49a4	-0.1828981
3	0xbcb48e55	-0.022040525
4	0x3d944aff	0.07240867
5	0x3ebcde92	0.36888558
6	0xbe4e13c1	-0.20124723
7	0xbcb3b1ba	-0.021935333
8	0x3dc63f39	0.096800275
9	0x3ce0daf3	0.027448153
10	0xbd90aa54	-0.070637375
11	0x3e780dc4	0.24224001
12	0xbe040c66	-0.12895355
13	0x3e6336c0	0.22188854
14	0x3dca4e25	0.09878186
15	0xbeb96177	-0.36207172
16	0x3ea7fe41	0.32811168
17	0x3c7e2090	0.015510693
18	0x3eb503b7	0.35354397
19	0xbc28e383	-0.010308149
20	0x3ed02689	0.406544
21	0x3e4cb6cb	0.19991605
22	0xbe87ec38	-0.26547408
23	0xbe0094ac	-0.12556714
24	0x3e8acfa0	0.2711153
25	0x3e3eaee5	0.18621404
26	0x3eab7208	0.33485436
27	0xbe9e63a0	-0.30935383
28	0x3f2d8f25	0.67796546
29	0xbefb8c36	-0.4913041
30	0xbe5c9732	-0.21542051
31	0x3d8bb401	0.068214424
32	0xbf681f2f	-0.9067258
33	0x3e843a67	0.25825807
34	0xbeb8f11d	-0.36121455
35	0xbd36fd7b	-0.04467533
36	0x3c3fd154	0.011707623
37	0x3f1d5a46	0.6146587
38	0xbe8f56cc	-0.27995908
39	0xbe73d301	-0.2381096
40	0xbeae6e82	-0.34068686
41	0x3b4ead49	0.0031536391
42	0xbe90af2d	-0.2825865
43	0xbd871a56	-0.0659682
44	0x3efa673f	0.48906896
45	0xbf008737	-0.5020632
46	0x3d5c72a7	0.05382028
47	0xbe8cab29	-0.27474335
48	0xbcd5152f	-0.026011078
49	0xbe738323	-0.23780493
50	0x3db75f3e	0.08953713
51	0xbecd0974	-0.40046275
52	0x3d216f4f	0.039412793
53	0x3d99b7e8	0.075057805
54	0x3eed2a9a	0.46321565
55	0x3f0296e1	0.5101147
56	0xbe03eabc	-0.12882513
57	0x3e9051a3	0.28187284
58	0x3f54fa49	0.83194405
59	0xbe26cc98	-0.16288984
60	0x3f0f00dd	0.5586069
61	0xbc1399d6	-0.009008845
62	0x3e8d9334	0.2765137
63	0xbe4b6d87	-0.19866
64	0x3ce5c90b	0.028049966
65	0xbd45bb5a	-0.048274375
66	0x3f577dd1	0.84176356
67	0xbf5b8276	-0.8574594
68	0xbf01da7f	-0.50724024
69	0xbea6a0d5	-0.3254458
70	0x3e923c80	0.28561783
71	0x3f5b9586	0.8577503
72	0x3d028e67	0.031874087
73	0xbde2c1ff	-0.11072158
74	0x3f810b93	1.0081657
75	0x3ea56afc	0.32308185
76	0x3edf57b3	0.43621597
77	0xbdced002	-0.10098268
78	0x3f1cbb3c	0.61223197
79	0xbf12ca08	-0.57339525
80	0x3ed805e4	0.42191994
81	0xbe8ec747	-0.27886412
82	0x3c5c907d	0.013462183
83	0xbe9b4347	-0.30324766
84	0x3d8a1a6f	0.06743323
85	0xbed5b528	-0.41739774
86	0x3f317eef	0.6933431
87	0xbe9ccb89	-0.30624035
88	0x3ef7fff3	0.4843746
89	0x3ed4c5e2	0.41557223
90	0x3d856214	0.065128475
91	0x3ed93170	0.4242053
92	0xbe143578	-0.14473522
93	0x3ce41047	0.027839793
94	0xbbe21264	-0.006899165
95	0xbe8d082e	-0.27545303
96	0xbcfc987c	-0.030834429
97	0xbe913840	-0.28363228
98	0x3f846f86	1.0346534
99	0xbdbe983e	-0.09306382
100	0x3f08a4c7	0.5337643
101	0xbefad721	-0.48992255
102	0x3f033662	0.51254857
103	0x3f37a67f	0.7173843
104	0xbd88267c	-0.06647965
105	0xbe79c4d5	-0.24391492
106	0x3e76f095	0.24115212
107	0x3f07c5a5	0.53035957
108	0xbf58979c	-0.8460634
109	0x3f8ef2ea	1.1167881
110	0xbef61c11	-0.48068288
111	0xbccf488b	-0.025303146
112	0xba4d51c9	-0.00078323163
113	0x3f1e0a4e	0.61734474
114	0x3fa38738	1.277564
115	0xbef8028f	-0.48439452
116	0x3d8559b5	0.06511251
117	0x3ef60688	0.48051858
118	0xbe86ede3	-0.26353368
119	0x3ec9a198	0.393811
120	0x3ee8bdfb	0.45457444
121	0x3f407dfe	0.7519225
122	0xbef66310	-0.48122454
123	0x3f18ec8b	0.59735936
124	0x3f9fc373	1.2481521
125	0xbe6988ff	-0.22806166
126	0xbe6a6ece	-0.22893831
127	0x3f877d31	1.058508

l4.bias f4 [2]
0	0xbd6aa757	-0.057288494
1	0xbdfed61f	-0.12443184
