turtlebot3_machine_learning/turtlebot3_td3/steer&spd/models112/TD3_stage2_actor_target.pth (torch_old, 49388 bytes, 6 tensors)

l1.weight f4 [128, 28]
-0.17866637 -0.17536636 0.1492139 0.04595898 -0.09546851 -0.024211422 0.11517905 -0.12675884
-0.16172098 0.11847739 -0.13314457 -0.04245791 -0.16227454 -0.16457883 0.17372583 -0.09479827
0.017769095 0.0038766712 -0.02708419 -0.107687935 0.030851364 0.17040636 -0.10293577 -0.08187607
0.12031753 0.10957785 -0.14223027 -0.12806849 0.016958334 0.052612197 -0.03363848 0.10102225
-0.036909632 0.046790633 -0.016977312 0.051983126 -0.014031056 0.16592029 0.10039565 -0.09362459
-0.037901945 0.047322456 0.20406607 0.15332775 -0.13911197 0.045378078 0.013394387 -0.2005658
-0.106292546 -0.15861678 0.034846105 0.20008081 0.112729944 0.08339188 0.2227189 0.048466463
-0.06669368 -0.16401385 -0.133845 -0.004618048 -0.11375431 0.034850128 -0.037375744 0.24835381
0.081918396 0.08646258 0.16119501 -0.0369137 0.006679547 -0.047485247 -0.14509803 -0.18020912
0.16140118 0.2189624 0.07892492 -0.26776755 -0.032176275 -0.2313307 -0.032807436 -0.07686204
-0.15123291 -0.04464088 -0.16249591 0.0636046 -0.2012292 0.070568524 0.045318417 0.1162594
0.13968806 0.011289667 0.10567343 0.22530626 -0.19526021 -0.02913951 0.0612114 0.086600766
-0.08454447 -0.096415706 0.016505169 -0.048835576 0.12195254 0.06575692 0.00079942634 0.14434552
-0.08038193 0.16189209 0.091579266 -0.12658818 0.55489415 0.020804077 0.3704938 0.135403
-0.0051608593 0.12347743 0.07690733 0.0996678 -0.15526207 0.23983817 0.05147775 0.0662159
0.02302143 0.19745737 0.24007863 0.07608664 0.12813689 -0.08213532 -0.020220518 -0.025134277
0.13231774 -0.025918698 0.13411288 0.05340659 -0.10039165 0.055891663 -0.12136744 -0.14821574
0.25398332 -0.040461212 0.3680441 -0.22702508 -0.08530301 -0.14089884 0.18470626 -0.15003039
-0.009626046 -0.0762727 0.10997157 0.1311567 -0.17708725 -0.0828251 0.07081653 -0.17554857
0.03245479 0.027466744 0.03420055 -0.016562328 -0.014691163 -0.12472403 -0.10028911 -0.066777386
0.015555307 -0.14938062 -0.012053594 -0.13727634 0.027426546 0.01093179 0.0015806854 -0.03121604
-0.23058873 -0.30933788 -0.18951994 0.0020660078 0.048919152 0.15490408 0.11315734 0.23613708
0.12565248 0.037716344 0.038030148 -0.0094154775 0.15355846 0.05997925 -0.09615826 0.023044387
0.09785777 0.13087367 -0.06259854 0.06839933 -0.114186086 0.02577871 -0.07735757 -0.102297954
-0.08971316 0.1447257 0.0045305435 -0.1438416 0.20046094 0.12325036 0.12685175 0.022347698
-0.14711638 0.16918379 0.112770595 -0.18298832 0.1362518 0.11416013 -0.08636971 -0.19008821
-0.14891766 0.13079043 -0.15068513 0.08087495 0.11339632 -0.020221248 -0.040726084 0.112505674
0.16665262 -0.018682454 0.123317696 -0.027925145 -0.12610455 -0.26721832 -0.010726567 0.035373468
0.03308417 0.10601301 -0.0016754091 -0.04511762 -0.2496986 -0.16642064 0.041203495 -0.0022913355
0.09367286 -0.14160262 0.041716583 0.03972408 0.0008546663 0.12075286 -0.0700598 0.1866466
-0.020161608 -0.03520507 -0.11575236 -0.12719287 0.112554364 0.058125183 0.23166135 -0.116702616
-0.15974577 -0.088768095 -0.020228412 0.11034756 0.012826888 0.17777532 0.07984417 -0.05888216
00000000: 51f4 36be 3d93 33be 87cb 183e 7c3f 3c3d
00000010: ff84 c3bd 0857 c6bc fee2 eb3d 12cd 01be
00000020: 2f9a 25be 46a4 f23d 0d57 08be 58e8 2dbd
00000030: 4c2b 26be 5a87 28be 2fe5 313e 9825 c2bd
00000040: 7e90 913c c00f 7e3b aadf ddbc 7e8b dcbd
00000050: 00bc fc3c 017f 2e3e fdcf d2bd a4ae a7bd
00000060: 0a69 f63d 5a6a e03d d0a4 11be 6324 03be
00000070: 34ec 8a3c e37f 573d 81c8 09bd c1e4 ce3d
00000080: 8e2e 17bd 89a7 3f3d 0114 8bbc 42ec 543d
00000090: 84e2 65bc 02e7 293e 3c9c cd3d 40be bfbd
000000a0: 123f 1bbd 31d5 413d b2f6 503e f301 1d3e
000000b0: 5e73 0ebe 5dde 393d 2274 5b3c 1f61 4dbe
000000c0: e8af d9bd 706c 22be caba 0e3d fce1 4c3e
000000d0: f5de e63d 5dc9 aa3d 6c10 643e c584 463d
000000e0: b296 88bd 3ff3 27be aa0e 09be ff52 97bb
000000f0: 05f8 e8bd 02bf 0e3d 4f17 19bd 7650 7e3e
00000100: d5c4 a73d 4b13 b13d 4e10 253e d232 17bd
00000110: 1ae0 da3b e47f 42bd 9494 14be bd88 38be
00000120: 5a46 253e ae37 603e 63a3 a13d d418 89be
00000130: 45cb 03bd f4e1 6cbe 1761 06bd d869 9dbd
00000140: cddc 1abe 5bd9 36bd 5465 26be 2143 823d
00000150: 070f 4ebe 3b86 903d ce9f 393d 6919 ee3d
00000160: 630a 0f3e 4cf8 383c 506b d83d afb6 663e
00000170: 4bf2 47be fbb5 eebc ceb8 7a3d be5b b13d
00000180: a725 adbd 9975 c5bd d935 873c d007 48bd
00000190: 41c2 f93d 90ab 863d 9890 513a 50cf 133e
000001a0: 489f a4bd 0ac7 253e e98d bb3d 55a0 01be
000001b0: 8b0d 0e3f 506d aa3c 5db1 bd3e 16a7 0a3e
000001c0: 6d1c a9bb bce1 fc3d 9781 9d3d a21e cc3d
000001d0: 05fd 1ebe 2398 753e 55da 523d 349c 873d
000001e0: 7097 bc3c 4432 4a3e 2cd7 753e 50d3 9b3d
000001f0: 5136 033e 9036 a8bd 80a5 a5bc 66e6 cdbc
00000200: 4d7e 073e 7353 d4bc e354 093e dec0 5a3d
00000210: 239a cdbd a8ee 643d 7e8f f8bd dec5 17be
00000220: 1a0a 823e a8ba 25bd 4770 bc3e 4379 68be
00000230: 58b3 aebd c947 10be a323 3d3e 91a1 19be
00000240: 90b6 1dbc dd34 9cbd c638 e13d f14d 063e
00000250: 5c56 35be 35a0 a9bd 4208 913d 01c3 33be
00000260: 50ef 043d f001 e13c e015 0c3d b8ad 87bc
00000270: 34b3 70bc 506f ffbd 6064 cdbd 95c2 88bd
00000280: b0db 7e3c 3cf7 18be 707c 45bc 2b92 0cbe
00000290: a3ad e03c 401b 333c 002f cf3a c8b8 ffbc
000002a0: 741f 6cbe 8961 9ebe 8411 42be dc65 073b
000002b0: 735f 483d 2d9f 1e3e 09bf e73d ebcd 713e
000002c0: 0bab 003e 747c 1a3d 80c5 1b3d 6043 1abc
000002d0: 6e3e 1d3e cdac 753d 9fee c4bd 95c7 bc3c
000002e0: a869 c83d bf03 063e aa33 80bd f314 8c3d
000002f0: 65da e9bd e02d d33c a56d 9ebd 9781 d1bd
00000300: 89bb b7bd f932 143e f474 943b 364b 13be
00000310: a245 4d3e af6a fc3d 6de5 013e 8512 b73c
00000320: ada5 16be 843e 2d3e 45f4 e63d 4a61 3bbe
00000330: 9885 0b3e c9cc e93d 9ae2 b0bd 7ca6 42be
00000340: df7d 18be eded 053e 344d 1abe c4a1 a53d
00000350: 543c e83d 08a7 a5bc 65d0 26bd 6069 e63d
00000360: fca6 2a3e f20b 99bc fd8d fc3d 46c3 e4bc
00000370: 8d21 01be d7d0 88be 7cbe 2fbc c5e3 103d
00000380: 4483 073d 591d d93d 6799 dbba 41cd 38bd
00000390: fdb0 7fbe 2c6a 2abe ffc4 283d 3b2a 16bb
000003a0: 8ed7 bf3d 4700 11be 02df 2a3d b8b5 223d
000003b0: af0b 603a 474d f73d 837b 8fbd 4920 3f3e
000003c0: f529 a5bc 3133 10bd 930f edbd d93e 02be
000003d0: e782 e63d ac14 6e3d a238 6d3e c801 efbd
000003e0: 6594 23be 0ccc b5bd 0eb6 a5bc e7fd e13d
000003f0: de27 523c bc0a 363e 5785 a33d 6b2e 71bd

l1.bias f4 [128]
-0.09466943 -0.21062863 -0.1052449 -0.033322133 0.040551823 -0.13533744 0.12553544 -0.062473968
0.2226995 -0.114196755 0.0331987 0.19578835 0.12415812 0.016409712 0.05741331 -0.053658
0.040722303 -0.053565122 -0.02547378 -0.1500457 0.06365216 -0.07833549 -0.074915744 -0.1816687
-0.2601579 0.2607127 -0.10855253 0.040654555 -0.071965136 -0.15916742 -0.014160356 0.0123666115
0.113077804 -0.1833381 0.050843924 -0.119680606 -0.14873959 0.077779785 -0.076674744 0.2638465
-0.005441074 -0.14495595 -0.048002083 0.18591529 -0.0116932485 0.045424823 -0.15098357 0.056129295
-0.056498494 0.11135001 0.2406982 0.043637633 -0.19421181 0.007921761 0.28582215 0.11779167
-0.17667377 -0.118448354 -0.21741474 -0.1496179 -0.2640213 0.039935187 -0.001704812 0.054489832
-0.04652989 0.31768906 0.13948387 0.17788425 0.20678999 -0.024324747 0.14185323 0.25107405
-0.097280584 0.10014834 0.14502558 -0.18869424 0.22558707 0.051155116 0.092536256 -0.1741152
-0.10556262 -0.1323708 0.02000494 -0.047764525 0.2884731 0.06250324 0.19324192 0.12663762
0.089630894 0.12348947 -0.111034535 0.11614051 0.16642419 0.13293512 0.27541372 0.07474963
-0.028428953 -0.0067455294 -0.0023847304 -0.03701842 0.019820105 0.0451126 -0.07379805 -0.06064148
0.13850018 -0.004173217 0.08339918 0.1644994 -0.03758186 0.036469534 -0.0068051354 0.0840477
-0.10337137 -0.0032318954 -0.11359609 -0.027383996 0.14289664 0.093814656 0.0064425934 0.1602122
-0.16212554 -0.22016661 -0.05987467 0.19172557 -0.19619551 0.08521981 0.030960215 -0.10542434
00000000: 0ce2 c1bd 08af 57be a38a d7bd ca7c 08bd
00000010: ab19 263d e695 0abe 5d8c 003e b4e4 7fbd
00000020: 560b 643e fddf e9bd 5cfb 073d be7c 483e
00000030: 9d46 fe3d a96d 863c 382a 6b3d 7ec8 5bbd
00000040: 6ecc 263d 1a67 5bbd 64ae d0bc 94a5 19be
00000050: 105c 823d 5b6e a0bd 6d6d 99bd 5c07 3abe
00000060: 6b33 85be 237c 853e ca50 debd 6485 263d
00000070: 7562 93bd c9fc 22be d600 68bc 549d 4a3c
00000080: 5695 e73d fcbc 3bbe b841 503d 1b1b f5bd
00000090: 314f 18be 024b 9f3d a607 9dbd e316 873e
000000a0: 094b b2bb 556f 14be d59d 44bd 9460 3e3e
000000b0: 0a95 3fbc 610f 3a3d 709b 1abe d5e7 653d
000000c0: f76a 67bd 790b e43d 9779 763e 60bd 323d
000000d0: 76df 46be 46ca 013c 4857 923e c23c f13d
000000e0: f8e9 34be 0d95 f2bd f8a1 5ebe 6f35 19be
000000f0: cd2d 87be 1493 233d 0074 dfba bb30 5f3d
00000100: 2096 3ebd 24a8 a23e dcd4 0e3e 4a27 363e
00000110: c1c0 533e b144 c7bc f941 113e c78c 803e
00000120: 0b3b c7bd 931a cd3d 9681 143e 1039 41be
00000130: 4c00 673e 0788 513d a683 bd3d 414b 32be
00000140: 3731 d8bd 368c 07be 66e1 a33c bca4 43bd
00000150: bfb2 933e b301 803d 36e1 453e 4bad 013e
00000160: 6790 b73d 0ce8 fc3d 1366 e3bd 13db ed3d
00000170: 1a6b 2a3e 2520 083e 0703 8d3e 5616 993d
00000180: d6e3 e8bc 9a09 ddbb 2349 1cbb a0a0 17bd
00000190: c65d a23c fdc7 383d 6f23 97bd 3363 78bd
000001a0: fed2 0d3e 7bbf 88bb 30cd aa3d 8872 283e
000001b0: 70ef 19bd 1461 153d 9dfd debb 3321 ac3d
000001c0: 5eb4 d3bd 35ce 53bb 11a5 e8bd 6754 e0bc
000001d0: 7f53 123e e621 c03d 641c d33b ab0e 243e
000001e0: 3d04 26be 5b73 61be 243f 75bd b553 443e
000001f0: 7ae7 48be b987 ae3d 47a0 fd3c b7e8 d7bd

l2.weight f4 [64, 128]
0.013655081 -0.074288405 -0.070432074 -0.0747247 0.024335722 0.039831705 -0.38398594 -0.028549993
0.06605774 0.16710407 0.19659269 0.017298514 -0.0017435005 -0.06049605 -0.06540653 0.14228128
0.025513723 -0.03862492 -0.013191222 -0.49108517 0.091632925 0.17976916 -0.038926322 0.015599162
-0.05192986 0.00783225 -0.022148179 0.032016 -0.0201234 -0.14868504 0.0091312975 -0.007566181
0.03914132 -0.07547318 -0.015089923 0.2867914 0.016365046 -0.1272011 0.028785903 0.08738185
0.1044312 0.08159866 0.041169647 0.20169404 0.016738422 0.05483375 -1.4335561 0.04827892
-0.029492637 -0.34543908 0.20710002 0.028946329 -0.06301544 0.07990559 0.08215878 -0.03204089
0.05474963 0.047238432 -0.08743196 0.4217775 -0.050111286 -0.027303932 -0.028881803 -0.05893684
-0.03348576 0.06981572 -0.016559398 -0.010768983 0.01629493 0.07443081 0.10964144 -0.0050867787
0.058615167 0.08449325 -0.03348002 0.04847536 -0.033916447 0.49068952 0.049978226 -0.014879097
0.0014036323 0.0027582282 0.29075018 -0.0819702 0.08493609 -0.0065194643 -0.060372267 0.09726099
0.1222645 0.22052921 -0.021281982 -0.02662517 0.073297314 -0.08064449 -0.3362177 0.08143566
-0.127612 -0.028347064 0.09850878 0.43483883 0.018371038 0.013004412 0.08795075 0.046269216
0.009298975 0.028640313 -0.017180985 -0.0156217655 0.079776585 -0.0087952465 0.19842502 0.0015415346
-0.0940417 0.020711275 0.5017702 0.030167418 -0.3226777 -0.13517523 0.09033122 0.02886019
0.04141163 -0.006536946 0.10753155 0.052156914 0.07533493 -0.0068513383 0.021863654 -0.0138457185
0.06916084 0.010872836 0.27060652 -0.024744961 0.0011503085 -0.042669702 -0.021964421 -0.0020539057
0.06143371 0.23216678 0.010527215 0.021266168 0.071255155 -0.036823303 -0.32207322 0.236738
-0.05582566 0.03542063 0.02421841 0.08510938 0.6500496 0.04266007 0.034929115 0.075298674
-0.0960205 0.057474744 0.0331573 0.035504308 -0.05708863 0.090953074 0.028805105 -0.113167904
0.23911728 -0.031861614 0.10944878 0.35385522 0.038445897 0.27099454 -0.02426526 -0.01757607
-0.3870654 -0.007780075 0.028992571 0.26189643 -0.089840785 -0.0076573524 -0.0025489735 0.15919276
0.09729297 -0.31828025 0.030762041 0.054509763 -0.04857776 0.010554512 -0.09534088 0.122523576
0.11011071 -0.041964035 -0.04370788 0.7288337 0.023647243 -0.017427327 -0.035145108 -0.08666693
0.0853502 0.009544779 0.07762961 -0.08103733 0.03273528 -0.04057519 -0.16735181 -0.18760148
-0.012548588 0.0042265253 -0.096093945 0.08538272 0.07582728 0.82487655 0.023317492 0.021906365
-0.030810494 0.13226846 0.2506361 0.27286917 0.014405692 -0.19338138 0.054813396 0.027404945
0.41665882 0.14090787 8.5093874e-05 0.2067888 0.0075238044 0.0008736849 -0.06780328 -0.06566203
0.17384897 -0.05855007 0.08807178 -0.13733454 0.08303934 0.059123322 -0.09563967 -0.015964597
-0.07116219 0.21875454 0.0029169002 -0.0826597 0.076372065 0.20886594 0.26067418 0.036065176
-0.031703543 -0.01225049 0.2116392 0.41319072 1.3050915 -0.13011873 -0.008689857 0.6759158
-0.054235533 0.045444682 0.051958814 0.119167194 0.0285632 0.030919544 0.11335126 0.087045334
00000000: 90b9 5f3c 8524 98bd b13e 90bd 4309 99bd
00000010: b55b c73c 9226 233d ce99 c4be ade1 e9bc
00000020: 4849 873d 541d 2b3e 984f 493e 9db5 8d3c
00000030: 2b86 e4ba b5ca 77bd dcf3 85bd 2fb2 113e
00000040: 2802 d13c 2a35 1ebd ff1f 58bc 846f fbbe
00000050: 0baa bb3d 6815 383e 3571 1fbd a193 7f3c
00000060: 68b4 54bd d652 003c 1970 b5bc 3623 033d
00000070: d4d9 a4bc e440 18be 709b 153c baed f7bb
00000080: a652 203d af91 9abd b93b 77bc 53d6 923e
00000090: fd0f 863c 0141 02be 6ad0 eb3c 41f5 b23d
000000a0: 06e0 d53d 331d a73d 81a1 283d e288 4e3e
000000b0: 041f 893c 5b99 603d c47e b7bf 1ec0 453d
000000c0: 8b9a f1bc 64dd b0be 0712 543e da20 ed3c
000000d0: 3d0e 81bd 8ba5 a33d dd42 a83d 4f3d 03bd
000000e0: 2641 603d 167d 413d 870f b3bd 38f3 d73e
000000f0: 7e41 4dbd 7fac dfbc 8899 ecbc c267 71bd
00000100: 5d28 09bd 8bfb 8e3d 93a7 87bc 6370 30bc
00000110: f27c 853c 2e6f 983d b18b e03d feae a6bb
00000120: 7516 703d cc0a ad3d 5822 09bd 198e 463d
00000130: f9eb 0abd a83b fb3e f8b5 4c3d 75c7 73bc
00000140: 16fa b73a 64c3 343b 35dd 943e fedf a7bd
00000150: f9f2 ad3d 3ba1 d5bb e948 77bd c530 c73d
00000160: cf65 fa3d 69d2 613e 8d57 aebc 071d dabc
00000170: e71c 963d f028 a5bd ba24 acbe bdc7 a63d
00000180: b8ac 02be 1a38 e8bc f9be c93d 32a3 de3e
00000190: dc7e 963c 7510 553c 861f b43d ca84 3d3d
000001a0: ba5a 183c 179f ea3c 23bf 8cbc 6ff2 7fbc
000001b0: e861 a33d f019 10bc ee2f 4b3e 510d ca3a
000001c0: ef98 c0bd b1aa a93c 0374 003f a921 f73c
000001d0: 0336 a5be 606b 0abe 93ff b83d 356c ec3c
000001e0: 3e9f 293d e133 d6bb 8039 dc3d 7da2 553d
000001f0: 3349 9a3d 3181 e0bb 681b b33c 27d9 62bc
00000200: 33a4 8d3d fb23 323c f08c 8a3e f2b5 cabc
00000210: f3c5 963a 6dc6 2ebd bbee b3bc d29a 06bb
00000220: eaa1 7b3d 21bd 6d3e 577a 2c3c 6336 ae3c
00000230: 39ee 913d 08d4 16bd c8e6 a4be 726b 723e
00000240: 72a9 64bd 3915 113d b065 c63c d44d ae3d
00000250: a769 263f 53bc 2e3d d511 0f3d 3136 9a3d
00000260: 65a6 c4bd a36a 6b3d f3cf 073d f76c 113d
00000270: c4d5 69bd 9b45 ba3d aff8 eb3c 93c4 e7bd
00000280: 29db 743e 5381 02bd af26 e03d 832c b53e
00000290: 7279 1d3d ccbf 8a3e f0c7 c6bc b1fb 8fbc
000002a0: 702d c6be 00f0 febb d481 ed3c 4a17 863e
000002b0: 72fe b7bd 87ea fabb ae0c 27bb 6d03 233e
000002c0: 8941 c73d a1f5 a2be ad00 fc3c a145 5f3d
000002d0: 79f9 46bd d5ec 2c3c 1442 c3bd a4ed fa3d
000002e0: b981 e13d 7be2 2bbd 0907 33bd d894 3a3f
000002f0: ddb7 c13c c1c3 8ebc 51f4 0fbd 6e7e b1bd
00000300: 16cc ae3d b461 1c3c 46fc 9e3d e6f6 a5bd
00000310: 6e15 063d 2c32 26bd 465e 2bbe 9a1a 40be
00000320: 9898 4dbc aa7e 8a3b e7cc c4bd 23dd ae3d
00000330: 554b 9b3d 1c2b 533f 5304 bf3c fa74 b33c
00000340: 4a66 fcbc 6271 073e 6053 803e 82b5 8b3e
00000350: da05 6c3c c505 46be 0384 603d 5680 e03c
00000360: 4e54 d53e 274a 103e 6d74 b238 71c0 533e
00000370: 3f8a f63b 0008 653a 72dc 8abd d079 86bd
00000380: 7705 323e 33d2 6fbd fa5e b43d 6da1 0cbe
00000390: 8810 aa3d 4c2b 723d bbde c3bd 30c8 82bc
000003a0: 7bbd 91bd 3101 603e 7729 3f3b 7d49 a9bd
000003b0: f568 9c3d f4e0 553e 1677 853e 14b9 133d
000003c0: 93db 01bd 47b6 48bc f2b7 583e bc8d d33e
000003d0: 3d0d a73f d83d 05be e75f 0ebc d108 2d3f
000003e0: 1426 5ebd 3424 3a3d c4d2 543d ee0d f43d
000003f0: 5ffd e93c fc4a fd3c b524 e83d d344 b23d

l2.bias f4 [64]
-0.019852657 -0.09134096 -0.023120832 -0.0065895254 -0.06733916 -0.036644965 -0.033318575 0.04216065
0.049243685 0.12791994 0.03755791 -0.022658542 -0.029615529 -0.003087314 0.027246179 0.027360946
-0.059212845 -0.068307735 -0.041290075 -0.1571374 0.073360994 -0.006001759 0.05139509 -0.095137306
0.021378156 0.07954368 0.032168385 0.0070023057 -0.11659834 -0.017282436 0.081492625 0.030620541
0.15312018 -0.04365865 -0.036143072 0.120750606 -0.09771891 -0.03985951 -0.09319419 0.11957068
-0.025374413 0.1512335 0.12185402 0.040156875 -0.06762904 0.09384182 0.061512657 0.059669077
0.042616975 0.071322955 0.0440089 -0.09698084 0.070082456 -0.059880074 0.11401879 -0.018513449
0.03986127 -0.037318677 0.027693113 0.16090447 0.13636063 0.006618217 0.0034955232 0.034886245
00000000: 0aa2 a2bc f810 bbbd e667 bdbc f2ec d7bb
00000010: 1de9 89bd 0819 16bd 0f79 08bd a5b0 2c3d
00000020: bfb3 493d 72fd 023e 53d6 193d 689e b9bc
00000030: 449c f2bc 8954 4abb 6133 df3c 1024 e03c
00000040: 2b89 72bd ede4 8bbd c81f 29bd a0e8 20be
00000050: 4a3e 963d 67aa c4bb a883 523d 59d7 c2bd
00000060: 3e21 af3c cce7 a23d ffc2 033d 9973 e53b
00000070: 1ccb eebd e593 8dbc 9be5 a63d eed7 fa3c
00000080: 89cb 1c3e 6ad3 32bd c20a 14bd 184c f73d
00000090: da20 c8bd ba43 23bd 98dc bebd 79e1 f43d
000000a0: 00de cfbc f4dc 1a3e 9a8e f93d 897b 243d
000000b0: 1881 8abd 2430 c03d b2f4 7b3d 9067 743d
000000c0: 238f 2e3d c511 923d ad42 343d e49d c6bd
000000d0: 6487 8f3d cf44 75bd af82 e93d 84a9 97bc
000000e0: 9245 233d 78db 18bd abdc e23c 24c4 243e
000000f0: 1fa2 0b3e a1dd d83b 2615 653b e1e4 0e3d

l3.weight f4 [2, 64]
-0.08497916 0.028949087 -0.33867082 -0.37399626 -0.05640058 0.16844629 0.15855159 0.035039652
0.37767163 -0.34047166 0.04917829 -0.05059582 -0.00882755 -0.045236614 0.25330782 -0.42417005
0.29480138 0.035627592 -0.09621427 0.26345822 0.69671154 -0.017300162 0.121437564 0.02639054
0.012131699 -0.13122459 -0.07884123 -1.7299405 0.38030624 -0.111811765 -0.109125994 -0.22249106
-0.43500715 -0.034290485 1.2243426 -0.19394757 0.2714521 0.092452355 -0.1153269 -0.102152675
-0.06442779 -0.18654434 -0.0717885 0.5984302 0.03270759 -0.44537294 -0.056236397 -0.05077398
-0.2551709 -0.41051137 -0.5040317 0.01375313 0.048829287 0.2591965 -1.4187882 0.22406583
-0.049654223 0.08819106 -1.233936 -0.07641366 -0.15383841 0.007681602 0.22300611 -0.09451749
-0.1503614 -0.1847261 0.39165127 0.020035332 0.07315508 0.26680443 0.09142235 -0.2272882
0.18552 -0.17856288 -0.23205638 0.11891808 0.08931987 0.086068444 0.23847798 0.23684026
-1.221432 0.033505663 -0.38225892 0.5036578 0.12500598 -0.6432774 -0.25710574 0.08845115
0.10673041 -0.26702783 -0.21712673 0.56697154 0.22106667 -0.7293493 -0.020203069 0.15425256
0.053799044 -0.20131627 -1.1214964 -0.026841087 0.14753604 -0.2300602 0.06126879 -0.6498398
0.10440293 0.00089933653 -0.20700645 0.8466661 -0.17492421 0.28304282 -0.2672332 0.2797689
0.10171431 0.28376225 0.2372704 -0.4080779 -0.39992666 0.229863 0.28935248 0.1577882
-0.13073508 -0.90138716 0.1965538 -0.01967997 -0.10968511 0.05061817 0.078364514 -0.06820972
00000000: 8e09 aebd a326 ed3c 4366 adbe 707c bfbe
00000010: 4b04 67bd 2f7d 2c3e 595b 223e bd85 0f3d
00000020: 2d5e c13e 4d52 aebe 2d6f 493d 903d 4fbd
00000030: 6ea1 10bc 074a 39bd 90b1 813e d12c d9be
00000040: 35f0 963e 3dee 113d fd0b c5bd ffe3 863e
00000050: b05b 323f 12b9 8dbc 42b4 f83d f930 d83c
00000060: 09c4 463c bd5f 06be 8377 a1bd b16e ddbf
00000070: 80b7 c23e 91fd e4bd 737d dfbd b2d4 63be
00000080: 42b9 debe 2e74 0cbd 42b7 9c3f 319a 46be
00000090: c5fb 8a3e a957 bd3d 8230 ecbd 6c35 d1bd
000000a0: b8f2 83bd 7b05 3fbe d905 93bd b932 193f
000000b0: 65f8 053d ec07 e4be 2358 66bd 60f8 4fbd
000000c0: c3a5 82be 8c2e d2be 3908 01bf cf54 613c
000000d0: 3801 483d 67b5 843e da9a b5bf 8371 653e
000000e0: 3a62 4bbd 849d b43d 9df1 9dbf c47e 9cbd
000000f0: d187 1dbe f3b5 fb3b b75b 643e 6392 c1bd
00000100: 57f8 19be d728 3dbe 8486 c83e 2321 a43c
00000110: 55d2 953d 979a 883e a43b bb3d 3dbe 68be
00000120: f4f8 3d3e 30d9 36be 30a0 6dbe 538b f33d
00000130: 56ed b63d a744 b03d 9233 743e 4186 723e
00000140: e257 9cbf 3c3d 093d 71b7 c3be b8ef 003f
00000150: 9101 003e d4ad 24bf 5da3 83be e025 b53d
00000160: 7995 da3d dfb7 88be 7856 5ebe 0c25 113f
00000170: 4d5f 623e a3b6 3abf e880 a5bc 62f4 1d3e
00000180: 635c 5c3d da25 4ebe 328d 8fbf d7e1 dbbc
00000190: b013 173e e794 6bbe fcf4 7a3d e75b 26bf
000001a0: 34d1 d53d 74c1 6b3a 80f9 53be 1cbf 583f
000001b0: 551f 33be fdea 903e cad2 88be df3d 8f3e
000001c0: 984f d03d 4949 913e 03f7 723e 96ef d0be
000001d0: 30c3 ccbe 3561 6b3e 0226 943e 3b93 213e
000001e0: 6bdf 05be 4fc1 66bf 6645 493e e337 a1bc
000001f0: 96a2 e0bd 0055 4f3d 937d a03d 8ab1 8bbd

l3.bias f4 [2]
-0.01349584 0.049618557
00000000: a81d 5dbc d43c 4b3d
