turtlebot3_machine_learning/turtlebot3_td3/steer&spd/model304_buffer_sl/TD3_stage2_critic_2_target.pth (torch_old, 104889 bytes, 7 tensors)

l1.weight f4 [24, 60]
000000 94 52 14 bd 80 cc cb 3d 6b 4b ed 3d e5 5d bf bc
       -0.036211565 0.09951115 0.115866505 -0.023360202
000010 0c cf 8c 3d 96 0e 44 be 87 57 a9 bd 6d 4b be bd
       0.068754286 -0.19146189 -0.08268648 -0.0929173
000020 58 ba 18 bd a0 fa f9 bd 3b 8d cf 3d a4 c2 1f be
       -0.037287086 -0.12206006 0.101343594 -0.15601593
000030 38 b3 24 be 5d 06 0c bc 8b ee 4e bd 00 09 c2 bd
       -0.16083992 -0.008546439 -0.05052046 -0.09474373
000040 83 80 3b bd b7 a3 ac bb 4f 87 94 be e7 0d 0a bf
       -0.045776855 -0.00526854 -0.29009482 -0.53927463
000050 b7 13 60 bf 7b 99 a3 be ca 97 2b bf a1 b9 b9 be
       -0.8753008 -0.31953034 -0.67028487 -0.36274436
000060 66 4e dc bd ec 6e b4 bd 6d 81 ff ba b6 e5 88 bc
       -0.10757141 -0.08810219 -0.0019493528 -0.016711097
000070 78 e0 08 3e cf ec 4d 3e f6 45 29 bd 1c e8 95 3d
       0.13366878 0.20109867 -0.041326486 0.07319662
000080 7d d9 df 3d 85 30 b1 3d db b7 1b 3e a9 bf 27 3e
       0.109301545 0.086518325 0.15206854 0.16381706
000090 54 c0 f2 3d 77 f8 da 3d 11 e5 bb bd ad 15 c2 bb
       0.1185309 0.10691922 -0.0917455 -0.005922994
0000a0 56 95 21 3d 88 13 b7 3d 5f 41 e6 bd cd 70 d0 3c
       0.03944906 0.08939272 -0.11242937 0.025444413
0000b0 0f a0 bd 3d 3c 44 d2 3d 41 36 8a 3d 59 5a 27 3e
       0.092590444 0.10266921 0.06748629 0.16343059
0000c0 2c 69 8d 3c 0f f7 53 bc f1 5a 8d 3d 05 d7 d9 3c
       0.017262064 -0.012937321 0.06902111 0.026591787
0000d0 7a c0 ec bd 1f 36 10 3e 8f ae 9a 3c fc 32 ee bb
       -0.115601495 0.14083146 0.018882064 -0.0072692614
0000e0 cb f2 a9 bd 6b 85 f8 bd 9e fe 0c be f8 0c 86 be
       -0.08298262 -0.121348225 -0.13769004 -0.2618177
0000f0 08 6b 14 3d 38 af 7e 3d 53 4e df 3d 11 dd 00 3c
       0.036234885 0.06217882 0.10903611 0.007865206
000100 19 7a 39 3e 50 6f 09 be f8 85 0e be 05 57 cc be
       0.18112983 -0.13421369 -0.13918293 -0.3991014
000110 1f 4e 48 3d 54 63 92 3e 5e c2 09 3e d4 ff 28 bd
       0.048902627 0.28591406 0.13453051 -0.0412596
000120 16 81 07 be bb 0b be bd 4a b9 33 be 63 1b 71 be
       -0.13232836 -0.09279581 -0.17551151 -0.23545603
000130 bf a5 53 be 15 9a d0 bc aa 92 f6 bc 74 7e ca bb
       -0.20668696 -0.025464097 -0.030099232 -0.006179625
000140 3b 53 22 3d fd d9 17 3e 52 4a e8 3b 90 68 09 bd
       0.039630156 0.1482925 0.007088938 -0.033546984
000150 43 bf 13 be 67 c6 9d be 1c 2f 08 3c d3 8b 04 be
       -0.1442843 -0.3081543 0.008312013 -0.12943964
000160 c9 6d 55 be 36 11 74 bd 13 3f ed bd 25 ec 06 3d
       -0.20842661 -0.059586726 -0.11584296 0.03294005
000170 fa 14 0d 3e 04 04 6a 3d 2d 97 87 bc b1 cb bb 3d
       0.13777533 0.057132736 -0.016551578 0.091697104
000180 8b 86 00 bb a5 c5 aa bc 2d c6 80 3d cb 54 00 bd
       -0.0019611444 -0.020846197 0.06287799 -0.031330865
000190 0b 43 38 be ff 1f 09 3e 88 52 f9 bd df b0 cc 3d
       -0.17994325 0.13391112 -0.12173945 0.09994673
0001a0 52 7b 08 3d b5 bf 80 3a 71 f8 5a 3e c4 ab 96 3b
       0.033320732 0.0009822758 0.21383835 0.004598113
0001b0 0c 3c ff bb bb 32 9a 3d 27 08 63 3d 06 04 d9 3d
       -0.0077891406 0.07529207 0.055427697 0.105964705
0001c0 0c 21 05 3b 81 e4 83 3d 21 cb eb 3c c7 3b c4 3d
       0.0020313887 0.06440068 0.028783383 0.09581714
0001d0 95 0c ab bd b7 b8 2e bc 00 b4 21 be 05 9c 23 bf
       -0.08352009 -0.010664157 -0.15791321 -0.6390994
0001e0 ab 11 0a 3e e3 56 7c bd b4 9f 1b 3e a4 ff b8 bc
       0.13483302 -0.0616063 0.1519764 -0.022582836
0001f0 7d f8 f9 bd 06 12 d8 bc 9a 09 b6 bd 73 30 8a bc
       -0.122055985 -0.026375782 -0.0888855 -0.016868806
000200 7b 08 21 bb da 7b 0b be ae 5d cb 3c c9 c6 b2 bc
       -0.0024571705 -0.13621464 0.024824943 -0.021823304
000210 57 29 16 be 4c 7a da bd 2a 69 7f bd 63 97 e5 bc
       -0.14664207 -0.106678575 -0.06235615 -0.028026288
000220 b8 fa 3b be 72 cb 1e be 7d d4 fe 3c 1b 9e d9 3d
       -0.1835736 -0.15507296 0.031107182 0.10625859
000230 82 40 94 3d 1c 70 b8 3d 01 b9 88 3e a7 82 7f 3e
       0.072388664 0.09005758 0.26703647 0.24952184
000240 fd 77 c1 3d 67 ab 91 3d fb 4c 2e bd 49 2b 43 3d
       0.09446714 0.071127705 -0.042553883 0.0476487
000250 85 2f db bb 31 e3 8e bd 18 c7 cd 3c f4 8e 7a bc
       -0.0066890144 -0.06976927 0.02511935 -0.015292872
000260 ea 91 b1 3c 67 9d 91 bd 39 69 75 bd 5e 18 6e 3d
       0.021676023 -0.071101 -0.0599148 0.058128707
000270 f2 43 5e bd 3f 69 ac bd d8 c5 1c 3d 8d a6 da bd
       -0.054264016 -0.084185116 0.038274616 -0.10676298
000280 0a f0 53 bd 99 84 32 3e 53 19 ee bc 41 a4 d1 bb
       -0.05174259 0.17433394 -0.02906481 -0.0063977544
000290 76 b3 8b 3d 4c 0a b6 3d bd 5a 6f 3c 99 dc 11 3e
       0.06821339 0.08888683 0.014609036 0.14244308
0002a0 f8 0f 20 3c 59 ee 79 3d e3 68 70 3d 36 97 5e 3d
       0.009769432 0.06101832 0.058693778 0.054343425
0002b0 c4 6b 2d 3c f3 c7 13 3d 21 0e df bb 6b 1d 03 3e
       0.010584775 0.03607936 -0.006807104 0.12804191
0002c0 9c 59 b6 3d 72 b8 1b 3e d4 2d a6 3e 39 69 f7 3e
       0.089038104 0.15207079 0.3245684 0.48322466
0002d0 e9 d2 b1 ba 0f 4b b0 3d aa 01 f1 3d 0e ed b6 bc
       -0.0013566884 0.08608066 0.117678955 -0.022329833
0002e0 19 48 7f 3d ec 91 08 bc 66 ec d9 3d ff e4 8a bd
       0.062324617 -0.008335572 0.106407925 -0.06781959
0002f0 24 de 48 bd e1 d6 26 3c db 1e c2 3c d9 cf f0 3b
       -0.049039975 0.010183067 0.023696354 0.007348996
000300 7e 89 cb bc 29 30 60 b9 ea c3 40 bd b8 ca f2 3b
       -0.024845835 -0.00021380246 -0.04706184 0.00740942
000310 70 78 dd 3c 67 4a f9 bc 17 95 a8 bd 07 cd b6 bd
       0.027034968 -0.030430986 -0.08231562 -0.089258246
000320 75 56 f3 3b d5 d5 a2 bd 5f b1 c9 bd aa f5 18 be
       0.007426078 -0.079509415 -0.09848284 -0.14937463
000330 94 2f e4 bd 0c 37 f2 bd db 66 7a bd 91 7f 0a be
       -0.11141887 -0.118269056 -0.061133247 -0.13525225
000340 44 06 c8 bc c7 e9 d0 bd db 70 9d bb 4f 20 88 bc
       -0.02441705 -0.102008395 -0.004804713 -0.016616968
000350 b5 cb 96 bb cd 3f c2 3d fe 83 37 3e 4f 6f e5 3d
       -0.0046019205 0.09484825 0.17921445 0.11202871
000360 ff 97 39 3e b3 ac 3e 3e fe b0 0b 3e 62 46 9a 3e
       0.18124388 0.18620567 0.13641736 0.30131823
000370 9c bc 6a 3e 15 09 81 3e c4 97 6e 3e ed 6c 27 3e
       0.22923511 0.25202242 0.23300081 0.16350146
000380 1a 94 3c 3e 7a 8b 02 3e 73 39 43 3e 98 e0 cd 3d
       0.18415871 0.12748519 0.19064884 0.100526035
000390 18 51 ed 3d 8a 02 13 3e 23 aa 06 3e 35 ac a8 bc
       0.11587733 0.14356437 0.1315084 -0.020589927
0003a0 8d 58 e1 3d 3e a7 01 bd 51 1c 10 3d 9e c3 cf bc
       0.11003218 -0.031653635 0.035183255 -0.025361832
0003b0 88 31 c3 ba 63 d0 5c bd 73 21 1d be 29 ab 81 be
       -0.0014892081 -0.05390967 -0.15344791 -0.25325897
0003c0 18 b8 45 be 21 24 25 be 17 57 09 be 4e 2b 9e bd
       -0.19308507 -0.16127063 -0.13412128 -0.077231035
0003d0 d7 eb 0b bd 2f a7 7d 3d 05 17 7a 3d 1a 8e 1a be
       -0.03416046 0.061927017 0.06105711 -0.1509327
0003e0 e5 aa d6 3d 10 84 de 3d 1c d3 f9 3d 79 e9 89 3c
       0.10481814 0.10865033 0.12198469 0.016834961
0003f0 de 4c f6 3c 33 51 f3 3d 79 2c 73 bd 76 28 2e 3d
       0.03006595 0.11880722 -0.059368584 0.042519055

l1.bias f4 [24]
000000 22 f8 5a 3e db e5 43 be 33 0b 06 be 42 ba ea 3d
       0.21383718 -0.19130652 -0.1309021 0.11461307
000010 1f 27 92 3e 1b 63 a8 3e 86 e1 d2 bd 69 08 c4 3d
       0.28545472 0.3288811 -0.102969214 0.095719166
000020 9a 12 22 bd 99 c5 fe 3e 0f a5 a7 3f 27 cd ca 3e
       -0.03956852 0.4976013 1.3097247 0.39609644
000030 78 61 e2 3c 10 fc 9c 3d 76 90 c9 3e bc f9 5b be
       0.027634367 0.076652646 0.39368027 -0.21481985
000040 b2 03 22 be 2e 56 15 3e b1 f9 f2 bd 67 db 76 3f
       -0.15821722 0.14583656 -0.11864031 0.9642853
000050 c4 97 9f 3e d0 6f 9e be 5f a9 5e 3f 81 7c 3c 3e
       0.31170475 -0.3094468 0.8697719 0.1840687

l2.weight f4 [256, 30]
000000 66 74 1f be be f9 05 bf b7 13 9a bd df 48 59 be
       -0.15571746 -0.523342 -0.075232916 -0.21219204
000010 e8 56 af 3d 21 13 90 3e 5a 0f a2 be 88 4b 4a 3e
       0.08561498 0.28139594 -0.31652337 0.19755375
000020 e9 9b 67 be 95 6a 57 be d9 5d 55 bd 62 a9 ee bd
       -0.22618069 -0.21036752 -0.052091453 -0.11653401
000030 ea b4 81 bd 68 9d dc bd 85 c7 0f 3e cf 39 07 3e
       -0.06333335 -0.1077221 0.14040954 0.13205646
000040 3e 48 00 3e c9 4d 65 3e e9 a5 69 3a aa 94 ae 3d
       0.12527558 0.22392954 0.0008912967 0.08524449
000050 b2 00 9a bc 14 84 c0 3d f0 15 4a 3d 91 2e 32 be
       -0.01879916 0.09400192 0.049337327 -0.17400576
000060 42 4e 8b be 5a 97 d4 3e d7 37 f0 3f 78 37 63 bc
       -0.27208143 0.41521722 1.8767041 -0.013868205
000070 dd f6 0f bf 31 44 fe 3d 72 29 d3 be 3f 47 f4 3e
       -0.5623606 0.1241535 -0.41242558 0.47710606
000080 6b e1 20 bd 8d f8 16 be db c5 08 bd b3 4f ae bd
       -0.039277475 -0.14743252 -0.033391815 -0.08511295
000090 15 c6 67 3d 38 f1 54 bd e9 3e c4 3d dd c0 52 3c
       0.05658539 -0.051987857 0.09582312 0.012863365
0000a0 a1 e5 a6 3d 2d b2 f3 3c 1c 52 44 3e 64 7d 1e be
       0.08149267 0.029748047 0.19171947 -0.1547752
0000b0 ee 4f 1c bc 6c e1 fc 3d 3f 6c b5 bd 94 67 89 ba
       -0.009540541 0.12347683 -0.08858537 -0.0010483139
0000c0 46 5b 9a be 8c 7a ed bd 65 59 77 bc 9c e7 1e 3d
       -0.3014776 -0.115956396 -0.015096997 0.0387951
0000d0 b5 77 6b bd 84 67 c9 bd 06 78 5b bf b8 98 b5 bd
       -0.05748721 -0.09834197 -0.85730016 -0.088670194
0000e0 d5 d6 2c 3d 5c b1 f5 bc b9 e4 4d 3e c7 1d bf bc
       0.042197067 -0.029991798 0.20106782 -0.023329629
0000f0 a5 39 c3 bc da 8e b9 3e f7 9e ca 3d cc a4 51 3e
       -0.023831198 0.362418 0.098936014 0.20473021
000100 1f cf 29 3e 3a 7f 81 3e b5 73 22 3d f7 58 d8 3d
       0.16582917 0.2529238 0.039661128 0.10563844
000110 19 9f 5a 3d 06 8c 5c bc 69 88 40 bd 8c a4 06 3d
       0.053374384 -0.013461119 -0.04700509 0.032871768
000120 11 69 1a bd cc 2c ab 3d 51 04 70 be d7 93 58 3e
       -0.037697855 0.08358154 -0.23439147 0.21150146
000130 1b f3 bb bc b2 18 bf be af a8 2f 3f 0f ba 32 be
       -0.02294307 -0.3732353 0.68616766 -0.17453788
000140 ba 26 08 be 75 0f 19 bd 61 5a b3 be c0 f6 b1 3d
       -0.13296023 -0.037368257 -0.3502989 0.08689642
000150 8b 77 84 be a4 aa 91 be 11 42 6a 3f a0 72 78 bc
       -0.25872454 -0.284505 0.9150706 -0.0151640475
000160 f7 ef 84 be 8e 35 d1 3d cd 48 3f 3e d9 e6 0e 3f
       -0.2596433 0.10215293 0.18680115 0.55820996
000170 bd 0f 09 3c f6 d0 43 bd 61 9d 31 3d ee 61 6f be
       0.008365569 -0.047806703 0.04336298 -0.23377201
000180 c9 87 be bc f3 16 24 be f5 bf c5 bd c6 06 da 3c
       -0.023258107 -0.1602438 -0.096557535 0.026614558
000190 6f 79 0c 3e a8 ad a3 3d 1d 03 50 3d ed 9a ad bd
       0.13718198 0.07992107 0.05078422 -0.084768154
0001a0 eb 7a ca bc 4a 27 d3 3d 25 b9 9b bd af 7c 61 bf
       -0.024716815 0.10310228 -0.07603673 -0.8808088
0001b0 1d e4 c9 3e 73 86 1c be 2c 9f 13 3e ac fd 70 bd
       0.3943185 -0.15285663 0.14416188 -0.05883567
0001c0 08 46 f6 bc 13 bf 4f 3d 21 e1 22 bd 28 98 75 be
       -0.03006269 0.050719332 -0.03976548 -0.23983824
0001d0 9e 03 26 3f f1 82 1c 3e 3e 9f 32 bf 29 fd 09 bf
       0.6484927 0.15284325 -0.69774234 -0.53901917
0001e0 e6 63 21 bf 63 ff 55 bf 5d b3 e1 3d 48 5a 4e bd
       -0.6304306 -0.83592814 0.11020539 -0.050379068
0001f0 69 a0 84 3d fe e6 0b 3e a5 d1 43 39 14 1a 67 bc
       0.06475908 0.13662335 0.00018674748 -0.014105339
000200 99 c2 2f 3e c4 6e f0 bd 5d a0 12 be d9 bd 24 3e
       0.17164077 -0.11739877 -0.14318986 0.16088046
000210 9a 9b 89 3d 32 ea 1c 3e 0b 2a 83 3e a4 7d a6 bd
       0.06719132 0.15323713 0.25618014 -0.08129433
000220 6b 50 1f be 7d 34 e7 be 07 b5 bc 3f d3 33 e1 bc
       -0.15558021 -0.45157233 1.4742745 -0.027490532
000230 99 f2 8d bb 43 e8 e6 bd fc 7d c0 bb 2c a3 89 be
       -0.0043318984 -0.11274769 -0.0058743935 -0.26882303
000240 84 8e 6f be b0 a6 60 bf 5e 0f 03 3f ec 06 ae 3c
       -0.23394209 -0.87754345 0.51195323 0.021243535
000250 e2 e8 25 bd 03 a9 97 3d dc 47 ab be 62 31 82 3f
       -0.040505297 0.07405283 -0.33453262 1.017132
000260 17 f5 3c be 1e e7 7d 3d c3 be fa 3d 3c 35 27 be
       -0.1845287 0.06198799 0.12243416 -0.16328901
000270 57 d1 45 bd 49 81 c1 3b e6 be 2b 3e 4c af ee bd
       -0.048295345 0.0059053046 0.1677204 -0.11654529
000280 ac 4b d8 3d a8 14 05 3d 8a 41 fc bd 3f cf aa bd
       0.10561308 0.032490402 -0.12317188 -0.0834031
000290 de cd 1c 3e f5 73 30 3d ac c9 4c be c4 13 b1 bd
       0.15312907 0.043079335 -0.19998807 -0.08646348
0002a0 0b 35 23 3e ba af c5 3c fd 75 cd 3e dc c5 ce 3d
       0.15938203 0.024131645 0.4012908 0.100963324
0002b0 f3 5b 94 3d 19 4b 45 bb ce 07 d6 be 57 74 6b 3d
       0.072441004 -0.0030104576 -0.4180283 0.057483997
0002c0 da 6b a0 3e 01 d5 18 be bc 74 20 3e 82 1d b3 bd
       0.31332284 -0.14925005 0.1566953 -0.087458625
0002d0 2c c3 36 3e 28 90 8a 3d 00 ec c0 3c d0 43 36 be
       0.1784789 0.06765777 0.023550034 -0.17799306
0002e0 26 0b 85 3d 9f 8a 2c be 10 d8 5f 3d 40 55 43 bd
       0.06496267 -0.16849755 0.054649413 -0.047688723
0002f0 40 c6 fa 3b 30 e8 50 bc 96 af 06 be 74 14 c2 3d
       0.007653028 -0.01275067 -0.13152918 0.094765574
000300 8d 07 0c be 78 6d 8e bc 24 69 04 be 0b a6 e6 bd
       -0.13674755 -0.017386183 -0.12930733 -0.11262139
000310 1c 10 f7 bd 3f b3 07 be ff a2 25 be f1 48 3a be
       -0.120636195 -0.1325197 -0.1617546 -0.18191887
000320 30 11 2d 3d 48 e8 3a 3d 18 44 df 3c 88 5d cf bc
       0.04225272 0.045631677 0.02725415 -0.025313154
000330 f8 a9 f0 3c 7c db 14 be cc cf 94 3d 0d 1e 12 be
       0.029377922 -0.14536852 0.072661966 -0.14269276
000340 f8 f2 2d 3e c3 47 0d be e1 3b 04 3e 2f 29 3d 3c
       0.16987216 -0.13796906 0.12913467 0.011545463
000350 46 3f 63 3e 79 0c a5 3d c2 81 1a 3c ca fa 1c bd
       0.22192106 0.080590196 0.009430351 -0.03832511
000360 03 a4 41 3d 46 1c ad 3c cd 30 76 3e 42 12 e4 bd
       0.047275554 0.021131646 0.24042054 -0.11136295
000370 d4 a2 86 3d 82 27 02 3d 9f 13 bd 3d 88 a2 d1 bc
       0.06574026 0.03177596 0.09232258 -0.025590196
000380 af 8e db bc 0b a2 18 be 2a 4d 42 3d 8a cf de bc
       -0.026801435 -0.14905564 0.04743687 -0.027198572
000390 95 d1 3b 3e 98 cf fc 3b dc b8 31 3d 8f d6 bf 3d
       0.18341668 0.007715177 0.043389186 0.09367096
0003a0 27 3d 10 be 3b 7a 0b 3d 6e f5 99 bd 8c ca 16 3f
       -0.14085828 0.034052115 -0.07517515 0.5890281
0003b0 c7 54 fe 3e 14 21 02 3d bf 7f 02 3e 1f 3c 37 be
       0.49674055 0.031769827 0.12744044 -0.17894028
0003c0 c2 ed a7 3e fc 3c 1d bf 8f b8 e7 bd 07 7f 64 3e
       0.32798582 -0.6142118 -0.11314499 0.22314082
0003d0 8a c9 6a 3d 23 be 7b 3e 18 0e e1 bc 41 b4 ef bd
       0.05732111 0.2458425 -0.02747254 -0.117043026
0003e0 c0 1a 95 3d 0f 0e 71 3e f0 9e 84 3e 72 bb c9 bd
       0.07280493 0.23540519 0.2590251 -0.098502055
0003f0 2c 3a 1f 3e e0 52 77 bc f1 81 81 3d e8 a5 3f 3d
       0.15549535 -0.0150954425 0.063236125 0.04678908

l2.bias f4 [256]
000000 08 2a be be 7a 62 c3 be a3 99 40 be 1d f9 40 be
       -0.37141442 -0.3816107 -0.18808608 -0.18845029
000010 bc 87 85 bc 34 05 3e bd e0 ed ba 3c 08 5d 4d be
       -0.016300075 -0.04639168 0.022818506 -0.2005502
000020 46 6d bd 3e 57 c0 c3 3e 30 05 d3 3d 5c e4 70 3e
       0.36997432 0.3823268 0.10303724 0.23524612
000030 ff 8d 99 bd 1d c2 49 3e 7b f1 7a 3e 4f 19 0b 3f
       -0.07497787 0.19702955 0.2450618 0.5433549
000040 94 9e 94 3e d4 25 6e 3e b6 c1 aa 3d ad 03 a2 be
       0.29027236 0.23256618 0.08337729 -0.3164343
000050 c5 49 02 3f 6f 48 23 bc 90 70 0d 3e ee 08 10 3e
       0.50893813 -0.009966 0.1381247 0.14065906
000060 75 80 a1 3d a7 a3 80 3e e5 31 4e 3e 61 77 12 3d
       0.07885829 0.25124857 0.20136221 0.03575838
000070 f0 68 6d be df 29 81 3e 02 75 a7 be bb 01 ed bd
       -0.23184562 0.25227258 -0.32706457 -0.11572596
000080 67 0b 28 be 9f 8b 9c bc 74 78 c2 3e a1 3d 26 3e
       -0.164106 -0.019109545 0.37982523 0.16234447
000090 43 73 b1 be 2e 0f 99 be 44 5e 58 3d 51 5f 98 3e
       -0.3465825 -0.29894394 0.052824274 0.2976022
0000a0 82 2c 96 3e 89 d6 0b 3e f2 a3 d3 bd 71 99 01 be
       0.29330832 0.13656057 -0.103340045 -0.1265619
0000b0 ab fb af bd 2e e3 9d bd 06 28 d2 3d bd 2a b0 bc
       -0.08592924 -0.07709347 0.1026154 -0.021504754
0000c0 6d a3 b7 3d 36 e7 17 be 4e 8d b9 3e f7 f9 94 be
       0.08966718 -0.14834294 0.3624062 -0.29096958
0000d0 ce 60 18 3e 27 65 8f 3e bf 85 b1 3d 39 c1 a4 bd
       0.14880678 0.2800686 0.08668088 -0.08044667
0000e0 a1 4a 8a 3e d6 f5 3c 3e 06 90 86 bd 54 c9 fd 3d
       0.27010062 0.18453154 -0.06570439 0.12391916
0000f0 6c b1 14 be 48 8f d3 be 56 45 9b 3e 1c 9c ec 3b
       -0.14520806 -0.41320252 0.30326337 0.007220758
000100 69 82 0f be f5 0d 06 3f fc 3b 5a 3e 8c 88 2a 3e
       -0.14014591 0.52365047 0.21311945 0.16653651
000110 6f ec 80 bd 46 52 34 bf bc bd ad 3e 02 e8 90 3d
       -0.06295096 -0.7043804 0.33933818 0.07075502
000120 d8 b8 b7 be b7 e4 7f be e7 0f be 3d 31 39 87 be
       -0.35883212 -0.24989592 0.09280377 -0.2641082
000130 52 0c 61 be f7 5b 75 3e a9 fe 84 be 0e 44 c8 bd
       -0.21977356 0.23960863 -0.2597554 -0.097786054
000140 b9 03 22 3e 0a 15 d6 3e 6e f6 b6 3d d9 cc 72 3e
       0.15821733 0.41812927 0.089337215 0.23710956
000150 3d 79 1d be ac 00 28 3e db 9c 0b be bf 2e 69 bc
       -0.1537828 0.16406506 -0.13634054 -0.014232337
000160 c0 07 90 3d 6c 33 14 3f d7 df 65 3e fb 1c 2e bc
       0.07032728 0.57890964 0.2244867 -0.010627027
000170 80 34 56 3e 6a ef d4 3e 1f 04 f9 3d e0 a6 d4 3e
       0.20918465 0.41588908 0.12158989 0.41533566
000180 33 5c 0b be 5a d0 18 bd da 74 06 3e 3e 20 f2 3e
       -0.1360939 -0.037308075 0.13130513 0.47290224
000190 3b b9 36 3f 2a d9 d2 bd 35 8b f8 3e 82 a2 6d bc
       0.7137639 -0.10295327 0.48543707 -0.014504077
0001a0 13 da ef bd e2 d2 1e bd 5f 03 b8 bd cc 1c 20 bf
       -0.11711516 -0.038775332 -0.08985018 -0.6254394
0001b0 a6 56 8f bc 58 54 33 3e a5 40 3b 3f 91 c1 ac 3e
       -0.017497372 0.17512643 0.73145515 0.3374143
0001c0 12 d1 08 3e cb 07 2d be 05 ef 4f be 93 2f 0a 3f
       0.13361004 -0.16897504 -0.20306022 0.5397884
0001d0 e2 02 c7 3d e7 9f 56 bf 59 6e ca be 63 d6 4f bc
       0.09717347 -0.8383774 -0.39537314 -0.012685391
0001e0 51 8f 74 3e b4 71 2d bd 4a 6e 68 3c 40 34 a1 3e
       0.23882796 -0.042344764 0.014186451 0.31485176
0001f0 61 8f 17 3f 95 47 c8 3d 8d c2 48 be 44 81 3e be
       0.59203154 0.09779278 -0.19605465 -0.18603998
000200 91 b5 f3 3e 06 72 50 3e 8f 0a f6 3e 13 62 92 be
       0.47599462 0.20355996 0.4805493 -0.2859045
000210 8b 01 b2 3e e1 30 0d 3e 30 6b c3 3c c3 f8 f7 3c
       0.34766802 0.13788177 0.023854822 0.030269986
000220 83 e9 b3 be ce 07 56 3e 4f e6 86 3d b2 31 ac be
       -0.35139093 0.20901415 0.06586897 -0.33631665
000230 7d 66 ea 3d 43 ec 82 3e ed 94 21 3e 2b a3 67 3e
       0.11445329 0.25570878 0.15779467 0.22620837
000240 42 f7 4f 3e 3a 64 34 3e 46 56 8d 3e 2b b8 d1 be
       0.20309165 0.17616358 0.27604884 -0.40960822
000250 79 b3 1a 3e 9d 09 1a be 8b b1 d0 3e 9c 31 3e 3e
       0.15107526 -0.1504273 0.40760455 0.18573612
000260 4b 21 dd 3e 8f 54 b5 3e 80 77 f0 3e 0d 91 b5 3c
       0.43189463 0.35416076 0.4696617 0.022163892
000270 0b 9f 83 3e a1 22 34 be 47 91 12 3e b2 67 c2 bd
       0.25707278 -0.17591335 0.14313231 -0.094924346
000280 38 b8 de bc ba e3 3a 3e 3c 71 fb 3d 79 cc bc 3e
       -0.027187452 0.18250933 0.12277457 0.3687475
000290 0b 2f 13 be 01 73 27 3e 28 8f 50 be 96 74 d0 3d
       -0.14373414 0.16352464 -0.2036711 0.10178487
0002a0 86 3d 7b 3e d0 60 30 3f 3c 46 dd 3e 59 6f 0a be
       0.24535188 0.68897724 0.43217647 -0.13519038
0002b0 9a 44 87 3e 3f e8 ef 3e db 26 10 3e 95 26 91 3e
       0.26419526 0.46856877 0.14077322 0.28349748
0002c0 1e a2 ac 3e b5 a7 5b be 24 ee 0b be ff 35 a4 be
       0.33717436 -0.21450694 -0.13665062 -0.32072446
0002d0 11 77 83 3d 37 92 66 be c9 42 f8 3d c6 cd 62 be
       0.064191945 -0.22516714 0.12122113 -0.22148809
0002e0 63 6c 2d be de 96 b3 bd a2 f3 11 3e 3d 5d bd 3d
       -0.16935878 -0.0876901 0.14253095 0.092462994
0002f0 b2 eb 8e 3e fa c9 4f be c3 ed a3 3e 30 ae d2 be
       0.27914196 -0.20291892 0.32017335 -0.4114852
000300 cb a8 77 be b8 d6 21 3d 44 65 92 be 1c cd 89 3e
       -0.24185483 0.039511412 -0.28592885 0.269143
000310 e9 1b 19 be bf f2 11 be 52 9f 02 3d 30 f2 8c 3e
       -0.14952053 -0.14252757 0.03189022 0.27528524
000320 89 5f 90 3d 97 18 5d 3e 04 2f 8e 3e fc f0 9f 3d
       0.07049472 0.21591412 0.27770245 0.07809636
000330 d8 84 19 be 3e fd e4 3d 42 39 30 bf c9 66 cd 3d
       -0.14992082 0.111811146 -0.6883737 0.1002937
000340 8c e5 81 3b db 9c 9e 3e fc 7c 8b be 22 ac ff 3e
       0.0039641317 0.30979046 -0.27243793 0.49936014
000350 42 8a a9 3e 75 3b a3 3e 8f 1a 21 3e d0 8b 08 bc
       0.33113295 0.318813 0.15732788 -0.008334115
000360 31 1f cd be 13 9e 41 3d 18 55 89 be 83 40 9e 3e
       -0.4006286 0.047269892 -0.26822734 0.30908594
000370 2e f6 bf 3e 10 d9 cc 3c 01 18 09 be 96 ee a5 3d
       0.37492508 0.025005847 -0.13388063 0.08102147
000380 64 73 af 3e b0 8a a6 bd eb 24 23 3e 0f d2 dc 3e
       0.34267724 -0.08131921 0.15932052 0.43129012
000390 5b 0f 9e 3e c6 5d 78 3d 90 6e 12 3f 9a aa 8f bd
       0.3087109 0.060636304 0.57199955 -0.070149615
0003a0 bf 98 81 3e 39 c1 90 3e 2c aa 09 3f 22 c3 96 be
       0.2531185 0.28272417 0.53775287 -0.2944575
0003b0 54 33 80 3b 44 ad 9c bc db df 9a be 71 90 c7 3e
       0.003912369 -0.019125588 -0.30248913 0.38977388
0003c0 92 88 88 be ee 2f 80 3d c4 7b 83 3e fe 19 19 3e
       -0.26666695 0.06259142 0.25680363 0.14951321
0003d0 c4 d3 74 3e a5 fd 47 be 49 42 97 be a1 63 dd 3e
       0.23908907 -0.19530351 -0.2954276 0.43240073
0003e0 4a db 91 be 48 a6 9e be e9 ac a7 be 1e 0d e5 bc
       -0.28487617 -0.30986238 -0.32749107 -0.027960356
0003f0 71 3f ff 3e 58 a5 82 be 01 f6 ae be af e7 59 3e
       0.4985309 -0.25516772 -0.3417206 0.21279787

l3.weight f4 [64, 256]
000000 0a 98 a5 bd 02 c1 37 be 8d 79 e6 bc f4 c5 34 be
       -0.0808564 -0.1794472 -0.028134132 -0.17653638
000010 5a 39 4f be 17 ca 02 bf 5a de 51 bd 20 0a 1d be
       -0.20236722 -0.51089615 -0.05123744 -0.15335894
000020 6b 4d 5c 3c d9 d0 49 ba 28 37 b9 3c af 73 a3 3d
       0.013446192 -0.0007698662 0.022609308 0.07981049
000030 52 47 9a be 31 6b 9e bd b5 92 21 be bd b8 a3 3d
       -0.30132538 -0.07735289 -0.1577862 0.079942204
000040 8d 6d 1d be db 8b 17 3e 48 21 de bc ad f7 11 be
       -0.15373822 0.14799444 -0.02711548 -0.14254637
000050 bf c3 41 3e 7d 20 93 3c fd c5 97 be 02 3c e4 bd
       0.18922327 0.017959828 -0.2964324 -0.11144258
000060 eb 7f 58 3f 0d a8 d1 3e f3 07 f0 be 71 6e 82 3f
       0.8457019 0.40948525 -0.46881065 1.0189954
000070 a8 88 88 be 19 c5 d4 3d f0 82 82 be 8a a4 f4 3e
       -0.2666676 0.10389156 -0.25490522 0.47781783
000080 c0 75 04 3c 34 07 b5 3e 8f c8 d6 3b 8a 7d 0f 3e
       0.008084714 0.35357058 0.00655467 0.14012733
000090 a9 92 00 bf 25 ab 8b be 56 cd 3a be 82 bc ad be
       -0.50223786 -0.2727901 -0.18242392 -0.33932883
0000a0 95 88 05 bf 5e be 2f 3e cf e3 e7 bd d6 17 27 be
       -0.5216153 0.17162463 -0.11322748 -0.16317686
0000b0 d7 0e 83 bd 37 be 35 3d e2 32 c8 3e 3f 89 07 3e
       -0.06399315 0.044370856 0.3910132 0.13235949
0000c0 78 1a d7 3e cc 88 97 be ce 27 83 3d 54 13 c4 3b
       0.42012382 -0.29596555 0.064040765 0.0059837494
0000d0 6c a7 05 3e 39 9b b2 bc da 2b d0 bb bc f5 5a 3f
       0.13052148 -0.021802532 -0.0063528838 0.8553121
0000e0 63 af bd be 9f e7 cc bd c9 2a 23 be c3 53 01 3f
       -0.37047872 -0.10005116 -0.1593429 0.50518435
0000f0 5f ab 85 bd 4b 09 5e be 9b 0f 5b 3d a3 db 36 3d
       -0.06526827 -0.21683232 0.05348168 0.044643056
000100 b6 12 38 be 46 83 02 3d 5f 09 d8 3d 53 ca 1f bf
       -0.17975888 0.031863473 0.105486624 -0.624181
000110 e2 be 65 be 03 f6 ab be db 04 00 ba ac b8 1c 3a
       -0.22436097 -0.3358613 -0.0004883536 0.0005978446
000120 ed b1 ab be 6e 13 c1 3e f8 60 37 3d 94 29 a4 be
       -0.33534184 0.37710136 0.04477021 -0.32062972
000130 5a 86 cb 3d b7 45 2c 3d f0 bd 2b be 24 21 84 bf
       0.09937735 0.042058673 -0.16771674 -1.0322614
000140 39 4c da 3d 3b 55 bc 3e 39 36 ad be 67 1e eb 3c
       0.106590696 0.36783776 -0.3383043 0.02870102
000150 12 a2 da bc a8 98 02 bd 13 05 f8 bd 25 cd e5 3d
       -0.02668861 -0.031883866 -0.12110343 0.11220769
000160 c7 1f 14 bc 97 13 f7 3e 2c 4f 8b be a6 11 1d 3d
       -0.009040779 0.48257133 -0.2720884 0.03834691
000170 52 e2 d1 bd 07 b4 07 3f 6e 25 b4 3d 70 76 84 bd
       -0.10248245 0.53009075 0.08796202 -0.06467903
000180 06 36 78 3e 26 37 b6 3e 63 8f df 3e b3 49 0c be
       0.24239358 0.3558895 0.43664083 -0.13699989
000190 49 ed 02 3e 05 41 75 be 52 58 3d 3f fb 79 02 bd
       0.1278583 -0.23950584 0.7396289 -0.03185461
0001a0 6b b1 3b bd eb 08 8a be 8f d1 3e be 62 7b 90 be
       -0.045823496 -0.2695993 -0.18634628 -0.28219134
0001b0 13 3e e7 be 81 a3 1c 3c 49 e7 3c 3d 60 73 74 bd
       -0.45164546 0.009560467 0.04611901 -0.059680343
0001c0 2c 7c 87 3c 6b 5e b2 be f9 aa 14 be 11 83 f5 be
       0.016538702 -0.3483766 -0.14518346 -0.47951558
0001d0 86 2f 62 3d 92 eb b5 be 8a e2 70 3e 44 c0 82 be
       0.055221103 -0.35531288 0.23523918 -0.25537312
0001e0 62 f7 07 3d 43 46 17 be 80 63 05 3e d6 8a 83 bd
       0.033194907 -0.14772896 0.13026237 -0.06422965
0001f0 f4 20 78 3e ba 26 a8 3d fc 26 50 bd 20 48 36 3d
       0.2423132 0.082105115 -0.05081843 0.044502378
000200 64 b3 be 3e b2 52 a8 3d 4b 37 6f 3f 65 4a 30 be
       0.3724624 0.08218898 0.93443745 -0.1721588
000210 cb 0c d6 be c0 43 b3 3d 8a 97 3c 3e ca 10 b5 be
       -0.41806635 0.08753157 0.18417183 -0.35364372
000220 e6 b6 9b bd 69 4a a6 3e f5 fb 18 3d c6 01 13 be
       -0.076032445 0.32478645 0.03734966 -0.14356145
000230 ff fc 02 be ae 8e f0 3d 39 8d 02 bf 78 51 37 be
       -0.12791823 0.11745964 -0.5099674 -0.17902172
000240 98 79 36 3d 40 58 d3 3b de 26 c6 be 73 de 4d be
       0.044549555 0.006449729 -0.38701528 -0.20104389
000250 91 16 b6 3d de 75 62 be f0 29 b4 be a6 d9 3a 3d
       0.08891023 -0.22115275 -0.35188246 0.045617722
000260 3e 37 07 bf 6a 16 9b 3d ad 5f ed 3d 83 e2 e8 bd
       -0.5281867 0.075726345 0.11590514 -0.11371329
000270 f8 76 9b be 94 68 5d be 58 17 0c 3f 1f 87 96 bd
       -0.30364203 -0.21621925 0.5472312 -0.07349991
000280 44 99 03 bd 35 fa 85 3d 43 19 0d bd 3f 26 02 3d
       -0.032128587 0.06541864 -0.03444792 0.031774756
000290 b1 10 49 bd 9d 4a 87 3d 0a df ce bc 10 b4 15 be
       -0.049088184 0.06606028 -0.025252838 -0.1461947
0002a0 23 78 03 3e f2 6e d1 3d 00 7d 6d 3e f2 ec 89 be
       0.12838797 0.10226239 0.23192215 -0.26938587
0002b0 e4 08 00 be 77 00 27 be b2 26 48 3e bc 80 4e bb
       -0.12503392 -0.16308771 0.19546011 -0.0031509837
0002c0 62 3e fa 3e ff c9 27 be ce 35 61 be a6 83 16 bf
       0.4887572 -0.16385649 -0.21993181 -0.5879463
0002d0 47 24 fa 3d d5 0a 66 3d f8 f7 c0 3e e0 ca e2 bd
       0.122139506 0.056162674 0.37689185 -0.110738516
0002e0 fa b6 3a 3e c9 0d 92 3c 80 83 5b 3d e6 14 bc 3d
       0.18233863 0.017828839 0.053592205 0.091836736
0002f0 ce 04 71 3e 2f 66 b9 be c2 23 e1 be 82 d8 d9 bc
       0.23536989 -0.36210772 -0.43972594 -0.026592497
000300 39 43 e7 bd 78 9d 7b bf 7e 4c 0a be 75 53 9c 3d
       -0.112921186 -0.98287153 -0.13505742 0.07633106
000310 d3 59 cb 3e 28 fd 81 bc ee 71 af bd ef 9f 6f be
       0.39716968 -0.015867785 -0.08566652 -0.23400854
000320 80 6d bc 3b 81 68 16 3e e0 8c 09 3f 1e 5a e7 3d
       0.005750358 0.14688303 0.53730583 0.11296485
000330 30 36 d7 bc 03 d2 14 3e 3c 2a 81 bf 6c ca 7a bb
       -0.026270956 0.14533238 -1.0091014 -0.0038267625
000340 d0 16 4a 3d 86 fc f7 3c b5 9f 9d bd e4 10 18 3b
       0.049338162 0.03027178 -0.07696477 0.0023203427
000350 0d 4a 21 3e 08 f4 cd bd 1d 8f c7 3e a4 12 ba bc
       0.15750904 -0.10056311 0.38976374 -0.022713967
000360 68 ee ee bd 0d d8 e9 bd da 9c 6b 3e 20 0a 63 bd
       -0.11666566 -0.114181615 0.23009053 -0.055429578
000370 55 da cd 3d c2 70 88 3e a8 e8 90 be 36 2b f3 3d
       0.10051409 0.26648527 -0.28302503 0.11873476
000380 9b 29 82 3b c8 e4 ed 3c 5b 34 23 be 67 cf 56 3e
       0.003972245 0.029039755 -0.15937941 0.20977555
000390 53 bd 1a bd 07 24 9d 3d 2f cd af 3e 40 4c e9 3d
       -0.03777821 0.07672887 0.3433623 0.11391497
0003a0 08 6c 56 3d 8c e2 22 3e b6 1a 85 3d 4f 9c 7b 3d
       0.05234912 0.15906733 0.06499235 0.061428364
0003b0 49 9a 5b be e9 21 3f 3e 1d 2f 0b be 06 86 97 bc
       -0.21445574 0.1866528 -0.13592191 -0.018496525
0003c0 1b ac 60 bd 54 84 c7 3d 13 0e 95 3d 1b 8b ab 3d
       -0.054851633 0.097420365 0.07278075 0.08376142
0003d0 d9 bc 96 be 4b cc 54 bd a1 d9 ce be 35 a5 d0 3c
       -0.29440954 -0.05195264 -0.40400413 0.025469402
0003e0 b2 ef d2 bd 36 90 4a be c4 a6 a1 be f1 9f 05 bc
       -0.102996245 -0.19781575 -0.31572545 -0.008155809
0003f0 39 8a 53 3d 1d 7f e1 bd 46 0c 8e 3d da d2 8e be
       0.05164549 -0.11010573 0.06935935 -0.27895242

l3.bias f4 [64]
000000 19 22 cd 3e 51 de 30 3c 19 88 f3 3d 3c 2e 3c 3e
       0.40065077 0.010795192 0.11891193 0.18377012
000010 25 bd 23 3d 32 1f 0b 3d d5 61 70 bc ef d2 5a 3d
       0.039975304 0.033965297 -0.0146717625 0.05342382
000020 b4 dc 08 3b ae 50 2b 3d c1 0f 89 3b e8 30 c6 3d
       0.0020883502 0.04182499 0.004182786 0.09677297
000030 22 90 a6 bb e5 64 1b 3d ed 23 9c 3c 1f 49 47 3d
       -0.0050831 0.037938017 0.0190601 0.048653718
000040 cd 36 82 bc 0a 23 65 3b ec e4 72 bc fe 57 29 3d
       -0.015895272 0.0034963512 -0.014825087 0.04134368
000050 32 d3 e0 3e fb 52 98 bb a7 17 f6 3c ce 37 1a 3e
       0.4391113 -0.004648564 0.030040575 0.1506035
000060 75 e1 2d bc 04 38 a5 bd 51 03 d3 3c b9 96 46 bd
       -0.010612835 -0.08067325 0.025758417 -0.048483584
000070 88 e3 2a bd 7f 3c 38 3d b4 7f a7 bc d5 e3 cd bc
       -0.041720897 0.04497957 -0.020446636 -0.025133053
000080 0c a6 4a 3e 29 4b f4 3e 6c 23 f3 bc d9 9d c8 3d
       0.19789904 0.47713593 -0.029679976 0.09795732
000090 42 51 4e 3c 0a bf 45 3e 28 47 3a 3d bb a2 10 3a
       0.012592616 0.19311157 0.045478016 0.0005517413
0000a0 06 1e b8 3c 32 83 fc 3c d5 5e 0a bd 06 be 1f 3b
       0.022475254 0.030824278 -0.033781845 0.0024374737
0000b0 f8 3a 28 3e 85 4f 52 3e 2d e4 b1 3c 3d 41 19 3d
       0.16428745 0.20538147 0.021715248 0.03741573
0000c0 0e 47 bb 3c 38 f9 65 3d 84 3e 3e 3d e5 ae 17 bd
       0.02286103 0.056145877 0.04644634 -0.037032027
0000d0 34 1b 02 bd cf dc 2a bd a4 5a 72 bc 90 32 18 bc
       -0.031764224 -0.041714486 -0.014792118 -0.009289399
0000e0 46 81 07 bd b4 e0 77 bd 6e f1 9c 3d f5 80 08 bd
       -0.03308227 -0.060517028 0.076632366 -0.033326108
0000f0 81 63 24 3b 9c c3 09 3d 55 7c 7d 3d 7e 9c 42 3d
       0.0025083723 0.033633813 0.06188615 0.047512524

l4.weight f4 [1, 64]
000000 76 8e de bf 23 d5 30 bf 2c 90 47 bf 65 12 7c c0
       -1.7387226 -0.6907522 -0.77954364 -3.9386227
000010 54 48 16 bf 4a bc a7 bd 81 3b e0 3e c4 51 f4 3e
       -0.58704114 -0.0819021 0.43795398 0.47718632
000020 59 82 74 3d 71 d7 52 bd b7 bb ec 3e a7 9d 36 bf
       0.05969462 -0.051474992 0.46236965 -0.7133431
000030 61 ab ed 3e 77 e4 b8 bc eb 6b fe 3e 0a e9 de 3e
       0.46419814 -0.022569878 0.4969171 0.4353717
000040 54 72 8c bd 86 05 a1 bd 7d 4d 98 bd cd 35 97 bc
       -0.06857744 -0.07862382 -0.07436655 -0.018458271
000050 69 6a 84 c0 bc 2a f0 3e b3 64 ea 3e a9 d8 cc be
       -4.1379895 0.46907604 0.45779952 -0.4000905
000060 49 6f bb 3e 98 00 0c bf 38 fb d1 3e f6 31 2a bd
       0.3660834 -0.54688406 0.41011977 -0.041551553
000070 75 29 e5 3e d7 6e 30 bd de 95 ef 3e 77 88 c6 3e
       0.44758192 -0.043074455 0.46794027 0.3877599
000080 12 54 83 c0 8d 3f e9 bf d2 9b 6a 3d 31 68 94 be
       -4.1040125 -1.8222519 0.057277508 -0.28985742
000090 42 71 bb 3e b1 c5 bf bf db 9a e1 3e 17 92 d8 3e
       0.36609846 -1.4982206 0.44063458 0.42298958
0000a0 b8 99 eb 3e a2 2e 33 bf 90 68 ea 3e c0 d2 26 bf
       0.46015716 -0.6999303 0.457829 -0.6516533
0000b0 21 a0 62 c0 47 b0 63 c0 4d dd f9 3e 6a 0f ee bd
       -3.5410235 -3.557634 0.48801652 -0.11624034
0000c0 29 d9 39 bf a0 ee 14 3d 87 4d de 3e ed 12 fa 3e
       -0.72596985 0.036360383 0.43418524 0.48842564
0000d0 91 c2 b9 3e 1b 4e ef 3e bf 5c 3c bd 14 1c b2 3d
       0.36281255 0.46739277 -0.045986887 0.08696762
0000e0 4f 65 e3 3e 7f 69 3d bd bb 37 30 bf 1c bb 80 3c
       0.4441323 -0.046243187 -0.6883504 0.01571422
0000f0 04 a9 30 bf bc e4 84 3d 56 ea 23 bf e0 5d d5 bc
       -0.690079 0.0648894 -0.64029443 -0.02604574
