turtlebot3_machine_learning/turtlebot3_td3/steer&spd/models121_60/TD3_stage2_critic_1_target.pth (torch_old, 104889 bytes, 7 tensors)

l1.weight f4 [24, 60]
00000000: 1dcb 583e cf03 f03c 89a6 85bd 4de3 5a3e
00000010: a085 7a3d d291 693e ee0d a03b c693 a43e
00000020: 7dcb 113e 279d 823e b1e1 553e 56bf 723e
00000030: 5a94 bb3d 7fe3 0d3e b140 85bd 62ab fb3d
00000040: be46 7fbd b032 bfbd 0a82 2abe cf5b c5bd
00000050: f3cf 83bd c83f 55bd 7184 62be 6f4b 77be
00000060: a998 72be 3eec a33e 6b43 87be c33f 9d3e
00000070: caa5 063e 924b da3d 0ba2 233e 8c37 3fbd
00000080: 1d70 eebd ef95 05be 6a57 57be 933c 09be
00000090: 2bdb a43d 547b 04be 767e 183e 3453 dabd
000000a0: a739 203d 4934 2c3d cfd7 e6bd 10ea dd3c
000000b0: e1d7 813c 75e0 91be abb7 6bbd 860c 33bc
000000c0: 1a96 d3bd d356 b8bd 2a26 dabd a1a6 4ebe
000000d0: 394a 273e 0321 dc3d a6f1 693d f533 023e
000000e0: 0c16 983e d72d 193e b6cb 373d efd0 3e3e
000000f0: d02a 833e 8fcd 083e 5fcf 153e 43c7 5d3e
00000100: 0370 743e 05a4 3c3e 4947 863c 76a8 a73e
00000110: cfb9 a8bb 5e0b 9e3e 9e4b e73c 3c02 fb3d
00000120: ae81 1d3e 000e 6c3e 61c2 a43e 9a89 903e
00000130: ad37 373d b323 913d f3f4 a83d 25d4 543d
00000140: 9a85 d43d e103 263c 1818 433e 1960 9a3e
00000150: 6775 423d 0fb7 dc3d 0b63 0b3e fb4b ae3d
00000160: 3442 bb3d b872 583d 9f66 d6bd 59e7 6d3c
00000170: 9d2f c0bc b39e 0bbd 1da7 41be 5ca1 eebc
00000180: 8018 15bc 83eb b9bc 3114 99bd a3ee 16bc
00000190: c3a8 31bb a5f1 3d3d 97ef eb3a 5263 52be
000001a0: 5cd1 8fbe d53d 26be 4cdd 00be 3c71 0bbe
000001b0: c4c8 d5bd dae6 58be 4b31 d1bd 84bc 86bd
000001c0: 74d9 f1bd c7c3 0dbe 3d97 7bbe a796 30be
000001d0: 8840 52be d6c1 dabd df76 d9bd e5c8 89bc
000001e0: c778 8abe e119 5dbe fd2e 43be dfc5 0dbf
000001f0: 088d acbe 888f 15be ad7c 0abe 5a58 2cbe
00000200: dea1 6fbe a611 50be 1251 5ebd a9b1 353c
00000210: 1ee0 5dbc 1204 6cbc c133 893c 973d d43c
00000220: 9a35 973e 4c7d e13d 9ac6 203e 1efa 0dbd
00000230: 5fa1 473e 5f41 5c3e e577 f33c 5738 9fbd
00000240: 6d08 893e 7736 263e 9e13 7cbd 48fa 82bd
00000250: bb69 873d 99a1 69bd d516 6d3d f879 053e
00000260: 3cc7 d9bd 5ef7 0c3e a0f2 23be 5823 87bd
00000270: ab94 1cbe b866 aa3d 648d 783e b060 cf3d
00000280: 751f f03c 6cdd 8e3d f037 f83d c749 88bd
00000290: db29 81bc 71e3 02be 7c2b 94bc f80f 9dbd
000002a0: 9506 8ebd e934 993d b028 75bc 3891 b73d
000002b0: 38b2 f93d 8dbe 0a3e 83e5 583e b328 1e3e
000002c0: 68c8 7f3e fd7a a43d d540 a53d b73b 753e
000002d0: 6895 823e 6f52 063c 0c4c 5c3d 866d 1dbd
000002e0: 82ee df3d 5ac2 993d 9338 b63d 3ee1 d03d
000002f0: 8798 a5bd 8a0e 3b3e 4b34 bdbd f321 013d
00000300: 0da3 f53c 069b b93c f543 5bbc f505 19be
00000310: 78f6 94bc 5c84 7abd a4ac fdbd 3f7b 93bd
00000320: 7a4b bebc 87d6 44be 42dd 8abd c28f 99bd
00000330: 1cea 9fbd 88d4 64bd 441c a23e 983d e53d
00000340: 20e0 a93e 925a 003f 94d4 3c3e de2b 7f3e
00000350: 5a5b 863e 93ef 173e 05f9 a03c 66c6 58be
00000360: 7e44 70bd 5217 be3d a98e 33be c356 d0bd
00000370: 0481 30ba fa40 15be af26 83bd 70a2 793d
00000380: efc6 8b3c 94c3 643e 655f b03b 24ad 3a3e
00000390: bde1 2c3e 5358 253e 05b4 213e d709 583d
000003a0: 98bb 0a3d b09a 3e3e 783c 323d 5130 13bd
000003b0: 70f1 1f3d f34f 6bbc d22c 663c 8919 8abd
000003c0: 29ae 6dbe 0192 08be 49e7 b9bd ed01 40be
000003d0: 62ed f5bd 86bd ddbd 8b02 96bd 1c69 103e
000003e0: 4e62 67bd 0dc7 8d3e c3e5 8bbe d622 fbbb
000003f0: 06b7 053d 8acd 39be 0edb 00be 75d6 903d
0.21171232 0.029298691 -0.06525905 0.21375771 0.06116259 0.22809532 0.004884473 0.32143992
0.14237781 0.25510523 0.20886876 0.23705801 0.09159155 0.13856314 -0.065064795 0.12288548
-0.062323324 -0.0933584 -0.16651168 -0.09636652 -0.064361475 -0.05206278 -0.22120835 -0.2414987
-0.23691048 0.32016176 -0.26418623 0.3071271 0.13149181 0.10658945 0.15979783 -0.046683833
-0.11642478 -0.13045476 -0.2102944 -0.13402013 0.080496155 -0.12937671 0.14891991 -0.10660401
0.03911748 0.04204205 -0.11271631 0.027089149 0.01585001 -0.2849156 -0.057548206 -0.010928279
-0.10331364 -0.090009354 -0.106518105 -0.20180751 0.16336907 0.10748484 0.05711522 0.12715133
0.2970432 0.14958893 0.04487201 0.1863439 0.256186 0.13359664 0.14629887 0.21658044
0.23870854 0.18421943 0.016391413 0.32745713 -0.0051491032 0.30868047 0.0282343 0.122562855
0.153815 0.23052216 0.3217955 0.28229982 0.04473083 0.07086887 0.08249845 0.05196013
0.10377045 0.010132761 0.1905216 0.30151442 0.047475245 0.10777103 0.13612 0.08510586
0.091434866 0.05284378 -0.10468792 0.01452049 -0.023460204 -0.034086894 -0.18911405 -0.029129677
-0.00910008 -0.022695309 -0.07474554 -0.009212169 -0.0027108646 0.04637303 0.001800048 -0.205457
-0.28089416 -0.16234525 -0.12584418 -0.13617414 -0.10438684 -0.21181813 -0.1021448 -0.06578925
-0.11809054 -0.13844214 -0.24569412 -0.1724497 -0.20532429 -0.106815025 -0.10618376 -0.016819427
-0.2704527 -0.21591903 -0.19060893 -0.5538005 -0.33701348 -0.14605534 -0.13524123 -0.16830578
-0.23401591 -0.20319232 -0.054276533 0.011089721 -0.013542203 -0.014405267 0.016748311 0.025908275
0.29533082 0.110102266 0.1570076 -0.03466236 0.19495152 0.21509312 0.029720256 -0.07774418
0.2676424 0.16231714 -0.061542146 -0.063953936 0.06611963 -0.057038877 0.057883102 0.13034809
-0.10633704 0.13766238 -0.16010523 -0.06598538 -0.15291087 0.08320373 0.24272686 0.101258636
0.029311875 0.069758266 0.12120044 -0.06654697 -0.015767029 -0.12782075 -0.018087141 -0.076690614
-0.06934849 0.07480795 -0.014963314 0.08963245 0.12192196 0.13549252 0.21181302 0.15445213
0.24978793 0.08031271 0.08069006 0.2394856 0.25504613 0.008198365 0.05378346 -0.038434528
0.10934164 0.07507773 0.088975094 0.101992115 -0.08085733 0.18267265 -0.0923849 0.031526517
0.029984975 0.022656929 -0.013382901 -0.14943679 -0.018183932 -0.061161384 -0.12386444 -0.07201242
-0.02322935 -0.1922246 -0.06780483 -0.07498123 -0.07808325 -0.055866748 0.3166219 0.11193389
0.33178806 0.501382 0.18440467 0.24919078 0.2624157 0.14837484 0.019649992 -0.21169433
-0.05865907 0.09281792 -0.1753489 -0.101727985 -0.0006733092 -0.14575568 -0.06403863 0.060945928
0.017062632 0.22340232 0.0053824657 0.1823011 0.16882987 0.16146974 0.15791328 0.05274376
0.03387031 0.18613696 0.0435147 -0.03593475 0.039048612 -0.014362323 0.014048772 -0.06743152
-0.23210968 -0.13336946 -0.09077317 -0.18750735 -0.12008168 -0.10827164 -0.07324704 0.14102596
-0.056490235 0.27690926 -0.27323732 -0.007664065 0.032645248 -0.18144813 -0.12583563 0.070721544

l1.bias f4 [24]
00000000: fe78 8b3f 0c83 91bd 70fb a23d 3c8a 95bc
00000010: d431 923d 1e41 a4bc 415d 683e 4547 273c
00000020: 98b4 c03f 8878 f83c fc93 b53c 5ec2 dd3e
00000030: d879 cf3e efac a5bd 2b68 de3e f4dc 013e
00000040: 9602 6d3f 1a9d fbbe 3093 c2bd 1e48 d23f
00000050: 3e66 153e f58d 6abe 3187 5a3f bf04 a1bd
1.0896299 -0.07105073 0.07958114 -0.018254392 0.0713841 -0.020050582 0.22691824 0.010209863
1.5055113 0.030330911 0.022165291 0.43312353 0.40522647 -0.08089625 0.4343885 0.12681943
0.9258207 -0.49143296 -0.0950073 1.6428258 0.14589784 -0.22905715 0.85362536 -0.07862233

l2.weight f4 [256, 30]
00000000: 16f2 96be d248 14be 00e3 fd3d 41d5 953b
00000010: 14f1 e63d 7f10 22bd 4ea1 063f 1e8d b63c
00000020: a55e 8dbe 8b92 10be 7e87 92be 1a94 25bd
00000030: 874a c23c b8f5 1c3e 8ea0 12bf 177b 2fbe
00000040: f50b 813e be2b cfbe 7466 1abe b8ee 47be
00000050: e700 cb3c 5e9f aa3e 165e 4ebe b4a7 053d
00000060: 89ff 23bf ad15 523e b2de 3c3e 7895 863d
00000070: e6ca e2bd fb24 c9bd 462c 913e a974 81be
00000080: d28e 95be 07db 843b 4985 dfbd 4530 b53d
00000090: 079d 42be 616b 9b3d d11d 783e e8e7 45bd
000000a0: e044 74be 5cf7 42be b1c3 543d 0178 5ebd
000000b0: 1278 eb3d e513 9cbe 4b08 abbb 2fd2 9bbc
000000c0: 083d 26be ac29 853e e299 c9be 35cf bfbc
000000d0: e3c9 1f3e f897 b2bd a756 293e ddb0 12be
000000e0: 2f21 923f f891 ae3b 73aa 1a3e 0231 2bbd
000000f0: 237b 013d bbb5 14bd f7e9 783e 02d4 b23d
00000100: ce07 ab3e 0b93 86bd 2839 16bd cff3 d23c
00000110: dc6c 91be 8917 cbbd 708e c7bd be88 d73e
00000120: 0211 ab3d 0e41 12be f1d4 aabd 2cc0 d7bd
00000130: 90da 1e3d a669 323e 1c56 37be c0c1 aabc
00000140: 7fa5 053f aeb0 7dbc abf2 073e 10a4 a33d
00000150: a33c f6bd 3f3c e9be 87b5 09bf 7d95 78be
00000160: 40db db3e 5685 f13d 8deb 24be 332b 2cbe
00000170: 3041 d7bc d44d 0d3d f019 9dbc 8cf5 23be
00000180: 834d 9abd 2565 31be 9c4d fbbd 883a fd3c
00000190: 5885 1dbe 5830 d9bd a056 803c 6c6e 6e3d
000001a0: 3c29 23bd 85c8 33be 7024 1cbc bd09 83bd
000001b0: 102f b33d d0f5 de3d 46ca 7ebd a985 25be
000001c0: eb51 2ebe 269a 1cbe 5cb4 bbbd 087f abbc
000001d0: 402f 963b f418 20bd 34f3 043d 0a9b 1b3e
000001e0: 436d ed3c 0bb7 8dbe bdc2 463e b558 403e
000001f0: 3174 a13e df14 dd3d 589c cabd e63a 06bd
00000200: 98d3 8bbd 0c21 223d 6450 1abf 3f50 0bbe
00000210: 6f94 263e c83c 003d 1b0d 45bd 1be5 79be
00000220: 5bcd 353d 2f0d 773e dd6f 00be 751a 1abd
00000230: 8e76 75be ee96 8ebe bf86 913d 407f c93d
00000240: 7acb a5bf 2452 903e 6c8c d03f 1260 abbd
00000250: 69db 523e 9d1a fcbe b9fd 0b3d 126d 363b
00000260: a007 d9bd aa54 bbbc 3555 e73d d4f7 433d
00000270: 8390 24be 3423 cc3d 3cd0 bcbb d093 b43d
00000280: 9b4b 02be 152f 91be 6f70 c8bd 3c76 733d
00000290: 0a82 39bd 412c dbbd 2862 2dbd 082c 2d3d
000002a0: 0768 a7bd d1fd 8e3a 806c 1c3f 7616 383e
000002b0: 482d 503e 9e10 12bd fb3f 953e ecb3 68bf
000002c0: bc54 473f 6109 7fbb 845d d43e 879f 743e
000002d0: 1c4c e9bd 3a77 0abd e6c0 c3bc 6190 1c3d
000002e0: e14d edbc 96e7 8ebe 720a cdbd e01a 2dbd
000002f0: 2b58 f83d 5471 0fbe 9ad9 89be 6e46 823e
00000300: ebad 55be 66e6 2dbe cec6 373d e3cb f5be
00000310: 9243 cdbe f534 193e ec0a 263d 9a01 57be
00000320: 275e 73bf 93bf 36bd 1e96 70be 0cdf 003e
00000330: 0f29 af3e b8a1 013f f893 a73f 0251 163e
00000340: 541d 0fbf ee1d 52be effe 37bd 4ec8 b4bd
00000350: ef24 7d3d bef5 ecbd 0e80 893d 9531 633d
00000360: 8f5d 92bd c624 403e 59e4 aebd da36 19be
00000370: 84b0 243d 010f 19bd 78fe 443e bfac 373c
00000380: 105b 0e3e 26b4 2c3e a31e 4e3e 6563 06be
00000390: 3865 cb3d 08dd 333d 9a8a fc3e 99cc 563d
000003a0: e80b cfbd 66b7 a0bd 3f31 b63e cc95 f13d
000003b0: 8cf2 1ac0 48d2 093c b95e d2bd d6a2 473e
000003c0: 9e36 f93d 513f 08bd 299a ebbd 2020 393e
000003d0: b569 913d b55b 023e fb20 9bbc 00fc 82be
000003e0: a212 d53d a887 72bd aabe 253e d3e6 133e
000003f0: a14a 603d 0df9 9d3d dc84 41be f68f ab3e
-0.29481572 -0.14480904 0.123968124 0.004572541 0.11276451 -0.039566513 0.5258988 0.022284087
-0.2761127 -0.14118402 -0.28618997 -0.040424444 0.023717178 0.1532811 -0.57276237 -0.17136799
0.25204435 -0.4046306 -0.15078145 -0.19524658 0.024780704 0.33324713 -0.20153078 0.032630637
-0.6406179 0.20516081 0.18444327 0.06571478 -0.11073856 -0.098215066 0.2835409 -0.25284317
-0.29210526 0.0040544304 -0.10914094 0.08847097 -0.19005214 0.0758884 0.24230124 -0.048316866
-0.23854399 -0.19039673 0.05194444 -0.054313663 0.11497511 -0.30483928 -0.0052194945 -0.019021122
-0.16234219 0.26008356 -0.39375216 -0.023414234 0.15604357 -0.08720392 0.16536961 -0.1432528
1.1416377 0.0053274594 0.15104084 -0.041794784 0.031611573 -0.036306124 0.24308 0.087318435
0.33404392 -0.06571015 -0.036675602 0.025751023 -0.28403366 -0.09916598 -0.09743965 0.42096514
0.08352853 -0.14282629 -0.083413966 -0.10534701 0.038782656 0.17423114 -0.17903942 -0.02084434
0.5220565 -0.015484018 0.13276164 0.07990277 -0.12023284 -0.45553777 -0.53792614 -0.24275775
0.42940712 0.1179301 -0.1610548 -0.16813354 -0.026276201 0.03449805 -0.019177407 -0.16011637
-0.075343154 -0.1732374 -0.12270662 0.030911699 -0.15382898 -0.10604924 0.015666306 0.058210775
-0.039834246 -0.17556961 -0.009530172 -0.06398342 0.08749211 0.10886729 -0.06220462 -0.16164269
-0.17023437 -0.15293178 -0.0916526 -0.020934597 0.0045832694 -0.039086297 0.0324585 0.15195861
0.028982764 -0.27678713 0.19410224 0.18783839 0.3153396 0.107949965 -0.098931015 -0.032771014
-0.06827468 0.039582297 -0.60278916 -0.1360483 0.1626756 0.031307966 -0.0481082 -0.24403803
0.044385295 0.24126123 -0.12542672 -0.037622888 -0.23971006 -0.27849525 0.07105779 0.09838724
-1.2952721 0.28187668 1.6292853 -0.08367933 0.20591511 -0.49239054 0.034177516 0.0027836007
-0.105971575 -0.02286752 0.11295549 0.04784377 -0.16070752 0.09967652 -0.005762128 0.088172555
-0.12724154 -0.28356233 -0.0978707 0.05943893 -0.04529003 -0.107018 -0.042329937 0.04227832
-0.081741385 0.0010909383 0.6110306 0.17977318 0.20329773 -0.03566038 0.29150376 -0.9089954
0.7786367 -0.0038915502 0.41477597 0.2388898 -0.1139147 -0.03380511 -0.023895692 0.038223628
-0.0289678 -0.2791106 -0.10011758 -0.042261958 0.12126192 -0.14008075 -0.2692383 0.2544436
-0.20867126 -0.16982421 0.04486733 -0.48007116 -0.40090615 0.14961608 0.04053776 -0.20996705
-0.9506554 -0.044616293 -0.23494765 0.12585086 0.34211013 0.5063739 1.3092031 0.1467934
-0.55904126 -0.2051923 -0.044920858 -0.088272676 0.0618028 -0.11570309 0.067138776 0.055467207
-0.07146751 0.18764028 -0.085396476 -0.1496233 0.0402074 -0.037367824 0.19237697 0.0112106195
0.13901925 0.16865596 0.20128874 -0.13123854 0.09931415 0.043911964 0.49324495 0.052441213
-0.10109693 -0.078474805 0.35584447 0.117961496 -2.421054 0.008411951 -0.10271973 0.1949571
0.121686205 -0.03326351 -0.11504013 0.18078661 0.0710024 0.12730296 -0.018936625 -0.25582886
0.104039446 -0.059211403 0.16186014 0.14443521 0.05475867 0.07713518 -0.18898338 0.3350827

l2.bias f4 [256]
00000000: c636 60be 77ad b13e 35c3 b33e ecc5 cb3d
00000010: b7f2 d03e 5d26 4c3f 3ad9 b7be 2004 ff3e
00000020: 3658 62bc 832a df3f 8f47 5bbe ba8c 17be
00000030: 3d2e e0be cd6b b73e f841 1ebf 2229 6c3f
00000040: d3bc 01bf 3c9d 803e 13d9 a33f 49a4 503e
00000050: 6d95 063f 43d2 013f 3970 5ebf 6ab2 a73e
00000060: ac5f 00be 38db b53e 0544 243d c24e b03f
00000070: 08b7 89bf 4a54 803f 40fc 003e a969 47bd
00000080: 7b56 a73a 2f35 583f a921 013f 15bb 833d
00000090: 91a4 413e adb9 56bf a7a2 adbe 3bfc 38be
000000a0: e0b4 70bf 8031 b03f a5f1 60be ced9 1dbc
000000b0: c6e2 043e 9c3a 943f 5505 78bf a51f 323e
000000c0: b74e 483f d5fb a83e 414c f93d 510f cebd
000000d0: 11b1 1e3f b29d 713e 9471 d03c eb5c 693f
000000e0: 7c6c 6a3f c008 323e 5af4 833e aa3d c43f
000000f0: ae03 d5be cce2 76be 3f24 3b3d cf14 273f
00000100: 4455 963f bbe8 853e 2b83 ecbe 7129 923e
00000110: f448 7c3f 6050 923d daff 1e3f 36db d93f
00000120: 7076 9c3e 57ee 3bbe 59b4 393e 2f9f d63e
00000130: 6f54 06bf 5983 be3c 446d f9be 51fe b13e
00000140: f137 c1bd 707e 253f fd32 dc3e 3a44 273e
00000150: 29c8 d63e 39f8 ff3e 0eb2 ed3e 3064 333f
00000160: 3518 5f3e 02b6 a33d 6f85 bfbc 8f33 173d
00000170: d710 1d3d 5c41 383e 89e1 833f 524d 403f
00000180: 8c4f 823f 89ed acbe cf92 4a3f bc89 00bf
00000190: b204 b33f 8a58 6ebe 5f7e 923d 917e efbe
000001a0: c2ac 203e 5fb4 2a3d 334d 7a3f da7f 193f
000001b0: caee 213e 791b 9cbe 6c15 fbbd f395 283e
000001c0: 9b05 bd3e a010 4cbc 1e48 e93e f369 a43e
000001d0: f993 b23f 7e80 afbd 5e0b 22bf e254 fcbd
000001e0: b3c4 0a3f 156c 783f ba22 e9be 4a98 d4bd
000001f0: ce3d a8bf 7004 2ebb 03b6 2a3f 6556 e63e
00000200: f68e 31bd 8fd8 e93e f3ba fbbd 1dd2 bfbe
00000210: d4da b83d a8d5 b5be ae8d e23e 7206 8d3c
00000220: e82c f43e ce8b 63be 4d24 493e 91e3 d4bd
00000230: 3c25 b03f c817 5abf 275d a73d e15c bbbe
00000240: 3ea6 603f b3f1 073e c13d 5e3d 0803 a13d
00000250: 0904 633e af10 d13d 6e45 ba3e 54a8 1abf
00000260: 15d3 183e 847b ffbe 2005 3a3e 9587 163a
00000270: a130 723f a0d2 143e f889 913e 8785 dabe
00000280: 65ca 913e 33cc 703d ecf4 43bf d4f7 fcbd
00000290: 85e8 b53f 7e77 a9be 7c07 84be 49a3 5a3f
000002a0: 8acc 9bbf a073 8e3e b1c4 6c3e b8f0 e43d
000002b0: 9192 c2be 7622 8c3d d945 6abe 5c5b 0cbe
000002c0: 1e11 2d3e bc08 8b3f b568 243e 9c74 ae3f
000002d0: a948 f7bd 04e0 da3d 9a22 8c3d 49e4 2abf
000002e0: 7b5a 9e3e 0740 a43f 4ac2 823f f4a7 393e
000002f0: 9e4e 293e 7849 4dbf cd26 a63f 625f 853e
00000300: 3bcd a03f 14df 62bf 4ad3 55bf 204e ea3e
00000310: ded0 f2bd 026b a7be b856 a1be ca9a a03d
00000320: 5809 2abf 3d2d 7a3f 1033 a93f 8f98 8d3f
00000330: e9c9 473d 1664 86bf 60b4 30be 6f5a 1bbe
00000340: ea0b 003e 1612 cf3e 786c 7e3e 2684 e2bc
00000350: b499 f63e 7a7b d2bc 6cfd fc3e 3ef3 223f
00000360: a398 a9be 3624 323f 665f 9d3f 8b5d b13f
00000370: bed7 123f c229 7d3e 1de3 4abe 2106 1fbf
00000380: 3c59 ba3e d591 c63e 8158 87be bff6 e83d
00000390: 3ae9 8d3f 8824 153f 9b6c e8be 3cc7 ac3f
000003a0: 99b7 2bbd b294 a83d d1d8 b73e f49d a23f
000003b0: 5ff5 e13e dee3 183e 2076 2d3e cc97 8c3f
000003c0: a464 9cbe a6b9 eb3d 9e73 7f3e e497 183e
000003d0: 4aaa ffbe f9fd 11be 7d55 0b3f bf1a 9abe
000003e0: e7a3 94bd 45ef eb3e ca6c 21be b577 a93f
000003f0: 2b9d ff3d bf3f 8f3f c221 6fbe dff3 1fbf
-0.21895894 0.34702656 0.3510987 0.0994986 0.40810177 0.7974604 -0.35907918 0.49807835
-0.013814976 1.7434849 -0.21414016 -0.14799777 -0.43785277 0.35824433 -0.6181941 0.92250264
-0.5067875 0.2511996 1.2800621 0.2037517 0.52571756 0.5071146 -0.8688999 0.32753307
-0.12536496 0.35518813 0.04010393 1.3774035 -1.0758982 1.0025723 0.12596226 -0.04868475
0.0012766862 0.8445615 0.50441986 0.064321674 0.18910433 -0.8387707 -0.33913156 -0.18064968
-0.94025993 1.3765106 -0.2196718 -0.009634448 0.12977132 1.1580386 -0.96883136 0.17394884
0.7824511 0.33004633 0.121727474 -0.10061515 0.6198893 0.23595312 0.025444783 0.91157407
0.91571784 0.1738615 0.25772363 1.5331318 -0.4160437 -0.24109954 0.045688864 0.65266126
1.1744771 0.26154122 -0.46193823 0.28547242 0.9854882 0.071442366 0.6210915 1.7020023
0.3055911 -0.18352638 0.18135203 0.41918322 -0.52472585 0.02325599 -0.48716176 0.3476434
-0.09434498 0.64646053 0.4300765 0.1633462 0.41949585 0.49994066 0.46424907 0.7007475
0.21786578 0.079936996 -0.023379056 0.036914404 0.038346138 0.17993683 1.0303203 0.7511798
1.0180526 -0.33774975 0.7913026 -0.50210166 1.3985808 -0.23275962 0.071530096 -0.4677625
0.15690902 0.04167592 0.97774047 0.5996071 0.15813747 -0.3048971 -0.12259945 0.16463451
0.3691834 -0.012455136 0.45562834 0.32112083 1.3951408 -0.0856943 -0.63298595 -0.123208776
0.5420639 0.9703992 -0.45534307 -0.10380609 -1.3143861 -0.0026552938 0.6668398 0.4498779
-0.04334923 0.45673034 -0.12291517 -0.3746499 0.09026113 -0.3551457 0.44248718 0.017214987
0.4769051 -0.222213 0.19642754 -0.10394967 1.3761363 -0.8519254 0.08172064 -0.36594298
0.87753665 0.13275795 0.054258112 0.07861906 0.22169508 0.1020826 0.36381096 -0.604131
0.14924271 -0.49898922 0.18166018 0.0005742249 0.9460545 0.14533472 0.28425574 -0.42679998
0.28474727 0.05878849 -0.76545596 -0.12351957 1.4211584 -0.33098978 -0.2578696 0.85405403
-1.2171795 0.2782259 0.23121907 0.11178726 -0.38002446 0.068425104 -0.22878207 -0.13706726
0.16901061 1.086204 0.16055568 1.3629336 -0.12074406 0.10687259 0.06842537 -0.66754586
0.30928406 1.283204 1.0215542 0.18130475 0.16533896 -0.8019023 1.2980591 0.26049334
1.2562631 -0.8862164 -0.83525527 0.4576273 -0.118562445 -0.32698828 -0.31511474 0.07842024
-0.6642051 0.9772528 1.3218708 1.1062182 0.04877654 -1.0499294 -0.17256308 -0.15171216
0.12504545 0.40443486 0.24846065 -0.027650904 0.4816414 -0.025693644 0.49412096 0.6365241
-0.33124265 0.69586504 1.2294738 1.3856672 0.57360446 0.2472296 -0.198132 -0.62118727
0.36396205 0.38783136 -0.2643471 0.11375188 1.10868 0.5825887 -0.4539536 1.3498302
-0.04192314 0.082314864 0.35907605 1.2704453 0.44132516 0.14930674 0.16939592 1.0983825
-0.30545533 0.11510019 0.24946448 0.14901692 -0.49934608 -0.14257039 0.5442732 -0.3009853
-0.072578244 0.46080986 -0.15764156 1.3239657 0.12481149 1.1191329 -0.23352721 -0.6248149

l3.weight f4 [64, 256]
00000000: 5363 8ebf 9c20 7cbe 5461 a4bf 0033 173a
00000010: 0c33 17bf 5848 b43d 62aa 5bbf b7fb a63e
00000020: e281 243f 2638 9f3e c359 e5bd a56c 2bbf
00000030: 5a53 703e c10a dbbf 528c 453d 740c c83d
00000040: ec3e 103f 0889 4b3f dced a83e 21c1 49c0
00000050: aadf 1abe 11a8 1ebf b263 54bf 4d16 393f
00000060: 0641 eb3f 80af c33d 8053 c13e 888f 2bbd
00000070: d662 34be 2551 103e a291 d2bd 2824 483c
00000080: ff00 0fc0 f704 0c3e 0737 423e 3899 373f
00000090: b1f3 5f3e 7c8a 5bbf f7bc 7e3f fe09 40bf
000000a0: 9044 31bf 53bf 443e 3966 aabd c78e 0040
000000b0: 59c6 c2bd e1dd 823e eea7 93be 8a24 5a3f
000000c0: 7aee 8c3e 5d60 2cbe 5046 0dbe 5948 d03f
000000d0: 72d2 323d b4e2 6fbf cffd 70bf 269d e33d
000000e0: 9b7b ef3e b57b 9e3f daa5 79bf 3c5d 573e
000000f0: d64a 5ec0 f48c 863b 67f0 23bf 2b06 a6bc
00000100: 39bd cdbd 323b f4be c44c a3be 6695 003e
00000110: e841 043d 84dc d4bc a3a1 723b ebe6 933e
00000120: dcf8 2bbf 4a90 803e a05f 66be a381 c23d
00000130: c3a3 b83e c0f0 5dbe c2a1 abbe 8fb0 423f
00000140: a20a e83a 1c0b d4bd c01d 2e3f 5882 84be
00000150: 1248 83bf d172 af3b 9895 d0be 292d fabe
00000160: cbcb 90be 2268 313f 72c5 893d 9cf3 f03f
00000170: 67ec 50ba e6ab d73e 40fa 423c 7c10 643d
00000180: 2b9e a03e 5eab a13e 9a78 00bf db48 fcbe
00000190: cd16 343f 513b 953e 0f6a 98bf 4fb0 edbe
000001a0: e704 2e3f 23f2 26be 09a7 9e3d b49c 55be
000001b0: e316 e13e 12ff 2fbd c585 a73e 2973 1abe
000001c0: 9300 0fbe d0e5 a33e f80b 433f 6665 183f
000001d0: 170d e13d bde4 843d 8715 c3be bf5e f13e
000001e0: 9504 08bf a7f2 353d 8bdb e83e d47a 6cbe
000001f0: 35fd 4bbf 8d30 033f 6c73 2d3d ff07 713e
00000200: 3675 88be f3de d73c 7db1 18bf ca5a 87be
00000210: ef44 63bf fcca 81bf 0998 4ebf 2242 0bc0
00000220: 5ef5 863e e5ca 0abf 4511 763d daa6 263f
00000230: dace 863e 4a3a 39bf 8eb3 39be d04f 20be
00000240: 4de3 303e 50ee 823f 9ead 2e3f fab7 673f
00000250: 33d4 79bf 3325 4b3f 5727 e8bf 5829 9c3e
00000260: c010 50bd d762 2f3f e640 793f f603 4abd
00000270: e690 243f 01e9 3c40 a4ea df3f b429 8c3f
00000280: 3c6f 5fbf 9fa9 3740 abbb 57bf 44a7 053f
00000290: 5e7d 2d3e ed59 0bbe 8fb6 0ec0 efab d83e
000002a0: 8db7 1bbf b648 213d 44a9 9abe adad 61bf
000002b0: 33a1 d23f 1473 5a3e 8f6a b6bf 2b50 f73e
000002c0: 7532 1340 1b1f c93e c341 04bf d630 3c3f
000002d0: 310e d83f b0f1 393f 3db8 603f 396b 15bf
000002e0: 01e0 873f e326 583e 3d80 fa3d 2603 2bbf
000002f0: f556 0fbb 8222 2dbf ee8d fd3e c37f 84bf
00000300: b093 8d3e 4a8d 28bf 0f1d 26bf 6a2a d53e
00000310: 3aae 36bf b447 eebe 118f a63e 553c 3ebf
00000320: 6008 c2bd e2eb 2c3e 9991 953e ec48 af3d
00000330: 1dd6 84bf 9f81 17bf b04d 5bbc b5d3 d6bd
00000340: a48c 0b40 e2a7 8d3e 4e34 8cbe 1452 ec3e
00000350: dbb7 03c0 9f36 06c0 6769 913e e047 06bf
00000360: 47ae 983e 50e7 b8bd bace 0c3f 0872 fa3e
00000370: 5273 a7be 20c1 3e3f 82fd eebe b2c7 043c
00000380: 7744 233f 6425 7dbf f6b0 d3be 3686 97bf
00000390: b524 af3e 488c 1c3f 0792 55bd f804 813e
000003a0: 22c8 d03d ca3a 00bf db76 d03c 0ece 6f3e
000003b0: 2cf3 82be 2c97 993e da96 ef3e a6f8 f23e
000003c0: 960c 873f 5011 953e b2f4 9abe cffa d8bd
000003d0: 7416 9dbe b8f1 2abd 856c 89bd 9e0a b5be
000003e0: df7b 46bf 9f92 ccbe 36b1 d6be daf9 383e
000003f0: c7ba a13c cd23 b33e db84 3abe 0641 08bf
-1.1124061 -0.24621814 -1.2842202 0.00057677925 -0.59062266 0.08802861 -0.8580686 0.32613918
0.64260685 0.31097525 -0.11198761 -0.66962653 0.23469296 -1.7112657 0.048229523 0.09768
0.5634601 0.7950597 0.32993972 -3.1524127 -0.15124384 -0.619752 -0.8296462 0.72299653
1.8379219 0.09554958 0.37759018 -0.04188493 -0.17615828 0.14093454 -0.102816835 0.012215652
-2.2344358 0.13673769 0.18966304 0.7171817 0.21870305 -0.85758185 0.9950709 -0.75015247
-0.69245243 0.1921361 -0.08320279 2.0087144 -0.09510488 0.25559905 -0.28839058 0.85212004
0.27525693 -0.16833635 -0.13796353 1.6272079 0.043657728 -0.93705297 -0.9413728 0.11113958
0.4677399 1.2381502 -0.97518694 0.2103166 -3.4733176 0.0041061584 -0.640387 -0.020266613
-0.10045857 -0.47701412 -0.31894505 0.12556991 0.032289416 -0.025984056 0.0037022613 0.28887114
-0.67176604 0.25110084 -0.22497416 0.094973825 0.3606244 -0.2167387 -0.3352185 0.7605066
0.0017703364 -0.103536814 0.68014145 -0.25880694 -1.0256369 0.0053542634 -0.4073913 -0.4886258
-0.28280482 0.6929952 0.06727113 1.8824344 -0.0007969797 0.42123336 0.011900485 0.055679783
0.31370673 0.31576055 -0.50184023 -0.49274334 0.7034729 0.29146817 -1.1907367 -0.46423575
0.6797623 -0.16303305 0.07746703 -0.20860559 0.43962774 -0.042967863 0.32719246 -0.15082993
-0.13965063 0.3201127 0.7619014 0.5952972 0.10988825 0.06488941 -0.38102362 0.47142598
-0.5313199 0.044420864 0.45479998 -0.2309373 -0.7968324 0.5124596 0.042346403 0.23538207
-0.26651925 0.026351428 -0.59645826 -0.26436454 -0.8877706 -1.0140071 -0.8070074 -2.1759114
0.26359075 -0.5421584 0.060075063 0.65098345 0.2632969 -0.7235457 -0.18134901 -0.15655446
0.17274208 1.0228977 0.6823367 0.905151 -0.97589415 0.79353637 -1.8137006 0.30500293
-0.050797224 0.6851019 0.9736465 -0.049320184 0.642836 2.9517214 1.7493482 1.0950227
-0.87279105 2.8697278 -0.84270734 0.5220835 0.16942355 -0.13608523 -2.2298925 0.42318675
-0.6082695 0.039375983 -0.30207264 -0.88155633 1.6455444 0.21332961 -1.4251269 0.4830335
2.2999547 0.39281544 -0.51662844 0.7351202 1.6879331 0.7263441 0.87781125 -0.58366734
1.0615236 0.21108584 0.12231491 -0.6680168 -0.0021871899 -0.6763078 0.49522346 -1.035149
0.2765174 -0.6584059 -0.6488809 0.41633922 -0.713596 -0.4653908 0.32531026 -0.7431081
-0.09474254 0.16886857 0.29212645 0.085588306 -1.0377842 -0.5918216 -0.013385221 -0.10489599
2.180459 0.27667147 -0.27383655 0.4615637 -2.0580966 -2.0970838 0.28400728 -0.5245342
0.29820463 -0.09028494 0.5500294 0.48915124 -0.3270517 0.74513435 -0.46677786 0.008104252
0.63776344 -0.9888518 -0.41345948 -1.1837833 0.34207693 0.6115155 -0.052141216 0.25199103
0.10194422 -0.50089705 0.0254473 0.23418447 -0.2557615 0.29998147 0.46794778 0.4745533
1.0550716 0.2911477 -0.30264813 -0.10594713 -0.30681193 -0.041734427 -0.067101516 -0.35359663
-0.7753276 -0.39955613 -0.41932076 0.18064061 0.019742383 0.3498825 -0.18214743 -0.5322422

l3.bias f4 [64]
00000000: ea68 8d3e 50f0 ecbb df20 21bb 5acc 4e3f
00000010: d15c 4fbd b0ce 623c 1431 013c 1d5f 803f
00000020: bd2d b4be f9f3 92bd c25f cc3e 8803 5c3f
00000030: 149a 6b3f 3d80 66be e766 3dbf 98b9 5b3f
00000040: fa6d 50bd 99ac 65be fecb 3dbf b39f a43e
00000050: 2ffc 4c3f c224 12bd ba4f eebd 38f8 dc3e
00000060: fe10 123f 0883 533f e967 703f ff3a 323d
00000070: e57a 513f 13f9 7b3e 768b 603f 0aac 6d3f
00000080: 85fe 4ebf 6e36 dc3e e566 0abc 2184 c23d
00000090: 1244 50bc eecb ba3e c7d1 c93e 47c9 4d3e
000000a0: 5d69 5c3f fe00 a33e 0a4f 6f3f bd6d 83bd
000000b0: d275 143b d017 3b3e 9860 aebe b2a0 373f
000000c0: ee81 093f 15b4 29bf e081 3fbe 9d0f 2e3f
000000d0: 3ee4 573f 5886 103f 5193 48bd 7e8b 4f3f
000000e0: 91c8 5b3f 17e9 053f 8648 623f 2311 f83c
000000f0: 915c 4ebd b53b 06bd e7ec aa3f da7f 813f
0.27619106 -0.007230796 -0.0024586243 0.80780566 -0.050625626 0.013843223 0.007885236 1.0029026
-0.35191146 -0.0717544 0.39916807 0.8594289 0.9203198 -0.22509857 -0.7398514 0.8583007
-0.05088613 -0.22429122 -0.7413939 0.3215309 0.800723 -0.035679586 -0.116363004 0.43158126
0.5705718 0.8262181 0.93908554 0.043513294 0.8182815 0.24606733 0.877128 0.92840636
-0.80857116 0.43010277 -0.0084473835 0.09497858 -0.012711542 0.3648371 0.3941786 0.20096312
0.8609827 0.31836694 0.9347998 -0.06417415 0.0022653234 0.18270802 -0.3405807 0.71729577
0.5371388 -0.6629041 -0.18701887 0.67992574 0.84332645 0.5645499 -0.048968617 0.81072223
0.85852915 0.5230879 0.8839191 0.030281609 -0.050381247 -0.032771785 1.3353547 1.0117142

l4.weight f4 [1, 64]
00000000: fdc7 b8c0 ac09 03bd 049a 02bd 0163 953e
00000010: ec2e 883d 5301 dcbf a401 85bc c5d4 903f
00000020: 3bd8 acbf 6987 57c0 edc7 ddc0 3b87 003f
00000030: b45d 153f a915 b7bf 0787 d1bf 8e5d 993e
00000040: 14c6 2dc0 9892 3e40 a6e7 cdbf 88bb 8bc0
00000050: d8c0 a53e a82b 5dbf 45a8 2ec0 0795 69c0
00000060: ec5b 31c1 41f5 903e 3b74 8c3e fa2e 693d
00000070: f4ac 8c3e 6849 61c0 ada7 643e e71f 3d3f
00000080: d403 25c0 701b 2a3f 0933 413b dd2b 95c0
00000090: 4eb1 11ba 6373 bac0 1196 ae3f dfb7 3cc0
000000a0: 2583 703e 10a2 d0c0 a4bf 8f3f dbf1 fa3c
000000b0: c8b9 71c0 a7e4 df3f 2e69 94bf cbb4 0fc1
000000c0: ea25 2dc0 a2c3 74bf 4557 aebf 4602 c83f
000000d0: e9f2 033f c0f2 033f 3a3a e43d 4e64 913e
000000e0: d799 883e 1389 16c1 d074 713e 2e25 ac3d
000000f0: 3142 55bd 3a54 e8bd ab71 913f d89c 413f
-5.7744126 -0.031991646 -0.031885162 0.29177096 0.06649575 -1.7187904 -0.016236134 1.1314932
-1.3503488 -3.3676398 -6.930655 0.50206345 0.58346105 -1.4303485 -1.6369332 0.2995419
-2.7152147 2.9776974 -1.6086318 -4.366642 0.3237369 -0.8639474 -2.7290204 -3.649721
-11.084942 0.28312114 0.27432427 0.056929566 0.27475703 -3.5201054 0.22329588 0.73876804
-2.5783587 0.66448116 0.0029479882 -4.6616044 -0.00055577315 -5.8265853 1.3639547 -2.9487226
0.23487528 -6.519783 1.1230359 0.030632904 -3.7769642 1.7491654 -1.1594598 -8.981639
-2.705439 -0.9561101 -1.3620383 1.5625694 0.51542526 0.5154228 0.11143918 0.2839684
0.2667987 -9.408465 0.23579717 0.08405529 -0.05206508 -0.1134419 1.1362814 0.7562995
