turtlebot3_machine_learning/turtlebot3_td3/steer&spd/models121_60/TD3_stage2_actor_target.pth (torch_old, 103102 bytes, 8 tensors)

l1.weight f4 [24, 60]
00000000: 91f6 45bd ffc8 abbd 3235 d3bd 1302 f43d
00000010: 743d 74bd dd06 84bd 2731 adbd e1e4 5c3d
00000020: 58e9 bfbd d7a2 b83d 41e1 c1bd 78f0 cf3d
00000030: 80dd b2b9 25e7 973d 9752 3c3c 0159 46bd
00000040: e8eb 433d ba69 dabd 731c edbd 25b5 173d
00000050: 57e2 3c3d 6513 9a3b a12c d03d 578c a9bd
00000060: 5e43 15bc e6a4 213d b136 593d f420 7fbd
00000070: 776b 2fbd 0138 d83c ce0a 9abd 37c6 a3bc
00000080: 60ae 31bd ceab 94bc 0d34 903d 7db9 86bd
00000090: f254 ee3d c53c 9d3a 0f77 a2bd b9ae db3d
000000a0: c31a e0bd 4fb7 a9bb 7c98 7fbd fe60 9bbd
000000b0: d7f2 b33d 74d2 70bd f8d1 b9bd 8a59 debd
000000c0: 1c01 863d 7b6b fa3d 1ad8 debd 40e5 b8bd
000000d0: a952 cfbd 516e 4abd c570 8cbd d9d0 41bd
000000e0: 3287 56bc d1cb c9bc d99c d23a 1c5e 833d
000000f0: c9b5 213e ed19 ad3d 142b 8e3d 7751 ad3d
00000100: 3f0f 293e fefb e33d 7e93 2d3e e46f f33d
00000110: c679 b53d b13a e93d 72e1 f13d 39fa 853d
00000120: 1667 b13d a023 cf3d 3395 9a3c de5f 58bd
00000130: 05b3 903c d1c6 423d f7f4 03be 2f4d 7cbd
00000140: 7657 b6bd 27c5 bcbd 5457 adbc cd1a 11bd
00000150: e345 d5bc 5b4a 8f3d 837c ea3d e1e0 9b3d
00000160: 9db1 cc3d c50f fd3d fcb4 ff3d 160c 5a3d
00000170: 6f85 5a3d 7583 e0bd 1ad9 64bd bc59 febd
00000180: e86a 11bb c72d c0bd 8ebe c9bb 4ffb bdbd
00000190: 8946 9dbd 16a1 29be 3294 23bd 53d2 94bd
000001a0: 4c80 24bd b740 b6bc e847 1c3d b13e 03bd
000001b0: f566 34bd bc0b 5b3c 6cdd dd3d be93 d13c
000001c0: fa24 a1bc fb76 023e edb7 763d b738 5d3d
000001d0: 2382 de3d fab7 0c3e b10c f33d c78d 353e
000001e0: 3c00 8f3d 1fbf 29bb 77b9 bb3d 48f2 b7bd
000001f0: f7f7 a2bd db65 f03c bdcf 143d 9600 203d
00000200: ae82 12be df9e a5bc 4af4 d8bd c170 da3d
00000210: 98d9 cb3d 4d3f 8bbc 1861 c43d bc6f 72bd
00000220: 3b01 61bd be46 16be c897 c43d e4fd 8e3d
00000230: 2b39 7f3d b40c f9bb d6ae 9dbd 3e3a 16be
00000240: a480 8d3c 9d89 02be 6ee6 11bc 0357 703d
00000250: 525d 51bd 59a7 cabd 693b 563c b058 32bd
00000260: e866 bcbd ecac 73bd 8c13 72bc 07de b13d
00000270: 5185 42bd 6f29 3d3a f75f 333d 1727 24bd
00000280: 255a 89bd 2eaf 15be 4d0e 0fbd c807 c33d
00000290: 8721 adbd 9d3f 06be a26d 5abd 7b53 e5bc
000002a0: f42d e8bd ffc1 a8bc dde1 85bd 586e 473d
000002b0: d3b8 61bd 4652 283d f90f 513d bdca 00be
000002c0: 304e babd 1faf b43d 591d c8bd f523 8bbc
000002d0: 53e1 8b3c a1ff 88bd de95 05bd bd9c f8bc
000002e0: c850 51bd 795c 70bd 4970 3ebd 279c 0dbd
000002f0: 0712 5b3d 6e08 5e3c d235 9a3d f5fc 33bc
00000300: b2a0 133d 2b6f d83d 0254 fb3d d527 b83d
00000310: 6a51 f33d 1928 0a3e 839b d43d 7d2b 7e3d
00000320: 803c e63d aca0 f73d ef5f 803d fff6 eb3c
00000330: 0ffb 6c3d 02f5 a03a 781c 9c3d a87e 603c
00000340: 3a6b 1c3c 8aca d7bd 990f 1ebe 880d 82bd
00000350: e815 11be 7c05 49be 228a 96be 184c 75be
00000360: 06ce 63be 0c1d 6ebe b1b7 3fbe 10d6 1bbe
00000370: eda4 04be b335 0ebe e051 9dbd a383 b63d
00000380: 3f2c 1f3d 138f 423e f6ea 773e a71c 9e3e
00000390: 12f6 603e 7ba1 613e f3f5 0b3e 7db1 833e
000003a0: 39d9 4a3e abbd 0c3e 94b7 3f3e 68a0 a03d
000003b0: e367 a83d 8937 c63d eec2 d63c daf1 293d
000003c0: 76e8 84bd 5031 183c de1a 35bc 91e4 9abc
000003d0: 345b 07bd f137 22bd 3b67 09bd 367b 20bd
000003e0: 8ae0 b9bd 86a5 03be ef9f d4bd d6b0 0bbe
000003f0: 3f76 98bd b825 32be 8371 e5bc 2d30 12bd
-0.048330847 -0.08387946 -0.103128806 0.11914458 -0.05962892 -0.064466216 -0.08456641 0.053929213
-0.09370679 0.09015434 -0.09466792 0.10153288 -0.00034115836 0.07417134 0.0114943 -0.048424724
0.0478324 -0.10664697 -0.11577692 0.037037987 0.046114292 0.004702019 0.10164762 -0.08278721
-0.0091103 0.0394639 0.053030673 -0.062287286 -0.042827096 0.026393892 -0.07521592 -0.019991977
-0.043379188 -0.01814833 0.07041178 -0.06578348 0.11637296 0.001199626 -0.07932865 0.10726685
-0.109426044 -0.005179323 -0.06240128 -0.07586859 0.087865524 -0.058794454 -0.090732515 -0.10856922
0.0654318 0.122275315 -0.10881062 -0.09028101 -0.10123188 -0.049421612 -0.068574466 -0.047318313
-0.0130937565 -0.02463332 0.0016068473 0.06414434 0.15792002 0.084522106 0.0694181 0.08462804
0.16509722 0.11132048 0.16950795 0.11886576 0.08861117 0.113881476 0.118105784 0.06541867
0.0866224 0.10114217 0.018869972 -0.0528258 0.017663488 0.047552887 -0.12886415 -0.061597046
-0.089034006 -0.09217291 -0.021159805 -0.03542595 -0.026034301 0.06996604 0.1144953 0.076112516
0.099948145 0.123565234 0.12485692 0.053234182 0.05334991 -0.109625734 -0.055871107 -0.12419459
-0.0022188965 -0.09383731 -0.006156749 -0.09276449 -0.07679469 -0.16565356 -0.039936252 -0.07266679
-0.040161416 -0.022247655 0.038154513 -0.03204221 -0.0440435 0.013369497 0.108332485 0.025583144
-0.019670952 0.127407 0.060234 0.054009166 0.10864665 0.13742056 0.11867655 0.17729865
0.069824666 -0.002590127 0.09166234 -0.08981758 -0.07957452 0.029345443 0.036330927 0.03906306
-0.14307663 -0.020217357 -0.105934694 0.10666037 0.09953612 -0.016997958 0.09588832 -0.05918859
-0.054932814 -0.14675424 0.095992625 0.069820195 0.06231038 -0.0076003913 -0.07699363 -0.14670655
0.017273255 -0.12747808 -0.008905036 0.05867673 -0.051114388 -0.098952 0.013075688 -0.04354161
-0.09199315 -0.059491083 -0.014775168 0.086849265 -0.04749042 0.0007215952 0.04379269 -0.04007634
-0.06706647 -0.14617607 -0.034925748 0.095229685 -0.084536605 -0.13110204 -0.05332721 -0.027993908
-0.1133689 -0.020600317 -0.065372206 0.048689216 -0.055107903 0.041094087 0.051040623 -0.12577339
-0.09096944 0.08822464 -0.097712226 -0.01698492 0.017075216 -0.06689382 -0.032613628 -0.030348176
-0.05110243 -0.05868194 -0.046493802 -0.034572747 0.05348399 0.0135518145 0.07529797 -0.010985603
0.036041923 0.105680786 0.122718826 0.08991972 0.11880763 0.13491859 0.10381224 0.062053192
0.11242008 0.120911926 0.06268298 0.0288043 0.057856616 0.0012280049 0.076226175 0.013702072
0.009547049 -0.10536678 -0.15435638 -0.06350237 -0.14168513 -0.19630998 -0.29402262 -0.23954809
-0.2224656 -0.23253268 -0.18722416 -0.15218377 -0.12953539 -0.13887672 -0.07681632 0.089118265
0.038860556 0.18999891 0.24210724 0.30881235 0.21968868 0.22034256 0.13668041 0.2572135
0.19809426 0.13744228 0.18722373 0.07843095 0.0822294 0.09678561 0.026215997 0.041490413
-0.06489651 0.009289101 -0.011053769 -0.018907817 -0.033045962 -0.03960413 -0.033545714 -0.039180003
-0.090760306 -0.12856111 -0.103820674 -0.13641676 -0.07444429 -0.17397201 -0.028008228 -0.035690475

l1.bias f4 [24]
00000000: 76f3 90bc a662 0b3e 0ba8 ecbd 48d4 1b3c
00000010: 6953 723e 254b 00be 40a7 eb3d 3fbd ec3d
00000020: 6eed 1e3e ed91 04be a0a9 743d 3ca5 ad3d
00000030: 7afd 953d 0705 043e ebfc f73c 3b4f d8bd
00000040: 2def 803d f8c6 80bd 819f 243e cd84 9fbd
00000050: f285 4ebd b68a 493e 99cc 08be 8367 333e
-0.017694216 0.1361185 -0.11555489 0.009511061 0.23664631 -0.12528665 0.1150651 0.11559533
0.1552026 -0.12946291 0.05973208 0.084787816 0.073237374 0.12892543 0.030271968 -0.10561987
0.06295619 -0.0628795 0.16076471 -0.077890016 -0.05042071 0.1968182 -0.13359298 0.17519955

l2.weight f4 [256, 28]
00000000: f4b6 ff3d fe7c 91bd 5b8e e3bd b84b 36be
00000010: 5c01 d33d 4792 7abe 854c c6be df63 aebc
00000020: 2446 5bbe a4bd 8739 be9b 3fbd 3a25 093e
00000030: 4a2f 7a3e 01b5 3bbd a7ce 0d3e 09cd e93d
00000040: 20ed eebd e84b 29be 9593 423e 6424 22bd
00000050: 6eb2 c1be ad68 9d3d 7f07 f8bd 45cd eabd
00000060: ec4d c3be 8e2d 81be d661 2d3e bd50 c73d
00000070: 323a 14be b1fa c9bd a106 f4bd 379d aebd
00000080: 1c32 823d 077e 28be c4c0 2cbd 66b2 253c
00000090: 3dae 0bbb 8f7d 14be d061 31be e680 273d
000000a0: 6d84 193e c256 56bd 8251 b93d 4206 d9bd
000000b0: 0bc4 f83c 5ffd 28be c2d2 d2bb b81e 463d
000000c0: 0b34 f73d 8d88 04be 60a0 d7bb 2bb7 eabd
000000d0: 136d 77bd ff49 3c3d b2f0 ec3d da7a e03a
000000e0: ff01 af3d f15f debd b1e0 c53c 605d 6ebd
000000f0: 57cb 2cbd 44fc a23e 873f c8be d07c ffbd
00000100: 0edd 313d 0482 063e 48c8 d13d f69e 20bd
00000110: f3b8 2fbe 0a9a 8dbe c308 9cbd ba1d c7bd
00000120: 8d1f 74be 4673 8fbe c08c debe c99a 76be
00000130: 70b6 603e 8720 19bf 0742 b23e d72d 303d
00000140: 4be6 0bbe 8f0e 123f 2ec7 cabe c3f1 093d
00000150: 5267 e0bc 098b 57be b08b 36be 7d2b 64be
00000160: 714a df3d 27ce 08bd c15c 533b 8fe9 143e
00000170: 8580 0dbe d9a3 d53d 0967 a9bc 1f6e 32be
00000180: ddd8 9cbc f52a 5b3e d86e b5bd 7492 343e
00000190: c776 1bbe 8b99 213d ae67 103d 408e eaba
000001a0: 9e19 9b3e e357 7cbd 0471 4bbd ee7f 78be
000001b0: 9f22 94bd 1f2e 8fbc e017 47bc 72c2 cb3d
000001c0: c3be 7f3d 60f0 f93d 9e88 973d 2046 493e
000001d0: 2aff 38be c621 923e 5d8d 93bd 212b 5e3e
000001e0: f66f e63d bc12 75bd 9ef7 8f3d d6b4 b5bc
000001f0: 421e 7a3d 1e8c ac3d d2ba e83d fd22 093d
00000200: ee80 003d a0ad c4bd 8ef3 b5bd ef33 37be
00000210: ecd7 dcbe a620 273e 7bb1 a7bb c1ec ee3d
00000220: 94a2 65be 6e78 b43e 05e3 043f 9d50 d6bd
00000230: a352 243e f57b 8dbd 5cb1 cdbd 2428 f0bd
00000240: 64e3 883d 446d 2bbe d079 c63d bcd7 823c
00000250: e07e 3bbd a85b e83c 929a e53d 3815 34be
00000260: 4d8a 0bbd a7d6 b93d c1df 39be c0b2 36be
00000270: 77c7 28be ec6d 71bd afb0 343e de3b 293d
00000280: f9f7 d43d ba8f dcbd d931 f8bd 111b c2bb
00000290: dfab a73d 6599 0cbe fe52 95bd 6538 90bd
000002a0: 8007 c5bc 5451 9b3d a873 3dbe e864 edbd
000002b0: 15d8 79bd d956 5b3d 0926 68be 6bf3 b93d
000002c0: 34bd 27be 9ea9 1e3d 4f89 61bd 1100 ba3e
000002d0: f973 103e 8b3b b7bd c32e 8abd a2a0 28be
000002e0: 04b0 75be bf90 abbe 439e 5abe 00de 48be
000002f0: 7592 1c3e 2b66 3c3e ff1d 89bf 2f60 02be
00000300: 60b7 3d3e d790 0dbf ad67 29be 7542 fcba
00000310: 73dc ffbd 301d 773d a4b2 f4bd 4919 abbd
00000320: 590c 063e 8d13 80be eef8 613e b7cb fb3d
00000330: acd9 1dbd 33d9 f2bd 519f 25be cee3 8cbd
00000340: 42d7 aa3d acc4 913d 3bb7 4e3e a46d 0a3e
00000350: 39ec 023e 4f0d 443e 8247 3d3e 1f44 123d
00000360: 4a58 2ebc 85de 3a3c d15d 91be e19f acbd
00000370: 09e2 43bf 22b2 8e3d 0ba1 0cbe 104f 79bc
00000380: 8753 0a3e 4a30 493e 9ef1 2bbe a0ce 0f3e
00000390: f714 a73d 3494 393e 8623 88bd 7843 9b3d
000003a0: 6cc8 bfbd 1277 ac3d 44c6 073e bc29 ed3d
000003b0: 07d3 4cbd 102e ce3d 609f d0bd e704 1c3d
000003c0: e55e e7bc c8a2 743d eb71 3e3e c556 243e
000003d0: 9539 7bbc 83b6 1abd 3ac7 4f3e 3d35 513c
000003e0: e3e1 db3e 3e6e d33e 6b11 013f b487 29be
000003f0: 2f87 e8bd 50c7 873e 47da 3bbe 4a02 39bb
0.124860674 -0.071039185 -0.111111365 -0.17802322 0.10302994 -0.24469863 -0.38730255 -0.021287857
-0.21413475 0.000258905 -0.046779387 0.13393107 0.24432102 -0.045826916 0.13848363 0.114160605
-0.11666322 -0.16532862 0.1900161 -0.039585486 -0.37831444 0.07685981 -0.12110805 -0.11464933
-0.38145387 -0.25230068 0.16931853 0.097321965 -0.14475325 -0.09862269 -0.11915327 -0.0852608
0.06357214 -0.16454326 -0.042176023 0.010113334 -0.002131357 -0.14501022 -0.17322469 0.04089441
0.14991923 -0.052328832 0.090487495 -0.10596897 0.030366918 -0.16502903 -0.0064338157 0.04836914
0.12070473 -0.12942715 -0.0065803975 -0.11460718 -0.060406756 0.045969006 0.115693465 0.0017126456
0.085453026 -0.10858143 0.024154993 -0.058194518 -0.042186107 0.31833088 -0.39110968 -0.12474978
0.043423705 0.13135535 0.10243279 -0.039214097 -0.17160396 -0.27656585 -0.07618859 -0.09722467
-0.2384016 -0.28017634 -0.4346676 -0.24082483 0.21944594 -0.5981526 0.34816 0.043012466
-0.13662069 0.57053465 -0.39605087 0.033677828 -0.027393017 -0.21049131 -0.17826724 -0.22282214
0.109028704 -0.033399727 0.003225133 0.1454222 -0.13818558 0.10431642 -0.020679014 -0.1742482
-0.019146377 0.21403106 -0.088590324 0.17633992 -0.15182029 0.03945307 0.035255127 -0.0017895177
0.30292982 -0.061607253 -0.049668327 -0.24267551 -0.07233166 -0.017478047 -0.012151688 0.09949197
0.062437784 0.12204051 0.073991045 0.19655657 -0.18066087 0.28541392 -0.07204697 0.2169614
0.112518236 -0.05983232 0.07029651 -0.022180956 0.061064012 0.08425163 0.11363758 0.033480633
0.031372957 -0.09603429 -0.08884345 -0.17890905 -0.43133485 0.16321048 -0.005117593 0.11666251
-0.224253 0.3524813 0.51908904 -0.104645945 0.16047148 -0.069084086 -0.10043594 -0.11726406
0.06683996 -0.167409 0.09691203 0.01597201 -0.045775294 0.028364018 0.112111226 -0.1758622
-0.03406744 0.09074145 -0.18151762 -0.17841625 -0.1648234 -0.05894272 0.17645524 0.04131686
0.103988595 -0.10769601 -0.12118883 -0.0059236367 0.08187079 -0.1373039 -0.0729122 -0.070420064
-0.024051428 0.075838715 -0.1850115 -0.11591512 -0.060997088 0.05354962 -0.2267076 0.090796314
-0.16380769 0.03873598 -0.05506259 0.36328176 0.1410674 -0.08946904 -0.067472 -0.16467527
-0.23992926 -0.3350887 -0.21349435 -0.19615936 0.15290244 0.18398349 -1.0712279 -0.12732004
0.18526983 -0.55299133 -0.16543455 -0.001924588 -0.12493219 0.06033057 -0.119481355 -0.08354432
0.13090648 -0.25014916 0.22067615 0.12294715 -0.038537666 -0.11857834 -0.16174056 -0.06879388
0.083418384 0.0711759 0.20187084 0.13518387 0.12785424 0.19145702 0.1848431 0.035709497
-0.010641167 0.011405592 -0.2839189 -0.08428932 -0.7651678 0.0696757 -0.13733308 -0.015216604
0.13508426 0.19647327 -0.16791388 0.14043665 0.081582956 0.18122941 -0.066474006 0.07581228
-0.09364399 0.08421148 0.13259226 0.11580226 -0.05000594 0.100673795 -0.10186648 0.038090613
-0.028243491 0.059725553 0.18598144 0.16048725 -0.015333553 -0.037771713 0.20290843 0.012769041
0.42945775 0.41295046 0.504172 -0.16555673 -0.11353909 0.2651925 -0.18344985 -0.0028230124

l2.bias f4 [256]
00000000: 834e 50be 2541 09be 28c0 47bd 3a77 2fbd
00000010: 2f0f 593e 7d10 05be a316 763d ef0e a3bb
00000020: 91b0 9f3e 4b05 b93d 7a78 10be 48d6 33bb
00000030: cf24 2cbe 3ebf 823d 5fe3 c63d 4e5e d93b
00000040: fd5c 2abe 0f7a a3bd 64f2 30be 7dcf 433e
00000050: b26e b33d f9b1 a7be e944 c63b 1d61 a13d
00000060: 80bb 9e3d f12e f2bd f59d 003e 62ca fd3c
00000070: 65fc 433e 9d9a 91be 204e 3a3e 918f 0abe
00000080: d546 25be 0ef2 953d 8384 bd3d 6c51 d53c
00000090: 074b e33d e021 303e 540f 18be 0522 403d
000000a0: 1842 12bd 2ae0 7cbd fbe8 f3bd 7566 2e3e
000000b0: a03a 3ebd 88c2 433e 5724 6ebe f8a1 40be
000000c0: 05ca e6bd f589 e9bb 519b 6fbd a2d8 1dbe
000000d0: 95ba e2bc bcbf 2abe ed81 753c 6d22 3f3d
000000e0: 8d65 403d 4f6e 84bd dd4a 483e c01b 223d
000000f0: ddbb 90be a19b f8bc b7e9 39be 9d01 fe3d
00000100: 71ad ce3c 6e58 05bd 6b77 c9bd 40db 87bb
00000110: 42cd 123e d220 5fbc e8a3 34be d11f 0abe
00000120: 4957 20be efad 193e 05e8 3f3e ecf9 0ebe
00000130: 9208 fbbc bc9f 8a3e e942 d23d cb3a 88bd
00000140: 1a63 25be 7c00 15be 303e 713e 9b16 0cbd
00000150: 1bae a3be 1b4a 84bd da38 363e c8e7 c33d
00000160: 50a5 63be 3089 4bbe a8df e93d e1c3 bbbd
00000170: 9fd0 793e 1dbd 1b3d 8f63 773e 14db 063e
00000180: 6e1c 8a3d 7648 7f3c 7207 34be 7e6c 8dbd
00000190: 3064 863d bda6 923d 5053 9c3d 5ace 3b3c
000001a0: 0791 93bd a867 9a3d 25d0 9f3c 2a83 29bd
000001b0: 3e40 f8bd c684 e2bd d58c edbd 29e0 32be
000001c0: c094 cdbd f3d7 3abd 6a49 083d 2c52 593c
000001d0: 3ed2 8abd 56d6 953c b0d1 a2ba d1b5 653e
000001e0: 11ea b83d 1d87 d4bd 6018 283e 9b5c e3bd
000001f0: 5a47 66be 05a2 f73c 4b20 04be c52d 263e
00000200: 464a 1abe 73ea 803c a318 e4bd 4e78 8e3e
00000210: ad63 59bd 0a97 263d 2daa ed3d 3a6b e3bd
00000220: c9a1 f0bc 2e41 eabc 9cc7 a3bd a951 ecbd
00000230: 21e2 273e aae8 29be 2e81 35be 772a 32be
00000240: 6c97 583e eee8 27be 1646 293e 4109 373d
00000250: 30ca 603e bd49 f93d 6d90 583e eae8 81be
00000260: 98ac a3bd 930f ddbd 6c4d e03d 2a99 8d3d
00000270: 9d25 48bd 14cb 09bd 1320 29bd e578 193e
00000280: ac1e f9bd 5681 003d c002 8cbd 64df 2f3e
00000290: 0c6f 323d 72d9 8bbc fb84 29be 0049 0cbc
000002a0: 271d d33d 8f81 95bd 1685 9fbd c378 e13d
000002b0: bf7b 7bbd a550 313e 8047 f6bc 167a d7bd
000002c0: 5826 cbbc 1d9b 02be f095 debd ee7a 173e
000002d0: 5c16 b03b 1e35 74bc 916d 943d ca4b b9bb
000002e0: 9751 8bbd 1e9f 123e bd8f b83d 5a8f 1ebe
000002f0: 3db7 4ebd 4396 c13d d16a d9bd 1189 973c
00000300: 31be 373d ff37 9bbe aa19 6a3d 2d7e c93d
00000310: 3d4d 5e3e 2a11 babd 5f6b dfbc 0ee1 553d
00000320: 252d 4a3d 840e adbd 93ca adbd 44e2 54bd
00000330: 6ac8 dd3d beb7 5cbd 308b 60bd da93 803d
00000340: 054e 22be 3837 6e3c 7889 d0bc 0c3b 323e
00000350: 494b 0abe 055d bebe b72a 303e c696 a03d
00000360: d8d7 513d d30c 553e 90d3 1a3e d999 8e3d
00000370: 0aaa a53d 7b1a 3a3e 7d9e 973d f70a 9f3d
00000380: 741e 9fbe 7fb3 d7bd d39e 763c 4f14 02bc
00000390: d708 32bc 4d03 a5bd 388c 2dbd 797c da3c
000003a0: 2670 1a3e 0c12 053d 972c 84be 323d 9c3d
000003b0: f6b7 ce3c d047 743d 0d8f 9e3d d210 be3d
000003c0: 4db0 923d d5db c3bd 610a 4a3e 8dda 8b3e
000003d0: de99 9b3d eebf 9abe cc5f cebd f8de 453d
000003e0: 7b7f 643d 934d 3cbd ab85 583e 3e99 d2bd
000003f0: 6453 00be 22ef c9bd d0d9 f2bd e18c 30be
-0.2034245 -0.13403757 -0.04876724 -0.042838313 0.21197198 -0.12994571 0.06008018 -0.0049761455
0.31189397 0.09034213 -0.14108458 -0.0027440954 -0.16810916 0.06384133 0.09711336 0.0066335564
-0.16637035 -0.07982265 -0.17279965 0.19122119 0.08761348 -0.3275297 0.006050695 0.07879851
0.077506065 -0.118253596 0.12560256 0.030980293 0.1913925 -0.28438273 0.18193865 -0.13531329
-0.16140302 0.07321559 0.0925379 0.026039802 0.11098295 0.17200422 -0.14849597 0.046907444
-0.035707563 -0.061737217 -0.11909672 0.17031272 -0.046442628 0.19117177 -0.2325605 -0.18811786
-0.11269001 -0.0071270415 -0.05849773 -0.1541467 -0.02767686 -0.16674703 0.01498459 0.04666369
0.046971846 -0.06466352 0.19559808 0.039577246 -0.28268328 -0.030347647 -0.18155561 0.124026515
0.025229188 -0.032555036 -0.0983723 -0.0041460097 0.14336112 -0.013618665 -0.1764065 -0.134887
-0.15658297 0.15007757 0.18740852 -0.13962525 -0.030643735 0.27074993 0.10266668 -0.06651839
-0.16151085 -0.14550966 0.23558879 -0.034201246 -0.3196877 -0.06459447 0.17795125 0.09565693
-0.2223103 -0.19876552 0.11419612 -0.0916822 0.24395989 0.03802215 0.24159072 0.13169509
0.06743704 0.015581241 -0.17580965 -0.06905459 0.06562078 0.07160709 0.07633078 0.011462772
-0.07205396 0.07539302 0.01950843 -0.041384853 -0.12121628 -0.11060481 -0.11599127 -0.17468323
-0.100381374 -0.0456161 0.033273138 0.01326422 -0.06778382 0.01829068 -0.0012422111 0.22432639
0.090290196 -0.10377333 0.16415548 -0.111016475 -0.22488156 0.030228624 -0.12902944 0.16228397
-0.15067396 0.015736794 -0.111375116 0.2782616 -0.053073574 0.040671386 0.11604724 -0.11104436
-0.02937402 -0.028595533 -0.07997057 -0.11539013 0.16394855 -0.1659266 -0.1772506 -0.17399012
0.21151513 -0.1639745 0.16530642 0.04468656 0.21952128 0.121722676 0.21148844 -0.25373012
-0.07991904 -0.10793986 0.10952267 0.06913979 -0.048863996 -0.033640936 -0.041290354 0.14987524
-0.12164053 0.031373344 -0.06836462 0.1717506 0.043562934 -0.01707146 -0.16554634 -0.008562326
0.10308295 -0.07300102 -0.07789056 0.110093616 -0.06139731 0.1731592 -0.03006339 -0.10521333
-0.024798557 -0.12754484 -0.10868442 0.14792988 0.005373759 -0.014905242 0.07247461 -0.0056547867
-0.068026714 0.14318511 0.09011791 -0.15484372 -0.05046772 0.09452488 -0.10616077 0.018497976
0.044859115 -0.3031616 0.05715338 0.09838519 0.21709152 -0.09085305 -0.027272878 0.052216582
0.04935946 -0.08450034 -0.084859036 -0.051973596 0.108292416 -0.053886168 -0.05482024 0.062782004
-0.15850075 0.014539532 -0.025456175 0.17405337 -0.13505282 -0.37180343 0.17203794 0.07841258
0.051231235 0.20805673 0.15119767 0.06962938 0.08089073 0.18174164 0.07403276 0.07765763
-0.3107792 -0.10532283 0.015052515 -0.007939412 -0.010866365 -0.0805727 -0.04237005 0.026670681
0.15081844 0.032487914 -0.2581527 0.076288596 0.025234204 0.0596388 0.077421285 0.09280552
0.07162533 -0.09563414 0.19730522 0.2731518 0.07597707 -0.30224556 -0.100768656 0.048308343
0.055785637 -0.045972418 0.2114474 -0.10283135 -0.12531811 -0.09860064 -0.11857951 -0.17241241

l3.weight f4 [64, 256]
00000000: 295a 183c b194 41bc 636a 263d cbd6 bd3c
00000010: 87ed 14be f803 3abd 5bad ba3e e2a2 053e
00000020: 21d0 bfbe 7f16 5a3d 251f 39bd fc3b 943d
00000030: e1bc 66bc 8829 e23d 83e3 d4bd 019d 983d
00000040: add6 04be 4d69 263e 050b a63c 9047 953e
00000050: e587 953d ce86 783d 3791 a9bd e8c8 0f3e
00000060: 29db 943d 85ae 753d 07d7 833e 364f 643f
00000070: 7f89 3f3e a03a 243e 4634 a03c e0d8 1ebd
00000080: 36db 193e 3075 b83d 9541 683d 7074 73bb
00000090: d05f f6be eee1 1c3e 66f1 cabd f408 2f3e
000000a0: a58c b03d 7d14 97bd acbb d8bc 2f9b 2d3e
000000b0: c821 de3a 5aa6 7fbd 4154 773d 33f3 c53e
000000c0: ede2 b53d 2a39 f0bd 0ea9 013e 29bb 393d
000000d0: cc86 533f c2e1 41bd c6e1 fdbc adf9 943c
000000e0: aaad ca3d c05c 463d e736 14bd fee0 b33d
000000f0: 3993 083e 73e0 67be ae31 213e a1d7 293e
00000100: 89ac 74bf 2135 613d 02d1 9ebc 6d69 123d
00000110: 3352 f83d 8abc 41be 2698 1b3c a1b1 453e
00000120: aa40 9fbd 71f1 06bd 79c1 8cbb d4ce 2fbe
00000130: 8b63 8bbd 41cc 82be df7d a4bd ed57 99bd
00000140: ee6b 6b3d 5921 8b3c 7189 953e b933 083e
00000150: 55ba 923e d919 9dbd ca35 bfbb fc8a ec3d
00000160: 786f 903d 5ef3 443d a5da de3c 1177 a83d
00000170: 92b6 723e b2f1 143e c1cf a5bc 37d9 3dbd
00000180: 3f9c a7bd 5575 3cbc da10 e3bd de5a 32be
00000190: fd72 76bd e657 c33c c6ef 603d 6120 12bc
000001a0: fadd e83b 3d2b 0a3d 5b34 72bd 6199 a7bc
000001b0: 6bb8 46bd eef2 3a3e bdc4 48bd 7e2c a23c
000001c0: 6b48 313e 715d 853d 50d1 f5bd ac4d 683e
000001d0: ac2e ba3d 3201 4b3e fdca 42bd d4e0 15be
000001e0: 50b4 88bd 15ab c4bd bbce f2bd 2676 06be
000001f0: eb75 b9bc 540a db3d 4e69 ba3c b79b f9bd
00000200: 4e21 9e3d f6ae e43d 1c2f 8f3c 6392 ebbe
00000210: 701b 1bbd 7307 b5bd 8256 63bd 6b05 513e
00000220: e75e 2abe aee6 903d 6344 a5be 2ce9 e2be
00000230: c272 1b3c 4654 4d3e 6bd8 3b3d ab4b cbbd
00000240: 7cb2 7e3d 7cb1 9b3e 87aa b93d aec5 b03e
00000250: f6da 13bd 78b0 5abd 400f e3bc 978e a13d
00000260: f64c 1abe 2e18 1e3e 19f4 273e 4a40 5e3d
00000270: eb3e 0cbd b7cc c8bc e8c2 2abe 8845 22bd
00000280: 72bf 56bd dea9 c53d 18b9 71bc 422d 3e3e
00000290: e8aa 88bd 22e4 6ebd 653d d8bd cf59 0dbd
000002a0: f3e3 6dbc 7fbe 563d 4e08 313d 6aea 96be
000002b0: 5251 3cbe 3ffa 103d 1571 88bd bfba c93c
000002c0: 3020 8c3c c77e b3be 04f0 2e3d 5e92 583f
000002d0: 0a8d 163e 7cb2 f9bd 82c7 ab3d 4005 2bbc
000002e0: 17cc d43d a2ca 0c3e 75f9 24bd 31e1 13bd
000002f0: 58f6 90bd e37f c53a 40ee 3f3d c247 3e3c
00000300: 6eb9 3f3b 7271 d33d 9a13 edbd 54fa 0f3b
00000310: 6027 faba 772a d23e a450 cf3c cab9 a53d
00000320: d31d 483c ca61 4fbc c917 a23d cdd8 d1bd
00000330: 6991 dd3d d292 ff3d 314d 49bd 282b 603d
00000340: 831a 53bd 66ed 463e 2498 ebbd 824d 92bd
00000350: 93fa a2bd 4032 bc3d 88fd 603e a900 57bd
00000360: 4c58 9f3d 5a98 043e ca29 27bf 459a 35be
00000370: 62cb 44be ad9b 4dbb d17c 523e e619 1d3d
00000380: d65c ab3d e485 1b3e b100 49be 8b7c a93d
00000390: d99d 7b3d 64ac c9bd 1129 b63d 42fb 5ebb
000003a0: 27e1 b73d 8aa5 45be 6854 a7be c843 a4bd
000003b0: d95c 8c3b a9ce fcbd 438f a8bd 941e b33d
000003c0: dcb7 6dbd a18e 703d 9594 f83c be0e ae3e
000003d0: adf7 f5bd 0c53 16bd f94b 6a3d eae0 333e
000003e0: c908 04be 9df3 36bd c5e0 c63d e4d0 c83d
000003f0: 6254 673e 46c6 ecbd 8c3e 26be 9d72 3abe
0.00929884 -0.011815236 0.040628802 0.02317371 -0.14543734 -0.04541394 0.36460385 0.13050416
-0.37463477 0.05324411 -0.045195717 0.072380036 -0.014083118 0.11043078 -0.10394957 0.07451821
-0.12972517 0.16251107 0.020268926 0.2915616 0.073013104 0.060675435 -0.08279651 0.14041483
0.07268364 0.059980888 0.2574999 0.89183366 0.18704794 0.16037989 0.019556176 -0.038781047
0.15025029 0.09006727 0.05670317 -0.003714826 -0.48119974 0.1532056 -0.09909324 0.17093259
0.08620576 -0.07376955 -0.026456676 0.16953729 0.0016947323 -0.062414505 0.060383085 0.3866211
0.08881173 -0.11729653 0.12662145 0.045344505 0.8262756 -0.04733444 -0.030991446 0.018185461
0.09896405 0.048428297 -0.03618517 0.08783148 0.13337411 -0.22644214 0.15741608 0.16586162
-0.9557577 0.05498231 -0.019386772 0.035745073 0.12125053 -0.18919578 0.009496724 0.19306041
-0.077760056 -0.0329451 -0.0042955247 -0.17168742 -0.06806096 -0.25546458 -0.080318205 -0.07487474
0.057475977 0.016983675 0.29206422 0.1330098 0.28657785 -0.07670946 -0.0058352696 0.11549947
0.07052511 0.048083656 0.027203867 0.08225835 0.23702458 0.14545324 -0.020240666 -0.04634973
-0.081840985 -0.0115025835 -0.110871986 -0.17417476 -0.060168255 0.023845624 0.054916166 -0.008918853
0.00710654 0.03373264 -0.05913196 -0.020458879 -0.04851572 0.18256733 -0.04901575 0.019796606
0.17312782 0.06511963 -0.12002814 0.2268588 0.09090933 0.19824675 -0.047556866 -0.14636546
-0.06675017 -0.09602944 -0.11855837 -0.13131008 -0.022639235 0.10695329 0.022755291 -0.121879034
0.07721196 0.11166184 0.017478518 -0.46010122 -0.037867963 -0.088393115 -0.055502422 0.20412223
-0.16637765 0.07075249 -0.32278737 -0.4431852 0.00948781 0.20051679 0.04586069 -0.09926542
0.062181935 0.30408847 0.09065729 0.34525818 -0.03609749 -0.05339095 -0.027717233 0.07888525
-0.15068421 0.15438911 0.1640171 0.05426053 -0.03423969 -0.024511678 -0.16675913 -0.03961709
-0.05242867 0.0965154 -0.014753602 0.18571952 -0.06673223 -0.058323033 -0.10558585 -0.034509476
-0.014519679 0.052427765 0.04322081 -0.2947572 -0.18390396 0.035394903 -0.06662194 0.02462518
0.017105192 -0.3505766 0.042709365 0.8459834 0.1470224 -0.12192246 0.083876625 -0.010438263
0.103904895 0.13749173 -0.040276963 -0.03610343 -0.07078236 0.001506802 0.046858072 0.011613788
0.0029254812 0.10324372 -0.11576004 0.0021969276 -0.0019085221 0.41048023 0.025307007 0.08092077
0.012214142 -0.012657592 0.07914693 -0.102464296 0.108187504 0.124791756 -0.04914588 0.054728657
-0.051538955 0.19426498 -0.11503628 -0.0714369 -0.079579495 0.09189272 0.21971714 -0.052490864
0.07780513 0.12948743 -0.6529814 -0.1773463 -0.1921821 -0.0031373308 0.20555426 0.038354777
0.083673164 0.15187794 -0.1962917 0.08275708 0.061429832 -0.09847334 0.088945515 -0.0034024273
0.08978491 -0.1930143 -0.32681584 -0.08020741 0.0042835292 -0.12344105 -0.0823045 0.08746067
-0.05803667 0.05872977 0.030344287 0.33995622 -0.12010131 -0.036700293 0.05720136 0.17566267
-0.12893976 -0.04466592 0.0971084 0.09805468 0.22590783 -0.11561255 -0.16234797 -0.18207784

l3.bias f4 [64]
00000000: 0390 32bd 8f3d b6bd 04fa 72bd be59 7d3d
00000010: a0d8 dbbd 4759 1cbd b533 da3d 9614 51bc
00000020: 46e0 a9bd 18b8 67bd e294 e13c f5ab 8abd
00000030: 15c9 99bb 0e09 33bc 4de6 84bd abb7 ae3c
00000040: 8283 623c cbc9 8a3c 53f3 233e 0db2 563d
00000050: 7bc6 49bc 152c 3cbd b5a3 8a3d 2a13 1c3d
00000060: 0c3b bc3c 82b8 9fbd 2286 babd 9e23 8f3d
00000070: b805 9b3c f5d6 64bd 39b5 0c3d 32c5 f83c
00000080: 8f21 6d3d 688a 35bd 3a29 c93c 7796 5e3d
00000090: 4203 51bd 6eff aa3b 3612 283d 3717 a3bc
000000a0: 2395 933c 990f fa3c ca52 4b3c 8260 8d3d
000000b0: b5e6 46bd d029 d2bc 5c83 23bd 3110 553d
000000c0: c04f cd3c 8c2b cebc c92d f23b d72b 213e
000000d0: 480f 9dbd dd5f 0abb 0e9f b83b 5da8 2a3d
000000e0: ac5b 8b3d ff50 88bd 23be 973d 85b2 833d
000000f0: 84fa f4bc 8bfc c6bd a12a debc 7334 69bd
-0.04359437 -0.0889846 -0.059320465 0.061853163 -0.10734677 -0.03817108 0.106543936 -0.012761256
-0.0829473 -0.05657205 0.027536813 -0.067710795 -0.0046931603 -0.010927452 -0.06489239 0.021327814
0.013825299 0.016941926 0.1601079 0.052415896 -0.012315388 -0.045940477 0.06769506 0.038104214
0.022977374 -0.07798864 -0.09107615 0.06989215 0.018923625 -0.05586906 0.034352515 0.030367468
0.057893332 -0.044321448 0.024555791 0.054342713 -0.051028498 0.005218438 0.041032992 -0.01990853
0.01801545 0.030525016 0.012409875 0.06903173 -0.048559863 -0.025654703 -0.039920196 0.052017394
0.025062442 -0.02516725 0.007390712 0.1573938 -0.0766893 -0.0021114268 0.005634195 0.04166447
0.068045944 -0.06656074 0.074093126 0.06430534 -0.029904611 -0.097161375 -0.027119936 -0.056934785

l4.weight f4 [2, 64]
00000000: 4e31 563e ab92 41bf 5ed3 afbc 8f4f 083e
00000010: 7a9e d6bd aeb0 ddbe c9dd 833f 366d 51be
00000020: 737d d7be f74e 69be de71 a03d 6f34 8bbe
00000030: 8341 51bf 0613 3cbe 861e a1bc 6d59 583e
00000040: 303e cdbd 9c06 cb3e 2278 bd3e 9458 8abd
00000050: 046c b23f 442a 323e e637 59be 8119 14bf
00000060: 5ac0 21be d108 2f3d d330 583f d3a0 893e
00000070: 5a6f 1d3f 1db8 ac3c ac00 b03f a38c 38be
00000080: 314a 29be 5517 8bbf 1bb0 d2bc 9821 3cbe
00000090: 57e8 213e fa41 ea3d 0756 b73d e1a9 d1bc
000000a0: 6c47 88bf 2590 cbbf 83ae f6bd 872b ebbb
000000b0: ab78 08be 4879 8fbc cee5 89be 545f 8b3d
000000c0: 4181 423e fe04 2d3e ff1a 933e 85d5 553d
000000d0: 7b22 16be 1169 4ebd fd63 963f be50 a93e
000000e0: 6674 6fbe a6a4 bd3d 06d5 86be 41e6 07bd
000000f0: f26d 6e3c 830e 52be d388 573e f51a 993c
00000100: 7021 35be 5b5f ab3e 17c7 33bd 7a62 723d
00000110: 40c1 b9be 1389 323d 4833 013f 79f7 523e
00000120: 17e0 eebe efe2 38bf eeb8 a3bd 7e75 e8be
00000130: a2f6 9c3f 1346 113f ed43 913d e31b 39be
00000140: cbce 57be 3d3f 183e 093a 4b3f d85b 26bf
00000150: 925a ef3e 6c81 6cbe 233b 833e 5183 2a3f
00000160: 7548 cb3e bca0 19be 928b cdbe 67b4 06be
00000170: f2e9 343e 0c1b 443f d959 fabd 2de3 813e
00000180: 2213 fe3e 44cb 75bf 2e35 383f 8cfe 52be
00000190: 0a93 0abe 4301 f73d cfe7 bcbd 6de9 84bd
000001a0: 3645 623f b6a1 543d af52 f2be def7 193f
000001b0: 0149 9dbe ee42 c4bd b78f 72be 796f 58bd
000001c0: 394f 3e3e 972c 433d 3555 3bbe 597e 2a3f
000001d0: dd50 91be f92b ddbd 171f 86bd 7b33 1a3f
000001e0: a748 dd3e 4726 37be 1e93 c43e cda6 063f
000001f0: 103b c5bd 348a b4be 8dc0 093e 5ae4 ddbd
0.20917246 -0.7561442 -0.021463092 0.13311599 -0.10479446 -0.43298858 1.0302058 -0.20451817
-0.42087898 -0.22784029 0.078342184 -0.2718844 -0.8174059 -0.18366632 -0.019667875 0.21127863
-0.10021627 0.3965348 0.37005717 -0.06755176 1.3939214 0.17398936 -0.2121273 -0.57851416
-0.15796033 0.042733017 0.844495 0.26880512 0.61498034 0.021083886 1.3750205 -0.18022399
-0.16532208 -1.0866495 -0.02571874 -0.1837219 0.15811287 0.11438365 0.08951955 -0.0255937
-1.0646796 -1.5903364 -0.12045004 -0.0071768197 -0.13327281 -0.017513886 -0.2693314 0.06805292
0.18994619 0.16896436 0.28731534 0.05220558 -0.14661591 -0.050393168 1.1749264 0.33069414
-0.23384246 0.0925992 -0.263344 -0.03317857 0.01455258 -0.20513348 0.21048288 0.018689612
-0.17688537 0.33471188 -0.04389104 0.059175946 -0.3628025 0.043587755 0.50468874 0.20602216
-0.46655342 -0.72221273 -0.07994257 -0.4540214 1.2262766 0.5674755 0.07093034 -0.18077044
-0.21074979 0.14867873 0.7938543 -0.6498389 0.46748787 -0.23096246 0.25631055 0.6660662
0.39703718 -0.15002722 -0.40145546 -0.13154756 0.17667368 0.7660377 -0.12224168 0.25368634
0.49623972 -0.96013284 0.71956146 -0.20604914 -0.13532653 0.120607875 -0.092239015 -0.06489835
0.8838686 0.051912032 -0.47328708 0.6014384 -0.3071976 -0.09583078 -0.23687635 -0.052840684
0.18584909 0.047649946 -0.18294223 0.6659904 -0.28382006 -0.10799403 -0.06548899 0.602348
0.43219492 -0.17885695 0.38393492 0.5259827 -0.09630406 -0.3526169 0.13452359 -0.1083457

l4.bias f4 [2]
00000000: 72e4 8bba ff0a 283d
-0.001067294 0.04102611
