turtlebot3_machine_learning/turtlebot3_td3/steer&spd/models121_60/TD3_stage2_actor.pth (torch_old, 103102 bytes, 8 tensors)

l1.weight f4 [24, 60]
00000000: d6f6 45bd fcc8 abbd d735 d3bd 0102 f43d
00000010: b83d 74bd 1607 84bd 5431 adbd 2ae4 5c3d
00000020: c4e9 bfbd 4ea2 b83d 91e1 c1bd 34f0 cf3d
00000030: 17de b2b9 7de6 973d 5952 3c3c 3e59 46bd
00000040: 21eb 433d 526a dabd d51c edbd 84b4 173d
00000050: 9ae1 3c3d 1d13 9a3b 2b2c d03d c98c a9bd
00000060: eb43 15bc 68a4 213d fc35 593d 4721 7fbd
00000070: 7b6b 2fbd 8f37 d83c e30a 9abd b9c6 a3bc
00000080: c0ae 31bd 83ac 94bc 4133 903d edb9 86bd
00000090: 7054 ee3d 7a3c 9d3a 8c77 a2bd 49ae db3d
000000a0: 261b e0bd 6ab7 a9bb 2799 7fbd 8661 9bbd
000000b0: 83f2 b33d c9d2 70bd 7ad2 b9bd bb59 debd
000000c0: a700 863d c36a fa3d 6fd8 debd 6ee5 b8bd
000000d0: bc52 cfbd 906e 4abd cd70 8cbd 61d1 41bd
000000e0: 8a87 56bc 0fcc c9bc 919c d23a 965d 833d
000000f0: 6268 543e ef2c 4a3d cec6 213d be06 e43d
00000100: cd79 e73d 5204 a03d f17a 043e b59b ea3d
00000110: 6631 9c3d dc02 9a3d 891a da3d adef c33d
00000120: 2c4f b43d 1397 273d f7b2 9f3c 9804 a5bc
00000130: 592f bebb 9174 c03c c0af a3bd 84b4 23bd
00000140: 431d 23be 9c05 29bd 637a 86bd 24dc 34bd
00000150: a08e 96bd 4eda ab3d 6942 bc3b 556c 0d3d
00000160: ac9c 2f3c da09 7f3c 5d29 813d 780c 0a3d
00000170: 7fda 45ba 4a35 1cbe 45d9 b5bc ba12 26be
00000180: 6483 a3bd 875f c5bd 1894 d8bc f0c8 b7bd
00000190: f837 edbd 5800 28be 5b8c e4bd 1b61 7cbd
000001a0: b176 fdbb dbdb 4dbd 3387 923c 493d 95bc
000001b0: b176 b5bc 7da3 a63c c6bc 583d 1bad bdbc
000001c0: e67f 773c fd6d ed3d 2a4b 853d f20b d03d
000001d0: 43b8 2a3e b7c9 023e fe4d 053e 78ea 3f3e
000001e0: 87ff 8e3d 50bf 29bb 30b9 bb3d d9f2 b7bd
000001f0: 06f8 a2bd a665 f03c 3acf 143d 4300 203d
00000200: f782 12be 519f a5bc 00f5 d8bd 8370 da3d
00000210: 0ad9 cb3d c43f 8bbc 8c60 c43d f26f 72bd
00000220: c001 61bd 4a47 16be 9e97 c43d cffd 8e3d
00000230: 0639 7f3d fb0c f9bb 23af 9dbd b63a 16be
00000240: e67f 8d3c 238a 02be c3e6 11bc 5456 703d
00000250: 035e 51bd e2a7 cabd d33a 563c 0559 32bd
00000260: 5767 bcbd 3cad 73bd cc13 72bc e7dd b13d
00000270: 5985 42bd 5029 3d3a 3e5f 333d 2027 24bd
00000280: bb5a 89bd ceaf 15be ab0e 0fbd 4f07 c33d
00000290: 4122 adbd ec3f 06be 3c6e 5abd 9753 e5bc
000002a0: ac2e e8bd 9bc2 a8bc 9ae2 85bd 1b6e 473d
000002b0: 60b9 61bd d451 283d 9d0f 513d 26cb 00be
000002c0: e14e babd 59ae b43d 7d1d c8bd 0b24 8bbc
000002d0: 720c 113c 40c0 1ebd 844c 853d f7f7 ab3d
000002e0: 4134 4e3c 19cb 943c 8611 383d 1717 b93d
000002f0: f95a ba3d 0f8b 933c 0046 c83d 1676 b13d
00000300: 94b1 b33d d9df 8b3d f4ae d93d 2359 e33d
00000310: d972 c53d 97dd 823d 0f5e 413d f79f 893d
00000320: 7ea9 db3d c34e 153e 0111 ac3c 23b2 163d
00000330: d190 503d 2f45 753d 3dea 313d 1319 3abb
00000340: 35f1 4cbd dd20 a3bd 2352 ccbd a6c3 47bd
00000350: 6c2c 2bbe e17c 4abe b786 7cbe 50cb 2bbe
00000360: 8587 39be 0252 5abe db17 debd 6f08 6fbe
00000370: d1c6 e7bd 696e e7bd 5162 20bd e03c 483d
00000380: 220f 413d 4ce3 c83d bef7 b03d 6148 dc3d
00000390: 4e71 0b3e 6c22 783e 942e 393e e2d6 633e
000003a0: 3ddc 463e 10f6 1e3e 521b 213e ab00 7e3d
000003b0: 287e ac3d f525 aa3d 7a35 a93c 30f9 e33c
000003c0: 93a7 f0bd f8f3 43bd 8e34 04bd cbd1 df3b
000003d0: 0530 18bc 4864 b2bb b254 a3bc f541 c2bd
000003e0: 083f f8bd b84b 55bd d2f2 4abd 5de8 a4bd
000003f0: 97e4 c0bd 3969 6abe c17c 4cbd 05b2 ffbd
-0.048331104 -0.08387944 -0.103130035 0.11914445 -0.059629172 -0.06446664 -0.08456674 0.05392853
-0.09370759 0.09015332 -0.094668515 0.10153237 -0.00034116275 0.07417009 0.011494243 -0.04842495
0.04783166 -0.1066481 -0.11577765 0.037037387 0.046113588 0.0047019855 0.10164674 -0.08278806
-0.009110431 0.03946343 0.05303 -0.062287595 -0.04282711 0.02639368 -0.07521608 -0.01999222
-0.043379545 -0.018148666 0.07041026 -0.06578431 0.11637199 0.0011996173 -0.07932958 0.10726602
-0.10942678 -0.0051793354 -0.062401917 -0.075869605 0.0878649 -0.05879477 -0.09073348 -0.108569585
0.06543093 0.122273944 -0.10881125 -0.09028135 -0.10123202 -0.049421847 -0.068574525 -0.04731882
-0.0130938385 -0.024633436 0.0016068389 0.064143345 0.20742944 0.04935926 0.039496236 0.111340985
0.113025285 0.07813324 0.12937523 0.1145548 0.076266095 0.07520077 0.106495924 0.09567199
0.08804163 0.04091556 0.019494517 -0.020143792 -0.005803984 0.023493083 -0.07992506 -0.039967075
-0.15929131 -0.041265115 -0.06566312 -0.044155255 -0.07351422 0.08391248 0.0057452214 0.03452714
0.010718506 0.015566314 0.063067175 0.033703297 -0.0007547512 -0.15254703 -0.022198329 -0.16218081
-0.07984045 -0.09637361 -0.026437804 -0.08973873 -0.11582941 -0.16406381 -0.11159583 -0.061616044
-0.0077350964 -0.0502585 0.017886734 -0.0182177 -0.022151323 0.02034163 0.052914403 -0.023153832
0.015106177 0.11593244 0.06508477 0.101585284 0.16671853 0.1277226 0.13018033 0.18741786
0.06982332 -0.0025901385 0.09166181 -0.089818664 -0.07957463 0.029345345 0.03633044 0.03906275
-0.14307772 -0.02021757 -0.10593605 0.10665991 0.09953506 -0.01699818 0.09588727 -0.05918879
-0.05493331 -0.14675632 0.09599231 0.06982004 0.06231024 -0.0076004243 -0.0769942 -0.14670834
0.0172729 -0.12748007 -0.008905116 0.05867608 -0.051115047 -0.09895302 0.013075548 -0.043541927
-0.09199398 -0.05949138 -0.014775228 0.08684903 -0.04749045 0.0007215934 0.043792002 -0.040076375
-0.067067586 -0.14617845 -0.034926098 0.095228784 -0.08453799 -0.13110322 -0.053327784 -0.02799396
-0.11337027 -0.020600608 -0.065373614 0.04868899 -0.055108428 0.041093662 0.05104028 -0.12577495
-0.09097076 0.08822317 -0.097712494 -0.01698496 0.008853065 -0.038757563 0.06508735 0.08396905
0.0125857005 0.01816325 0.044938587 0.09037607 0.09099383 0.018010644 0.097789764 0.08665101
0.08774105 0.06829805 0.10629073 0.11100986 0.09641046 0.06389921 0.047208842 0.06719964
0.107256874 0.14580826 0.021004202 0.03679098 0.050919358 0.05988043 0.043436278 -0.0028396293
-0.05003472 -0.079652525 -0.09976604 -0.04877057 -0.16716164 -0.197742 -0.24660765 -0.16776776
-0.18118103 -0.21320346 -0.10844394 -0.23343061 -0.11317218 -0.11300356 -0.03915626 0.04888618
0.047133572 0.098089784 0.08641003 0.10755993 0.13617441 0.24231881 0.18084174 0.2224994
0.19419952 0.15523553 0.15733078 0.062012356 0.084225 0.08308021 0.020655382 0.027828783
-0.11750712 -0.04784009 -0.032276683 0.006830429 -0.0092887925 -0.0054440834 -0.019937847 -0.094852366
-0.12121397 -0.052074164 -0.049547978 -0.08052132 -0.094186 -0.22891702 -0.049923662 -0.124851264

l1.bias f4 [24]
00000000: a4f3 90bc ae14 5b3e 6ea8 ecbd 2171 f43d
00000010: 5abc 943e 9f71 05be 0f35 473e 1cb7 3a3e
00000020: 0198 9d3d 3d92 04be 94ac cd3d 6b6d 513e
00000030: f8d2 4d3e 50b6 713e 0dbf 593e 7252 abbd
00000040: 79c2 283e 15e4 923c 07d7 ad3e c9f5 e4bc
00000050: cca6 d1bd 3991 9c3e 7b37 1dbe 6af4 613e
-0.017694302 0.21394607 -0.11555563 0.1193564 0.2904995 -0.13031624 0.19453834 0.18233913
0.07695008 -0.1294641 0.10042682 0.20451896 0.2010001 0.23604703 0.21264286 -0.083653346
0.16480435 0.017931024 0.33953115 -0.02794923 -0.10236892 0.30579546 -0.15353195 0.22065893

l2.weight f4 [256, 28]
00000000: a7b7 ff3d fab6 0cbd 0d8f e3bd 791d 31be
00000010: 42e1 cf3d 3b05 0bbe 1d80 e2be d66e 7d3d
00000020: 6ce7 4cbe 26bd 8739 e430 4ebd c952 b13d
00000030: 2507 853e 9809 d5bd 41bc 583e 19f5 bc3d
00000040: 83de a4bd b15f 2abe 6c81 803e 0a32 d03c
00000050: a891 9abe 4a9c b63d 028f 01be 4e7c dfbd
00000060: 95a7 25bf 3a07 dabe 99cc f13e da7b a03d
00000070: 323a 14be 06fb c9bd a106 f4bd b49d aebd
00000080: 0532 823d 3b7e 28be c4c0 2cbd 2fb2 253c
00000090: 6fae 0bbb 8f7d 14be 1762 31be 1780 273d
000000a0: bb83 193e 2557 56bd 8251 b93d 3f06 d9bd
000000b0: a4c3 f83c 80fd 28be 4ad3 d2bb b81e 463d
000000c0: 8333 f73d 2f89 04be 60a0 d7bb b0b7 eabd
000000d0: 506c 77bd 9b49 3c3d 95f0 ec3d 3b7a e03a
000000e0: 4302 af3d 669d fbbd f4e0 c53c 6802 56bd
000000f0: f840 a43e 20b0 a23e 7e31 debe fd07 3fbe
00000100: 14ab 9e3b 8381 063e a690 efbd cfef 3e3e
00000110: b7e6 f3bd 4775 babe 45cf 98be 9561 e2be
00000120: 4e41 7cbe 6e8b b1be 9b81 bebe 70d3 dc3c
00000130: c3db 463e 36df 1abf e917 c73e bf1f 1f3d
00000140: 1599 92be 9ab2 0a3f b587 1fbf cc6e 22bc
00000150: 0067 e0bc 4097 71be 288c 36be d5f6 35be
00000160: 4b45 e13d 45cb e6bb e3e2 55bd 9798 703e
00000170: 6319 35be 75a3 d53d 0703 59bd 5801 91be
00000180: 7106 0cbd 86bf 0f3e 4a82 3cbd fb2c 1b3e
00000190: 16bd 3ebe 4a18 363d 87e3 443d a552 b23b
000001a0: cbd9 7b3e e63e f0bd 8463 cfbc 3716 84be
000001b0: 9178 a93d 2bb7 c9bd 7500 8fbe 3e2d cf3d
000001c0: 20be 7f3d de2e a23d fe88 973d 3b22 333e
000001d0: a422 03be e23e a33e a8ff 0abe 2012 5d3e
000001e0: 4325 ec3d e212 75bd 161f 8a3d 853b 6fbe
000001f0: 5362 27bd c226 743c e868 053e 0926 3cbd
00000200: 30e8 d53d 7bd5 1abd 058a 06be dedf 50be
00000210: 86e5 28bf cda8 c73d 6929 843d cf82 003e
00000220: 69f4 1fbe 4cac f73e ab23 2e3f 2724 d1bd
00000230: a352 243e 047c 8dbd 5cb1 cdbd 2f28 f0bd
00000240: 20e3 883d 446d 2bbe fc78 c63d 45d7 823c
00000250: 867f 3bbd a85b e83c 089a e53d 3b15 34be
00000260: d08a 0bbd 35d6 b93d c1df 39be 14b3 36be
00000270: c8c7 28be 9b6e 71bd fbaf 343e 6c3b 293d
00000280: 3cf7 d43d 6b90 dcbd d931 f8bd 221b c2bb
00000290: 3bac a73d 7799 0cbe 8c53 95bd 6538 90bd
000002a0: 6407 c5bc bd41 903d d173 3dbe 1310 11be
000002b0: 02a7 14bd f617 133d da81 75be 9132 af3d
000002c0: 3649 3fbe ffa9 1e3d 06a2 46bd 1ca8 a73e
000002d0: 2833 163e 57e8 bfbd 18c7 70bd a7be 15be
000002e0: ae37 a9be 2aac b1be 0887 46be 8b29 2fbe
000002f0: 9539 183e beb6 3f3e 67c0 87bf 1fed 0abe
00000300: 963e 133e 30b9 02bf a0fb 48be a70b a4bc
00000310: cadb ffbd a1d7 503d b3b2 f4bd 547d 97bd
00000320: 8f50 243e fe31 40be 308d 4c3e 439f 123e
00000330: e0ae 00bd 18d9 f2bd ac1f 20be 6710 f5bc
00000340: f76d 073e fb72 c53d e6a8 413e 6122 1d3e
00000350: c24b 0f3e 77e1 6e3e 6c26 353e 6927 583d
00000360: 220c c83b c4dc 2ebc ab9e 20be 52ff 93bd
00000370: d1b5 48bf 9722 4c3d 3fed 59be 05ae bbbc
00000380: 8753 0a3e f45f 213e fbf0 2bbe da35 1f3e
00000390: 3e3d fa3d 14fd 153e d0b4 92bd a787 e93d
000003a0: f5cc b1bd 1277 ac3d 16b6 183e fa3c f43d
000003b0: ec5f 063c 3faa f23d eda8 01bd e2f8 b43d
000003c0: 6ced 90bd 3522 743d 32c2 6f3e 044d 363e
000003d0: bb1a 333d edd3 37bd de21 1f3e 0b59 433d
000003e0: 05d2 d03e fecb bf3e 3269 283f d577 23be
000003f0: 2f87 e8bd 60ed 8b3e 87d9 3bbe a64b fc3c
0.12486201 -0.034354188 -0.11111269 -0.17296399 0.101503864 -0.13576214 -0.44238368 0.06187328
-0.20010155 0.00025890133 -0.050339594 0.08658368 0.25982013 -0.104022205 0.21165563 0.09226436
-0.08050253 -0.16638066 0.2509874 0.025414485 -0.30189252 0.089165285 -0.1265221 -0.10912381
-0.64708835 -0.42583638 0.47226408 0.07836123 -0.14475325 -0.09862332 -0.11915327 -0.08526173
0.06357197 -0.16454403 -0.042176023 0.010113283 -0.0021313687 -0.14501022 -0.17322575 0.04089364
0.14991657 -0.0523292 0.090487495 -0.105968945 0.030366726 -0.16502953 -0.006433879 0.04836914
0.12070372 -0.12942956 -0.0065803975 -0.11460817 -0.06040603 0.045968633 0.11569325 0.0017126271
0.08545353 -0.12285881 0.024155118 -0.05224839 0.32080817 0.31774998 -0.43397135 -0.18655391
0.0048421714 0.13135342 -0.116975114 0.18646167 -0.1190924 -0.364176 -0.29845634 -0.44215074
-0.24634287 -0.3467669 -0.37208256 0.02695629 0.1941977 -0.6049684 0.3888543 0.038848635
-0.28632417 0.54178774 -0.6231645 -0.009914111 -0.027392864 -0.23592854 -0.17826903 -0.1776994
0.10999545 -0.0070432746 -0.05221833 0.23495708 -0.17685466 0.104315676 -0.052981403 -0.28321338
-0.03418583 0.14037904 -0.04602269 0.15153877 -0.18626818 0.044456758 0.04806855 0.005441981
0.245948 -0.11730747 -0.025316007 -0.257982 0.08274949 -0.0984939 -0.27930036 0.10116051
0.062437177 0.079190955 0.07399176 0.17493527 -0.12806183 0.31883913 -0.13574088 0.21588945
0.115305446 -0.05983246 0.067442104 -0.23362549 -0.040865254 0.014901819 0.130283 -0.04593471
0.10444677 -0.037801247 -0.13138588 -0.20397899 -0.65975225 0.09748993 0.06453211 0.125499
-0.15620579 0.4837364 0.68023175 -0.10211974 0.16047148 -0.0690842 -0.10043594 -0.117264144
0.06683946 -0.167409 0.09691045 0.01597179 -0.045775913 0.028364018 0.1121102 -0.17586224
-0.03406793 0.0907406 -0.18151762 -0.1784175 -0.1648246 -0.058943372 0.17645256 0.041316435
0.10398719 -0.10769733 -0.12118883 -0.0059236446 0.08187147 -0.13730417 -0.07291326 -0.070420064
-0.024051376 0.070437886 -0.18501212 -0.14166288 -0.036292084 0.035911523 -0.23975316 0.08554567
-0.18680272 0.03873634 -0.04849436 0.32745445 0.14667952 -0.09370487 -0.05878362 -0.1462351
-0.33050293 -0.34701663 -0.19387448 -0.17105691 0.14865716 0.18722054 -1.0605592 -0.13567017
0.14379343 -0.51063824 -0.19627237 -0.020025088 -0.12493093 0.05098689 -0.11948147 -0.07396951
0.16046356 -0.1876907 0.19975734 0.14318566 -0.031416774 -0.118578136 -0.15637082 -0.029915048
0.13225542 0.096410714 0.18912086 0.15345146 0.13993743 0.23328196 0.17690438 0.05277196
0.006104962 -0.010672752 -0.15685527 -0.07226433 -0.7840243 0.049837675 -0.21281908 -0.022910127
0.13508426 0.1575926 -0.16791146 0.15547886 0.12218712 0.14647323 -0.071633935 0.11402827
-0.086816706 0.08421148 0.1491321 0.11925693 0.0082015805 0.11848878 -0.03165524 0.08836533
-0.07076535 0.059602935 0.23413923 0.17802817 0.043726664 -0.044879843 0.15540263 0.04769234
0.40785232 0.3746032 0.65785515 -0.15963681 -0.11353909 0.2732954 -0.18344699 0.03079779

l2.bias f4 [256]
00000000: 5ad6 87be c841 09be f669 2cbd e6f9 263d
00000010: 56a1 1d3e 9610 05be bd30 753d 5bd7 bf3c
00000020: c515 c93e f47b 673e d67a 51be 1cb1 c33d
00000030: 6855 04be 1751 e83d 6ed0 c93d 2044 243c
00000040: 31b1 4cbe e40c ebbd f51b 23be 8aa0 a33d
00000050: da2e 1e3d 807c 8abe 222b 9abc de8c f73c
00000060: 1d73 9d3d 54b4 a7bd 5ffa 193e 7d92 033b
00000070: f2d5 7f3e 516c 96be 458f 073e 3da5 9bbd
00000080: fdd3 30be 29ec a53d c485 123e 8781 c03d
00000090: 9ca7 f13d c5d2 833e be54 16be a4c4 a63d
000000a0: d27e a93d 9495 2dbe 051e 30be 4456 923d
000000b0: 6713 82bd bf4b 1d3e 9b63 62be 025b 09be
000000c0: 6553 aabd 057e 7e3d b1b9 bdbd d208 15be
000000d0: e0e2 aabd 64d4 80be 7a8a 2e3c 4717 1e3d
000000e0: b416 443d db5b 81bd 8227 213e 968c 263d
000000f0: 454d 93be 6be8 01bd c5fd 6dbe 16a0 6b3d
00000100: 676b 06bc 1942 62bc 5426 25be d374 ddbb
00000110: b390 f43d 7794 aebd 5ff5 83be 01da 37be
00000120: 72f5 78be 3284 113e c138 ed3d cb80 95bd
00000130: 7f57 19bd ef71 463e 0c44 67bc db43 81bd
00000140: 856e 1abe 3314 6cbe c1fa 6c3e 7813 a9bd
00000150: ecd7 91be 16c7 5ebd bc7c d73d 670e c03d
00000160: e566 8abe 4ce4 73be 5450 f83d bcdf 2abd
00000170: 93d0 5c3e 810b 343d 6d9e 673e 179a 033e
00000180: 9449 9f3c b948 813b c45e 6dbe 99a4 06be
00000190: 9adf 073e 2ed6 cf3c 53fb f63d 30b8 743d
000001a0: e1a9 eabd 6897 163d 8db0 a93c 1034 19bd
000001b0: f8e0 583c a208 5ebe a131 ccbd 0aaf 0abe
000001c0: bc0e 5cbd c69f 11bd 117d a63c 564e 8abc
000001d0: 42d2 a9bd 7e00 22bd 51ff b13d 1e4e 183e
000001e0: 4271 913d 43b1 08be 5afb 623e bcd1 3cbe
000001f0: 2bb3 77be db79 a03d 9bdd 14be 3605 253e
00000200: 312d 6ebe 7074 d93c fb18 e4bd 056c aa3e
00000210: 8840 44bc 8610 64bd b511 5f3e 5245 37be
00000220: 270a c3bc 6c76 21bd b87b 1b3d 8843 0abe
00000230: a0d0 493e 867e 2bbe 6148 36be bc70 17bd
00000240: a39a 043e 641b d3bd 23ed 123e ad7b 1f3e
00000250: e4a6 383e bc49 f43c a1e3 173e 139b 90be
00000260: 0285 0abe f2da efbd 0113 423e 59f0 683d
00000270: 0789 b0bd 3a4a 20be a5b9 44bd a433 0a3e
00000280: ea1e f9bd d8f9 8e3d c794 f6bc fa37 3d3e
00000290: 4e50 b13c cca2 d8bd 8205 05be 3475 673c
000002a0: df5a 063e 7588 04be fa92 5c3b 934d 0f3e
000002b0: 8202 84bd 8bc9 3f3e 89d7 4ebd 3d70 3fbe
000002c0: 3066 e3bd f753 c8bd a3e0 ffbd 944c 873d
000002d0: be2c 9cbb f549 fbbd 089b dcbc f51e 5ebd
000002e0: 411f f8bd 82fb 4b3e 80eb 003e 6409 2dbe
000002f0: be60 90bd d008 8239 281f b9bd 1a5f 14bc
00000300: 87c0 6d3d 3212 c5be 53ae 723d 566f 563d
00000310: f80f 853e 52ba d7bc 7677 243c 81c3 d8b9
00000320: f9a8 f23c 4fcf 43bd 620f 8cbc dba4 38bd
00000330: 1786 8a3d cf4d aebd 4393 e4bc 08dd 703d
00000340: 5dfd dbbd 9db5 813d ae01 22bc f9ed 003e
00000350: 273e 19be 97c4 b1be 979f 453e b9e2 8f3d
00000360: 3266 043d 2948 8c3e 46c3 d23d ed33 dd3d
00000370: 6d43 3c3d 93cc 763e 9899 ba3d 5a60 2b3e
00000380: c8e6 b1be 262e f4bd 519e 763c 3ba4 8abc
00000390: 940a 703c 2a47 33be eb24 ddbd ce2d b03c
000003a0: cd5a 203e c5b2 fabd bd6f 8fbe fd36 03bd
000003b0: 651c a8bd b7d2 3a3d c626 343d ecc5 003e
000003c0: a0a0 2b3e dba3 fbbd dfaf 433e 7972 693e
000003d0: 6cd9 cb3d fdc0 a1be 15d0 c4bd 54c9 013e
000003e0: 967f ca3c 3ce3 b4bc 5d4a 843e b65f 23be
000003f0: 3373 d7bd 223e d13c 3901 c7bd 90ba 7fbe
-0.26530725 -0.13404 -0.04209324 0.040765665 0.15393576 -0.12994608 0.059860934 0.02341812
0.3927442 0.22605878 -0.20457014 0.09555265 -0.12923205 0.11343592 0.09854208 0.010026008
-0.19989468 -0.11477068 -0.15928634 0.07989605 0.0386189 -0.2704811 -0.018819395 0.030218538
0.07687972 -0.08188692 0.15036915 0.0020076327 0.24983957 -0.29379514 0.13238247 -0.07599876
-0.17268367 0.081016846 0.1430884 0.093997054 0.11799547 0.25746742 -0.14680764 0.08142975
0.08276142 -0.16951591 -0.17198952 0.0714536 -0.06351357 0.15360926 -0.22108309 -0.13413623
-0.083166875 0.0621319 -0.092639334 -0.14554146 -0.08344054 -0.2516204 0.010653133 0.038596418
0.047873214 -0.06316348 0.15737727 0.040661417 -0.2876989 -0.03171579 -0.23241337 0.057525717
-0.008204318 -0.013809704 -0.16127902 -0.0067583113 0.11941662 -0.08524411 -0.2577314 -0.17954256
-0.2431238 0.14210585 0.115830906 -0.07299956 -0.03743696 0.193794 -0.014115345 -0.063117705
-0.15081222 -0.2305458 0.2314253 -0.082556665 -0.28485048 -0.054389082 0.10521838 0.09377747
-0.27031627 -0.23817557 0.121246964 -0.041717276 0.2156394 0.043956283 0.22619028 0.1285175
0.019444264 0.003945437 -0.23180681 -0.13148727 0.13268891 0.025370684 0.12059655 0.059745967
-0.11458183 0.036765486 0.020714069 -0.037403166 0.0132372305 -0.2168298 -0.099704035 -0.13543335
-0.05372499 -0.035552762 0.020323308 -0.016883057 -0.082920566 -0.03955125 0.08691276 0.1487355
0.0710168 -0.1334887 0.22166196 -0.18439382 -0.24189441 0.07835742 -0.14537661 0.16115269
-0.23259427 0.02654478 -0.11137577 0.33285537 -0.011978276 -0.05567982 0.21784098 -0.17897537
-0.023808552 -0.039419577 0.037959784 -0.13502324 0.1970849 -0.16747484 -0.17801048 -0.036972746
0.12949614 -0.10307959 0.14348273 0.15574522 0.18032414 0.029820316 0.14832927 -0.28243312
-0.13527301 -0.117116824 0.18952562 0.05686984 -0.08619886 -0.15653315 -0.048028607 0.13496262
-0.121640995 0.06981248 -0.03010024 0.18478385 0.021644738 -0.10577926 -0.12990382 0.0141270645
0.13120602 -0.12942679 0.003365694 0.13994436 -0.06445791 0.18729226 -0.05049852 -0.1869516
-0.11103475 -0.0978164 -0.12494018 0.06606403 -0.004766076 -0.122699656 -0.026929393 -0.05422874
-0.12115336 0.19920161 0.12589836 -0.16898113 -0.07049702 0.00024802098 -0.09039146 -0.009055877
0.058044937 -0.38490444 0.05924828 0.052352272 0.25988746 -0.026333962 0.010038247 -0.00041344392
0.029621588 -0.047805127 -0.017097179 -0.045079093 0.06763857 -0.085109346 -0.027902251 0.05880454
-0.107416846 0.06333468 -0.009888096 0.1259078 -0.14965115 -0.347203 0.1929916 0.07025666
0.032324024 0.27398804 0.10291152 0.1080092 0.04596274 0.24101476 0.09111327 0.16735974
-0.34746385 -0.119228646 0.015052394 -0.016924014 0.0146509595 -0.17507616 -0.10798057 0.021506216
0.15659638 -0.12241129 -0.28014937 -0.032034863 -0.08208541 0.04561111 0.04398229 0.12575501
0.16760492 -0.12287112 0.19110058 0.22797574 0.09953579 -0.3159255 -0.09610001 0.12674457
0.02471904 -0.02208101 0.25837985 -0.1595448 -0.105200194 0.025542323 -0.0971703 -0.24973512

l3.weight f4 [64, 256]
00000000: 575d 30be c494 41bc d06b 29bc c07e 883d
00000010: 2ec0 38be 6504 3abd 438a b53e 82c9 043e
00000020: fd75 d3be 628f 5a3d b056 1fbe 51a8 b13d
00000030: 909c d8b9 1297 453e a632 c5bd 8753 c83d
00000040: dd54 0abf 5770 b53e afdc 583d edee 983e
00000050: ff10 ee3d 21ef e83d 31f0 22be 93d6 3d3e
00000060: 4771 5a3d 3ae8 6f3d fa9b 033f 5483 313f
00000070: f4e6 453e ea3a 2b3e dd1f fa3c 7808 97bd
00000080: 242c 123e 9146 343e fde3 973d ec19 09bd
00000090: 46d7 d1be 6de7 123d bff1 67be 3acb fa3d
000000a0: 4b43 113d d8e0 24be 1085 8abb 30d2 0d3e
000000b0: f9d3 26be 3e67 6bbe 1233 b13c 8e61 d33e
000000c0: fe31 6b3e c897 f2bd 09ce 2b3e 4772 be3d
000000d0: 5202 393f 0af5 2dbe 8b13 a5bc 40e2 423d
000000e0: 6556 a7bc f906 3f3d bcfb bcbb 42db 983d
000000f0: e75b 243d 8a6b 1abe 0156 2b3e 067e 203e
00000100: 30a8 79bf 0d3a 773c f59a c3bd a9cf cd3c
00000110: a518 003e 7795 cdbd ef19 803d a10b 4c3e
00000120: f421 2fbe 464f 0ebd 8284 c73c b93e f1bd
00000130: bd25 7fbe bb37 b7be 1dac 1dbe 260e d2bd
00000140: bf81 9e3d 73cd 3e3c 5602 fe3e a197 493e
00000150: 98d3 e13e 1546 a2bd 719d bf3c 1a4a 693e
00000160: be01 d43c 34b0 573d c685 b73d e0fc fc3d
00000170: 499e 323e b599 dc3d d106 a3bc 1b84 31bd
00000180: 827d 4fbd eac3 a03d 394b 8dbe 821f 10be
00000190: 2c73 bfbd a9a0 753d 6c4f 7b3d 5299 60bd
000001a0: 7c21 1f3b c944 7e3d 5b68 993d 5d46 243d
000001b0: 7f90 a5bd 939b 423e 9bda 85bd b17e d9bc
000001c0: e706 163e 9b63 b53d 9725 19be 0dec 563e
000001d0: 4bd1 ab3d ffdc 563e 3d38 a5bd defd ffbd
000001e0: 9bf9 04bd 007b 02be 742d c3bd df4a 85bd
000001f0: 5bc6 92be fc22 da3d 228e 2d3c df03 dfbd
00000200: d55c 243b 5db3 5a3e 962e 8f3c f3df 96be
00000210: 8470 9b3c 718a 90bd 1073 dcbd 394d 363e
00000220: 5c32 e6bd c4af 383e 8fce a6be 2dad 5fbf
00000230: a6ed b9bd ac04 8f3e 941c ce3d 861b 6ebe
00000240: 3beb 423e 4bfb 803e 8c55 d33d b27d c23e
00000250: 4183 8f3c 07f8 0e3d e9b7 81bd 0771 593e
00000260: 9631 00be 8533 153e b8b6 0a3e cf65 5b3d
00000270: 7b2d 86bc 6083 42bc 1cd2 f6bd dd88 c6bd
00000280: acbf 56bd 22f3 d13d 6c6f 3cbe d308 3a3e
00000290: e021 79bd 26cd c7bd b808 a2bd 2ca3 d23c
000002a0: 15db dabd 0ea5 953d c46a cb3d 1152 e5bd
000002b0: 8404 a2be c6c4 be3c 52af 063d b292 8a3c
000002c0: 5d02 593d be9a ddbe dbf7 f63b 711f 6a3f
000002d0: 14d7 2c3e 42d9 8fbe b534 a53d bff9 d13c
000002e0: 13a6 063e ff5c 023e 95a5 d8bd 3e71 24be
000002f0: e80f 7fbd 182c 893d f437 0c3e e4e6 703d
00000300: 2e92 183e b9ff fe3b acbb dfbd 9ab5 6e3b
00000310: 0037 a23c 71d9 ce3e b49e 863d 9a8c bd3d
00000320: 4480 2c3d f1ad 093c 6c84 7b3e c892 93bd
00000330: f263 d83d 518f 023e feab b5bc 310a 343e
00000340: 4143 d8bc 465a 2d3e d2ab 303e 8c21 65bc
00000350: bda1 633d 8ba5 3e3e 09f9 823e 4871 a2bd
00000360: bf92 9c3d eec0 083e 9fd4 2bbf 74a9 9dbe
00000370: 5a76 32be d049 a0bc f037 9e3e 7937 943b
00000380: e75f 943e 503a 7d3e f500 49be a060 0b3e
00000390: fd70 b03d 8691 c5bc 8449 f0bb 32ce d5bb
000003a0: ada5 f73d 6e0c 60be a3ee a5be 3786 6ebd
000003b0: e7e6 aa3b a4d5 aabd 185b a8bd f8a2 e23d
000003c0: e85e 8ebd d433 e13d 1fd4 db3c a3e1 b13e
000003d0: cc5b 67bc 7cd0 f7bc 0e59 433d a49b 283e
000003e0: 3deb 2fbe f482 c4bc db47 c03d 3f5d 083e
000003f0: ba28 0c3e 9ebe 07be a256 2abe 9a14 18be
-0.17223106 -0.011815254 -0.010340646 0.06664801 -0.1804206 -0.045414347 0.35457048 0.12967494
-0.41300955 0.053359397 -0.15560412 0.08674682 -0.0004131538 0.1929591 -0.09628801 0.097815566
-0.5403574 0.3543727 0.052944835 0.29869786 0.116243355 0.11373735 -0.15911938 0.18538885
0.053330686 0.058571078 0.51409876 0.69341016 0.19326383 0.16721693 0.030532772 -0.07374662
0.14274651 0.17605044 0.07416532 -0.033471987 -0.40984553 0.035865236 -0.22650813 0.12245794
0.035464566 -0.16101396 -0.004227288 0.13849711 -0.16291799 -0.22988603 0.021630798 0.41285366
0.2296829 -0.11845356 0.16777815 0.092991404 0.72269166 -0.16988006 -0.02015092 0.04757905
-0.020426938 0.04663751 -0.0057673138 0.07463695 0.040126707 -0.15080085 0.16732027 0.15673074
-0.9752226 0.015089524 -0.0955104 0.025123434 0.12509401 -0.10038274 0.062549464 0.19926311
-0.17102796 -0.03474357 0.024355177 -0.117795415 -0.2491674 -0.35784706 -0.15397687 -0.10256605
0.07739591 0.011645663 0.49611157 0.19686748 0.44106746 -0.07923523 0.023390504 0.22782174
0.025879737 0.052658275 0.08961062 0.123529196 0.17443193 0.10771505 -0.019900711 -0.043338876
-0.050656803 0.07849868 -0.27596453 -0.1407452 -0.09348139 0.05996767 0.06135504 -0.054833718
0.0024281433 0.062077317 0.07490607 0.040106166 -0.08084201 0.1900466 -0.06535836 -0.026549669
0.1465107 0.08856889 -0.14955746 0.20988484 0.08389529 0.20982741 -0.08067367 -0.12499593
-0.032464605 -0.12742233 -0.09530154 -0.06508421 -0.28666958 0.10651204 0.010592969 -0.1088941
0.0025079746 0.21357484 0.017478269 -0.29467735 0.01897455 -0.070576556 -0.10764134 0.17802896
-0.11240074 0.180358 -0.32579467 -0.8737362 -0.09078531 0.27933252 0.100640446 -0.23252687
0.19035046 0.2519172 0.10319051 0.37986523 0.017518641 0.034904506 -0.06333906 0.21234523
-0.12518916 0.14570434 0.13546264 0.05356389 -0.016379109 -0.011872143 -0.12051794 -0.09694073
-0.052428886 0.10251452 -0.18401879 0.18167429 -0.06082332 -0.09755926 -0.07911819 0.025712572
-0.10686318 0.07306872 0.09932473 -0.111972935 -0.3164407 0.023287188 0.032882042 0.016915653
0.05298077 -0.4328212 0.007536871 0.91454226 0.16878921 -0.28095442 0.08066694 0.025631784
0.1314929 0.12730788 -0.10578457 -0.16058823 -0.06227103 0.06697863 0.1369322 0.058813944
0.14899513 0.0077819494 -0.109244674 0.003642416 0.019801617 0.4040027 0.06573239 0.09255333
0.04211451 0.008403287 0.24562234 -0.07205731 0.10565938 0.12749983 -0.022176739 0.17582013
-0.026399257 0.16928968 0.17253044 -0.013985049 0.055574168 0.18617837 0.25580624 -0.07931763
0.07645177 0.13354847 -0.6712131 -0.30793345 -0.1742796 -0.019566447 0.30902052 0.0045232144
0.28979418 0.24729276 -0.19629271 0.13611078 0.08615301 -0.024117243 -0.0073329825 -0.0065248245
0.12092147 -0.21879742 -0.32408628 -0.058233466 0.005215514 -0.0834153 -0.082205 0.1106624
-0.06951696 0.109962136 0.026834546 0.3474246 -0.014121007 -0.03025078 0.04769235 0.16465622
-0.1717958 -0.023988225 0.09388705 0.1331682 0.13687411 -0.13256308 -0.1663461 -0.14851609

l3.bias f4 [64]
00000000: c978 32bd 811a abbd b691 72bd f91f 083d
00000010: a289 9abd dbe9 27be 65fa 313e dcea 03be
00000020: 6159 7bbd b238 c5bc d364 cc3c d751 fbbc
00000030: 21aa 8cbc f3b1 2dbd 8ce6 84bd 1a5d f33c
00000040: dd03 753d a255 9fbc 6bf8 083e 1ceb db3d
00000050: 93f5 dcbd 20d0 6cbd 9685 113d 866c d63c
00000060: 9598 29bc 1fab 28bd b53d 0abe 7645 ef3d
00000070: 29e7 9d3d 21a1 edbd 14eb a23c d420 403d
00000080: bbed b4bb 3d65 9c3c 4534 4bbd 3165 833d
00000090: ca1c 32bd 07ff aa3b 7b11 283d 7917 a3bc
000000a0: 6b17 4bbd 5eba 503d 75bd 843d 25b4 8a3b
000000b0: cc20 05bd 2410 ecbc f57e 30bd f9d5 523d
000000c0: 8bec 29bc 15ad 2abd 018e 983c 9a7c 243e
000000d0: 9c7c 33bd 0260 0abb c897 023d f167 503c
000000e0: f3bc bb3d 794e 32bd edb1 763d dced 023d
000000f0: 7bfa f4bc dd12 b2bd c70e 22bd 8e34 69bd
-0.04357222 -0.083546646 -0.059220992 0.033233617 -0.075457826 -0.16397803 0.17380674 -0.1288256
-0.061364535 -0.024074886 0.02495042 -0.030678673 -0.017170968 -0.042406034 -0.06489286 0.02970748
0.059818137 -0.019450013 0.13376014 0.10738203 -0.10789027 -0.05781567 0.035527788 0.026174795
-0.01035132 -0.04117882 -0.13500102 0.116831705 0.07710106 -0.116029985 0.019887485 0.046906307
-0.0055215037 0.019091243 -0.049610395 0.06415785 -0.043484487 0.00521839 0.041032296 -0.019908654
-0.04958288 0.050958984 0.064814486 0.0042329007 -0.03250198 -0.02881629 -0.043089826 0.05147359
-0.010371338 -0.04166897 0.0186224 0.16063157 -0.04382001 -0.0021114354 0.03188303 0.012720094
0.091668986 -0.04353187 0.060228277 0.03196512 -0.029904595 -0.08695004 -0.039564874 -0.056934886

l4.weight f4 [2, 64]
00000000: b225 643e fbf7 2bbf 4ef9 a7bc b7a5 8f3d
00000010: c720 12be 64a5 88bf 3b85 903f 80dc a6be
00000020: 8ef0 f4be 5a26 93be 8d0b 9c3d 0892 87be
00000030: 08c4 52bf 8f68 19be b91d a1bc 39a0 443e
00000040: f05a 5bbd df38 db3e 2445 b83e 9505 7c3d
00000050: bc58 e73f f49d 363e 4bb2 14be 157f 6abf
00000060: 7be9 f4bd 4793 f03c c746 203f 5875 383f
00000070: 79d4 283f 158b 7dbe d800 ad3f 9141 40be
00000080: 1029 7ebe 2141 88bf f8aa 82bd a990 27be
00000090: d53b 213e 9d41 ea3d 3755 b73d b8a9 d1bc
000000a0: f459 a3bf 7147 dbbf a3b8 c4bd 5e9d d73d
000000b0: ab28 08be 93eb 6bbc ba92 e9be f6c2 ed3e
000000c0: 6820 533e 6a42 1d3e f881 813e e50f 233d
000000d0: 4480 2abe 6269 4ebd 336a 933f 166d aa3e
000000e0: db98 40be 4d2b b63d c8a0 69be 3fe7 b13d
000000f0: cb6d 6e3c d601 00bf 7ad5 713e dc1a 993c
00000100: f729 77be 2138 c03e 16af 29bd 8992 273d
00000110: ece8 eebe e885 223d b51a d83e a03c 983e
00000120: 1c70 f7be df4f 2abf 6fc6 a4bd a3f3 fbbe
00000130: 9d2b cd3f c439 193f af43 913d 039f 94be
00000140: caf5 57be eaf3 363e 3082 593f dd8b 3ebf
00000150: a4c9 3dbf 6006 94be e360 a33e e393 7a3f
00000160: cf93 e03e 9cee 25be 090f 04bf b3de 95be
00000170: 2c24 1c3e f373 643f b407 8bbd 83b7 e33e
00000180: bac2 0e3f 92ef 66bf 71eb 633f 0e8b 8abe
00000190: 74f3 27be c700 f73d 9de7 bcbd 6ee9 84bd
000001a0: 8375 8d3f 6b93 88bb fe8d fcbe f468 3e3f
000001b0: 7275 f3be 9743 c4bd 188f 6bbe 82f9 15be
000001c0: 31b9 833e 1d00 c83d 1a9d 65be 4af1 403f
000001d0: 1210 babe 262b ddbd edf2 5ebe 252d 1d3f
000001e0: d805 493f 13fa 69be 6e57 d43e 78d0 353f
000001f0: cf3a c5bd 677b aabe 9dee 3e3e 6de4 ddbd
0.22280005 -0.67175263 -0.02050462 0.070140295 -0.14270316 -1.0675473 1.1290659 -0.32590103
-0.4783978 -0.28740197 0.07619391 -0.264786 -0.8233037 -0.14981292 -0.019667493 0.19201745
-0.05355352 0.42816827 0.3599025 0.06152876 1.8073955 0.17833692 -0.14521138 -0.9160016
-0.11958595 0.029367102 0.62608 0.7205405 0.6594921 -0.24760087 1.3515882 -0.18775012
-0.24820352 -1.0644876 -0.06380266 -0.16363777 0.1574548 0.11438296 0.089518 -0.025593624
-1.2761827 -1.7131177 -0.09605529 0.10528062 -0.13296764 -0.014399427 -0.45619756 0.46437806
0.20617831 0.15357366 0.2529447 0.03981008 -0.16650492 -0.05039347 1.1516784 0.3328635
-0.1880831 0.08894978 -0.2281524 0.08686685 0.014552544 -0.500028 0.23616591 0.018689565
-0.24137102 0.37542823 -0.04142674 0.04091123 -0.4666208 0.039678484 0.42207876 0.29733753
-0.4832772 -0.66528124 -0.08045661 -0.49209318 1.6028935 0.5985377 0.07092988 -0.29027566
-0.21089855 0.17866483 0.84964275 -0.74432164 -0.74135804 -0.28911114 0.31909856 0.9788191
0.4386277 -0.16204304 -0.5158544 -0.2927147 0.15248173 0.89239424 -0.06788579 0.44475946
0.5576588 -0.90209305 0.8903113 -0.27059215 -0.16401464 0.12060695 -0.09223864 -0.06489836
1.1051487 -0.004167964 -0.4932708 0.74378896 -0.4755054 -0.09583204 -0.23003805 -0.14645961
0.25727227 0.097656466 -0.2242321 0.7536818 -0.36340386 -0.107992455 -0.21772356 0.6139701
0.7852454 -0.22849302 0.41472954 0.71021223 -0.096303575 -0.33297274 0.18645711 -0.108345844

l4.bias f4 [2]
00000000: 70e6 70bb 8389 70bc
-0.0036758445 -0.014681223
