turtlebot3_machine_learning/turtlebot3_dqn/save_model/stage_1_180.pth (torch_old, 164553 bytes, 22 tensors)

feature_layer.0.weight f4 [64, 26]
0	0x3d5100a2	0.051025994
1	0xbe22f7d1	-0.15914847
2	0xbf162a05	-0.58657867
3	0xbe553b3e	-0.2082338
4	0x3d0e38fc	0.034722313
5	0x3e674ab5	0.22587092
6	0x3d80de58	0.06292409
7	0x3d801a33	0.06254997
8	0x3e3c5465	0.18391569
9	0xbd4d4ebc	-0.050123915
10	0x3cc30843	0.02380765
11	0xbdfb9bf7	-0.12285607
12	0xbe8b8ffb	-0.27258286
13	0xbdea381c	-0.11436483
14	0xbd8c58cc	-0.06852874
15	0xbca98bc3	-0.020696526
16	0x3d75fbaf	0.060054477
17	0xbdd22d66	-0.10262565
18	0x3e66cd0c	0.22539157
19	0x3e082fcb	0.13299482
20	0x3e8a73ef	0.27041575
21	0x3e6d9c4f	0.23204158
22	0x3e90dd44	0.28293812
23	0xbd94c558	-0.07264203
24	0xbed8c4f1	-0.42337754
25	0x3dd1ebc9	0.102500506
26	0xbe4b15b2	-0.19832495
27	0xbe2f1c54	-0.1710065
28	0xbe831029	-0.25598267
29	0x3c9279db	0.01788037
30	0x3db254a2	0.08707549
31	0xbc838e42	-0.016059045
32	0xbdf950e7	-0.12173634
33	0x3e1cb07e	0.15301701
34	0x3dd782c2	0.10522987
35	0x3da91fc1	0.0825801
36	0x3e1a6d00	0.15080643
37	0x3e9e5341	0.30922893
38	0x3dcbacad	0.09945045
39	0x3d82c788	0.06385714
40	0x3e0dfc61	0.13865806
41	0x3e50d753	0.2039464
42	0x3dd09811	0.10185254
43	0xbd742cb2	-0.059612937
44	0xbd4d526f	-0.050127443
45	0xbe82e0ae	-0.25562042
46	0xbe73fed5	-0.2382768
47	0xbec0b2fa	-0.37636548
48	0xbe9c42a4	-0.30519593
49	0xbeaedcde	-0.34152883
50	0x3ea7a2d7	0.32741424
51	0x3ea839d8	0.3285663
52	0xbe79a4db	-0.24379294
53	0xbe9d9b34	-0.30782473
54	0xbe0390a6	-0.12848148
55	0x3e61837a	0.2202281
56	0x3e7cf60f	0.24703239
57	0x3e2fb471	0.17158677
58	0x3e503acb	0.20334928
59	0x3d9915f2	0.07474889
60	0xbd4904be	-0.049076788
61	0xbd9097c9	-0.07060201
62	0xbd968291	-0.07349122
63	0x3d486ea8	0.048933655
64	0xbe372c9b	-0.1788811
65	0xbd8d92fa	-0.06912799
66	0xbd24e944	-0.040261522
67	0xbd377d26	-0.044797085
68	0x3d0599d1	0.032617394
69	0x3ea08ab2	0.31355816
70	0x3e2018cb	0.15634458
71	0x3de2f79d	0.11082385
72	0x3d7a7b02	0.061152466
73	0x3d3650ee	0.044510774
74	0xbf12f5ac	-0.57406116
75	0xbebfcfc6	-0.37463206
76	0x3eff812a	0.49903232
77	0x3d879fd3	0.06622281
78	0xbd45c9d1	-0.04828817
79	0xbdf4b192	-0.11947931
80	0xbdce2a59	-0.10066671
81	0xbe929f1d	-0.2863702
82	0xbe30a294	-0.17249519
83	0xbe3632bd	-0.17792793
84	0xbe102545	-0.14076717
85	0xbdcadd3d	-0.09905479
86	0xbd967377	-0.07346242
87	0x3e1bef8f	0.15228103
88	0x3db855dd	0.09000752
89	0xbe1c39b9	-0.15256394
90	0xbc36e7b0	-0.011163637
91	0xbcf26b62	-0.02959222
92	0x3e401757	0.18758903
93	0x3e71512b	0.2356612
94	0x3e35f980	0.17770958
95	0x3c3e798d	0.01162566
96	0xbca7dfbe	-0.02049243
97	0xbe162899	-0.14663924
98	0x3ba7f474	0.0051255766
99	0xbe79f09b	-0.2440819
100	0xbe939a30	-0.28828573
101	0xbea013cf	-0.31265113
102	0x3f0d3e8f	0.5517358
103	0x3eb69a78	0.35664725
104	0xbdd6c734	-0.10487214
105	0xbf0f046c	-0.5586612
106	0xbdc2f9d7	-0.095203094
107	0xbeaa4ce0	-0.33261776
108	0x3ef66959	0.4812725
109	0x3e32492e	0.17410728
110	0x3e3c52d3	0.1839097
111	0x3d93292e	0.07185589
112	0x3d8cf53c	0.06882712
113	0x3ca6308f	0.020286826
114	0xbbb0d20d	-0.0053961338
115	0xbe2f3be0	-0.17112684
116	0x3dff211a	0.124574855
117	0x3c4611a7	0.01208917
118	0xbe1809a8	-0.14847434
119	0xbe36f2a5	-0.17865999
120	0xbe1b32e7	-0.15156136
121	0x3d90e890	0.07075608
122	0xbe0c6bff	-0.13713072
123	0xbd039653	-0.032125782
124	0x3dfc93b5	0.123328604
125	0x3ebf7a74	0.37398112
126	0xbc68ce5a	-0.014209354
127	0xbea02a21	-0.31282142
128	0xbcf6f630	-0.030146688
129	0xbdafdd2b	-0.08587106
130	0x3ddce22b	0.107853256
131	0x3d8e935a	0.06961699
132	0xbd8574f0	-0.06516445
133	0xbdb30b89	-0.087424345
134	0x3cee668c	0.029101633
135	0xbde936a5	-0.11387376
136	0xbdb037d7	-0.086044006
137	0xbdf5a2c8	-0.11993939
138	0xbe3f392a	-0.1867415
139	0xbe175950	-0.14780164
140	0xbdd82908	-0.10554701
141	0xbdecfe7a	-0.11571975
142	0x3d8e4cfe	0.06948279
143	0x3da1c80c	0.07899484
144	0xbd95adef	-0.07308566
145	0xbd8b207f	-0.067933075
146	0xbcf2f4c2	-0.029657725
147	0x3e868e31	0.26280358
148	0x3e70f89e	0.2353234
149	0x3ddd038c	0.10791692
150	0x3dd49193	0.103793286
151	0x3db774d8	0.08957833
152	0x3e461cc9	0.19346918
153	0xbe30dbd0	-0.17271352
154	0xbf47ee22	-0.78097737
155	0x3e43220a	0.19055954
156	0xbe6d3f47	-0.2316867
157	0xbf000303	-0.50004596
158	0x3d92ce09	0.07168204
159	0x3e131f3e	0.14367387
160	0x3d81ab56	0.06331508
161	0x3e4487ab	0.19192378
162	0x3e3153e2	0.17317155
163	0xbb14dc6d	-0.0022714392
164	0x3e0a5886	0.13510332
165	0xbd6a1aab	-0.05715434
166	0xbe027131	-0.12738492
167	0x3baf8a60	0.0053570718
168	0xbdf1d5b8	-0.11808342
169	0xbe81bf75	-0.25341383
170	0xbec54bed	-0.3853449
171	0xbea4aa11	-0.32161
172	0x3d0e63e4	0.034763232
173	0x3d964fdc	0.07339451
174	0x3e8afdbb	0.27146706
175	0x3e9a1312	0.30092674
176	0xbcdc9ef5	-0.026931265
177	0x3e3a2a8e	0.18180296
178	0x3e3316b8	0.17489135
179	0xbdf35b4b	-0.11882647
180	0x3e8d7607	0.2762911
181	0xbf62e7a0	-0.8863468
182	0xbe887e79	-0.2665899
183	0xbe88453e	-0.26615328
184	0x3d99aade	0.075032935
185	0x3e034ce1	0.12822296
186	0xbe857e6b	-0.26073012
187	0xbddae69d	-0.10688517
188	0xbd59d852	-0.053184815
189	0xbd0abb62	-0.03387011
190	0xbe808743	-0.25103197
191	0xbe022d9b	-0.1271271
192	0xbd380ecb	-0.044935983
193	0x3c0cadc0	0.008586347
194	0x3bf04724	0.0073326994
195	0xbd3e7ff3	-0.04650874
196	0x3d3175a3	0.043325078
197	0x3d85437e	0.06507014
198	0x3cd02033	0.025405979
199	0xbe5316d4	-0.20614177
200	0xbe4ccf96	-0.20001063
201	0xbe409238	-0.18805778
202	0xbe419d41	-0.18907644
203	0xbe93fb3a	-0.28902608
204	0xbec01f8d	-0.3752407
205	0xbd9ad4eb	-0.07560142
206	0x3ec7dc2c	0.39035165
207	0x3ef38f4b	0.4757026
208	0xbd3956cf	-0.045248803
209	0xbe604ca0	-0.2190423
210	0xbe0ae801	-0.13565065
211	0xbea3fb82	-0.32027823
212	0xbeee5e1a	-0.4655617
213	0xbe1b8524	-0.15187508
214	0xbe3e91b3	-0.18610267
215	0xbec3eecb	-0.38268122
216	0xbd8a8128	-0.06762916
217	0x3e3e4054	0.18579227
218	0x3d922b3c	0.071371526
219	0xbd566d86	-0.052350543
220	0x3dbd6f31	0.09249724
221	0x3d150417	0.036380854
222	0xbccc9d06	-0.024977218
223	0x3c26918a	0.010166535
224	0xbdf31453	-0.11869111
225	0x3b938822	0.0045023123
226	0x3e1f0119	0.15527762
227	0x3e94269b	0.28935704
228	0x3df8bd1b	0.12145444
229	0xbd87b100	-0.06625557
230	0xbe0750a2	-0.13214353
231	0xbe3f20bf	-0.18664835
232	0x3f092144	0.53566384
233	0xbdbfad03	-0.09359171
234	0x3d6f2c1b	0.05839167
235	0x3e1559e9	0.14585079
236	0x3d8e4380	0.06946468
237	0x3e129ed0	0.14318395
238	0x3d61467c	0.05499886
239	0x3d042c4b	0.032268804
240	0xbe45b936	-0.19308934
241	0xbda88ac5	-0.08229593
242	0xbdff67ad	-0.124709465
243	0xbcbd0cf0	-0.023077458
244	0xbda4e934	-0.080522925
245	0xbe47ca4d	-0.19510765
246	0xbe0be53d	-0.13661666
247	0xbe02a7d7	-0.12759338
248	0xbd6d5ec3	-0.0579517
249	0xbe5d6ed9	-0.21624316
250	0xbd69a2db	-0.057040077
251	0xbe84e8a4	-0.2595874
252	0xbe36bad6	-0.1784471
253	0xbdc0c4ac	-0.09412512
254	0x3e95c015	0.2924811
255	0x3e0e8ab9	0.13920106

feature_layer.0.bias f4 [64]
0	0xbe1bd684	-0.1521855
1	0xbd48db22	-0.049037106
2	0xbd8128b7	-0.06306594
3	0x3e157ad8	0.14597642
4	0x3d99d5a1	0.075114496
5	0xbeb8b9ed	-0.3607935
6	0x3d297d92	0.04137952
7	0xbd269c89	-0.040676627
8	0x3e1788e4	0.14798313
9	0x3e37d060	0.17950583
10	0x3b8efe12	0.0043637836
11	0xbe2da7ec	-0.16958588
12	0x3dec8197	0.11548155
13	0xbe9db8fb	-0.3080519
14	0x3d19d8b6	0.037560187
15	0x3e444f63	0.19170909
16	0xbe1d3c27	-0.15354978
17	0x3d96781f	0.0734713
18	0x3e3bcf03	0.18340687
19	0xbc40876c	-0.011751037
20	0xbe4c53fd	-0.19953914
21	0xbe46276c	-0.19350976
22	0x3d80a84e	0.062821016
23	0x3c4d5269	0.012531855
24	0xbd7206c2	-0.059088476
25	0xbe087c74	-0.13328725
26	0xbd2a7c22	-0.04162229
27	0x3cde163c	0.027110212
28	0xbdcd27ef	-0.10017382
29	0x3e2b9001	0.16754152
30	0xbe37785f	-0.17917012
31	0x3d0a6bb0	0.033794105
32	0x3e718ecc	0.23589629
33	0xbd5a337c	-0.053271756
34	0x3dde29ef	0.10847842
35	0xbdda79fb	-0.10667797
36	0x3e571b2f	0.21006463
37	0x3e7b9aca	0.24570766
38	0xbd7f413c	-0.06231807
39	0x3d7e1c30	0.0620386
40	0x3e1041dd	0.14087625
41	0x3e926a62	0.2859679
42	0xbda7366f	-0.08164679
43	0x3e3e6c5a	0.1859602
44	0xbe17da6c	-0.14829415
45	0x3d9e9f0a	0.07745178
46	0x3e5ab876	0.21359429
47	0x3ec65140	0.38733864
48	0x3e8d0122	0.27539927
49	0xbe08b59b	-0.13350527
50	0x3e43b346	0.19111356
51	0xbd9328e3	-0.07185533
52	0xbdd6c48e	-0.104867086
53	0xbe4bba32	-0.19895247
54	0x3c9f292f	0.019428818
55	0xbe38bb01	-0.18040086
56	0xbdc5041d	-0.09619925
57	0xbbe74e77	-0.0070589143
58	0x3e69f67a	0.2284793
59	0x3dd59bc3	0.104301
60	0xbdad34e9	-0.084573574
61	0xbd32f358	-0.043689102
62	0xbd1aa41f	-0.037754174
63	0xbd245812	-0.040123053

feature_layer.3.weight f4 [32, 64]
0	0xbe2d6906	-0.16934595
1	0x3eda51d6	0.4264056
2	0xbc256ca8	-0.010096706
3	0x3f39ecc6	0.7262691
4	0xbe6cd58f	-0.23128341
5	0x3cdcb369	0.026941018
6	0x3d6aa41b	0.05728541
7	0x3ef107fd	0.47076407
8	0x3ca48510	0.02008298
9	0x3e97c530	0.2964263
10	0x3ec8017e	0.39063638
11	0x3ed96e11	0.42466787
12	0xbe0b1336	-0.13581547
13	0x3dc392e3	0.09549501
14	0xbd907909	-0.070543356
15	0x3e359616	0.17733034
16	0x3e92acc2	0.2864743
17	0x3ea69129	0.32532623
18	0xbe5a151f	-0.2129712
19	0xbeccdcf4	-0.40012324
20	0xbe0a026b	-0.13477485
21	0xbdc9f857	-0.0986182
22	0xbec96957	-0.3933818
23	0xbd2b4291	-0.04181153
24	0x3e041c79	0.12901486
25	0xbac378c7	-0.0014913314
26	0x3dbf194f	0.09330999
27	0xbdb393de	-0.08768438
28	0xbebaed53	-0.3650919
29	0x3e0c4584	0.13698393
30	0xbe59028b	-0.21192376
31	0x3e346a79	0.17618741
32	0xbd686235	-0.056734283
33	0xbec59763	-0.3859206
34	0xbec6fba2	-0.38863856
35	0x3ef990fc	0.48743427
36	0xbe4d6303	-0.20057301
37	0x3deee03e	0.116638646
38	0xbc44ee5a	-0.012019718
39	0x3e8aa8e0	0.27081966
40	0x3d3acf5e	0.045607917
41	0x3c48400d	0.012222302
42	0x3e99c0de	0.30029958
43	0xbe8f310f	-0.27967116
44	0x3e560fa0	0.20904398
45	0x3f2df2ae	0.67948425
46	0xbdaaea33	-0.08345451
47	0x3e0db10b	0.13837068
48	0x3e646def	0.22307561
49	0xbe303249	-0.17206682
50	0x3ddc9108	0.1076985
51	0xbc9874cd	-0.018610382
52	0x3ed4a503	0.41532144
53	0x3c43e0b9	0.0119554335
54	0xbf3c669d	-0.73594075
55	0x3de64293	0.11243167
56	0x3f113e42	0.5673562
57	0x3ef90320	0.48635197
58	0x3df2ba55	0.11851946
59	0x3d8cb907	0.06871229
60	0x3e0584c4	0.13038927
61	0xbe6717d9	-0.22567691
62	0x3a852b04	0.0010159914
63	0xbe94b332	-0.29042965
64	0xbc7a2113	-0.015266675
65	0xbde4f9bb	-0.11180445
66	0x3e7eb150	0.24872327
67	0x3e1be870	0.15225387
68	0x3e4c28d3	0.19937448
69	0x3d937664	0.072003156
70	0xbea28773	-0.31743965
71	0xbdd07768	-0.10179025
72	0xbd21ac2b	-0.039470833
73	0x3e71c618	0.23610723
74	0xbe5b6b18	-0.21427572
75	0x3e800560	0.250041
76	0xbe761941	-0.24033071
77	0xbd56862f	-0.05237406
78	0xbc9914e9	-0.018686729
79	0xbc615c07	-0.013754851
80	0xbe1f6488	-0.15565693
81	0x3e405904	0.18783957
82	0xbc6266a1	-0.013818414
83	0x3e3dd33f	0.18537615
84	0xbf04af2a	-0.5182978
85	0xbd8d6ca3	-0.069054864
86	0x3e4e7fcd	0.2016594
87	0xbd4b856d	-0.04968779
88	0xbdcd22d1	-0.10016406
89	0x3d035e12	0.032072134
90	0xbca2cd8e	-0.019873407
91	0x3d7fb5d6	0.06242927
92	0xbe23d854	-0.16000491
93	0xbd96258b	-0.073313795
94	0xbd7ae5e0	-0.061254382
95	0x3ee2b33e	0.44277376
96	0xbbc84c14	-0.006112585
97	0xbd9fff39	-0.07812352
98	0xbd5a8306	-0.05334761
99	0x3eb49b44	0.35274708
100	0xbcffc016	-0.031219523
101	0x3e90196d	0.28144398
102	0x3d56bf1d	0.052428354
103	0xbd2272fd	-0.039660443
104	0xbe71ad68	-0.23601305
105	0xbea5d841	-0.3239155
106	0x3ee384bf	0.44437215
107	0x3d2d2fe5	0.042282004
108	0x3e754e71	0.23955704
109	0xbdf28b48	-0.11842972
110	0xbd9df584	-0.07712844
111	0xbb4024b5	-0.0029318754
112	0x3db772cf	0.08957445
113	0x3cc5e402	0.024156574
114	0x3e99b676	0.3002202
115	0xbe282259	-0.16419353
116	0xbd0305b7	-0.031987872
117	0x3d833bc0	0.06407881
118	0xbed112d7	-0.40834686
119	0xbd077dcb	-0.03307895
120	0x3e55b740	0.20870686
121	0x3dcb0569	0.09913141
122	0xbe637854	-0.2221387
123	0x3deed880	0.11662388
124	0xbdf40c96	-0.11916463
125	0x3eaf3753	0.34221897
126	0xbf1b6885	-0.6070636
127	0x3e3d8e57	0.1851133
128	0xbe429c00	-0.19004822
129	0x3e0813c8	0.13288796
130	0xbdaf80a6	-0.085694596
131	0x3e45e4bf	0.19325541
132	0x3e823028	0.25427365
133	0x3c8f6262	0.017502967
134	0xbdcad3ff	-0.09903716
135	0x3ef4f32f	0.47841784
136	0x3e066796	0.13125452
137	0x3eb85eba	0.3600977
138	0x3dee62fb	0.11639973
139	0x3e39e6df	0.18154477
140	0xbe3e8949	-0.18607058
141	0x3c68e07d	0.014213678
142	0x3d7bd36a	0.061480917
143	0x3c96cca6	0.01840813
144	0x3eab8412	0.334992
145	0xbea9027f	-0.33009717
146	0xbe3b14fd	-0.18269725
147	0xbbbd6bc5	-0.0057806694
148	0xbe2e5b95	-0.17027123
149	0x3cf2e931	0.02965221
150	0xbe2cbbca	-0.16868511
151	0x3db9ce3f	0.090725414
152	0xbe024205	-0.12720497
153	0x3d9bd581	0.07609082
154	0xbbf69097	-0.0075245607
155	0x3d8cff49	0.06884629
156	0xbe0c5124	-0.13702828
157	0xbc72c873	-0.014818299
158	0xbc27ae57	-0.010234437
159	0x3d7b2959	0.06131873
160	0x3e29bbb3	0.16575508
161	0x3e927edc	0.2861241
162	0xbe990c85	-0.29892364
163	0x3ef92769	0.4866288
164	0xbd7e5120	-0.062089086
165	0xbe108f7b	-0.14117233
166	0xbde111af	-0.10989701
167	0x3edf92f0	0.43666792
168	0x3e6256d0	0.22103429
169	0xbe43bb10	-0.19114327
170	0x3ea432f7	0.32070133
171	0x3c33c82a	0.010973016
172	0x3e8cb914	0.27484953
173	0x3ec76ba2	0.38949305
174	0xbd539325	-0.051654
175	0x3e12201e	0.14270064
176	0x3c8af04e	0.01696029
177	0x3bfdae7c	0.0077417474
178	0xbc62da73	-0.013846028
179	0x3e02aefb	0.12762062
180	0x3e2ce1e6	0.16883048
181	0xbb95c758	-0.004570883
182	0xbf274e6a	-0.65354025
183	0xbc183b11	-0.009291426
184	0x3f077981	0.52919775
185	0x3e19aadb	0.15006582
186	0x3dd57f66	0.1042469
187	0x3e9b3548	0.30314088
188	0xbd1d6adf	-0.038432
189	0x3e989375	0.298
190	0xbd33ae6e	-0.04386752
191	0xbe08feac	-0.133784
192	0x3e7708bd	0.24124427
193	0xbde61706	-0.1123486
194	0xbd8ecc4b	-0.069725595
195	0x3efcd330	0.49379873
196	0xbe8b1007	-0.27160665
197	0x3da2b052	0.07943787
198	0x3e9d5764	0.30730736
199	0x3cf644ea	0.030062158
200	0x3e9178f5	0.28412595
201	0xbde099b5	-0.10966817
202	0x3d9445ea	0.072398975
203	0x3d9d7a49	0.0768934
204	0x3e1cc67a	0.15310088
205	0xbe43c1a1	-0.19116832
206	0x3d8281f4	0.06372443
207	0xbe3dbe1e	-0.18529555
208	0xbd6b8430	-0.05749911
209	0xbd0d08b4	-0.034432128
210	0xbd96aa1d	-0.07356665
211	0xbe1ad5bb	-0.15120594
212	0xbe7b298b	-0.24527566
213	0xbc3a58fc	-0.011373755
214	0xbe9a35bf	-0.3011913
215	0xbe989a5e	-0.29805273
216	0x3e2fa328	0.17152083
217	0x3d4280aa	0.047485985
218	0xbebe7c84	-0.37204373
219	0x3d5bbe3d	0.053648222
220	0xbe78b8fc	-0.24289316
221	0xbe835b49	-0.25655583
222	0xbee156c1	-0.440115
223	0x3de8c777	0.1136617
224	0xbc1f45cd	-0.009721232
225	0xbe54d42d	-0.20784064
226	0xbd3ed1c1	-0.046586756
227	0x3e3947db	0.18093817
228	0x3e055cd4	0.13023692
229	0xbe43cd6e	-0.19121334
230	0xbd5d2ca7	-0.053997662
231	0xbed25535	-0.41080633
232	0x3e29dbe8	0.16587794
233	0x3e93727c	0.28798282
234	0x3d816bec	0.063194126
235	0x3d8181c0	0.06323576
236	0x3f0207e7	0.5079331
237	0x3ed68080	0.41894913
238	0xbde3e6e4	-0.11128023
239	0xbdbbb54c	-0.09165439
240	0xbe561fc4	-0.20910555
241	0xbd0ff19d	-0.03514253
242	0x3eba049a	0.36331636
243	0xbe213fea	-0.15747038
244	0x3db915f2	0.09037389
245	0x3d89dc83	0.067315124
246	0xbe8d7c62	-0.2763396
247	0xbc1b88f3	-0.0094931
248	0x3f001f5f	0.5004787
249	0x3d874ccf	0.06606447
250	0xbe4cbaa7	-0.19993077
251	0x3e5ebb6c	0.21751183
252	0xbeb4c665	-0.35307613
253	0x3ea97bfc	0.33102405
254	0xbf0dc785	-0.5538257
255	0xbd6cb9dc	-0.057794437

feature_layer.3.bias f4 [32]
0	0x3d04cf13	0.032424044
1	0xbddcef78	-0.107878625
2	0xbde0baaf	-0.10973107
3	0x3c8cc71d	0.017184788
4	0xbd838ef1	-0.06423748
5	0x3d71bbe4	0.059017077
6	0xbec79cd3	-0.38986835
7	0x3dccbeb4	0.09997311
8	0x3db4ae4a	0.088223055
9	0xbddbb9df	-0.107288115
10	0xbdf4eb39	-0.11958928
11	0xbdebb234	-0.11508599
12	0xbde04963	-0.109514974
13	0x3dc32340	0.09528208
14	0x3df40524	0.11915043
15	0xbd86993b	-0.06572195
16	0xbd35bbb5	-0.044368464
17	0x3e7d25e0	0.2472148
18	0x3e17783a	0.14791957
19	0xbd800c13	-0.06252303
20	0xbd780bd8	-0.06055817
21	0x3c6c2273	0.01441251
22	0x3ee5d882	0.44891745
23	0xbd5f8d1e	-0.05457794
24	0xbb86e7a3	-0.0041169687
25	0x3e1697d9	0.14706363
26	0x3df7405e	0.12072824
27	0xbeca90bd	-0.39563552
28	0xbe7baee7	-0.24578439
29	0x3db17e99	0.08666725
30	0xbd8c4d36	-0.06850664
31	0x3e489f8a	0.1959211

final_layer.weight_mu f4 [32, 64]
0	0xbd76de90	-0.060270846
1	0x3d6139c4	0.05498673
2	0xbda39f90	-0.079894185
3	0x3da43e90	0.08019745
4	0xbd2a27b4	-0.04154177
5	0xbdbae078	-0.09124845
6	0xbcf42e48	-0.029807225
7	0x3b4ddf00	0.0031413436
8	0x3c6a36f0	0.014295325
9	0xbdb26566	-0.087107465
10	0xbdbdbeac	-0.092648834
11	0x3d82ae70	0.063809276
12	0xbdee7f06	-0.116453215
13	0xbda0234a	-0.07819231
14	0x3de82624	0.113354
15	0xbdad371c	-0.08457777
16	0xbd298000	-0.041381836
17	0x3d2a6754	0.041602448
18	0x3d5ff57c	0.05467747
19	0xbcfb06b0	-0.030642837
20	0xbc9b1a90	-0.018933564
21	0x3dc40cd0	0.09572756
22	0xbdd687cc	-0.1047512
23	0x3cf13d90	0.0294483
24	0xbb986100	-0.004650235
25	0xbd250168	-0.040284544
26	0xbdb4da38	-0.088306844
27	0x3c02aa90	0.007975236
28	0xbdc03b02	-0.09386255
29	0xbd09564c	-0.033529565
30	0x3dc2a562	0.095042005
31	0x3d8e6e3a	0.06954618
32	0x3ac54e80	0.0015053302
33	0xbdb89aa8	-0.09013873
34	0x3a996100	0.0011701882
35	0x3d812de4	0.06307581
36	0x3deb9366	0.115027234
37	0x3bc9c860	0.0061579198
38	0x3d9a595e	0.07536577
39	0xbdd0dc12	-0.10198225
40	0xbd8a410a	-0.067506865
41	0x3d4a339c	0.049365625
42	0xbdd8332e	-0.10556637
43	0x3d811492	0.063027516
44	0x3cd44b18	0.025914714
45	0xbd83f76c	-0.06443676
46	0xbc1071a0	-0.008816153
47	0xbd248fa8	-0.040176064
48	0x3da4203c	0.08013961
49	0x3dc0e458	0.09418553
50	0x3d422928	0.04740253
51	0x3d65dbc8	0.056117803
52	0xbd80fdb4	-0.0629839
53	0x3dbfa474	0.09357539
54	0x3d7420b8	0.059601516
55	0x3deac196	0.11462705
56	0x3d4bb708	0.0497351
57	0xbddcb31c	-0.1077635
58	0x3dd7efa6	0.10543756
59	0x3d9ae612	0.07563414
60	0xbd4319c8	-0.04763201
61	0x3c779a00	0.0151124
62	0x3d5ce74c	0.05393152
63	0xbcecccb0	-0.028906196
64	0xbdad1d78	-0.08452886
65	0x3d1a9234	0.037737086
66	0xbd0637c0	-0.03276801
67	0x3b442d40	0.0029934198
68	0xbd92756a	-0.07151301
69	0xbc034680	-0.008012414
70	0x3df555f0	0.11979282
71	0xbddf4ff8	-0.10903925
72	0x3d2f5cb8	0.042813033
73	0x3d3275ec	0.04356949
74	0x3d3ddde0	0.046354175
75	0xbd2a16c4	-0.041525617
76	0x3cf5c528	0.030001238
77	0xbda5024c	-0.08057079
78	0xbd03ac7c	-0.032146916
79	0xbdf04cf8	-0.117334306
80	0x3de88bc6	0.11354785
81	0xbcdfd990	-0.027325422
82	0xbcffd7f0	-0.031230897
83	0x3d8e6d9a	0.069544986
84	0xbd28b038	-0.04118368
85	0xbcec3170	-0.028832167
86	0x3ddf1628	0.10892898
87	0x3ddcc532	0.107797995
88	0xb94c2000	-0.00019466877
89	0xbbaf3460	-0.0053468198
90	0xbd3c85c8	-0.04602602
91	0xbd2a1a50	-0.041529
92	0x3df49f70	0.11944473
93	0xbda8a018	-0.082336605
94	0x3d33776c	0.04381506
95	0xbdd05838	-0.101730764
96	0x3ddaa056	0.10675113
97	0xbcc37dc8	-0.023863688
98	0xbdc13d0a	-0.094354704
99	0xbbbbae20	-0.0057275444
100	0x3c1634b0	0.009167835
101	0x3d72c114	0.059266165
102	0x3d19ccf8	0.03754899
103	0xbdede9b6	-0.116168424
104	0x3d60ce8c	0.05488448
105	0xbdd05e10	-0.10174191
106	0xbde6fb84	-0.112784415
107	0xbdde0dd8	-0.10842484
108	0xbd828af2	-0.06374158
109	0xbcbb6cb0	-0.022878975
110	0x3bf22fa0	0.0073909312
111	0x3cca82c8	0.024720564
112	0xbd097c9c	-0.033566102
113	0xbd9f5400	-0.077796936
114	0x3d72cc48	0.05927685
115	0xbc7024d0	-0.014657214
116	0x3ca87340	0.020562768
117	0xbdfa2ff2	-0.12216176
118	0x3d297ec0	0.041380644
119	0xbd865524	-0.06559208
120	0xbdd9a1d2	-0.10626568
121	0x3cb8f5d0	0.02257815
122	0xbc4dde20	-0.012565166
123	0xbb6e7340	-0.0036384612
124	0x3da638c2	0.081162944
125	0x3d6a451c	0.057194814
126	0xbcb17f38	-0.021667108
127	0x3dfe1874	0.12407008
128	0xbc114890	-0.008867398
129	0x3da8ae34	0.082363516
130	0xbd9c1e2e	-0.07622944
131	0xbbf9afc0	-0.007619828
132	0xbde02710	-0.109449506
133	0xbdce8e66	-0.10085754
134	0x3ca1a200	0.019730568
135	0xbdc72ce6	-0.097253606
136	0x3cd23e00	0.02566433
137	0x3d3deb74	0.046367124
138	0xbd45d23c	-0.0482962
139	0x3d512784	0.051063076
140	0x3dba5100	0.09097481
141	0x3dc150a0	0.09439206
142	0xbc913590	-0.017725736
143	0xbd1481e8	-0.0362567
144	0xbdc055e2	-0.09391381
145	0x3dcd6b78	0.10030264
146	0xbcdd2a28	-0.02699764
147	0xbc9d5550	-0.01920572
148	0xbd5b5aa8	-0.053553253
149	0x3dc6c894	0.09706226
150	0x3df7bd7a	0.12096687
151	0x3c8eaab8	0.01741539
152	0x3d89b33a	0.06723638
153	0x3d811fdc	0.06304905
154	0xbdcf5bc8	-0.10124928
155	0x3b77f9c0	0.0037838072
156	0x3d71ebd8	0.05906281
157	0x3dbbd4e4	0.09171465
158	0x3da44da0	0.08022618
159	0x3cfc0a80	0.030766726
160	0xbd8ac8b4	-0.06776562
161	0xbd031144	-0.031998888
162	0x3d46f778	0.04857585
163	0x3df12578	0.11774725
164	0x3c49f550	0.012326553
165	0xbbbd65a0	-0.005779937
166	0xbd162b90	-0.03666264
167	0xbb79da40	-0.0038124472
168	0x3d6fef4c	0.05857782
169	0xbd88841a	-0.066658214
170	0xbcba6b08	-0.022756115
171	0x3d05feac	0.032713577
172	0xbc1f66b0	-0.009729072
173	0xbd4ca660	-0.049963355
174	0xbc9770e0	-0.01848644
175	0xbab8d980	-0.0014102906
176	0xbdc7a688	-0.0974856
177	0x3dd6e6d2	0.10493244
178	0x3da289f6	0.0793647
179	0x3d867c5e	0.0656669
180	0xbc9f6cd8	-0.01946108
181	0xbd87f616	-0.06638734
182	0x3dc0e22a	0.09418137
183	0xbd7e8f44	-0.062148347
184	0x3dd09332	0.10184325
185	0x3c291ed0	0.010322288
186	0x3cff5c10	0.031171829
187	0xbd6a4748	-0.057196885
188	0x3d93564c	0.07194194
189	0xbd81d7be	-0.06339978
190	0xbd70deec	-0.058806345
191	0xbd50a9c8	-0.050943166
192	0x3dc93f2e	0.09826504
193	0x3ca18a08	0.019719139
194	0xbc80a750	-0.01570478
195	0x3d6dbfc8	0.058044225
196	0xbd552650	-0.05203849
197	0x3d5fff6c	0.05468695
198	0x3c56b930	0.013105676
199	0x3d338390	0.04382664
200	0xbdbe3068	-0.092865765
201	0xbd38627c	-0.045015797
202	0x3dc5da18	0.09660739
203	0xbd959bfa	-0.07305141
204	0xbde69ab6	-0.112599775
205	0x3c9e3558	0.019312546
206	0xbd8712fa	-0.06595416
207	0xbc505ae0	-0.012716979
208	0xbc1adcb0	-0.00945203
209	0x3d2b1c3c	0.041774973
210	0xbd8eb436	-0.06967966
211	0x3d89ab02	0.0672207
212	0xbddb088e	-0.10694991
213	0xbd17e7bc	-0.037086233
214	0x3dd9911c	0.106233805
215	0xbd224428	-0.03961578
216	0x3d81bd7a	0.06334968
217	0xbce81668	-0.028330997
218	0x3db02440	0.08600664
219	0x3d9e5c9e	0.07732509
220	0x3c561620	0.013066798
221	0xbcbce8c0	-0.023060203
222	0x3dc37150	0.09543097
223	0xbd026788	-0.031837016
224	0xbcf9a710	-0.03047517
225	0x3d73a74c	0.05948572
226	0x3c85da68	0.016339496
227	0xbcfeb548	-0.031092301
228	0x3ad83000	0.0016493797
229	0xbd80c176	-0.062869
230	0x3d9d5f6e	0.076842174
231	0xbd541d84	-0.05178596
232	0xbdd14acc	-0.102193445
233	0x3db59388	0.0886603
234	0x3d87d910	0.06633198
235	0xbdee8166	-0.116457745
236	0xbc5437a0	-0.012952715
237	0xbd2a6ba8	-0.041606575
238	0x3ad01b80	0.0015877336
239	0x3c7fdb60	0.015616268
240	0x3df7c048	0.120972216
241	0xbdbabb10	-0.091177106
242	0xbbcd1ca0	-0.006259516
243	0xbd7566bc	-0.05991243
244	0x3d7b725c	0.06138836
245	0x3dd16174	0.10223666
246	0x3c8b15d8	0.01697819
247	0xbcb5bae0	-0.022183836
248	0xbcbd4a60	-0.023106754
249	0xbdb5ff18	-0.08886546
250	0x3d049ca4	0.032375947
251	0x3dc8759c	0.09788057
252	0xbd3d98f4	-0.046288446
253	0x3db12e84	0.0865145
254	0xbc6edde0	-0.014579266
255	0x3a909580	0.0011030883

final_layer.weight_sigma f4 [32, 64]
0	0x3d99999a	0.075
1	0x3d99999a	0.075
2	0x3d99999a	0.075
3	0x3d99999a	0.075
4	0x3d99999a	0.075
5	0x3d99999a	0.075
6	0x3d99999a	0.075
7	0x3d99999a	0.075
8	0x3d99999a	0.075
9	0x3d99999a	0.075
10	0x3d99999a	0.075
11	0x3d99999a	0.075
12	0x3d99999a	0.075
13	0x3d99999a	0.075
14	0x3d99999a	0.075
15	0x3d99999a	0.075
16	0x3d99999a	0.075
17	0x3d99999a	0.075
18	0x3d99999a	0.075
19	0x3d99999a	0.075
20	0x3d99999a	0.075
21	0x3d99999a	0.075
22	0x3d99999a	0.075
23	0x3d99999a	0.075
24	0x3d99999a	0.075
25	0x3d99999a	0.075
26	0x3d99999a	0.075
27	0x3d99999a	0.075
28	0x3d99999a	0.075
29	0x3d99999a	0.075
30	0x3d99999a	0.075
31	0x3d99999a	0.075
32	0x3d99999a	0.075
33	0x3d99999a	0.075
34	0x3d99999a	0.075
35	0x3d99999a	0.075
36	0x3d99999a	0.075
37	0x3d99999a	0.075
38	0x3d99999a	0.075
39	0x3d99999a	0.075
40	0x3d99999a	0.075
41	0x3d99999a	0.075
42	0x3d99999a	0.075
43	0x3d99999a	0.075
44	0x3d99999a	0.075
45	0x3d99999a	0.075
46	0x3d99999a	0.075
47	0x3d99999a	0.075
48	0x3d99999a	0.075
49	0x3d99999a	0.075
50	0x3d99999a	0.075
51	0x3d99999a	0.075
52	0x3d99999a	0.075
53	0x3d99999a	0.075
54	0x3d99999a	0.075
55	0x3d99999a	0.075
56	0x3d99999a	0.075
57	0x3d99999a	0.075
58	0x3d99999a	0.075
59	0x3d99999a	0.075
60	0x3d99999a	0.075
61	0x3d99999a	0.075
62	0x3d99999a	0.075
63	0x3d99999a	0.075
64	0x3d99999a	0.075
65	0x3d99999a	0.075
66	0x3d99999a	0.075
67	0x3d99999a	0.075
68	0x3d99999a	0.075
69	0x3d99999a	0.075
70	0x3d99999a	0.075
71	0x3d99999a	0.075
72	0x3d99999a	0.075
73	0x3d99999a	0.075
74	0x3d99999a	0.075
75	0x3d99999a	0.075
76	0x3d99999a	0.075
77	0x3d99999a	0.075
78	0x3d99999a	0.075
79	0x3d99999a	0.075
80	0x3d99999a	0.075
81	0x3d99999a	0.075
82	0x3d99999a	0.075
83	0x3d99999a	0.075
84	0x3d99999a	0.075
85	0x3d99999a	0.075
86	0x3d99999a	0.075
87	0x3d99999a	0.075
88	0x3d99999a	0.075
89	0x3d99999a	0.075
90	0x3d99999a	0.075
91	0x3d99999a	0.075
92	0x3d99999a	0.075
93	0x3d99999a	0.075
94	0x3d99999a	0.075
95	0x3d99999a	0.075
96	0x3d99999a	0.075
97	0x3d99999a	0.075
98	0x3d99999a	0.075
99	0x3d99999a	0.075
100	0x3d99999a	0.075
101	0x3d99999a	0.075
102	0x3d99999a	0.075
103	0x3d99999a	0.075
104	0x3d99999a	0.075
105	0x3d99999a	0.075
106	0x3d99999a	0.075
107	0x3d99999a	0.075
108	0x3d99999a	0.075
109	0x3d99999a	0.075
110	0x3d99999a	0.075
111	0x3d99999a	0.075
112	0x3d99999a	0.075
113	0x3d99999a	0.075
114	0x3d99999a	0.075
115	0x3d99999a	0.075
116	0x3d99999a	0.075
117	0x3d99999a	0.075
118	0x3d99999a	0.075
119	0x3d99999a	0.075
120	0x3d99999a	0.075
121	0x3d99999a	0.075
122	0x3d99999a	0.075
123	0x3d99999a	0.075
124	0x3d99999a	0.075
125	0x3d99999a	0.075
126	0x3d99999a	0.075
127	0x3d99999a	0.075
128	0x3d99999a	0.075
129	0x3d99999a	0.075
130	0x3d99999a	0.075
131	0x3d99999a	0.075
132	0x3d99999a	0.075
133	0x3d99999a	0.075
134	0x3d99999a	0.075
135	0x3d99999a	0.075
136	0x3d99999a	0.075
137	0x3d99999a	0.075
138	0x3d99999a	0.075
139	0x3d99999a	0.075
140	0x3d99999a	0.075
141	0x3d99999a	0.075
142	0x3d99999a	0.075
143	0x3d99999a	0.075
144	0x3d99999a	0.075
145	0x3d99999a	0.075
146	0x3d99999a	0.075
147	0x3d99999a	0.075
148	0x3d99999a	0.075
149	0x3d99999a	0.075
150	0x3d99999a	0.075
151	0x3d99999a	0.075
152	0x3d99999a	0.075
153	0x3d99999a	0.075
154	0x3d99999a	0.075
155	0x3d99999a	0.075
156	0x3d99999a	0.075
157	0x3d99999a	0.075
158	0x3d99999a	0.075
159	0x3d99999a	0.075
160	0x3d99999a	0.075
161	0x3d99999a	0.075
162	0x3d99999a	0.075
163	0x3d99999a	0.075
164	0x3d99999a	0.075
165	0x3d99999a	0.075
166	0x3d99999a	0.075
167	0x3d99999a	0.075
168	0x3d99999a	0.075
169	0x3d99999a	0.075
170	0x3d99999a	0.075
171	0x3d99999a	0.075
172	0x3d99999a	0.075
173	0x3d99999a	0.075
174	0x3d99999a	0.075
175	0x3d99999a	0.075
176	0x3d99999a	0.075
177	0x3d99999a	0.075
178	0x3d99999a	0.075
179	0x3d99999a	0.075
180	0x3d99999a	0.075
181	0x3d99999a	0.075
182	0x3d99999a	0.075
183	0x3d99999a	0.075
184	0x3d99999a	0.075
185	0x3d99999a	0.075
186	0x3d99999a	0.075
187	0x3d99999a	0.075
188	0x3d99999a	0.075
189	0x3d99999a	0.075
190	0x3d99999a	0.075
191	0x3d99999a	0.075
192	0x3d99999a	0.075
193	0x3d99999a	0.075
194	0x3d99999a	0.075
195	0x3d99999a	0.075
196	0x3d99999a	0.075
197	0x3d99999a	0.075
198	0x3d99999a	0.075
199	0x3d99999a	0.075
200	0x3d99999a	0.075
201	0x3d99999a	0.075
202	0x3d99999a	0.075
203	0x3d99999a	0.075
204	0x3d99999a	0.075
205	0x3d99999a	0.075
206	0x3d99999a	0.075
207	0x3d99999a	0.075
208	0x3d99999a	0.075
209	0x3d99999a	0.075
210	0x3d99999a	0.075
211	0x3d99999a	0.075
212	0x3d99999a	0.075
213	0x3d99999a	0.075
214	0x3d99999a	0.075
215	0x3d99999a	0.075
216	0x3d99999a	0.075
217	0x3d99999a	0.075
218	0x3d99999a	0.075
219	0x3d99999a	0.075
220	0x3d99999a	0.075
221	0x3d99999a	0.075
222	0x3d99999a	0.075
223	0x3d99999a	0.075
224	0x3d99999a	0.075
225	0x3d99999a	0.075
226	0x3d99999a	0.075
227	0x3d99999a	0.075
228	0x3d99999a	0.075
229	0x3d99999a	0.075
230	0x3d99999a	0.075
231	0x3d99999a	0.075
232	0x3d99999a	0.075
233	0x3d99999a	0.075
234	0x3d99999a	0.075
235	0x3d99999a	0.075
236	0x3d99999a	0.075
237	0x3d99999a	0.075
238	0x3d99999a	0.075
239	0x3d99999a	0.075
240	0x3d99999a	0.075
241	0x3d99999a	0.075
242	0x3d99999a	0.075
243	0x3d99999a	0.075
244	0x3d99999a	0.075
245	0x3d99999a	0.075
246	0x3d99999a	0.075
247	0x3d99999a	0.075
248	0x3d99999a	0.075
249	0x3d99999a	0.075
250	0x3d99999a	0.075
251	0x3d99999a	0.075
252	0x3d99999a	0.075
253	0x3d99999a	0.075
254	0x3d99999a	0.075
255	0x3d99999a	0.075

final_layer.bias_mu f4 [32]
0	0x3d4346f8	0.047675103
1	0xbd8a793e	-0.06761406
2	0x3decca28	0.11561996
3	0xbc556010	-0.013023391
4	0x3dc00984	0.09376815
5	0x3d00d0d4	0.031449154
6	0x3cac6f50	0.021049172
7	0xbd456000	-0.048187256
8	0x3df01438	0.117226064
9	0xbdacceba	-0.084378675
10	0x3dca2d74	0.09871951
11	0x3cbae070	0.022812098
12	0x3c2da9c0	0.010599554
13	0xbde93072	-0.11386193
14	0xbd973df4	-0.073848635
15	0xbdbb8972	-0.09157075
16	0x3da718d0	0.081590295
17	0xbdfb0fba	-0.12258859
18	0x3d5cb374	0.053882077
19	0x3dc857c0	0.09782362
20	0x3d023808	0.031791717
21	0xbd61a368	-0.055087477
22	0x3df9e786	0.12202363
23	0xbdd335b0	-0.103129745
24	0x3dca2224	0.09869793
25	0x3de6b2d2	0.11264576
26	0xbd4bf644	-0.049795404
27	0xbdb3e878	-0.08784574
28	0x3bcfe8a0	0.0063448697
29	0xbd9d21c6	-0.076724574
30	0x3de0a014	0.109680325
31	0xbd5f0b28	-0.054454

final_layer.bias_sigma f4 [32]
0	0x3dd93924	0.10606602
1	0x3dd93924	0.10606602
2	0x3dd93924	0.10606602
3	0x3dd93924	0.10606602
4	0x3dd93924	0.10606602
5	0x3dd93924	0.10606602
6	0x3dd93924	0.10606602
7	0x3dd93924	0.10606602
8	0x3dd93924	0.10606602
9	0x3dd93924	0.10606602
10	0x3dd93924	0.10606602
11	0x3dd93924	0.10606602
12	0x3dd93924	0.10606602
13	0x3dd93924	0.10606602
14	0x3dd93924	0.10606602
15	0x3dd93924	0.10606602
16	0x3dd93924	0.10606602
17	0x3dd93924	0.10606602
18	0x3dd93924	0.10606602
19	0x3dd93924	0.10606602
20	0x3dd93924	0.10606602
21	0x3dd93924	0.10606602
22	0x3dd93924	0.10606602
23	0x3dd93924	0.10606602
24	0x3dd93924	0.10606602
25	0x3dd93924	0.10606602
26	0x3dd93924	0.10606602
27	0x3dd93924	0.10606602
28	0x3dd93924	0.10606602
29	0x3dd93924	0.10606602
30	0x3dd93924	0.10606602
31	0x3dd93924	0.10606602

final_layer.weight_epsilon f4 [32, 64]
0	0xbf259bec	-0.6469104
1	0x3f79ddcf	0.9760408
2	0x3f207a09	0.6268621
3	0xbf55ce79	-0.8351818
4	0xbf3c22a9	-0.7349039
5	0x3f02710b	0.5095374
6	0x3f2f6107	0.68507427
7	0xbf06bc3c	-0.5263097
8	0x3f0bd8d7	0.54627746
9	0xbf8b7e3b	-1.0897897
10	0xbf894c2c	-1.0726371
11	0xbeadfacd	-0.33980408
12	0xbe50b1a7	-0.20380269
13	0xbf3ee274	-0.7456429
14	0x3f35fc94	0.7108853
15	0x3eebdc83	0.46066675
16	0x3f016bcb	0.50555104
17	0xbf2edf09	-0.68309075
18	0x3f372a4f	0.7154893
19	0x3f5f0bce	0.8712739
20	0x3f3709b1	0.7149916
21	0xbef319ec	-0.47480714
22	0x3f1e2387	0.6177296
23	0x3f813d72	1.0096877
24	0xbf53e517	-0.8277144
25	0x3f1b37cb	0.6063201
26	0x3f3cda55	0.7377065
27	0xbe24b92b	-0.16086261
28	0xbf0ebef0	-0.557601
29	0x3f83a5f6	1.0285022
30	0xbe6993f0	-0.2281034
31	0xbf23a9e9	-0.6393114
32	0x3eeda83d	0.46417418
33	0x3f90afb0	1.1303616
34	0xbf0cbb34	-0.5497315
35	0x3e942714	0.28936064
36	0x3f063c97	0.524362
37	0xbf57ad98	-0.8424926
38	0xbf250c55	-0.6447194
39	0x3ed72a6c	0.42024553
40	0x3f825379	1.0181724
41	0xbf2cc36e	-0.674857
42	0xbf0fc495	-0.56159335
43	0x3f731494	0.94953275
44	0xbf521fa3	-0.82079524
45	0x3f92b280	1.1460724
46	0x3f1ae83f	0.6051063
47	0x3f07bb21	0.5301991
48	0xbed4c080	-0.41553116
49	0x3f73e6c3	0.9527399
50	0xbf2ccb2d	-0.6749752
51	0x3f4a195d	0.7894495
52	0x3e9ce41a	0.30642778
53	0xbf0249c0	-0.50893784
54	0xbe15e625	-0.14638574
55	0x3f4b2927	0.7935967
56	0xbf1f6a11	-0.6227122
57	0xbf09313d	-0.53590757
58	0xbed500b1	-0.4160209
59	0xbf3fcf11	-0.74925333
60	0x3f1d9c1e	0.6156634
61	0x3edcd9d8	0.43134952
62	0xbf5cc3bc	-0.86236167
63	0x3eac2c03	0.33627328
64	0x3f614436	0.87994707
65	0xbfa9f01c	-1.32764
66	0xbf5a4905	-0.8526767
67	0x3f9169bd	1.1360394
68	0x3f7fe84d	0.9996384
69	0xbf316e39	-0.6930881
70	0xbf6e8e4a	-0.93185866
71	0x3f374561	0.7159024
72	0xbf3e3961	-0.74306303
73	0x3fbdbe22	1.4823649
74	0x3fbac19a	1.4590333
75	0x3eeca705	0.46221176
76	0x3e8def97	0.27721855
77	0x3f81d2d0	1.014246
78	0xbf778b30	-0.9669676
79	0xbf2069b2	-0.6266128
80	0xbf300add	-0.68766576
81	0x3f6ddd78	0.9291606
82	0xbf79259d	-0.9732302
83	0xbf97b270	-1.185133
84	0xbf78f93f	-0.9725532
85	0x3f25563a	0.64584696
86	0xbf571aea	-0.8402544
87	0xbfafcbd1	-1.3734075
88	0x3f901ce7	1.125882
89	0xbf5321d3	-0.82473487
90	0xbf807111	-1.0034505
91	0x3e600fc6	0.21881017
92	0x3f422ace	0.75846565
93	0xbfb3126c	-1.3989997
94	0x3e9edc1e	0.3102731
95	0x3f5e9ecc	0.86961055
96	0xbf21a25d	-0.6313837
97	0xbfc4ce80	-1.5375519
98	0x3f3f6d49	0.7477613
99	0xbec9858e	-0.39359707
100	0xbf3697c0	-0.713253
101	0x3f92af99	1.1459838
102	0x3f6080e5	0.8769668
103	0xbf125663	-0.57163066
104	0xbfb14600	-1.3849487
105	0x3f6aff7b	0.9179608
106	0x3f438eb4	0.7638962
107	0xbfa55298	-1.2915831
108	0x3f8ee881	1.1164705
109	0xbfc78ac2	-1.558922
110	0xbf52b59f	-0.8230838
111	0xbf38a017	-0.7211928
112	0x3f10b220	0.565218
113	0xbfa5e18b	-1.2959455
114	0x3f6b0a05	0.91812164
115	0xbf89735c	-1.073833
116	0xbed5686c	-0.4168123
117	0x3f3138c6	0.69227254
118	0x3e4be5ab	0.1991183
119	0xbf8a2c35	-1.0794741
120	0x3f58d714	0.84703183
121	0x3f3a9cf7	0.7289576
122	0x3f10ddc9	0.5658842
123	0x3f8273bc	1.0191569
124	0xbf5662b9	-0.8374439
125	0xbf16343d	-0.5867346
126	0x3f962534	1.1730103
127	0xbeea3185	-0.45740905
128	0xbf635322	-0.88798726
129	0x3fab7d9d	1.3397709
130	0x3f5c479d	0.86046773
131	0xbf92bde0	-1.1464195
132	0xbf811f73	-1.0087723
133	0x3f330d40	0.6994209
134	0x3f70bc4d	0.94037324
135	0xbf38f212	-0.7224437
136	0x3f3ff656	0.74985254
137	0xbfbf79f6	-1.4959095
138	0xbfbc7672	-1.4723647
139	0xbeeed093	-0.46643505
140	0xbe8f3b98	-0.27975154
141	0xbf83027c	-1.0235133
142	0x3f79ce39	0.97580296
143	0x3f21e0eb	0.6323382
144	0x3f31a6a6	0.6939491
145	0xbf7009dd	-0.9376505
146	0x3f7b6c65	0.9821227
147	0x3f991546	1.1959617
148	0x3f7b3fa0	0.9814396
149	0xbf26d8f8	-0.6517482
150	0x3f591212	0.847932
151	0x3fb16706	1.3859565
152	0xbf916e00	-1.1361694
153	0x3f550fb0	0.8322706
154	0x3f819d82	1.0126193
155	0xbe621be1	-0.22080947
156	0xbf43f0fc	-0.7653959
157	0x3fb4b54b	1.4117826
158	0xbea04fb6	-0.31310815
159	0xbf60a788	-0.8775563
160	0x3f231c72	0.6371528
161	0x3fc69adb	1.5516008
162	0xbf412d0e	-0.75459373
163	0x3ecb5cf0	0.39719343
164	0x3f3842db	0.71977013
165	0xbf9406b6	-1.1564548
166	0xbf628e09	-0.8849798
167	0x3f13acaf	0.5768537
168	0x3fb2e4aa	1.3976033
169	0xbf6d252b	-0.9263484
170	0xbf455822	-0.77087605
171	0x3fa6d54d	1.3033844
172	0xbf9036c8	-1.1266718
173	0x3fc95d83	1.5731663
174	0x3f54a27e	0.83060443
175	0x3f3a4ff4	0.7277825
176	0xbf120496	-0.5703825
177	0x3fa7658f	1.3077868
178	0xbf6d2fce	-0.9265107
179	0x3f8ab4e0	1.0836449
180	0x3ed75b9c	0.4206208
181	0xbf32d751	-0.69859797
182	0xbe4dc29b	-0.20093767
183	0x3f8b6f69	1.0893375
184	0xbf5ad24b	-0.8547713
185	0xbf3c517a	-0.73561823
186	0xbf1230a5	-0.57105476
187	0xbf83a4e1	-1.0284692
188	0x3f585832	0.84509575
189	0x3f179395	0.5920957
190	0xbf978469	-1.1837283
191	0x3eec5553	0.46158847
192	0xbf8e3e14	-1.1112695
193	0x3fd69c91	1.676653
194	0x3f89d593	1.0768303
195	0xbfb7a3b9	-1.4346839
196	0xbfa19729	-1.2624255
197	0x3f6012ea	0.8752886
198	0x3f96a24b	1.1768278
199	0xbf67731f	-0.90410036
200	0x3f703b0f	0.93840116
201	0xbfef9f68	-1.8720522
202	0xbfebd9e5	-1.8425871
203	0xbf156e9c	-0.583719
204	0xbeb33f92	-0.35009438
205	0xbfa3f3a7	-1.2808732
206	0x3f9c4f2d	1.2211663
207	0x3f4a9523	0.79133815
208	0x3f5e5224	0.86844087
209	0xbf9632a4	-1.1734204
210	0x3f9d5255	1.2290751
211	0x3fbf9352	1.4966834
212	0x3f9d3651	1.2282201
213	0xbf50cd0a	-0.81562865
214	0x3f87d384	1.0611424
215	0x3fde0285	1.7344519
216	0xbfb5ff64	-1.4218564
217	0x3f855148	1.041543
218	0x3fa234eb	1.2672399
219	0xbe8d7b52	-0.27633148
220	0xbf7535d8	-0.95785284
221	0x3fe22594	1.7667718
222	0xbec89f0b	-0.3918384
223	0xbf8c9255	-1.0982157
224	0x3f4c2000	0.7973633
225	0x3ff88b2a	1.941747
226	0xbf71bfe7	-0.94433445
227	0x3efe7f88	0.49706674
228	0x3f6697da	0.9007546
229	0xbfb93f3e	-1.4472425
230	0xbf8dc2c0	-1.1075058
231	0x3f38ce95	0.7219022
232	0x3fdfe020	1.7490273
233	0xbf94632b	-1.1592764
234	0xbf76f74c	-0.96471095
235	0x3fd0c873	1.6311172
236	0xbfb479eb	-1.4099706
237	0x3ffbff82	1.968735
238	0x3f850cf5	1.0394579
239	0x3f6928fb	0.91078156
240	0xbf36bbd8	-0.71380377
241	0x3fd17cfb	1.6366266
242	0xbf9469d3	-1.1594795
243	0x3fad957e	1.3561246
244	0x3f06c128	0.52638483
245	0xbf5fcf6b	-0.8742587
246	0xbe80bfc1	-0.25146297
247	0x3fae7eee	1.3632486
248	0xbf88ebfa	-1.0697014
249	0xbf6baba1	-0.9205876
250	0xbf36f2fa	-0.714645
251	0xbfa4bee1	-1.2870752
252	0x3f875f35	1.057593
253	0x3f3db0a6	0.7409767
254	0xbfbd9da9	-1.4813739
255	0x3f13e11e	0.57765377

final_layer.bias_epsilon f4 [32]
0	0xbf48cde9	-0.78439194
1	0x3f8891ef	1.0669535
2	0xbf89d163	-1.0767025
3	0xbfac78ce	-1.3474367
4	0x3f612de6	0.8796066
5	0x3f9a0cf3	1.2035202
6	0xbf64bd49	-0.89351326
7	0x3f7c7d64	0.9862883
8	0x3e606784	0.21914488
9	0x3f6ff261	0.93729216
10	0xbefb2dc8	-0.49058366
11	0xbf755fb7	-0.95849174
12	0xbe89c3de	-0.26907247
13	0x3fabc93b	1.3420786
14	0xbe9ae8bb	-0.30255684
15	0xbfb06fe3	-1.3784145
16	0xbf9bea52	-1.2180884
17	0xbf8878bc	-1.0661845
18	0x3f4a6b56	0.7907003
19	0x3ede7bcc	0.43453825
20	0x3f8620aa	1.0478718
21	0xbf422624	-0.7583945
22	0x3f20a74a	0.6275526
23	0xbf03ad38	-0.51436186
24	0xbf8600fd	-1.0469052
25	0xbf38cf5b	-0.721914
26	0x3f8df247	1.1089562
27	0x3f686221	0.9077473
28	0xbf058e9b	-0.52170724
29	0xbe8dd232	-0.2769943
30	0x3f4721ff	0.7778625
31	0x3e061b7b	0.1309642

out1.weight_mu f4 [51, 32]
0	0x3ed1084e	0.40826648
1	0x3ea6de58	0.3259151
2	0x3ee6de8a	0.4509166
3	0x3ec27c9c	0.37985694
4	0x3e53d803	0.2068787
5	0xbf27df99	-0.6557556
6	0x3ed48eb9	0.4151514
7	0x3dba8ff5	0.09109489
8	0xbf288d9d	-0.65841085
9	0xbea53314	-0.32265532
10	0x3ed87e42	0.42283827
11	0x3ea48303	0.32131204
12	0x3e495b44	0.19663721
13	0xbe7e34b4	-0.24824792
14	0x3d493e82	0.049131878
15	0x3e1fd8c2	0.1561003
16	0xbf3b7bf9	-0.7323604
17	0xbe6d82ae	-0.23194382
18	0x3d694ed1	0.05695993
19	0x3e643a5d	0.22287889
20	0xbed9d374	-0.42544138
21	0x3eb69de2	0.3566733
22	0xbd2f24bf	-0.042759653
23	0xbe5b3223	-0.21405844
24	0x3e9d21bf	0.3068981
25	0x3eb99c07	0.36251852
26	0x3f4a0e1d	0.78927785
27	0x3f2f3682	0.6844255
28	0x3f21dad8	0.63224554
29	0xbe4a363e	-0.19747254
30	0x3e4da8b9	0.20083894
31	0xbf06515c	-0.52467895
32	0x3ebf5333	0.37368163
33	0x3ec8b872	0.3920322
34	0x3f02d532	0.5110656
35	0x3e8ad5d1	0.27116254
36	0x3d8d5f60	0.06902957
37	0xbe8db220	-0.2767496
38	0x3f2fc588	0.68660784
39	0x3ebc55e9	0.36784294
40	0x3e27c713	0.16384535
41	0x3e8c9019	0.27453688
42	0x3f1062e0	0.5640087
43	0x3ea7c6f7	0.32768986
44	0xbd78b5c3	-0.060720216
45	0xbec279bc	-0.379835
46	0xbdc3365e	-0.09531854
47	0x3f48d56e	0.7845067
48	0xbedfdf12	-0.43724877
49	0xbe25f2a6	-0.16205844
50	0x3ed2d007	0.41174337
51	0x3f34b83b	0.70593613
52	0xbedbeaed	-0.42952672
53	0x3ee9a215	0.4563147
54	0x3d05f6be	0.032706015
55	0x3dfa34bd	0.1221709
56	0x3f1f0aaa	0.6212565
57	0x3f1ef4da	0.62092364
58	0x3f2eeca6	0.68329847
59	0x3e11b421	0.1422887
60	0x3ea971a0	0.33094501
61	0x3e42a67b	0.1900882
62	0x3d253b0d	0.04033952
63	0xbe6d97cc	-0.23202437
64	0xbea887f9	-0.3291624
65	0x3ea7afe3	0.32751378
66	0xbe486d98	-0.19573057
67	0xbd075a60	-0.033045173
68	0xbe6416ca	-0.22274318
69	0xbed539f2	-0.4164577
70	0xbed72ab3	-0.42024764
71	0xbf3343ee	-0.7002553
72	0xbd644ae6	-0.05573549
73	0x3edfe1fd	0.43727103
74	0x3d0412bc	0.03224443
75	0x3ef31310	0.4747548
76	0x3e097e11	0.13426997
77	0xbeb05c28	-0.3444531
78	0xbe75da06	-0.2400895
79	0x3e903917	0.28168556
80	0xbf30b607	-0.6902775
81	0x3a97249e	0.0011531299
82	0x3de841e7	0.11340695
83	0x3e339b9d	0.1753983
84	0xbe933036	-0.2874772
85	0x3ecacf73	0.39611396
86	0xbf41a39b	-0.7564027
87	0xbf2bd25b	-0.6711785
88	0xbe0b3d75	-0.13597663
89	0x3d9461fc	0.072452515
90	0x3f0314e2	0.5120374
91	0x3e1c46be	0.15261361
92	0xbdd3135b	-0.10306426
93	0x3e82aee4	0.25524056
94	0xbe1c3960	-0.15256262
95	0xbc5cb6de	-0.013471333
96	0xbe9bf996	-0.30463856
97	0x3e1aac08	0.15104687
98	0xbe4c898b	-0.19974343
99	0xbcc64fc2	-0.024207953
100	0xbdabe919	-0.08394069
101	0xbf1385ca	-0.5762602
102	0xbcd4e0a5	-0.025986025
103	0xbf17e6e6	-0.593367
104	0xbcfac89d	-0.030613238
105	0x3eb1414b	0.34620127
106	0x3b0a2fdc	0.0021085655
107	0x3e768d49	0.24077334
108	0x3e613d61	0.2199607
109	0xbee8f2cd	-0.45497742
110	0xbe2d38a1	-0.16916133
111	0x3ec17cbc	0.37790477
112	0xbefc0516	-0.4922263
113	0xbe8e3aeb	-0.27779326
114	0x3ea2da14	0.31807005
115	0x3eb9ad54	0.3626505
116	0xbe70e27b	-0.23523895
117	0x3ee63943	0.44965562
118	0xbf110383	-0.56645983
119	0xbed3d92b	-0.41376624
120	0xbe486930	-0.19571376
121	0x3df5fe28	0.12011367
122	0x3f39bc71	0.72553164
123	0x3dd53d8c	0.1041213
124	0x3e436aff	0.19083785
125	0x3ec8be0e	0.392075
126	0xbe9bc6ed	-0.30425206
127	0x3ccd6b5a	0.025075603
128	0xbee1daed	-0.4411234
129	0x3e2cd8fc	0.16879648
130	0xbda086f2	-0.07838239
131	0xbdfcdc19	-0.12346668
132	0x3d9c545a	0.07633276
133	0xbf2026e2	-0.6255933
134	0xbe449dd1	-0.19200827
135	0xbed6e598	-0.4197204
136	0xbd944d12	-0.072412625
137	0x3e99135f	0.2989759
138	0xbc9e03a4	-0.019288845
139	0x3e77566c	0.24154061
140	0x3db89346	0.09012465
141	0xbf22a2d9	-0.63529736
142	0xbe62360f	-0.22090934
143	0x3e9fd876	0.31219834
144	0xbf6bbdb3	-0.92086333
145	0xbea88832	-0.3291641
146	0x3eaa481b	0.33258137
147	0x3e9bc64e	0.30424732
148	0xbe87d27e	-0.2652778
149	0x3e9280b8	0.2861383
150	0xbf2a1476	-0.6643747
151	0xbf2b6356	-0.6694845
152	0xbe2bb2e3	-0.16767459
153	0x3dded1e5	0.10879878
154	0x3eac608c	0.3366741
155	0x3cbe8892	0.023258481
156	0x3e7f0a95	0.2490638
157	0x3ef80c48	0.4844687
158	0xbe41baa8	-0.1891886
159	0xbcf08955	-0.02936236
160	0xbeeefcdb	-0.46677288
161	0x3cc22451	0.023698958
162	0x3e2e9a02	0.17050937
163	0xbee2ff4f	-0.4433541
164	0xbd889e7a	-0.06670852
165	0xbf34e90f	-0.7066812
166	0x3da4fca2	0.080559984
167	0xbec32594	-0.38114607
168	0x3e24a31c	0.16077846
169	0x3f15733c	0.5837896
170	0xbe0411a4	-0.12897354
171	0x3ec9f653	0.39445743
172	0x3c9abc43	0.018888598
173	0xbeef44b9	-0.4673212
174	0xbe55a569	-0.2086388
175	0xbc0f210b	-0.008735905
176	0xbe240321	-0.16016819
177	0xbeb308f4	-0.34967768
178	0x3eb9bb31	0.36275628
179	0x3c4099bb	0.011755402
180	0xbe9bd8c7	-0.30438825
181	0x3ea2b1fa	0.3177641
182	0xbf5f2aba	-0.8717457
183	0xbecbe47f	-0.39822766
184	0xbce801d0	-0.028321177
185	0x3d87c035	0.066284575
186	0x3f35af0d	0.7097023
187	0xbe8b1bb0	-0.2716956
188	0xbddb25f9	-0.10700602
189	0x3ef43dfe	0.47703546
190	0xbda32902	-0.07966806
191	0xbb8081f2	-0.0039217407
192	0xbf2c65c3	-0.67342776
193	0xbdc136d5	-0.094342865
194	0x3d728eed	0.059218336
195	0xbe46e947	-0.19424926
196	0xbd4aa95d	-0.049477924
197	0xbf08d828	-0.5345483
198	0xbe110d7a	-0.14165297
199	0xbeec7a7c	-0.46187198
200	0x3e71f28a	0.23627678
201	0x3f34fa7b	0.706947
202	0xbe239fa1	-0.15978862
203	0x3e7a2a8f	0.24430297
204	0x3e48aac7	0.19596396
205	0xbead546a	-0.33853465
206	0xbdc618b1	-0.09672678
207	0x3e56b8d6	0.20968947
208	0xbbbf8d2f	-0.005845688
209	0xbf072e5b	-0.5280511
210	0x3e932d7f	0.28745648
211	0x3e8b35d9	0.2718952
212	0xbe208533	-0.15675811
213	0x3e973264	0.29530632
214	0xbf6bcf52	-0.9211322
215	0xbe81227a	-0.25221616
216	0xbeb54e17	-0.3541114
217	0x3cbf66ae	0.023364391
218	0x3ed0ab42	0.4075566
219	0xbe29988a	-0.16562095
220	0x3dbad2e5	0.09122256
221	0x3e71bfd2	0.2360833
222	0xbe7a1af8	-0.2442435
223	0x3e490dc9	0.19634165
224	0xbf271349	-0.652638
225	0xbbc06441	-0.005871326
226	0xbe3a7c55	-0.18211491
227	0xbeb542f4	-0.35402644
228	0xbe196b58	-0.14982355
229	0xbf006596	-0.5015501
230	0xbe99db40	-0.30050087
231	0xbec42387	-0.38308355
232	0x3e3ad66c	0.18245858
233	0x3f31d3b0	0.69463634
234	0xbe5d8637	-0.2163323
235	0x3ea439b4	0.32075274
236	0x3e15443c	0.1457681
237	0xbf09d67f	-0.5384292
238	0xbe6aca2e	-0.22928688
239	0x3ea6106c	0.32434404
240	0xbeecc7ba	-0.4624613
241	0xbe1d6d4d	-0.15373726
242	0x3ece2147	0.40259764
243	0x3e61d916	0.22055468
244	0xbe831520	-0.25602055
245	0x3e7982bf	0.24366282
246	0xbf5dabd9	-0.86590344
247	0xbf1ff8e5	-0.6248916
248	0xbdc97c7d	-0.098381974
249	0xbdd15d5c	-0.10222885
250	0x3f0249da	0.5089394
251	0xbe651a18	-0.22373235
252	0x3e445f47	0.1917697
253	0x3e8c94e6	0.2745735
254	0xbe587a76	-0.21140465
255	0x3e3d094e	0.1846058
