turtlebot3_machine_learning/turtlebot3_dqn/save_model/stage_1_100.pth (torch_old, 164553 bytes, 22 tensors)

feature_layer.0.weight f4 [64, 26]
000000 16 d2 98 3d 37 9f 9c bd 68 da b7 be 5b 21 d1 bd
       0.07461946 -0.07647555 -0.35908818 -0.1021144
000010 78 07 72 be 38 6f bc 3d 07 9a d9 3d e6 84 05 b9
       -0.23635662 0.09200901 0.106250815 -0.00012733377
000020 72 2c 02 3e a0 7a 09 bc f9 b8 08 bd 57 f9 25 3c
       0.12712267 -0.0083910525 -0.03337953 0.010130248
000030 31 4f 7a be 02 b3 4c bd a9 74 69 bc 71 b1 54 3d
       -0.24444272 -0.049975403 -0.014249005 0.051927034
000040 d1 9c 13 3d 0e 3f 4a bd 87 a6 48 3e a6 af 0d 3e
       0.036038224 -0.04937654 0.19594775 0.13836536
000050 7e 2c 97 3e 26 e2 3c 3e c6 d8 65 3e 89 79 45 bd
       0.29526132 0.18445644 0.22445974 -0.048211608
000060 09 1d c2 bd 8b 60 57 3d 6e 1a a9 bd b1 b2 14 be
       -0.09478194 0.052582305 -0.08256994 -0.1452129
000070 5a 11 9c be f2 41 ce bb 2a 19 28 3e 2c c4 0a bc
       -0.30481988 -0.0062944824 0.1641585 -0.008469623
000080 94 f0 1a be b0 e0 89 3d 63 4e 50 3d 41 6c 59 b9
       -0.15130836 0.06732309 0.050856005 -0.0002073506
000090 ec c9 08 3e 41 df 8a 3e 87 71 99 3d 8a 26 4a 3b
       0.13358277 0.27123454 0.07492357 0.0030845725
0000a0 cc 12 25 3e b9 1f 89 3e 2f c2 bd 3d 18 08 b0 bd
       0.16120452 0.26782015 0.09265553 -0.08595294
0000b0 1d b1 13 be 20 36 11 be 4a 41 1c be 8e 70 69 be
       -0.14423032 -0.14180803 -0.15259281 -0.22796842
0000c0 29 fc 0c be b4 93 64 be 08 74 3d 3e 5e a3 9f 3e
       -0.13768066 -0.2232197 0.18501294 0.31179327
0000d0 6e 7b 13 be 50 a0 b0 bd 0a b2 d9 bd e7 34 13 3e
       -0.14402553 -0.08624327 -0.106296614 0.1437565
0000e0 97 05 52 3e d1 e0 b6 3d 0b e3 5f 3c 23 be 38 3e
       0.20509945 0.08929599 0.013664971 0.18041281
0000f0 f6 0d 06 bd eb d7 fc bd 9e f7 06 bc 4a 23 10 3d
       -0.032728158 -0.123458706 -0.0082377475 0.035189904
000100 53 62 11 be fd 1d 3a be 4b 6b eb bd 0e 9c 9b bc
       -0.14197664 -0.18175502 -0.11495074 -0.018995311
000110 ae ce 24 3d 57 ce d3 3d 23 23 6b 3e d9 91 2b 3e
       0.040236168 0.103420906 0.22962622 0.16754855
000120 5c 0a dd 3d 63 ac d9 3d eb 21 71 be e3 46 8f be
       0.107929915 0.10628583 -0.23548095 -0.2798377
000130 ff 22 8b 3e 4c 71 0f 3e 15 6e 52 bd 31 a8 47 be
       0.27175137 0.14008063 -0.051374514 -0.19497754
000140 76 0f 24 be 61 fd 84 be b6 33 92 bd f6 2d 36 bd
       -0.16021523 -0.25974563 -0.07138769 -0.044477426
000150 63 b8 01 3d 4b 20 87 bd ac 7e 0f be d2 3f f2 3d
       0.031669986 -0.06597956 -0.14013165 0.11828579
000160 c3 56 42 bd fa 47 95 bd 76 88 49 bd c1 7d 88 3d
       -0.047446024 -0.07289119 -0.049202405 0.06664611
000170 26 e4 3d 3e d2 fc 9f 3d 55 54 ea bb bb b5 0e bd
       0.18544063 0.078118935 -0.0071511664 -0.03484128
000180 d2 58 30 bd 50 05 57 be 4c 21 79 bd 5f fe 5c be
       -0.043053456 -0.2099812 -0.06082277 -0.2158141
000190 0f cc 8d be 92 c8 a1 be c0 7d 05 3f c2 d3 d7 3e
       -0.27694747 -0.31598336 0.52145004 0.42153746
0001a0 42 8d 1c bd 71 bf f7 be 3f 1f 77 bd 0e 62 10 be
       -0.03822065 -0.48388246 -0.060332533 -0.14099905
0001b0 9c a2 cd 3e 95 af 43 3e b1 b2 c4 3d f4 09 c0 3c
       0.40163124 0.19109948 0.09604395 0.023442246
0001c0 47 2b 33 3e bb ae fc 3c da 16 b7 3c 86 21 75 bd
       0.17496978 0.030845037 0.022349764 -0.059846424
0001d0 c2 26 48 3e e0 2e ef 3c 8e cc f0 bd a7 7d 84 bd
       0.19546035 0.029197156 -0.11757766 -0.06469279
0001e0 0c 20 88 be e5 b1 31 3d b3 75 03 be cf d0 cf bd
       -0.2658695 0.043382544 -0.12837867 -0.10147249
0001f0 85 55 89 3d 9a 0c 65 3e 8b d2 66 3d 84 c1 78 be
       0.06705765 0.22368088 0.056353133 -0.2429257
000200 e1 df 3e bd 91 e8 7f be a3 4e 26 3e 8a c1 2a 3e
       -0.046600226 -0.24991061 0.16240935 0.16675392
000210 ef bc f2 3d bc 21 f6 bd e2 29 21 3c 18 a4 7b bd
       0.118524425 -0.12018153 0.009836646 -0.06143579
000220 61 56 4b bd f8 6c 33 be 73 26 7d bd 4c b3 4b bd
       -0.049642924 -0.17522037 -0.061804246 -0.049731538
000230 0d 38 50 3c d4 02 f9 bd 19 d2 8f 3c 6e c6 c8 bd
       0.012708676 -0.121587425 0.017556237 -0.098034725
000240 ee 9e b9 bd e7 5f 6a 3c ec a6 d3 3d 36 1e 93 3e
       -0.090635166 0.014305091 0.10334572 0.28733987
000250 ca 3c 5c 3e dc bb 00 bd d8 85 0f be 0c 32 ec 3d
       0.21507564 -0.031429157 -0.14015901 0.11532983
000260 26 af 60 3e da b1 fd bd 61 3d 06 bf 50 38 b6 3d
       0.21941814 -0.12387438 -0.52437407 0.088974595
000270 e8 56 72 be dc 04 8a bd 84 ee 8d 3d 16 6e 75 3d
       -0.23665965 -0.06739208 0.06930259 0.05991944
000280 3c 94 2f bd a9 dc 8c 3e 91 ee b3 3c 18 66 85 3d
       -0.042865977 0.275121 0.021964343 0.065136135
000290 dd 38 03 3e ab 80 0c 3e 97 b9 87 bd ae ee a2 bb
       0.1281466 0.13720958 -0.06627195 -0.0049723005
0002a0 92 80 d7 3b ba b0 2b be 1e 2d 68 be a1 82 8a be
       0.006576606 -0.16766635 -0.22673461 -0.27052787
0002b0 13 1c 9a bd 41 ad 40 bd 5a 01 46 3e 0d 72 1e 3e
       -0.07524886 -0.047040228 0.19336453 0.15473194
0002c0 e3 5a 93 bd 53 91 34 3d 36 9a ca 3d fc 2b f8 bd
       -0.0719507 0.044083904 0.09892695 -0.12117764
0002d0 ee 3c d3 3e a4 d9 72 bf ea b2 1d be ac 2c 6e be
       0.41257423 -0.94863343 -0.15400282 -0.23259228
0002e0 4d 78 65 3d 7a b8 13 3e 2d 9f 35 be d1 66 14 bd
       0.05602293 0.14425841 -0.17736502 -0.036230866
0002f0 9d d2 45 3c 74 b3 d4 bd f8 10 40 be 97 da 46 bd
       0.01207414 -0.103857905 -0.18756473 -0.048548307
000300 44 28 8c 3c 50 0c 8b 3d f8 ba e2 3c af 38 2c 3e
       0.017109044 0.06789458 0.027677044 0.16818498
000310 4c 00 e0 3c 30 f7 b0 bc f3 d9 8f bd 07 33 60 be
       0.027343892 -0.021602243 -0.070239924 -0.21894465
000320 ae 57 0f be 8b 48 be bd 8b d6 d7 bd 31 15 49 be
       -0.13998291 -0.0929118 -0.10538968 -0.1963699
000330 30 56 79 be 87 9f 11 3d 81 b5 d5 3e a7 70 f8 3e
       -0.24349284 0.035552528 0.4174004 0.48523447
000340 c5 ac ab 3d 01 c2 6f be 84 6d c8 bd 67 44 7a be
       0.083825625 -0.2341385 -0.097865134 -0.24440156
000350 d9 cd c3 be 11 e8 06 bd d2 20 2a bd 5e f4 ad be
       -0.38242987 -0.03293616 -0.041535206 -0.339755
000360 52 d7 8b bd 6f 6b 87 3e 15 cc 0b 3e 8e 35 84 bd
       -0.068281785 0.26449153 0.1365207 -0.06455527
000370 91 a1 f5 bd 69 d3 95 bc 03 74 08 bc 91 c6 20 3c
       -0.11993707 -0.018289285 -0.008328441 0.009812967
000380 21 2c 2e be 06 d1 26 bc 83 58 ab 3d a2 eb ac 3d
       -0.17009021 -0.010181671 0.08366492 0.08443381
000390 93 43 de 3d ce 0d 92 bd cc 5c 15 be a2 b7 67 bd
       0.108527325 -0.07131539 -0.1458618 -0.05657161
0003a0 5d 09 dc 3e ed 9a b8 3d 32 f1 a9 bd 14 38 94 3d
       0.42975894 0.09013925 -0.082979575 0.072372586
0003b0 66 ed bf 3d c7 f0 6a 3d 8e 6f bf 3d f6 5c ec 3c
       0.09371452 0.05735853 0.09347449 0.028852921
0003c0 b2 03 4a be f2 11 77 3d 56 48 17 be 4e 1a d8 bc
       -0.19727972 0.06031985 -0.14773688 -0.02637973
0003d0 f6 11 03 be 2f 30 12 be b3 43 e0 bd 43 85 9d bd
       -0.1279982 -0.14276193 -0.109504126 -0.07691433
0003e0 48 4f 7a bd 90 ef 88 be 05 84 08 bd 9a c2 0d 3d
       -0.061110765 -0.26745272 -0.03332903 0.034609415
0003f0 39 5a 8f bc c4 1c f0 bc 7f d5 7b 3e 8a cc 90 bb
       -0.017499076 -0.029310592 0.24593161 -0.004418914

feature_layer.0.bias f4 [64]
000000 f2 4f 53 be 8d 7e c1 bd 30 53 d1 bd cf 78 c8 3d
       -0.20635965 -0.09447966 -0.10220945 0.097886674
000010 3c 3d d2 39 19 84 97 be be bb 03 bd 11 ee 4c bc
       0.00040099944 -0.2959297 -0.032161467 -0.012507931
000020 7b f1 84 3d 35 06 c2 3d 7f 77 04 bd ee e4 3e be
       0.06491371 0.0947384 -0.032340523 -0.18642017
000030 3a c6 c9 bb d0 db 10 be b6 d8 19 3d 45 d7 ef 3d
       -0.0061576637 -0.14146352 0.037560187 0.11710981
000040 76 5c 82 be f2 3f 08 bd 46 6a df 3d 0f c0 5c be
       -0.25461167 -0.033264108 0.10908942 -0.2155764
000050 a7 c7 6a bd 6c 27 46 be 98 fb 7a 3d eb f8 14 be
       -0.05731931 -0.19350976 0.061275095 -0.1454808
000060 84 3b 0c be 9c 3d a3 bd 1f b8 57 bd 3c 16 de 3c
       -0.13694578 -0.079707354 -0.052665826 0.027110212
000070 1d a7 f3 bd 44 c6 f1 3d ca 93 80 be 11 72 80 bd
       -0.11897109 0.11805394 -0.25112754 -0.062717564
000080 5b e7 b6 3d aa 20 1d be 08 0b e1 3d 26 02 03 be
       0.08930846 -0.15344492 0.10988432 -0.12793788
000090 49 35 a3 3d 35 a2 d3 3d 3c 41 7f bd 38 70 ad 3a
       0.07969148 0.10333673 -0.06231807 0.0013232296
0000a0 91 dc 16 bc 3f 72 2b 3e c6 3c 07 be 9d 2f 13 3e
       -0.009207861 0.167428 -0.13206777 0.14373632
0000b0 6c da 17 be 37 ac 31 3d c1 ec 10 3e d0 fe 6e 3e
       -0.14829415 0.043377127 0.14152814 0.23339391
0000c0 b7 6a 0d 3e a9 1c 46 be e5 f1 02 3e 81 72 23 be
       0.1381024 -0.1934687 0.12787588 -0.15961649
0000d0 ca 8a fd bd 32 ba 4b be 86 d8 85 3c 01 bb 38 be
       -0.123799875 -0.19895247 0.016338598 -0.18040086
0000e0 19 9b ea bd 18 0d 53 3c 9d a6 20 3e bd e6 40 bc
       -0.11455364 0.01288154 0.15688558 -0.011773762
0000f0 66 f7 15 bc 4b 63 0d be af 28 78 bd 12 58 24 bd
       -0.009153223 -0.13807409 -0.060585674 -0.040123053

feature_layer.3.weight f4 [32, 64]
000000 0f c7 49 bc 1d 34 af 3e 35 bb 42 3d 5f e1 ea 3e
       -0.012315526 0.34219447 0.047541816 0.4587507
000010 45 82 f4 bd 11 96 9c 3c 0e 32 52 be 77 7a bd 3e
       -0.119389094 0.019114526 -0.20526907 0.37007496
000020 23 b4 67 3e 8a 88 e5 bc 49 c4 80 3e 13 db bb 3d
       0.2262731 -0.028019208 0.25149754 0.091726445
000030 20 51 3f be d1 a4 18 3c 09 79 90 bd c1 3a 6e 3e
       -0.1868329 0.009316639 -0.070543356 0.232646
000040 14 14 f4 3d 76 7c 7d 3e ef cb ae be 4f c3 e5 be
       0.11917892 0.2475451 -0.34139964 -0.4487557
000050 68 88 76 bd 57 f8 c9 bd 5f 73 ba be 6d 0f 32 bc
       -0.06018868 -0.0986182 -0.36416146 -0.010867936
000060 ac e6 03 3e 81 8d b3 bd 21 dd 23 be de 93 b3 bd
       0.12880963 -0.08767224 -0.16002323 -0.08768438
000070 06 d8 f2 bd 6a 98 0d 3e 75 0c 67 3d 89 2c 03 3e
       -0.118576095 0.13827673 0.056408364 0.12809958
000080 f3 3b 7f bc 75 cd c2 bc e8 ab aa be a7 b6 ce 3e
       -0.015578258 -0.02377961 -0.3333428 0.40373728
000090 8a 6c fa bd 0e a0 53 3e 5a ee 44 bc d6 3b c9 3e
       -0.122277334 0.20666525 -0.012019718 0.39303464
0000a0 3e ef 88 3d 8e 99 a9 3d 8d 54 7f 3e 0e c8 cb bc
       0.06686257 0.08281241 0.24934597 -0.024875667
0000b0 a0 0f 56 3e 1f 22 27 3f c0 35 44 be af 5f 64 3d
       0.20904398 0.6528644 -0.19161129 0.055755313
0000c0 1a 80 02 3e 90 41 d4 3b f3 25 1b bc 6b 85 83 bc
       0.1274418 0.006477542 -0.009469497 -0.01605483
0000d0 3c 2f 83 3e b9 e0 43 3c 72 be 25 bf 93 42 e6 3d
       0.25621974 0.0119554335 -0.6474372 0.11243167
0000e0 d2 2f 05 3f da 90 c9 3e 13 c9 89 3d 18 b3 79 3d
       0.52026093 0.39368325 0.06727805 0.060961813
0000f0 dd d7 72 3d e3 05 90 bd 07 db fc 3d 32 b3 94 be
       0.059287895 -0.07032373 0.12346464 -0.29042965
000100 b4 3c ad 3c 71 d1 c3 bd 5d 71 d8 3d 62 c1 d6 3d
       0.02114711 -0.09561432 0.10568497 0.104861036
000110 24 98 36 3c 46 91 19 3d e3 d7 0d be eb ae d3 bd
       0.011144672 0.03749206 -0.13851885 -0.10336097
000120 81 29 f7 3d 94 b2 4e 3e 9b 28 44 be 3f 01 75 3e
       0.12068463 0.2018531 -0.19156115 0.23926257
000130 ba 69 1a be 8a 8a 07 bd e9 14 99 bc da 63 d9 3c
       -0.15079394 -0.033091106 -0.018686729 0.02653687
000140 53 e0 a8 3d 84 05 4f 3e 80 67 04 bc 26 14 e2 3d
       0.082459114 0.20216948 -0.008081317 0.11038999
000150 e7 9d 42 be a3 6c 8d bd d7 f1 d8 3d 37 ad ca 3d
       -0.19005547 -0.069054864 0.10593002 0.09896319
000160 b3 81 a2 3b d1 ef 5e 3c dc 91 0b 3d d6 b5 7f 3d
       0.004959309 0.013606981 0.03407465 0.06242927
000170 a0 34 0d be 61 c4 4b be fe cb 17 3e f2 fe 91 3e
       -0.13789606 -0.19899131 0.1482391 0.2851482
000180 55 c2 bd bb 50 73 0a 3d f0 df 95 bd 8e fa a4 3e
       -0.0057909884 0.033801377 -0.07318103 0.32222408
000190 2c ef 15 3d a5 33 ea 3d 1d bf 56 3d 2f 4c a8 3b
       0.036605045 0.11435632 0.052428354 0.005136035
0001a0 98 3b c8 3c 6b 4f bd 3d b4 74 65 3e 06 d0 09 3d
       0.024442479 0.092436634 0.224078 0.033645652
0001b0 71 4e 75 3e 10 d0 09 3e fc 2b 08 3d 52 e6 ff 3c
       0.23955704 0.13458276 0.03324507 0.031237755
0001c0 72 40 92 bd 86 f2 19 3e 72 80 2a 3e d7 4b 3c 3d
       -0.07141198 0.15033922 0.1665056 0.045970764
0001d0 f1 ba 1a 3e c0 3b 83 3d a7 e3 e7 be cb 7d 07 bd
       0.15110375 0.06407881 -0.45290872 -0.03307895
0001e0 68 46 84 3e 47 8b 4d 3d ad d2 8a bd 0e e6 4e 3e
       0.25834966 0.050181653 -0.067784645 0.20204946
0001f0 85 e2 b6 bd 93 79 a0 3e 0c ea 9c be 57 8e 3d 3e
       -0.08929924 0.31342754 -0.30647314 0.1851133
000200 b2 46 de bd 23 28 c1 3c 6d 88 5a bd 6d 8b 3b 3e
       -0.10853328 0.023578709 -0.053352762 0.18314905
000210 dd 5e 04 bd a1 51 e2 3d 51 33 d8 be ce b4 f5 3e
       -0.03231703 0.11050726 -0.4222665 0.47989506
000220 68 23 b1 3d 20 6a de 3d c6 25 b5 3d e7 11 0f 3e
       0.08649331 0.108600855 0.08845095 0.13971673
000230 0d d4 c9 bd 56 d0 54 bd 6a d3 7b 3d ed 46 18 bd
       -0.098548986 -0.051956497 0.061480917 -0.037177015
000240 c0 05 86 3e 08 c3 a6 bd f8 b8 62 be fc 7b 67 3d
       0.26176262 -0.08142668 -0.22140872 0.056514725
000250 c2 9a 17 be 31 e9 f2 3c a2 dc 5c be 48 4f 05 3e
       -0.14805129 0.02965221 -0.2156854 0.13018525
000260 92 9c 53 be 13 83 9f 3c 29 bc 5a bc 49 ff 8c 3d
       -0.20665196 0.01947168 -0.013350525 0.06884629
000270 34 15 df bb f3 a4 d5 3a 0e 20 46 3e 00 f5 33 3e
       -0.0068079475 0.0016299769 0.19348165 0.17573929
000280 64 aa fc 3d 2c 49 a6 3e 6d 43 a5 be 61 9e cb 3e
       0.12337187 0.324777 -0.32278004 0.3976927
000290 c1 2d 0a be ca e9 93 be af 11 e1 bd ab 70 b1 3e
       -0.13494016 -0.28889304 -0.10989701 0.3465627
0002a0 b7 a5 a1 3d b9 19 dd 3d bb d0 a8 3e 64 bd d8 3c
       0.07892936 0.10795922 0.3297175 0.026457496
0002b0 14 b9 8c 3e 74 fb e1 3e 62 14 99 3c 5f 36 f2 3c
       0.27484953 0.44137156 0.018686477 0.029566942
0002c0 ed bf dd bb 30 bb 1c 3d 05 b0 05 be 54 f9 23 3d
       -0.006767264 0.038264453 -0.13055427 0.0400327
0002d0 29 a5 5e 3e 58 c7 95 bb fd 41 2a bf 11 3b 18 bc
       0.21742691 -0.004570883 -0.6650694 -0.009291426
0002e0 4a 15 03 3f 66 de 86 3d 9f c3 a4 3d aa 76 75 3e
       0.5120436 0.06585388 0.08045124 0.23971048
0002f0 2f 71 df 3c e0 d7 50 3e 8d 17 a2 3b ac fe 08 be
       0.02727565 0.2039485 0.004946655 -0.133784
000300 7e 7c 0f 3d 6e a1 bd 3b 53 5d dd bc 24 d3 80 3e
       0.035030834 0.005787066 -0.02702204 0.25161088
000310 89 bb 9d bd c0 f6 6a 3d 4f 12 8c 3e ac d7 0a 3e
       -0.07701785 0.057364225 0.27357718 0.13558835
000320 27 3e 89 3e 91 98 fd bd 4d 4d 76 3c 75 a5 25 3d
       0.2680523 -0.12382615 0.015033078 0.040440995
000330 02 d9 85 3d 59 c5 38 be f4 81 82 3d 3b 10 4d bd
       0.065355316 -0.18044032 0.06372443 -0.050064307
000340 4d 5d 47 bd 6c ca 30 bd 57 48 28 bd 1b c3 17 bc
       -0.048672963 -0.043161795 -0.041084614 -0.009262825
000350 3a 39 80 bd fc 58 3a bc 53 1c d0 bc 8c 44 3a be
       -0.06260915 -0.011373755 -0.025404131 -0.18190211
000360 7b b2 a8 3e c5 9b 4b 3d f3 fc 47 be 3d be 5b 3d
       0.3294867 0.0497091 -0.19530086 0.053648222
000370 51 c1 97 3d 61 66 76 bd 4c df 89 be 36 61 72 3d
       0.07409919 -0.06015623 -0.26928174 0.05917474
000380 f7 28 b1 3d 23 80 e7 bd 05 c2 5f be 86 16 0b 3e
       0.086503915 -0.11303737 -0.21851356 0.13582811
000390 6e 35 bc 3d fc fd a6 3d a7 2c 5d bd bd 02 bc be
       0.091898784 0.081539124 -0.053997662 -0.3672084
0003a0 8e a9 47 3d ff 76 91 3e 1b 1a de 3d ce a1 47 3d
       0.048745684 0.284111 0.10844823 0.048738293
0003b0 e7 07 02 3f 77 71 b5 3e 91 06 0b be bb c9 c9 bd
       0.5079331 0.3543813 -0.13576724 -0.0985293
0003c0 9c c9 d7 3d cc ab 71 bc b8 22 45 3e ca 0a 81 bd
       0.10536501 -0.014750432 0.19251525 -0.06300886
0003d0 2f 79 18 3d 83 dc 89 3d e3 46 a2 be f3 88 1b bc
       0.037224945 0.067315124 -0.31694707 -0.0094931
0003e0 38 69 8d 3e 70 96 73 3d 71 a4 70 bb 95 39 f2 3d
       0.27619338 0.05946964 -0.0036719108 0.11827389
0003f0 33 09 15 be 60 89 93 bc 9f cd 9c be dc b9 6c bd
       -0.1455429 -0.018009841 -0.30625626 -0.057794437

feature_layer.3.bias f4 [32]
000000 b3 ef 07 3d cf 54 26 bd 96 35 54 3b 52 40 bd 3d
       0.03318758 -0.040608224 0.0032380573 0.09240784
000010 0a aa 6b 3c 5d 28 1c bd e1 c8 80 bd 55 5f e0 3d
       0.014383802 -0.03812443 -0.062883146 0.10955683
000020 41 5a ca 3d 64 0b af 3c fb 86 bb bd 8c 5b c7 bd
       0.09880496 0.021367736 -0.09156605 -0.09734258
000030 d5 01 90 bd fb 60 bc 3d a5 6a f9 3d 36 03 98 39
       -0.070315994 0.09198185 0.12178544 0.00028994092
000040 2a 14 ac be 05 b5 06 3e da 82 2a 3e 08 10 08 3d
       -0.33609134 0.13154991 0.16651478 0.033218414
000050 7e 8f 83 3d c0 8d 83 3c 2f a9 84 3e b6 bf 44 3d
       0.06423853 0.016058803 0.25910327 0.048034392
000060 28 24 f8 bc 58 59 d9 3d 00 a1 d8 ba f5 c7 87 be
       -0.030290678 0.10612744 -0.0016527474 -0.26519743
000070 a2 80 89 bd ab 24 e7 3d cf 54 20 be 69 b9 2c 3e
       -0.06713988 0.11286291 -0.15657352 0.16867603

final_layer.weight_mu f4 [32, 64]
000000 90 de 76 bd c4 39 61 3d 90 9f a3 bd 90 3e a4 3d
       -0.060270846 0.05498673 -0.079894185 0.08019745
000010 b4 27 2a bd 78 e0 ba bd 48 2e f4 bc 00 df 4d 3b
       -0.04154177 -0.09124845 -0.029807225 0.0031413436
000020 f0 36 6a 3c 66 65 b2 bd ac be bd bd 70 ae 82 3d
       0.014295325 -0.087107465 -0.092648834 0.063809276
000030 06 7f ee bd 4a 23 a0 bd 24 26 e8 3d 1c 37 ad bd
       -0.116453215 -0.07819231 0.113354 -0.08457777
000040 00 80 29 bd 54 67 2a 3d 7c f5 5f 3d b0 06 fb bc
       -0.041381836 0.041602448 0.05467747 -0.030642837
000050 90 1a 9b bc d0 0c c4 3d cc 87 d6 bd 90 3d f1 3c
       -0.018933564 0.09572756 -0.1047512 0.0294483
000060 00 61 98 bb 68 01 25 bd 38 da b4 bd 90 aa 02 3c
       -0.004650235 -0.040284544 -0.088306844 0.007975236
000070 02 3b c0 bd 4c 56 09 bd 62 a5 c2 3d 3a 6e 8e 3d
       -0.09386255 -0.033529565 0.095042005 0.06954618
000080 80 4e c5 3a a8 9a b8 bd 00 61 99 3a e4 2d 81 3d
       0.0015053302 -0.09013873 0.0011701882 0.06307581
000090 66 93 eb 3d 60 c8 c9 3b 5e 59 9a 3d 12 dc d0 bd
       0.115027234 0.0061579198 0.07536577 -0.10198225
0000a0 0a 41 8a bd 9c 33 4a 3d 2e 33 d8 bd 92 14 81 3d
       -0.067506865 0.049365625 -0.10556637 0.063027516
0000b0 18 4b d4 3c 6c f7 83 bd a0 71 10 bc a8 8f 24 bd
       0.025914714 -0.06443676 -0.008816153 -0.040176064
0000c0 3c 20 a4 3d 58 e4 c0 3d 28 29 42 3d c8 db 65 3d
       0.08013961 0.09418553 0.04740253 0.056117803
0000d0 b4 fd 80 bd 74 a4 bf 3d b8 20 74 3d 96 c1 ea 3d
       -0.0629839 0.09357539 0.059601516 0.11462705
0000e0 08 b7 4b 3d 1c b3 dc bd a6 ef d7 3d 12 e6 9a 3d
       0.0497351 -0.1077635 0.10543756 0.07563414
0000f0 c8 19 43 bd 00 9a 77 3c 4c e7 5c 3d b0 cc ec bc
       -0.04763201 0.0151124 0.05393152 -0.028906196
000100 78 1d ad bd 34 92 1a 3d c0 37 06 bd 40 2d 44 3b
       -0.08452886 0.037737086 -0.03276801 0.0029934198
000110 6a 75 92 bd 80 46 03 bc f0 55 f5 3d f8 4f df bd
       -0.07151301 -0.008012414 0.11979282 -0.10903925
000120 b8 5c 2f 3d ec 75 32 3d e0 dd 3d 3d c4 16 2a bd
       0.042813033 0.04356949 0.046354175 -0.041525617
000130 28 c5 f5 3c 4c 02 a5 bd 7c ac 03 bd f8 4c f0 bd
       0.030001238 -0.08057079 -0.032146916 -0.117334306
000140 c6 8b e8 3d 90 d9 df bc f0 d7 ff bc 9a 6d 8e 3d
       0.11354785 -0.027325422 -0.031230897 0.069544986
000150 38 b0 28 bd 70 31 ec bc 28 16 df 3d 32 c5 dc 3d
       -0.04118368 -0.028832167 0.10892898 0.107797995
000160 00 20 4c b9 60 34 af bb c8 85 3c bd 50 1a 2a bd
       -0.00019466877 -0.0053468198 -0.04602602 -0.041529
000170 70 9f f4 3d 18 a0 a8 bd 6c 77 33 3d 38 58 d0 bd
       0.11944473 -0.082336605 0.04381506 -0.101730764
000180 56 a0 da 3d c8 7d c3 bc 0a 3d c1 bd 20 ae bb bb
       0.10675113 -0.023863688 -0.094354704 -0.0057275444
000190 b0 34 16 3c 14 c1 72 3d f8 cc 19 3d b6 e9 ed bd
       0.009167835 0.059266165 0.03754899 -0.116168424
0001a0 8c ce 60 3d 10 5e d0 bd 84 fb e6 bd d8 0d de bd
       0.05488448 -0.10174191 -0.112784415 -0.10842484
0001b0 f2 8a 82 bd b0 6c bb bc a0 2f f2 3b c8 82 ca 3c
       -0.06374158 -0.022878975 0.0073909312 0.024720564
0001c0 9c 7c 09 bd 00 54 9f bd 48 cc 72 3d d0 24 70 bc
       -0.033566102 -0.077796936 0.05927685 -0.014657214
0001d0 40 73 a8 3c f2 2f fa bd c0 7e 29 3d 24 55 86 bd
       0.020562768 -0.12216176 0.041380644 -0.06559208
0001e0 d2 a1 d9 bd d0 f5 b8 3c 20 de 4d bc 40 73 6e bb
       -0.10626568 0.02257815 -0.012565166 -0.0036384612
0001f0 c2 38 a6 3d 1c 45 6a 3d 38 7f b1 bc 74 18 fe 3d
       0.081162944 0.057194814 -0.021667108 0.12407008
000200 90 48 11 bc 34 ae a8 3d 2e 1e 9c bd c0 af f9 bb
       -0.008867398 0.082363516 -0.07622944 -0.007619828
000210 10 27 e0 bd 66 8e ce bd 00 a2 a1 3c e6 2c c7 bd
       -0.109449506 -0.10085754 0.019730568 -0.097253606
000220 00 3e d2 3c 74 eb 3d 3d 3c d2 45 bd 84 27 51 3d
       0.02566433 0.046367124 -0.0482962 0.051063076
000230 00 51 ba 3d a0 50 c1 3d 90 35 91 bc e8 81 14 bd
       0.09097481 0.09439206 -0.017725736 -0.0362567
000240 e2 55 c0 bd 78 6b cd 3d 28 2a dd bc 50 55 9d bc
       -0.09391381 0.10030264 -0.02699764 -0.01920572
000250 a8 5a 5b bd 94 c8 c6 3d 7a bd f7 3d b8 aa 8e 3c
       -0.053553253 0.09706226 0.12096687 0.01741539
000260 3a b3 89 3d dc 1f 81 3d c8 5b cf bd c0 f9 77 3b
       0.06723638 0.06304905 -0.10124928 0.0037838072
000270 d8 eb 71 3d e4 d4 bb 3d a0 4d a4 3d 80 0a fc 3c
       0.05906281 0.09171465 0.08022618 0.030766726
000280 b4 c8 8a bd 44 11 03 bd 78 f7 46 3d 78 25 f1 3d
       -0.06776562 -0.031998888 0.04857585 0.11774725
000290 50 f5 49 3c a0 65 bd bb 90 2b 16 bd 40 da 79 bb
       0.012326553 -0.005779937 -0.03666264 -0.0038124472
0002a0 4c ef 6f 3d 1a 84 88 bd 08 6b ba bc ac fe 05 3d
       0.05857782 -0.066658214 -0.022756115 0.032713577
0002b0 b0 66 1f bc 60 a6 4c bd e0 70 97 bc 80 d9 b8 ba
       -0.009729072 -0.049963355 -0.01848644 -0.0014102906
0002c0 88 a6 c7 bd d2 e6 d6 3d f6 89 a2 3d 5e 7c 86 3d
       -0.0974856 0.10493244 0.0793647 0.0656669
0002d0 d8 6c 9f bc 16 f6 87 bd 2a e2 c0 3d 44 8f 7e bd
       -0.01946108 -0.06638734 0.09418137 -0.062148347
0002e0 32 93 d0 3d d0 1e 29 3c 10 5c ff 3c 48 47 6a bd
       0.10184325 0.010322288 0.031171829 -0.057196885
0002f0 4c 56 93 3d be d7 81 bd ec de 70 bd c8 a9 50 bd
       0.07194194 -0.06339978 -0.058806345 -0.050943166
000300 2e 3f c9 3d 08 8a a1 3c 50 a7 80 bc c8 bf 6d 3d
       0.09826504 0.019719139 -0.01570478 0.058044225
000310 50 26 55 bd 6c ff 5f 3d 30 b9 56 3c 90 83 33 3d
       -0.05203849 0.05468695 0.013105676 0.04382664
000320 68 30 be bd 7c 62 38 bd 18 da c5 3d fa 9b 95 bd
       -0.092865765 -0.045015797 0.09660739 -0.07305141
000330 b6 9a e6 bd 58 35 9e 3c fa 12 87 bd e0 5a 50 bc
       -0.112599775 0.019312546 -0.06595416 -0.012716979
000340 b0 dc 1a bc 3c 1c 2b 3d 36 b4 8e bd 02 ab 89 3d
       -0.00945203 0.041774973 -0.06967966 0.0672207
000350 8e 08 db bd bc e7 17 bd 1c 91 d9 3d 28 44 22 bd
       -0.10694991 -0.037086233 0.106233805 -0.03961578
000360 7a bd 81 3d 68 16 e8 bc 40 24 b0 3d 9e 5c 9e 3d
       0.06334968 -0.028330997 0.08600664 0.07732509
000370 20 16 56 3c c0 e8 bc bc 50 71 c3 3d 88 67 02 bd
       0.013066798 -0.023060203 0.09543097 -0.031837016
000380 10 a7 f9 bc 4c a7 73 3d 68 da 85 3c 48 b5 fe bc
       -0.03047517 0.05948572 0.016339496 -0.031092301
000390 00 30 d8 3a 76 c1 80 bd 6e 5f 9d 3d 84 1d 54 bd
       0.0016493797 -0.062869 0.076842174 -0.05178596
0003a0 cc 4a d1 bd 88 93 b5 3d 10 d9 87 3d 66 81 ee bd
       -0.102193445 0.0886603 0.06633198 -0.116457745
0003b0 a0 37 54 bc a8 6b 2a bd 80 1b d0 3a 60 db 7f 3c
       -0.012952715 -0.041606575 0.0015877336 0.015616268
0003c0 48 c0 f7 3d 10 bb ba bd a0 1c cd bb bc 66 75 bd
       0.120972216 -0.091177106 -0.006259516 -0.05991243
0003d0 5c 72 7b 3d 74 61 d1 3d d8 15 8b 3c e0 ba b5 bc
       0.06138836 0.10223666 0.01697819 -0.022183836
0003e0 60 4a bd bc 18 ff b5 bd a4 9c 04 3d 9c 75 c8 3d
       -0.023106754 -0.08886546 0.032375947 0.09788057
0003f0 f4 98 3d bd 84 2e b1 3d e0 dd 6e bc 80 95 90 3a
       -0.046288446 0.0865145 -0.014579266 0.0011030883

final_layer.weight_sigma f4 [32, 64]
000000 9a 99 99 3d 9a 99 99 3d 9a 99 99 3d 9a 99 99 3d
       0.075 0.075 0.075 0.075
000010 9a 99 99 3d 9a 99 99 3d 9a 99 99 3d 9a 99 99 3d
       0.075 0.075 0.075 0.075
000020 9a 99 99 3d 9a 99 99 3d 9a 99 99 3d 9a 99 99 3d
       0.075 0.075 0.075 0.075
000030 9a 99 99 3d 9a 99 99 3d 9a 99 99 3d 9a 99 99 3d
       0.075 0.075 0.075 0.075
000040 9a 99 99 3d 9a 99 99 3d 9a 99 99 3d 9a 99 99 3d
       0.075 0.075 0.075 0.075
000050 9a 99 99 3d 9a 99 99 3d 9a 99 99 3d 9a 99 99 3d
       0.075 0.075 0.075 0.075
000060 9a 99 99 3d 9a 99 99 3d 9a 99 99 3d 9a 99 99 3d
       0.075 0.075 0.075 0.075
000070 9a 99 99 3d 9a 99 99 3d 9a 99 99 3d 9a 99 99 3d
       0.075 0.075 0.075 0.075
000080 9a 99 99 3d 9a 99 99 3d 9a 99 99 3d 9a 99 99 3d
       0.075 0.075 0.075 0.075
000090 9a 99 99 3d 9a 99 99 3d 9a 99 99 3d 9a 99 99 3d
       0.075 0.075 0.075 0.075
0000a0 9a 99 99 3d 9a 99 99 3d 9a 99 99 3d 9a 99 99 3d
       0.075 0.075 0.075 0.075
0000b0 9a 99 99 3d 9a 99 99 3d 9a 99 99 3d 9a 99 99 3d
       0.075 0.075 0.075 0.075
0000c0 9a 99 99 3d 9a 99 99 3d 9a 99 99 3d 9a 99 99 3d
       0.075 0.075 0.075 0.075
0000d0 9a 99 99 3d 9a 99 99 3d 9a 99 99 3d 9a 99 99 3d
       0.075 0.075 0.075 0.075
0000e0 9a 99 99 3d 9a 99 99 3d 9a 99 99 3d 9a 99 99 3d
       0.075 0.075 0.075 0.075
0000f0 9a 99 99 3d 9a 99 99 3d 9a 99 99 3d 9a 99 99 3d
       0.075 0.075 0.075 0.075
000100 9a 99 99 3d 9a 99 99 3d 9a 99 99 3d 9a 99 99 3d
       0.075 0.075 0.075 0.075
000110 9a 99 99 3d 9a 99 99 3d 9a 99 99 3d 9a 99 99 3d
       0.075 0.075 0.075 0.075
000120 9a 99 99 3d 9a 99 99 3d 9a 99 99 3d 9a 99 99 3d
       0.075 0.075 0.075 0.075
000130 9a 99 99 3d 9a 99 99 3d 9a 99 99 3d 9a 99 99 3d
       0.075 0.075 0.075 0.075
000140 9a 99 99 3d 9a 99 99 3d 9a 99 99 3d 9a 99 99 3d
       0.075 0.075 0.075 0.075
000150 9a 99 99 3d 9a 99 99 3d 9a 99 99 3d 9a 99 99 3d
       0.075 0.075 0.075 0.075
000160 9a 99 99 3d 9a 99 99 3d 9a 99 99 3d 9a 99 99 3d
       0.075 0.075 0.075 0.075
000170 9a 99 99 3d 9a 99 99 3d 9a 99 99 3d 9a 99 99 3d
       0.075 0.075 0.075 0.075
000180 9a 99 99 3d 9a 99 99 3d 9a 99 99 3d 9a 99 99 3d
       0.075 0.075 0.075 0.075
000190 9a 99 99 3d 9a 99 99 3d 9a 99 99 3d 9a 99 99 3d
       0.075 0.075 0.075 0.075
0001a0 9a 99 99 3d 9a 99 99 3d 9a 99 99 3d 9a 99 99 3d
       0.075 0.075 0.075 0.075
0001b0 9a 99 99 3d 9a 99 99 3d 9a 99 99 3d 9a 99 99 3d
       0.075 0.075 0.075 0.075
0001c0 9a 99 99 3d 9a 99 99 3d 9a 99 99 3d 9a 99 99 3d
       0.075 0.075 0.075 0.075
0001d0 9a 99 99 3d 9a 99 99 3d 9a 99 99 3d 9a 99 99 3d
       0.075 0.075 0.075 0.075
0001e0 9a 99 99 3d 9a 99 99 3d 9a 99 99 3d 9a 99 99 3d
       0.075 0.075 0.075 0.075
0001f0 9a 99 99 3d 9a 99 99 3d 9a 99 99 3d 9a 99 99 3d
       0.075 0.075 0.075 0.075
000200 9a 99 99 3d 9a 99 99 3d 9a 99 99 3d 9a 99 99 3d
       0.075 0.075 0.075 0.075
000210 9a 99 99 3d 9a 99 99 3d 9a 99 99 3d 9a 99 99 3d
       0.075 0.075 0.075 0.075
000220 9a 99 99 3d 9a 99 99 3d 9a 99 99 3d 9a 99 99 3d
       0.075 0.075 0.075 0.075
000230 9a 99 99 3d 9a 99 99 3d 9a 99 99 3d 9a 99 99 3d
       0.075 0.075 0.075 0.075
000240 9a 99 99 3d 9a 99 99 3d 9a 99 99 3d 9a 99 99 3d
       0.075 0.075 0.075 0.075
000250 9a 99 99 3d 9a 99 99 3d 9a 99 99 3d 9a 99 99 3d
       0.075 0.075 0.075 0.075
000260 9a 99 99 3d 9a 99 99 3d 9a 99 99 3d 9a 99 99 3d
       0.075 0.075 0.075 0.075
000270 9a 99 99 3d 9a 99 99 3d 9a 99 99 3d 9a 99 99 3d
       0.075 0.075 0.075 0.075
000280 9a 99 99 3d 9a 99 99 3d 9a 99 99 3d 9a 99 99 3d
       0.075 0.075 0.075 0.075
000290 9a 99 99 3d 9a 99 99 3d 9a 99 99 3d 9a 99 99 3d
       0.075 0.075 0.075 0.075
0002a0 9a 99 99 3d 9a 99 99 3d 9a 99 99 3d 9a 99 99 3d
       0.075 0.075 0.075 0.075
0002b0 9a 99 99 3d 9a 99 99 3d 9a 99 99 3d 9a 99 99 3d
       0.075 0.075 0.075 0.075
0002c0 9a 99 99 3d 9a 99 99 3d 9a 99 99 3d 9a 99 99 3d
       0.075 0.075 0.075 0.075
0002d0 9a 99 99 3d 9a 99 99 3d 9a 99 99 3d 9a 99 99 3d
       0.075 0.075 0.075 0.075
0002e0 9a 99 99 3d 9a 99 99 3d 9a 99 99 3d 9a 99 99 3d
       0.075 0.075 0.075 0.075
0002f0 9a 99 99 3d 9a 99 99 3d 9a 99 99 3d 9a 99 99 3d
       0.075 0.075 0.075 0.075
000300 9a 99 99 3d 9a 99 99 3d 9a 99 99 3d 9a 99 99 3d
       0.075 0.075 0.075 0.075
000310 9a 99 99 3d 9a 99 99 3d 9a 99 99 3d 9a 99 99 3d
       0.075 0.075 0.075 0.075
000320 9a 99 99 3d 9a 99 99 3d 9a 99 99 3d 9a 99 99 3d
       0.075 0.075 0.075 0.075
000330 9a 99 99 3d 9a 99 99 3d 9a 99 99 3d 9a 99 99 3d
       0.075 0.075 0.075 0.075
000340 9a 99 99 3d 9a 99 99 3d 9a 99 99 3d 9a 99 99 3d
       0.075 0.075 0.075 0.075
000350 9a 99 99 3d 9a 99 99 3d 9a 99 99 3d 9a 99 99 3d
       0.075 0.075 0.075 0.075
000360 9a 99 99 3d 9a 99 99 3d 9a 99 99 3d 9a 99 99 3d
       0.075 0.075 0.075 0.075
000370 9a 99 99 3d 9a 99 99 3d 9a 99 99 3d 9a 99 99 3d
       0.075 0.075 0.075 0.075
000380 9a 99 99 3d 9a 99 99 3d 9a 99 99 3d 9a 99 99 3d
       0.075 0.075 0.075 0.075
000390 9a 99 99 3d 9a 99 99 3d 9a 99 99 3d 9a 99 99 3d
       0.075 0.075 0.075 0.075
0003a0 9a 99 99 3d 9a 99 99 3d 9a 99 99 3d 9a 99 99 3d
       0.075 0.075 0.075 0.075
0003b0 9a 99 99 3d 9a 99 99 3d 9a 99 99 3d 9a 99 99 3d
       0.075 0.075 0.075 0.075
0003c0 9a 99 99 3d 9a 99 99 3d 9a 99 99 3d 9a 99 99 3d
       0.075 0.075 0.075 0.075
0003d0 9a 99 99 3d 9a 99 99 3d 9a 99 99 3d 9a 99 99 3d
       0.075 0.075 0.075 0.075
0003e0 9a 99 99 3d 9a 99 99 3d 9a 99 99 3d 9a 99 99 3d
       0.075 0.075 0.075 0.075
0003f0 9a 99 99 3d 9a 99 99 3d 9a 99 99 3d 9a 99 99 3d
       0.075 0.075 0.075 0.075

final_layer.bias_mu f4 [32]
000000 f8 46 43 3d 3e 79 8a bd 28 ca ec 3d 10 60 55 bc
       0.047675103 -0.06761406 0.11561996 -0.013023391
000010 84 09 c0 3d d4 d0 00 3d 50 6f ac 3c 00 60 45 bd
       0.09376815 0.031449154 0.021049172 -0.048187256
000020 38 14 f0 3d ba ce ac bd 74 2d ca 3d 70 e0 ba 3c
       0.117226064 -0.084378675 0.09871951 0.022812098
000030 c0 a9 2d 3c 72 30 e9 bd f4 3d 97 bd 72 89 bb bd
       0.010599554 -0.11386193 -0.073848635 -0.09157075
000040 d0 18 a7 3d ba 0f fb bd 74 b3 5c 3d c0 57 c8 3d
       0.081590295 -0.12258859 0.053882077 0.09782362
000050 08 38 02 3d 68 a3 61 bd 86 e7 f9 3d b0 35 d3 bd
       0.031791717 -0.055087477 0.12202363 -0.103129745
000060 24 22 ca 3d d2 b2 e6 3d 44 f6 4b bd 78 e8 b3 bd
       0.09869793 0.11264576 -0.049795404 -0.08784574
000070 a0 e8 cf 3b c6 21 9d bd 14 a0 e0 3d 28 0b 5f bd
       0.0063448697 -0.076724574 0.109680325 -0.054454

final_layer.bias_sigma f4 [32]
000000 24 39 d9 3d 24 39 d9 3d 24 39 d9 3d 24 39 d9 3d
       0.10606602 0.10606602 0.10606602 0.10606602
000010 24 39 d9 3d 24 39 d9 3d 24 39 d9 3d 24 39 d9 3d
       0.10606602 0.10606602 0.10606602 0.10606602
000020 24 39 d9 3d 24 39 d9 3d 24 39 d9 3d 24 39 d9 3d
       0.10606602 0.10606602 0.10606602 0.10606602
000030 24 39 d9 3d 24 39 d9 3d 24 39 d9 3d 24 39 d9 3d
       0.10606602 0.10606602 0.10606602 0.10606602
000040 24 39 d9 3d 24 39 d9 3d 24 39 d9 3d 24 39 d9 3d
       0.10606602 0.10606602 0.10606602 0.10606602
000050 24 39 d9 3d 24 39 d9 3d 24 39 d9 3d 24 39 d9 3d
       0.10606602 0.10606602 0.10606602 0.10606602
000060 24 39 d9 3d 24 39 d9 3d 24 39 d9 3d 24 39 d9 3d
       0.10606602 0.10606602 0.10606602 0.10606602
000070 24 39 d9 3d 24 39 d9 3d 24 39 d9 3d 24 39 d9 3d
       0.10606602 0.10606602 0.10606602 0.10606602

final_layer.weight_epsilon f4 [32, 64]
000000 61 5b 89 bf f7 64 4b 3e 75 43 58 3f 31 ce 9f 3f
       -1.0731012 0.19862734 0.8447793 1.24848
000010 cc c2 85 3f 77 65 1b bf 87 42 86 bf 49 9f 92 bf
       1.0450072 -0.607017 -1.0489053 -1.145486
000020 40 af 06 bf b0 16 12 3f f1 84 fd bd 4f ad 8c 3f
       -0.5261116 0.5706587 -0.12378872 1.099039
000030 29 d5 f1 3e 95 c3 77 3f dd 24 62 3f c2 f3 63 3f
       0.4723294 0.9678281 0.883375 0.8904382
000040 e2 26 5b 3f a9 05 70 3f 87 f9 4f be df f4 1f bf
       0.85606205 0.93758637 -0.20310031 -0.6248302
000050 61 65 b8 bf e4 a0 b3 3f c6 92 5e 3f 55 7d 49 3f
       -1.4405938 1.4033475 0.8694271 0.78706867
000060 1c 13 6d 3f 29 f3 b0 be 1c e7 71 3f 6f 39 37 bf
       0.92607284 -0.34560516 0.9449327 -0.7157201
000070 f1 bd c2 3f 56 06 87 3f b9 b1 6b 3f fb ca 47 bf
       1.5214216 1.0548809 0.9206806 -0.780441
000080 5c 0c 8f 3f 4d bc 8f 3f f7 b7 c3 be 8d e5 00 bf
       1.1175647 1.122934 -0.38226292 -0.50350267
000090 ec b0 e4 be 5a 26 b2 3f 0b 23 6b bf 4e ae 09 bf
       -0.4466623 1.3917954 -0.91850346 -0.5378159
0000a0 35 6a ae bf fa 75 42 3f 7d e5 9e bf a2 11 89 bf
       -1.3626162 0.7596127 -1.2413784 -1.0708506
0000b0 fc ee 85 bf 8c c8 09 bf 44 52 de bf 3d b4 85 bf
       -1.0463557 -0.53821635 -1.7368855 -1.0445629
0000c0 9f a9 7b bf 49 59 e5 be eb f9 bb 3f 4e 7c 86 bf
       -0.98305696 -0.44794682 1.4685644 -1.0506685
0000d0 b9 fd 2c bf be 37 0f 3f 9d 12 5e 3f 79 27 13 bf
       -0.6757465 0.5594443 0.8674715 -0.57482105
0000e0 32 65 89 bf bf 1b 8c 3f d6 17 26 bf 6d c7 ad 3f
       -1.0734007 1.0945967 -0.6488012 1.3576485
0000f0 a6 35 93 be 61 1e 86 3f a3 1a 52 bf 4a 96 57 be
       -0.28751868 1.0478021 -0.82071894 -0.21053424
000100 42 23 7d bf 70 6b 3b 3e 2e 47 47 3f 15 41 93 3f
       -0.98881924 0.18302703 0.77842987 1.1504236
000110 b1 82 76 3f 02 31 0f bf 17 6e 77 bf 3e 1b 87 bf
       0.9629317 -0.55934155 -0.9665236 -1.0555189
000120 76 36 f8 be 60 9d 06 3f 96 9b e9 bd ce a0 81 3f
       -0.4847905 0.52583885 -0.11406629 1.0127199
000130 c7 d6 de 3e f1 4d 64 3f ec 61 50 3f 76 0c 52 3f
       0.43523237 0.8918143 0.81399417 0.82050264
000140 87 f0 49 3f af 2b 5d 3f e8 a3 3f be b9 64 13 bf
       0.7888264 0.8639478 -0.18714869 -0.57575566
000150 d8 e9 a9 bf 36 85 a5 3f a0 17 4d 3f 1a aa 39 3f
       -1.3274488 1.2931278 0.80114174 0.7252518
000160 65 74 5a 3f 56 0d a3 be 51 e7 5e 3f 74 d5 28 bf
       0.85333854 -0.31846112 0.8707171 -0.65950704
000170 62 72 b3 3f f4 d6 78 3f c3 2e 59 3f de 19 38 bf
       1.4019282 0.9720299 0.8483698 -0.7191447
000180 2d d0 83 3f 4d 72 84 3f c5 58 b4 be d0 8b ed be
       1.0297905 1.0347382 -0.35223976 -0.4639573
000190 c5 ba d2 be 67 28 a4 3f 4a ab 58 bf 15 bc fd be
       -0.4115812 1.282483 -0.84636366 -0.49557558
0001a0 5a b7 a0 bf 12 30 33 3f a8 6a 92 bf 58 9b 7c bf
       -1.2555954 0.69995224 -1.1438799 -0.98674536
0001b0 20 d4 76 bf 72 ec fd be 2f dc cc bf de 67 76 bf
       -0.9641743 -0.49594456 -1.6004695 -0.9625224
0001c0 99 e5 67 bf e9 55 d3 be 65 36 ad 3f 92 d8 77 bf
       -0.90584713 -0.41276482 1.3532225 -0.96814835
0001d0 7f 67 1f bf 27 f8 03 3f 89 a1 4c 3f bc 98 07 bf
       -0.622673 0.51550525 0.79933983 -0.5296743
0001e0 59 35 7d bf ac 1a 81 3f 4e 0c 19 bf 5c 21 a0 3f
       -0.9890953 1.0086265 -0.597844 1.251018
0001f0 cc a5 87 be 79 2b 77 3f 34 9a 41 bf 9d a7 46 be
       -0.2649368 0.9655071 -0.7562592 -0.19399877
000200 3d 83 32 3f 16 2b 04 be e4 87 0c bf f2 af 4f bf
       0.69731504 -0.12907061 -0.5489485 -0.81127846
000210 d3 d6 2d bf 06 f5 c9 3e d3 7c 2e 3f d4 8d 3e 3f
       -0.6790592 0.3944475 0.68159217 0.7443516
000220 21 0a af 3e 4e dc bd be 79 bd a4 3d d4 d3 36 bf
       0.34187415 -0.37082142 0.080439515 -0.71416974
000230 5f 25 9d be 10 00 21 bf 88 f3 12 bf 54 20 14 bf
       -0.30692574 -0.6289072 -0.5740285 -0.5786183
000240 61 68 0e bf 2f f8 1b bf 08 25 07 3e 36 e2 cf 3e
       -0.5562802 -0.60925573 0.1319772 0.40602273
000250 56 a5 6f 3f 28 73 69 bf 8b a1 10 bf 37 ee 02 bf
       0.9361166 -0.9119134 -0.56496495 -0.51144737
000260 de 0d 1a bf f6 f7 65 3e 09 31 1d bf 84 1f ee 3e
       -0.6017741 0.22457871 -0.61402947 0.4650842
000270 79 17 7d bf 4f 7b 2f bf 3c 28 19 bf f8 d3 01 3f
       -0.9886394 -0.6854753 -0.5982702 0.50714064
000280 c5 e8 39 bf 6d cd 3a bf 69 5c 7e 3e 79 84 a7 3e
       -0.72620803 -0.72969705 0.24839939 0.32718256
000290 40 9b 94 3e 32 87 67 bf 84 cb 18 3f 03 ef b2 3e
       0.29024696 -0.90440667 0.5968554 0.34947976
0002a0 90 ac 62 3f f2 b9 fc be 85 81 4e 3f 65 23 32 3f
       0.8854456 -0.49360615 0.8066638 0.6958526
0002b0 40 10 2e 3f 1e 11 b3 3e a0 77 90 3f e8 c3 2d 3f
       0.67993546 0.34973997 1.1286507 0.67877054
0002c0 9a 88 23 3f a7 08 95 3e 7d 4c 74 bf ea c7 2e 3f
       0.6388031 0.29108164 -0.9542921 0.68273795
0002d0 df d2 e0 3e 26 21 ba be 44 4e 10 bf d2 3e bf 3e
       0.43910882 -0.36353415 -0.56369424 0.37352616
0002e0 ff 8f 32 3f a7 16 36 bf e2 db d7 3e 03 d9 61 bf
       0.6975097 -0.71128315 0.42159945 -0.8822176
0002f0 3f 51 3f 3e d9 4d 2e bf 41 87 08 3f 5d 17 0c 3e
       0.18683337 -0.68087536 0.5333138 0.13680787
000300 b4 f4 98 3f 2a 7e 62 be cc d2 70 bf 26 f4 b1 bf
       1.1949677 -0.2211844 -0.9407165 -1.3902633
000310 92 f3 94 bf 3d 0b 2d 3f cf 81 95 3f f8 45 a3 3f
       -1.1636832 0.67595273 1.168024 1.2755728
000320 e1 fa 15 3f dd ad 22 bf b4 27 0d 3e 27 a7 9c bf
       0.58585936 -0.63546544 0.13784677 -1.2238511
000330 ee a5 06 bf 5c f3 89 bf 74 d3 7b bf eb d6 7d bf
       -0.5259694 -1.0777392 -0.98369527 -0.99156064
000340 32 0a 74 bf dd a3 85 bf e4 97 67 3e 39 1f 32 3f
       -0.95328057 -1.0440632 0.22616535 0.6957889
000350 40 56 cd 3f 28 07 c8 bf 8e d9 77 bf 27 5f 60 bf
       1.6041946 -1.5627184 -0.9681634 -0.8764519
000360 be ff 83 bf 8c 0b c5 3e ed af 86 bf 3d 08 4c 3f
       -1.0312421 0.38485372 -1.0522438 0.7970007
000370 98 db d8 bf db 5b 96 bf fb 3a 83 bf 7a 7b 5e 3f
       -1.6942015 -1.1746782 -1.0252374 0.8690716
000380 25 4b 9f bf 11 0f a0 bf 03 f2 d9 3e ea 88 0f 3f
       -1.2444807 -1.2504598 0.42567453 0.5606829
000390 91 a9 fe 3e a1 61 c6 bf 8a eb 82 3f 0c 51 19 3f
       0.49738744 -1.5498544 1.0228131 0.5988929
0003a0 e6 38 c2 3f 75 8b 58 bf 05 f1 b0 3f 94 a2 98 3f
       1.5173614 -0.84587795 1.3823553 1.1924615
0003b0 c7 24 95 3f 45 6e 19 3f b9 91 f7 3f 5d e3 94 3f
       1.1651849 0.5993388 1.9341346 1.1631886
0003c0 0d 1f 8c 3f 0d 65 ff 3e e0 52 d1 bf 25 c2 95 3f
       1.0946976 0.49881783 -1.6353416 1.1699873
0003d0 06 a3 40 3f 74 7b 1f bf d8 4a 77 bf a0 dd 23 3f
       0.75248754 -0.6229775 -0.9659858 0.6401005
0003e0 a2 ff 98 3f 0f 05 9c bf 98 f4 38 3f a2 83 c1 bf
       1.1953013 -1.2189044 0.7224822 -1.5118296
0003f0 6a ed a3 3e 8e 59 95 bf e8 f6 69 3f f7 11 70 3e
       0.3201707 -1.1667955 0.91392374 0.23444353

final_layer.bias_epsilon f4 [32]
000000 85 6b 8d 3f 13 50 82 3f 08 cb 37 bf f7 7a 9d bf
       1.1048437 1.0180687 -0.71794176 -1.2303151
000010 f3 7e 7d 3e 6f 24 13 3f 10 84 d9 be c5 0c a7 be
       0.24755459 0.5747747 -0.42483568 -0.3262693
000020 c0 97 43 bf 01 b7 8a bf b0 00 86 3f 23 61 88 bf
       -0.7640343 -1.0837098 1.046896 -1.0654644
000030 ec 12 66 bf ab 7f 7f bf 49 97 82 bf 1a 68 50 3f
       -0.8987262 -0.9980418 -1.0202419 0.81408846
000040 70 d8 b0 3e d1 c5 43 3f b4 ea 4f bf cf 4e 41 bf
       0.3454013 0.7647372 -0.81217504 -0.7551088
000050 3b c9 53 3f af 04 99 bf 1e b9 94 3e dc b3 1a 3f
       0.8272893 -1.1954554 0.29047483 0.60430694
000060 47 12 e3 be 16 17 42 3f 4b db b1 bf f7 c1 3b bf
       -0.44349882 0.75816476 -1.3895048 -0.7334284
000070 ae e8 2f bf 8d 2e 6f bf 43 1b 05 bf 88 f7 9f bf
       -0.68714416 -0.93430406 -0.51994723 -1.2497416

out1.weight_mu f4 [51, 32]
000000 8e 4d f1 3e 6a b3 9f 3e 49 b9 02 3f 87 1c 7d 3e
       0.47129482 0.3119157 0.5106397 0.24717914
000010 9c f6 7c 3e 85 51 02 bf e7 ec 01 3f c4 c0 7b 3e
       0.24703449 -0.5090564 0.5075211 0.24585253
000020 c6 54 e7 be 32 ad 74 bc 9b a9 ad 3e a9 ce 73 bd
       -0.45181865 -0.014933871 0.3391846 -0.05952326
000030 d0 96 83 3e 9a 04 b1 be c9 0b 88 3e 41 bd ce 3d
       0.25700998 -0.34573823 0.2657149 0.10094691
000040 94 4b d5 be 57 a0 67 be ec 06 14 3e 4d d8 5b 3e
       -0.41659224 -0.22619759 0.14455765 0.21469231
000050 59 60 8e be 5e 98 e8 3e 0b 47 fc 3c eb 5f ec bd
       -0.27807882 0.45428747 0.030795595 -0.115417324
000060 f5 b6 98 3e 1f 7d 91 3e 0b bf c1 3e dc 9f 35 3f
       0.29827085 0.28415772 0.37841067 0.7094705
000070 6e 39 97 3e 17 38 2c 3d 8d 59 31 3e df f2 a3 be
       0.29536003 0.04204568 0.17319317 -0.32021233
000080 3b 60 cf 3e ee 6b 93 3e 0e ff 00 3f 55 67 84 3e
       0.40503106 0.2879328 0.5038918 0.25860086
000090 36 31 85 3e 28 43 a0 be ee ed ff 3e aa 9b 97 3e
       0.26014107 -0.31301236 0.49986213 0.2961095
0000a0 fc 55 d4 3d 5e fc 64 3e a5 57 b3 3e 3a 24 f1 3d
       0.10367963 0.22361895 0.35027805 0.11774488
0000b0 2f ea 95 3c f6 52 af be 6b b7 44 bc 4b 9e 1c 3f
       0.018300144 -0.34242982 -0.012006621 0.61179036
0000c0 f3 3d 7e 3d 8d d0 2e be b8 90 d3 3e f6 89 03 3f
       0.062070798 -0.17071743 0.4132135 0.51382387
0000d0 37 e6 c0 be 5f f2 e9 3e 9f a4 37 3d 74 25 a6 3c
       -0.3767564 0.45692727 0.04483473 0.02028153
0000e0 a7 fb 23 3f 8f 72 02 3f 99 be f0 3e 29 8f 04 3e
       0.64055866 0.5095605 0.47020414 0.12945236
0000f0 92 be 85 3e cb a6 8a 3e 5f 64 1c 3e d4 35 84 bd
       0.26121956 0.27080378 0.15272664 -0.064555794
000100 41 a6 86 bd 19 8d 59 3e 0d 5a 33 bd 8d 56 73 3c
       -0.06574679 0.2124523 -0.04378705 0.014852178
000110 94 95 e7 bd 3b c5 e7 be f7 9a 3f be 0e d8 97 be
       -0.11307827 -0.45267662 -0.18711458 -0.29657024
000120 13 b1 2e be 1e 7f 46 3e e8 08 95 3d 3c 5c 47 3e
       -0.17059736 0.19384429 0.07277089 0.19468778
000130 05 39 49 3e 61 33 f0 be 92 6c 45 be 93 a0 34 3e
       0.19650657 -0.469142 -0.19279698 0.17639379
000140 2d e9 1f be 10 57 a1 bd 53 55 67 3d ef 0a 4b 3d
       -0.15616293 -0.07877934 0.056477856 0.049570974
000150 2a 26 93 be b3 5b 85 3e a6 5f 20 bf e2 34 93 be
       -0.28740054 0.26046523 -0.6264595 -0.28751284
000160 b0 f7 ee 3c aa 41 bf bc fe 56 42 3e cc 69 37 3e
       0.029170841 -0.02334674 0.18978497 0.17911452
000170 5c de 33 bd 93 ea 5c 3e cb 0f b0 38 9d 23 dc bd
       -0.04391323 0.21573858 8.395276e-05 -0.1074898
000180 f0 c6 a1 bd 9f 09 8f 3d 9c f6 f7 bd 76 ba 2d bd
       -0.078992724 0.06984257 -0.12107584 -0.04241415
000190 76 43 89 bd 0c 6f fc be 1e 80 ea 3d e1 26 93 be
       -0.0670232 -0.49303472 0.11450218 -0.287406
0001a0 6a 87 b1 bd 92 a9 be 3d 06 60 03 3c e3 b5 a0 bc
       -0.08668406 0.09309687 0.008018499 -0.01961798
0001b0 58 18 9e 3e bb 24 3c bf 3c 89 00 be a3 d8 73 3e
       0.30877948 -0.73493546 -0.12552351 0.23813109
0001c0 e6 d0 c2 bd 21 7f a6 be 5c ba 84 3e ed 5e 8f 3e
       -0.095125005 -0.32518867 0.2592343 0.2800211
0001d0 53 c5 82 be da 46 b0 3e b9 79 da be 25 9d be bd
       -0.2554117 0.34429055 -0.42670992 -0.09307317
0001e0 40 ac 23 bd 05 ff ba 3c 86 76 ca 3e 34 f1 cc 3d
       -0.039959192 0.02282668 0.3954355 0.10006943
0001f0 67 e5 1e 3e 51 4e c3 3e 24 1d 39 be a4 ef b4 3b
       0.15517198 0.38145688 -0.18077523 0.0055217315
000200 72 6b 4e be 3b 68 64 3d 7c f6 b9 ba 71 af 1b bb
       -0.20158175 0.055763464 -0.0014187838 -0.0023755694
000210 56 4c cb 3d 95 78 05 bf 6f f8 ce bc 48 06 37 bd
       0.09926669 -0.5213712 -0.025264947 -0.044683725
000220 50 85 38 be 67 9d b5 3d c4 f3 7a 3d af 45 0e 3d
       -0.18019605 0.08867913 0.06126763 0.034734424
000230 f8 db 4f 3e 48 57 36 bf e6 69 f0 bd cd 39 78 3e
       0.20298755 -0.7122693 -0.117389485 0.24240799
000240 bb 37 c5 be cf 86 a7 be 4f c0 a7 3e 7d 5c 85 3e
       -0.3851908 -0.32720038 0.32763907 0.26047125
000250 3d eb 4a be ee a3 82 3e cc f7 0d bf ce 8f 9a be
       -0.19816299 0.25515693 -0.55456233 -0.3018784
000260 9d e1 82 bb 1b 62 58 3d 86 65 15 3c 6e b2 e9 3d
       -0.0039941804 0.052827936 0.009118443 0.11410986
000270 80 a5 9d 3e ef 06 ce 3e f4 ab 41 bd 1f 5e b9 bd
       0.3079033 0.40239665 -0.047283128 -0.09051155
000280 66 64 42 be fb b4 88 3b 38 28 07 3e 6b 8a 89 be
       -0.18983611 0.004171965 0.13198936 -0.26863417
000290 d4 48 4d bd 0b e7 02 bf 12 75 86 3d b9 d8 a1 bd
       -0.050118282 -0.51133794 0.06565298 -0.07902665
0002a0 76 f6 0f 3e 7d 9a 9b 3e 61 7e ac bd f5 0c 2f 3e
       0.14058861 0.30391303 -0.08422542 0.17094786
0002b0 e0 88 8d 3d bf 3d 07 bf 97 48 be bd e0 00 ff bc
       0.069108725 -0.5282859 -0.09291189 -0.031128347
0002c0 bb 0f f6 3d 09 1d a0 be 63 c0 7f 3e 9a b2 4f 3c
       0.12014719 -0.31272152 0.24975733 0.012676859
0002d0 34 f0 9a be 10 d5 96 3e 16 e3 3c bf 54 92 e7 bd
       -0.30261385 0.2945943 -0.73784006 -0.11307207
0002e0 98 0e 5c 3b 96 8f e9 3d cf 89 aa 3e 20 42 66 be
       0.0033578034 0.1140434 0.33308265 -0.22486162
0002f0 15 5b fe 3c 53 59 df 3e 49 0d bc 3d 92 86 df bc
       0.03104929 0.43622836 0.091822214 -0.027285848
000300 47 dc c4 be 3b 1b 5e bd 8b 51 4d 3d 13 5f a0 bd
       -0.38449308 -0.054225188 0.050126594 -0.07830634
000310 11 86 bc bd 64 62 ad be ee e4 d4 bd 6c ea 3c be
       -0.09205259 -0.3386413 -0.103952274 -0.184488
000320 16 c6 63 3e 5c d2 cd 3e f6 08 c5 bd b5 59 3e 3d
       0.22243533 0.40199554 -0.0962085 0.04647227
000330 58 48 14 3e ba 77 0b bf 37 0d 0d 3c c1 4f 2b 3e
       0.14480722 -0.54479563 0.008609108 0.16729642
000340 8d 78 44 3e 99 61 ee be 74 73 34 3e 21 12 81 3e
       0.19186611 -0.46558836 0.17622167 0.25209144
000350 23 2b 2c be 10 84 86 3e f4 eb 34 bf a5 57 75 3c
       -0.1681333 0.2627263 -0.70672536 0.014974509
000360 97 02 5d be 61 cf b1 3d 58 2e cf 3d 2b b5 40 be
       -0.21583019 0.086821325 0.10116261 -0.1881911
000370 6c e7 fb 3d e4 89 52 3e 86 e7 e2 bd da 31 05 3e
       0.122999996 0.20560414 -0.11079316 0.13007298
000380 73 49 ae be 5a d6 f9 bc be 30 29 be fa d0 2d be
       -0.34040412 -0.030497719 -0.165225 -0.1697425
000390 86 0f f7 bd 0b 4e dc be 97 de 57 be 82 4e d5 3c
       -0.12063508 -0.43028292 -0.21081005 0.026038412
0003a0 b7 9f 03 3e c3 1d e3 3e 5c 20 2d be dd 2f a5 3d
       0.12853895 0.44358644 -0.16906875 0.0806577
0003b0 25 f9 0a 3e 7d 37 37 bf 7b 1d b9 bd eb b7 68 3e
       0.13571604 -0.71569043 -0.09038826 0.22726409
0003c0 94 83 b6 bd 81 8e 2c be 7d 50 b8 3e e6 d4 6f 3e
       -0.08911815 -0.16851236 0.35998908 0.23421058
0003d0 e7 60 86 be 05 ad 78 3e 67 d6 39 bf 4e 53 95 be
       -0.26245806 0.24284752 -0.72592777 -0.2916512
0003e0 88 b4 82 bc e2 ed ad bd 4a a5 6a 3e ce 10 03 be
       -0.015955225 -0.08492638 0.22914615 -0.12799379
0003f0 10 d1 89 3e 75 40 67 3e 2a 8c f8 bd fd 1e 3f 3e
       0.26917315 0.22583182 -0.12136109 0.18664165
