turtlebot3_machine_learning/turtlebot3_dqn/save_model/stage_1_200.pth (torch_old, 164553 bytes, 22 tensors)

feature_layer.0.weight f4 [64, 26]
0	0x3d195887	0.037437942
1	0xbe0e9077	-0.13922296
2	0xbf241c44	-0.6410563
3	0xbe66dbaa	-0.22544733
4	0x3ce50c6c	0.027960025
5	0x3e59abbd	0.21256919
6	0x3d97446a	0.07386096
7	0x3de6741f	0.11252617
8	0x3e3efa4d	0.1865017
9	0xbcf44f27	-0.029822899
10	0x3c803da4	0.015654393
11	0xbdedd5f8	-0.11613077
12	0xbe8b3899	-0.27191618
13	0xbdc2adba	-0.09505792
14	0xbdb14b57	-0.08656948
15	0x3c51b48d	0.012799394
16	0x3dd9ba86	0.1063128
17	0xbdedb0a8	-0.1160596
18	0x3e67ba5c	0.22629684
19	0x3dbb3927	0.0914176
20	0x3e919f05	0.28441635
21	0x3e6fa129	0.23401321
22	0x3e870373	0.2636982
23	0xbdb1a7cd	-0.086745836
24	0xbecb34d3	-0.3968874
25	0x3d718ba5	0.058971066
26	0xbe4d6c79	-0.2006091
27	0xbe42ae9d	-0.19011922
28	0xbe7c2fb7	-0.24627577
29	0x3d0d8500	0.034550667
30	0x3d2751db	0.040849548
31	0xbd4a2b31	-0.049357597
32	0xbde219de	-0.1104009
33	0x3e28a4cd	0.16469117
34	0x3e141d3c	0.14464277
35	0x3db5ca8a	0.08876522
36	0x3dfc4406	0.12317662
37	0x3ea8fa8f	0.3300366
38	0x3dacba75	0.08434001
39	0x3d88efab	0.06686338
40	0x3e3d5230	0.18488383
41	0x3e0c8b4a	0.1372501
42	0x3def4396	0.11682813
43	0xbd0cd4c6	-0.034382604
44	0xbc87676b	-0.016528806
45	0xbe8978e6	-0.2685005
46	0xbe848931	-0.2588592
47	0xbec54452	-0.38528687
48	0xbea6c290	-0.32570314
49	0xbeb06944	-0.3445531
50	0x3ee49a3e	0.44648927
51	0x3e69dbb0	0.2283771
52	0xbe82b24e	-0.2552666
53	0xbec23e6f	-0.37938258
54	0xbe120279	-0.14258756
55	0x3e75982d	0.23983832
56	0x3e794091	0.24341036
57	0x3e4589f5	0.19290908
58	0x3e4ee062	0.20202783
59	0x3dcca722	0.099928156
60	0xbd55f658	-0.052236885
61	0xbd3c404e	-0.045959763
62	0x3c98b21a	0.018639613
63	0x3cdf1c04	0.027235039
64	0xbe2fded2	-0.17174843
65	0xbd8e0d4b	-0.06936129
66	0x3d09c562	0.033635505
67	0xbce348e3	-0.027744716
68	0x3d3d9488	0.04628423
69	0x3e99672d	0.2996153
70	0x3df121bb	0.11774012
71	0x3d9c7996	0.07640378
72	0x3d6072a7	0.05479684
73	0x3dab90be	0.08377217
74	0xbf107d05	-0.56440765
75	0xbec492eb	-0.3839334
76	0x3f191e2c	0.59811664
77	0x3daf1536	0.085489675
78	0xbc05afbe	-0.008159576
79	0xbd8a80cb	-0.067628466
80	0xbd87dfea	-0.06634505
81	0xbe9ca184	-0.30591977
82	0xbe504730	-0.20339656
83	0xbe05e985	-0.13077362
84	0xbdb05a56	-0.0861098
85	0xbd88393c	-0.066515416
86	0xbd09fc30	-0.03368777
87	0x3e6e5b21	0.2327695
88	0x3e0c47e5	0.136993
89	0xbdf34d78	-0.1188001
90	0x3d2cdc00	0.042201996
91	0xbd64b458	-0.05583605
92	0x3e2e2fa6	0.17010364
93	0x3e885794	0.26629317
94	0x3e31c3c4	0.17359835
95	0x3cad9341	0.02118838
96	0xbd13aa52	-0.036051102
97	0xbdcef676	-0.101056024
98	0x3c795d17	0.015219948
99	0xbe86c2a7	-0.26320383
100	0xbe953d88	-0.29148507
101	0xbe8c263f	-0.2737293
102	0x3f0b0c26	0.5431541
103	0x3ea5a4a0	0.3235216
104	0xbe0513cb	-0.12995832
105	0xbf23ae9b	-0.639383
106	0xbdb1a0fa	-0.08673282
107	0xbeac9814	-0.33709776
108	0x3efc69ba	0.49299413
109	0x3e4b7557	0.1986898
110	0x3e2f2f1b	0.17107813
111	0x3d35e324	0.04440607
112	0x3d726e70	0.059187353
113	0x3cc90afc	0.02454137
114	0xbd0a3e18	-0.033750623
115	0xbe415958	-0.18881738
116	0x3dab4b31	0.08363951
117	0xbc8f7eb8	-0.017516479
118	0xbdd99c68	-0.10625535
119	0xbe13d81f	-0.14437912
120	0xbdc2fd2c	-0.09520945
121	0x3d78b337	0.060717788
122	0xbe0dc167	-0.13843308
123	0xbd215209	-0.039384875
124	0x3e2e88fc	0.17044443
125	0x3eb0c434	0.3452469
126	0xbd6689f4	-0.056283906
127	0xbeadcfb3	-0.33947524
128	0xbd663139	-0.056199286
129	0xbd59c0ee	-0.053162508
130	0x3df280ae	0.1184095
131	0xb8b36cba	-8.555637e-05
132	0xbdb42610	-0.08796322
133	0xbd7898b7	-0.060692515
134	0x3cb6e564	0.022326179
135	0xbdf49a31	-0.11943472
136	0xbddeb496	-0.10874288
137	0xbe128e01	-0.14311983
138	0xbe246a62	-0.16056207
139	0xbdf3ccce	-0.11904298
140	0xbde0892b	-0.10963663
141	0xbe1a4a60	-0.15067434
142	0x3d6fdbb9	0.058559153
143	0x3d95c649	0.073132105
144	0xbbc29144	-0.005937727
145	0xbdda9550	-0.1067301
146	0xbd5ecd87	-0.054395225
147	0x3e74c9e7	0.23905145
148	0x3e69cf60	0.22833014
149	0x3e185d2d	0.14879294
150	0x3da7466e	0.0816773
151	0x3da0a183	0.07843306
152	0x3e288894	0.1645835
153	0xbe2636ac	-0.16231793
154	0xbf51c429	-0.8193994
155	0x3ea5e35e	0.3240003
156	0xbe07ad8c	-0.13249797
157	0xbf0b7545	-0.54475814
158	0x3d98e15a	0.074648574
159	0x3e36a9a2	0.17838147
160	0x3daaa46b	0.083321415
161	0x3e824fbb	0.25451455
162	0x3e52a561	0.205709
163	0x3cae348f	0.021265296
164	0x3e17e680	0.14834023
165	0xbd3cda33	-0.04610653
166	0xbe0b2539	-0.13588418
167	0x3cbf665b	0.023364237
168	0xbdf0086f	-0.117203586
169	0xbe819f08	-0.25316644
170	0xbed0c350	-0.40774012
171	0xbe5c5dde	-0.21520182
172	0x3d1c483a	0.038154818
173	0x3bfdd9ee	0.0077469265
174	0x3e87c21d	0.26515284
175	0x3e8a15f1	0.26969865
176	0xbd19cfb5	-0.0375516
177	0x3e36fcdc	0.17869896
178	0x3e4f1c4f	0.20225643
179	0xbca814d0	-0.020517737
180	0x3ee36ab1	0.44417337
181	0xbf61c68f	-0.881936
182	0xbe887e79	-0.2665899
183	0xbe88453e	-0.26615328
184	0x3d99aae6	0.075032994
185	0x3e034ce4	0.128223
186	0xbe857e6b	-0.26073012
187	0xbddae68d	-0.10688505
188	0xbd59d812	-0.053184576
189	0xbd0abaa9	-0.03386942
190	0xbe80870d	-0.25103036
191	0xbe022d6f	-0.12712644
192	0xbd380e49	-0.0449355
193	0x3c0cafff	0.008586883
194	0x3bf04c04	0.0073332805
195	0xbd3e7ebb	-0.04650758
196	0x3d3175dc	0.04332529
197	0x3d8543d2	0.06507076
198	0x3cd02171	0.025406571
199	0xbe5316a8	-0.20614111
200	0xbe4ccf60	-0.20000982
201	0xbe40920d	-0.18805714
202	0xbe419d2f	-0.18907617
203	0xbe93fb36	-0.28902596
204	0xbec01f8c	-0.37524068
205	0xbd9ad4df	-0.07560133
206	0x3ec7dc3b	0.3903521
207	0x3ef38f5d	0.47570315
208	0xbd8a0aba	-0.06740327
209	0xbe6ac94e	-0.22928354
210	0xbe258a93	-0.16166143
211	0xbeb6c06f	-0.3569369
212	0xbefcaa9e	-0.4934892
213	0xbe20d6f0	-0.15706992
214	0xbe4147cd	-0.18875046
215	0xbed22d24	-0.41050065
216	0xbdc73d78	-0.09728521
217	0x3e273a53	0.16330843
218	0x3d23a6be	0.03995394
219	0xbc90084a	-0.017582078
220	0x3d960c8a	0.073266104
221	0x3c9514d8	0.018198416
222	0xbd8531ba	-0.06503625
223	0xbc9e5b8d	-0.019330764
224	0xbe164998	-0.14676511
225	0x3cb23aeb	0.02175661
226	0x3dd0441a	0.10169239
227	0x3e8a79af	0.27045962
228	0x3dc87897	0.09788626
229	0xbdedd182	-0.11612226
230	0xbe25cd1b	-0.16191523
231	0xbe556c34	-0.20842057
232	0x3f09669e	0.53672206
233	0xbd7693e4	-0.060199633
234	0x3db0eaa9	0.08638508
235	0x3e1cc896	0.15310892
236	0x3dd7e327	0.10541373
237	0x3dfa4811	0.12220777
238	0x3db692d5	0.08914725
239	0x3d9559fa	0.07292552
240	0xbe0bcce3	-0.13652377
241	0xbe0d5b86	-0.13804445
242	0xbe4f507d	-0.20245548
243	0xbd9e80ab	-0.07739385
244	0xbdb89655	-0.090130486
245	0xbe4a4188	-0.1975156
246	0xbe16034c	-0.14649695
247	0xbe24e3a8	-0.16102469
248	0xbe05c3a6	-0.13062915
249	0xbe857a17	-0.2606971
250	0xbd87f06a	-0.06637652
251	0xbe88fdf6	-0.26756257
252	0xbe2402e5	-0.16016729
253	0xbe2504a3	-0.1611505
254	0x3e8b34f5	0.2718884
255	0x3e12d20f	0.14337943

feature_layer.0.bias f4 [64]
0	0xbe1d8b9b	-0.15385287
1	0xbd1b4cbf	-0.037914988
2	0xbd660eac	-0.056166336
3	0x3e378ec4	0.17925555
4	0x3d87707b	0.06613251
5	0xbebef69a	-0.37297517
6	0x3d74328a	0.05961851
7	0xbd269c05	-0.040676136
8	0x3e022cb5	0.12712367
9	0x3e4b0c68	0.19828951
10	0xbc369553	-0.011144
11	0xbe1835b6	-0.14864239
12	0x3def47ad	0.11683593
13	0xbe9d0fdb	-0.3067616
14	0x3d19d8b6	0.037560187
15	0x3e4b2c1f	0.1984105
16	0xbe0f7415	-0.14009126
17	0x3da722d3	0.08160939
18	0x3e439399	0.19099273
19	0x3cadbb53	0.021207487
20	0xbe67c849	-0.22634996
21	0xbe46276c	-0.19350976
22	0x3d65fc3b	0.05614875
23	0x3cdefeb6	0.027221065
24	0xbd478e5f	-0.04871976
25	0xbe169fb3	-0.14709358
26	0xbd252391	-0.040317122
27	0x3cde163c	0.027110212
28	0xbd9c1732	-0.07621612
29	0x3e3e8968	0.18607104
30	0xbe3ffbd3	-0.18748407
31	0x3d541138	0.051774234
32	0x3e7b8691	0.24563052
33	0xbd060915	-0.032723505
34	0x3dde29ef	0.10847842
35	0xbdf5ad4e	-0.11995946
36	0x3e633842	0.2218943
37	0x3e8ab3a5	0.27090183
38	0xbd7f413c	-0.06231807
39	0x3d58dc9c	0.052944764
40	0x3e1b6584	0.15175444
41	0x3e9710a6	0.2950489
42	0xbd48054e	-0.048833184
43	0x3e363627	0.17794095
44	0xbe17da6c	-0.14829415
45	0x3d74e726	0.059790753
46	0x3e6b4132	0.22974089
47	0x3ecfc1ef	0.40577647
48	0x3e93d055	0.28869882
49	0xbe07cf91	-0.13262774
50	0x3e4609b2	0.19339636
51	0xbd9f67af	-0.07783448
52	0xbdc4fe62	-0.09618832
53	0xbe4bba32	-0.19895247
54	0x3c9f292f	0.019428818
55	0xbe38bb01	-0.18040086
56	0xbde2ee4a	-0.11080606
57	0xbbe74e77	-0.0070589143
58	0x3e695f68	0.22790301
59	0x3e015491	0.12629916
60	0xbdd81d68	-0.10552484
61	0xbccf5e4d	-0.02531352
62	0xbd5ff08e	-0.05467277
63	0xbd245812	-0.040123053

feature_layer.3.weight f4 [32, 64]
0	0xbd8a4e4f	-0.067532174
1	0x3ebf8b77	0.3741109
2	0x3d06c932	0.03290672
3	0x3f38a752	0.7213031
4	0xbdf73e1a	-0.12072392
5	0x3b2337c0	0.0024905056
6	0x3e124114	0.14282638
7	0x3ef107fe	0.4707641
8	0xbd26ad92	-0.040692873
9	0x3e960f7a	0.29308683
10	0x3ef59ca2	0.47971064
11	0x3eeebb06	0.46627063
12	0xbdb98f7c	-0.090605706
13	0x3dba4a26	0.09096174
14	0xbd907909	-0.070543356
15	0x3e3a61a3	0.18201308
16	0x3ed6a250	0.4192071
17	0x3e942d39	0.28940752
18	0xbe42cf96	-0.190245
19	0xbecc41d5	-0.39893976
20	0xbd7cf952	-0.061761208
21	0xbdc9f857	-0.0986182
22	0xbf05d1b9	-0.52273136
23	0x3cf5b931	0.029995533
24	0x3d8f61bf	0.070010655
25	0x3c8eef8c	0.01744821
26	0x3d386d24	0.04502596
27	0xbdb393de	-0.08768438
28	0xbeac4880	-0.33649063
29	0x3df5e5dc	0.12006733
30	0xbea88423	-0.32913312
31	0x3e7c7dc6	0.24657354
32	0xbda0f7f7	-0.078597955
33	0xbeefb84a	-0.4682029
34	0xbec6fba2	-0.38863856
35	0x3ef821b3	0.4846321
36	0xbe2eb120	-0.17059755
37	0x3e1fbbf0	0.15599036
38	0xbc44ee5a	-0.012019718
39	0x3e561e43	0.20909981
40	0xbd38212e	-0.044953518
41	0x3df33a2e	0.11876331
42	0x3ed7eeb1	0.42174295
43	0xbeb62b41	-0.35579875
44	0x3e560fa0	0.20904398
45	0x3f2e12c8	0.6799741
46	0xbe233602	-0.15938571
47	0x3e1d6180	0.15369225
48	0x3e5a0046	0.21289167
49	0xbe764ea5	-0.24053438
50	0x3e271bc2	0.16319183
51	0xbcb4edff	-0.022086142
52	0x3ecc453b	0.3989657
53	0x3c43e0b9	0.0119554335
54	0xbf3c669d	-0.73594075
55	0x3de64293	0.11243167
56	0x3f0ac3c4	0.54204965
57	0x3ef90320	0.48635197
58	0x3daf121a	0.085483745
59	0x3e068fda	0.13140813
60	0x3db77645	0.08958105
61	0xbe4cb273	-0.19989948
62	0xbcd8f78e	-0.02648523
63	0xbe94b332	-0.29042965
64	0xbbda2a69	-0.0066578877
65	0xbe229be5	-0.15879782
66	0x3e8be597	0.273236
67	0x3e19f005	0.15032966
68	0x3e198014	0.14990264
69	0x3ddfeccb	0.109338365
70	0xbe535915	-0.20639451
71	0xbdd07768	-0.10179025
72	0xbdb3150f	-0.08744251
73	0x3e980127	0.2968838
74	0xbe384385	-0.17994507
75	0x3e1c523c	0.15265745
76	0xbe671c0d	-0.22569294
77	0xbd5aab74	-0.053386167
78	0xbc9914e9	-0.018686729
79	0xbc8860fa	-0.016647805
80	0xbe64ab00	-0.22330856
81	0xbc6d2c6e	-0.014475925
82	0x3d1f8c39	0.038952086
83	0x3e32c6b0	0.17458606
84	0xbf0a435a	-0.5400902
85	0xbd8d6ca3	-0.069054864
86	0x3e668873	0.22512989
87	0xbd9e8e21	-0.07741953
88	0xbe322d01	-0.1739998
89	0x3d5b7185	0.053575058
90	0x3cafcc92	0.021459851
91	0x3d7fb5d6	0.06242927
92	0xbe27c00b	-0.16381852
93	0x3b1f1ccd	0.0024278641
94	0xbd16eb3c	-0.03684543
95	0x3eaf5d01	0.34250644
96	0x3c6691ff	0.014072894
97	0xbdc41a03	-0.09575274
98	0xbd5a8306	-0.05334761
99	0x3eb9a45f	0.36258218
100	0xbd60eac9	-0.05491141
101	0x3e6cdb0d	0.23130436
102	0x3d56bf1d	0.052428354
103	0xbe1fe14c	-0.15613288
104	0xbe221656	-0.15828833
105	0xbe91f5ed	-0.2850794
106	0x3ee908df	0.4551458
107	0x3ddceb26	0.107870385
108	0x3e754e71	0.23955704
109	0xbdec74fa	-0.11545749
110	0xbd48d494	-0.049030855
111	0x3ca1cd93	0.019751346
112	0x3dc23b42	0.09483959
113	0x3e07f3a0	0.1327653
114	0x3eb4935d	0.3526868
115	0xbe344630	-0.176049
116	0xbc9ece19	-0.019385384
117	0x3d833bc0	0.06407881
118	0xbed112d7	-0.40834686
119	0xbd077dcb	-0.03307895
120	0x3e8388fd	0.2569045
121	0x3dcb0569	0.09913141
122	0xbe1e60a1	-0.15466549
123	0x3e69b204	0.22821814
124	0xbd6ffb76	-0.05858942
125	0x3ec6fa89	0.38863018
126	0xbf174e6f	-0.59104055
127	0x3e3d8e57	0.1851133
128	0xbe796043	-0.24353127
129	0x3e2ba5a5	0.16762407
130	0xbd8a1fa9	-0.0674432
131	0x3e789675	0.24276145
132	0x3eaedad0	0.34151316
133	0x3c7ec8c5	0.015550797
134	0xbda33637	-0.07969325
135	0x3ef4f32f	0.47841784
136	0x3e37dd17	0.17955433
137	0x3eb562b8	0.3542688
138	0xbbf0df84	-0.007350864
139	0x3daf35d7	0.08555191
140	0xbe3c03fd	-0.18360896
141	0xbd3142f6	-0.04327675
142	0x3d7bd36a	0.061480917
143	0x3d76b30d	0.06022935
144	0x3e565d54	0.2093404
145	0xbe94b445	-0.29043785
146	0xbe01f714	-0.12691909
147	0xbb151d1d	-0.0022752949
148	0xbe47b038	-0.19500816
149	0x3cf2e931	0.02965221
150	0xbe64f408	-0.22358716
151	0x3d925119	0.071443744
152	0xbe4f3882	-0.202364
153	0x3d748e59	0.059706066
154	0xbd230c12	-0.039806433
155	0x3d8cff49	0.06884629
156	0xbe4efc73	-0.20213489
157	0x3c277d9a	0.010222817
158	0xbc83f63c	-0.016108625
159	0x3dd3c922	0.103410974
160	0x3e17c80a	0.14822403
161	0x3e9fbbe8	0.3119805
162	0xbe990c85	-0.29892364
163	0x3ef92979	0.48664454
164	0xbde78b2d	-0.113058425
165	0xbdd883bc	-0.10572001
166	0xbde111af	-0.10989701
167	0x3ed13768	0.40862584
168	0x3e51ef23	0.2050138
169	0xbea19d55	-0.31565347
170	0x3ea5ea84	0.32405484
171	0x3d43e6a6	0.047827385
172	0x3e8cb914	0.27484953
173	0x3ec08917	0.3760459
174	0xbd585e2a	-0.052824177
175	0x3e05b7af	0.13058351
176	0xbd164ba5	-0.036693234
177	0x3d69c696	0.057074152
178	0x3b683296	0.0035430542
179	0x3e3140b3	0.17309837
180	0x3e29755e	0.16548678
181	0xbb95c758	-0.004570883
182	0xbf274e6a	-0.65354025
183	0xbc183b11	-0.009291426
184	0x3f0c1647	0.5472149
185	0x3e19aadb	0.15006582
186	0x3d56f0a5	0.05247559
187	0x3e8d6a2e	0.2762007
188	0xbd97145b	-0.073769294
189	0x3ea9931e	0.33120054
190	0xbcb64485	-0.02224947
191	0xbe08feac	-0.133784
192	0x3e820a3c	0.25398433
193	0xbe4ca7d5	-0.19985898
194	0xbc843f6e	-0.016143527
195	0x3ee3e1cf	0.44508216
196	0xbe80bd21	-0.25144294
197	0x3cf4db8a	0.02988984
198	0x3e889144	0.2667333
199	0x3cf644ea	0.030062158
200	0x3e474ab1	0.19462086
201	0xbe23a5fc	-0.15981287
202	0x3d92b395	0.07163159
203	0x3c6ac007	0.014328009
204	0x3e6c21f0	0.23059821
205	0xbe830d74	-0.255962
206	0x3d8281f4	0.06372443
207	0xbdf51f31	-0.1196884
208	0xbd9e0ca2	-0.07717253
209	0xbd60c3a7	-0.05487409
210	0xbb93cf08	-0.004510764
211	0xbe0151f2	-0.12628916
212	0xbe8f13b1	-0.2794471
213	0xbc3a58fc	-0.011373755
214	0xbec797e7	-0.3898308
215	0xbeb183b8	-0.34670806
216	0x3e197c46	0.14988813
217	0x3cc07489	0.023493068
218	0xbebefeb7	-0.37303707
219	0x3d5bbe3d	0.053648222
220	0xbe91d00c	-0.2847904
221	0xbe693c08	-0.22776806
222	0xbe4bef63	-0.19915538
223	0x3d927f29	0.0715316
224	0xbd945c00	-0.0724411
225	0xbc921448	-0.017831936
226	0xbd3ed1c1	-0.046586756
227	0x3db14742	0.086561695
228	0x3e289131	0.16461636
229	0xbe18ec5b	-0.14933912
230	0xbd5d2ca7	-0.053997662
231	0xbeeffa69	-0.46870735
232	0x3d7f28e5	0.06229486
233	0x3e5385cc	0.20656508
234	0x3d269789	0.04067186
235	0x3dadcb67	0.084860615
236	0x3f0207e7	0.5079331
237	0x3ea26f54	0.31725562
238	0xbdbfe185	-0.09369186
239	0xbdfc1682	-0.123089805
240	0xbe87991e	-0.26484007
241	0xbc9c9381	-0.019113304
242	0x3eb22ed4	0.34801352
243	0xbe84c594	-0.2593199
244	0x3d9a6747	0.0753923
245	0x3d89dc83	0.067315124
246	0xbe8d7c62	-0.2763396
247	0xbc1b88f3	-0.0094931
248	0x3ee39ee8	0.44457173
249	0x3d874ccf	0.06606447
250	0xbe7eeefe	-0.24895856
251	0x3e57cf43	0.21075158
252	0xbeebfcd8	-0.46091342
253	0x3ea44569	0.32084206
254	0xbf0cbcb7	-0.54975456
255	0xbd6cb9dc	-0.057794437

feature_layer.3.bias f4 [32]
0	0x3cb234dc	0.021753721
1	0xbdfdd769	-0.12394602
2	0xbe14832b	-0.14503162
3	0x3c71b675	0.014752974
4	0xbdc03407	-0.093849234
5	0x3d592854	0.053016976
6	0xbec0aa76	-0.3763005
7	0x3dda8aed	0.10671029
8	0x3de5652f	0.1120094
9	0xbdc97e6d	-0.09838567
10	0xbdfa69e4	-0.12227228
11	0xbdebe806	-0.11518864
12	0xbd95b787	-0.07310396
13	0x3dbc5239	0.0919537
14	0x3e132360	0.14368963
15	0xbda03eb5	-0.078244604
16	0xbc9aa39a	-0.01887684
17	0x3e8deffe	0.27722162
18	0x3e2df5bb	0.1698827
19	0xbda4b4a7	-0.08042269
20	0xbc8efaf7	-0.017453654
21	0xbd034572	-0.03204865
22	0x3ef7fefe	0.4843673
23	0xbd8b1599	-0.06791229
24	0xbd084267	-0.03326645
25	0x3dc01596	0.09379117
26	0x3dfaedd7	0.122523956
27	0xbedab2a1	-0.42714408
28	0xbe8990a9	-0.2686818
29	0x3dc5b367	0.09653359
30	0x3b6a9e55	0.003579994
31	0x3e9128c0	0.28351402

final_layer.weight_mu f4 [32, 64]
0	0xbd76de90	-0.060270846
1	0x3d6139c4	0.05498673
2	0xbda39f90	-0.079894185
3	0x3da43e90	0.08019745
4	0xbd2a27b4	-0.04154177
5	0xbdbae078	-0.09124845
6	0xbcf42e48	-0.029807225
7	0x3b4ddf00	0.0031413436
8	0x3c6a36f0	0.014295325
9	0xbdb26566	-0.087107465
10	0xbdbdbeac	-0.092648834
11	0x3d82ae70	0.063809276
12	0xbdee7f06	-0.116453215
13	0xbda0234a	-0.07819231
14	0x3de82624	0.113354
15	0xbdad371c	-0.08457777
16	0xbd298000	-0.041381836
17	0x3d2a6754	0.041602448
18	0x3d5ff57c	0.05467747
19	0xbcfb06b0	-0.030642837
20	0xbc9b1a90	-0.018933564
21	0x3dc40cd0	0.09572756
22	0xbdd687cc	-0.1047512
23	0x3cf13d90	0.0294483
24	0xbb986100	-0.004650235
25	0xbd250168	-0.040284544
26	0xbdb4da38	-0.088306844
27	0x3c02aa90	0.007975236
28	0xbdc03b02	-0.09386255
29	0xbd09564c	-0.033529565
30	0x3dc2a562	0.095042005
31	0x3d8e6e3a	0.06954618
32	0x3ac54e80	0.0015053302
33	0xbdb89aa8	-0.09013873
34	0x3a996100	0.0011701882
35	0x3d812de4	0.06307581
36	0x3deb9366	0.115027234
37	0x3bc9c860	0.0061579198
38	0x3d9a595e	0.07536577
39	0xbdd0dc12	-0.10198225
40	0xbd8a410a	-0.067506865
41	0x3d4a339c	0.049365625
42	0xbdd8332e	-0.10556637
43	0x3d811492	0.063027516
44	0x3cd44b18	0.025914714
45	0xbd83f76c	-0.06443676
46	0xbc1071a0	-0.008816153
47	0xbd248fa8	-0.040176064
48	0x3da4203c	0.08013961
49	0x3dc0e458	0.09418553
50	0x3d422928	0.04740253
51	0x3d65dbc8	0.056117803
52	0xbd80fdb4	-0.0629839
53	0x3dbfa474	0.09357539
54	0x3d7420b8	0.059601516
55	0x3deac196	0.11462705
56	0x3d4bb708	0.0497351
57	0xbddcb31c	-0.1077635
58	0x3dd7efa6	0.10543756
59	0x3d9ae612	0.07563414
60	0xbd4319c8	-0.04763201
61	0x3c779a00	0.0151124
62	0x3d5ce74c	0.05393152
63	0xbcecccb0	-0.028906196
64	0xbdad1d78	-0.08452886
65	0x3d1a9234	0.037737086
66	0xbd0637c0	-0.03276801
67	0x3b442d40	0.0029934198
68	0xbd92756a	-0.07151301
69	0xbc034680	-0.008012414
70	0x3df555f0	0.11979282
71	0xbddf4ff8	-0.10903925
72	0x3d2f5cb8	0.042813033
73	0x3d3275ec	0.04356949
74	0x3d3ddde0	0.046354175
75	0xbd2a16c4	-0.041525617
76	0x3cf5c528	0.030001238
77	0xbda5024c	-0.08057079
78	0xbd03ac7c	-0.032146916
79	0xbdf04cf8	-0.117334306
80	0x3de88bc6	0.11354785
81	0xbcdfd990	-0.027325422
82	0xbcffd7f0	-0.031230897
83	0x3d8e6d9a	0.069544986
84	0xbd28b038	-0.04118368
85	0xbcec3170	-0.028832167
86	0x3ddf1628	0.10892898
87	0x3ddcc532	0.107797995
88	0xb94c2000	-0.00019466877
89	0xbbaf3460	-0.0053468198
90	0xbd3c85c8	-0.04602602
91	0xbd2a1a50	-0.041529
92	0x3df49f70	0.11944473
93	0xbda8a018	-0.082336605
94	0x3d33776c	0.04381506
95	0xbdd05838	-0.101730764
96	0x3ddaa056	0.10675113
97	0xbcc37dc8	-0.023863688
98	0xbdc13d0a	-0.094354704
99	0xbbbbae20	-0.0057275444
100	0x3c1634b0	0.009167835
101	0x3d72c114	0.059266165
102	0x3d19ccf8	0.03754899
103	0xbdede9b6	-0.116168424
104	0x3d60ce8c	0.05488448
105	0xbdd05e10	-0.10174191
106	0xbde6fb84	-0.112784415
107	0xbdde0dd8	-0.10842484
108	0xbd828af2	-0.06374158
109	0xbcbb6cb0	-0.022878975
110	0x3bf22fa0	0.0073909312
111	0x3cca82c8	0.024720564
112	0xbd097c9c	-0.033566102
113	0xbd9f5400	-0.077796936
114	0x3d72cc48	0.05927685
115	0xbc7024d0	-0.014657214
116	0x3ca87340	0.020562768
117	0xbdfa2ff2	-0.12216176
118	0x3d297ec0	0.041380644
119	0xbd865524	-0.06559208
120	0xbdd9a1d2	-0.10626568
121	0x3cb8f5d0	0.02257815
122	0xbc4dde20	-0.012565166
123	0xbb6e7340	-0.0036384612
124	0x3da638c2	0.081162944
125	0x3d6a451c	0.057194814
126	0xbcb17f38	-0.021667108
127	0x3dfe1874	0.12407008
128	0xbc114890	-0.008867398
129	0x3da8ae34	0.082363516
130	0xbd9c1e2e	-0.07622944
131	0xbbf9afc0	-0.007619828
132	0xbde02710	-0.109449506
133	0xbdce8e66	-0.10085754
134	0x3ca1a200	0.019730568
135	0xbdc72ce6	-0.097253606
136	0x3cd23e00	0.02566433
137	0x3d3deb74	0.046367124
138	0xbd45d23c	-0.0482962
139	0x3d512784	0.051063076
140	0x3dba5100	0.09097481
141	0x3dc150a0	0.09439206
142	0xbc913590	-0.017725736
143	0xbd1481e8	-0.0362567
144	0xbdc055e2	-0.09391381
145	0x3dcd6b78	0.10030264
146	0xbcdd2a28	-0.02699764
147	0xbc9d5550	-0.01920572
148	0xbd5b5aa8	-0.053553253
149	0x3dc6c894	0.09706226
150	0x3df7bd7a	0.12096687
151	0x3c8eaab8	0.01741539
152	0x3d89b33a	0.06723638
153	0x3d811fdc	0.06304905
154	0xbdcf5bc8	-0.10124928
155	0x3b77f9c0	0.0037838072
156	0x3d71ebd8	0.05906281
157	0x3dbbd4e4	0.09171465
158	0x3da44da0	0.08022618
159	0x3cfc0a80	0.030766726
160	0xbd8ac8b4	-0.06776562
161	0xbd031144	-0.031998888
162	0x3d46f778	0.04857585
163	0x3df12578	0.11774725
164	0x3c49f550	0.012326553
165	0xbbbd65a0	-0.005779937
166	0xbd162b90	-0.03666264
167	0xbb79da40	-0.0038124472
168	0x3d6fef4c	0.05857782
169	0xbd88841a	-0.066658214
170	0xbcba6b08	-0.022756115
171	0x3d05feac	0.032713577
172	0xbc1f66b0	-0.009729072
173	0xbd4ca660	-0.049963355
174	0xbc9770e0	-0.01848644
175	0xbab8d980	-0.0014102906
176	0xbdc7a688	-0.0974856
177	0x3dd6e6d2	0.10493244
178	0x3da289f6	0.0793647
179	0x3d867c5e	0.0656669
180	0xbc9f6cd8	-0.01946108
181	0xbd87f616	-0.06638734
182	0x3dc0e22a	0.09418137
183	0xbd7e8f44	-0.062148347
184	0x3dd09332	0.10184325
185	0x3c291ed0	0.010322288
186	0x3cff5c10	0.031171829
187	0xbd6a4748	-0.057196885
188	0x3d93564c	0.07194194
189	0xbd81d7be	-0.06339978
190	0xbd70deec	-0.058806345
191	0xbd50a9c8	-0.050943166
192	0x3dc93f2e	0.09826504
193	0x3ca18a08	0.019719139
194	0xbc80a750	-0.01570478
195	0x3d6dbfc8	0.058044225
196	0xbd552650	-0.05203849
197	0x3d5fff6c	0.05468695
198	0x3c56b930	0.013105676
199	0x3d338390	0.04382664
200	0xbdbe3068	-0.092865765
201	0xbd38627c	-0.045015797
202	0x3dc5da18	0.09660739
203	0xbd959bfa	-0.07305141
204	0xbde69ab6	-0.112599775
205	0x3c9e3558	0.019312546
206	0xbd8712fa	-0.06595416
207	0xbc505ae0	-0.012716979
208	0xbc1adcb0	-0.00945203
209	0x3d2b1c3c	0.041774973
210	0xbd8eb436	-0.06967966
211	0x3d89ab02	0.0672207
212	0xbddb088e	-0.10694991
213	0xbd17e7bc	-0.037086233
214	0x3dd9911c	0.106233805
215	0xbd224428	-0.03961578
216	0x3d81bd7a	0.06334968
217	0xbce81668	-0.028330997
218	0x3db02440	0.08600664
219	0x3d9e5c9e	0.07732509
220	0x3c561620	0.013066798
221	0xbcbce8c0	-0.023060203
222	0x3dc37150	0.09543097
223	0xbd026788	-0.031837016
224	0xbcf9a710	-0.03047517
225	0x3d73a74c	0.05948572
226	0x3c85da68	0.016339496
227	0xbcfeb548	-0.031092301
228	0x3ad83000	0.0016493797
229	0xbd80c176	-0.062869
230	0x3d9d5f6e	0.076842174
231	0xbd541d84	-0.05178596
232	0xbdd14acc	-0.102193445
233	0x3db59388	0.0886603
234	0x3d87d910	0.06633198
235	0xbdee8166	-0.116457745
236	0xbc5437a0	-0.012952715
237	0xbd2a6ba8	-0.041606575
238	0x3ad01b80	0.0015877336
239	0x3c7fdb60	0.015616268
240	0x3df7c048	0.120972216
241	0xbdbabb10	-0.091177106
242	0xbbcd1ca0	-0.006259516
243	0xbd7566bc	-0.05991243
244	0x3d7b725c	0.06138836
245	0x3dd16174	0.10223666
246	0x3c8b15d8	0.01697819
247	0xbcb5bae0	-0.022183836
248	0xbcbd4a60	-0.023106754
249	0xbdb5ff18	-0.08886546
250	0x3d049ca4	0.032375947
251	0x3dc8759c	0.09788057
252	0xbd3d98f4	-0.046288446
253	0x3db12e84	0.0865145
254	0xbc6edde0	-0.014579266
255	0x3a909580	0.0011030883

final_layer.weight_sigma f4 [32, 64]
0	0x3d99999a	0.075
1	0x3d99999a	0.075
2	0x3d99999a	0.075
3	0x3d99999a	0.075
4	0x3d99999a	0.075
5	0x3d99999a	0.075
6	0x3d99999a	0.075
7	0x3d99999a	0.075
8	0x3d99999a	0.075
9	0x3d99999a	0.075
10	0x3d99999a	0.075
11	0x3d99999a	0.075
12	0x3d99999a	0.075
13	0x3d99999a	0.075
14	0x3d99999a	0.075
15	0x3d99999a	0.075
16	0x3d99999a	0.075
17	0x3d99999a	0.075
18	0x3d99999a	0.075
19	0x3d99999a	0.075
20	0x3d99999a	0.075
21	0x3d99999a	0.075
22	0x3d99999a	0.075
23	0x3d99999a	0.075
24	0x3d99999a	0.075
25	0x3d99999a	0.075
26	0x3d99999a	0.075
27	0x3d99999a	0.075
28	0x3d99999a	0.075
29	0x3d99999a	0.075
30	0x3d99999a	0.075
31	0x3d99999a	0.075
32	0x3d99999a	0.075
33	0x3d99999a	0.075
34	0x3d99999a	0.075
35	0x3d99999a	0.075
36	0x3d99999a	0.075
37	0x3d99999a	0.075
38	0x3d99999a	0.075
39	0x3d99999a	0.075
40	0x3d99999a	0.075
41	0x3d99999a	0.075
42	0x3d99999a	0.075
43	0x3d99999a	0.075
44	0x3d99999a	0.075
45	0x3d99999a	0.075
46	0x3d99999a	0.075
47	0x3d99999a	0.075
48	0x3d99999a	0.075
49	0x3d99999a	0.075
50	0x3d99999a	0.075
51	0x3d99999a	0.075
52	0x3d99999a	0.075
53	0x3d99999a	0.075
54	0x3d99999a	0.075
55	0x3d99999a	0.075
56	0x3d99999a	0.075
57	0x3d99999a	0.075
58	0x3d99999a	0.075
59	0x3d99999a	0.075
60	0x3d99999a	0.075
61	0x3d99999a	0.075
62	0x3d99999a	0.075
63	0x3d99999a	0.075
64	0x3d99999a	0.075
65	0x3d99999a	0.075
66	0x3d99999a	0.075
67	0x3d99999a	0.075
68	0x3d99999a	0.075
69	0x3d99999a	0.075
70	0x3d99999a	0.075
71	0x3d99999a	0.075
72	0x3d99999a	0.075
73	0x3d99999a	0.075
74	0x3d99999a	0.075
75	0x3d99999a	0.075
76	0x3d99999a	0.075
77	0x3d99999a	0.075
78	0x3d99999a	0.075
79	0x3d99999a	0.075
80	0x3d99999a	0.075
81	0x3d99999a	0.075
82	0x3d99999a	0.075
83	0x3d99999a	0.075
84	0x3d99999a	0.075
85	0x3d99999a	0.075
86	0x3d99999a	0.075
87	0x3d99999a	0.075
88	0x3d99999a	0.075
89	0x3d99999a	0.075
90	0x3d99999a	0.075
91	0x3d99999a	0.075
92	0x3d99999a	0.075
93	0x3d99999a	0.075
94	0x3d99999a	0.075
95	0x3d99999a	0.075
96	0x3d99999a	0.075
97	0x3d99999a	0.075
98	0x3d99999a	0.075
99	0x3d99999a	0.075
100	0x3d99999a	0.075
101	0x3d99999a	0.075
102	0x3d99999a	0.075
103	0x3d99999a	0.075
104	0x3d99999a	0.075
105	0x3d99999a	0.075
106	0x3d99999a	0.075
107	0x3d99999a	0.075
108	0x3d99999a	0.075
109	0x3d99999a	0.075
110	0x3d99999a	0.075
111	0x3d99999a	0.075
112	0x3d99999a	0.075
113	0x3d99999a	0.075
114	0x3d99999a	0.075
115	0x3d99999a	0.075
116	0x3d99999a	0.075
117	0x3d99999a	0.075
118	0x3d99999a	0.075
119	0x3d99999a	0.075
120	0x3d99999a	0.075
121	0x3d99999a	0.075
122	0x3d99999a	0.075
123	0x3d99999a	0.075
124	0x3d99999a	0.075
125	0x3d99999a	0.075
126	0x3d99999a	0.075
127	0x3d99999a	0.075
128	0x3d99999a	0.075
129	0x3d99999a	0.075
130	0x3d99999a	0.075
131	0x3d99999a	0.075
132	0x3d99999a	0.075
133	0x3d99999a	0.075
134	0x3d99999a	0.075
135	0x3d99999a	0.075
136	0x3d99999a	0.075
137	0x3d99999a	0.075
138	0x3d99999a	0.075
139	0x3d99999a	0.075
140	0x3d99999a	0.075
141	0x3d99999a	0.075
142	0x3d99999a	0.075
143	0x3d99999a	0.075
144	0x3d99999a	0.075
145	0x3d99999a	0.075
146	0x3d99999a	0.075
147	0x3d99999a	0.075
148	0x3d99999a	0.075
149	0x3d99999a	0.075
150	0x3d99999a	0.075
151	0x3d99999a	0.075
152	0x3d99999a	0.075
153	0x3d99999a	0.075
154	0x3d99999a	0.075
155	0x3d99999a	0.075
156	0x3d99999a	0.075
157	0x3d99999a	0.075
158	0x3d99999a	0.075
159	0x3d99999a	0.075
160	0x3d99999a	0.075
161	0x3d99999a	0.075
162	0x3d99999a	0.075
163	0x3d99999a	0.075
164	0x3d99999a	0.075
165	0x3d99999a	0.075
166	0x3d99999a	0.075
167	0x3d99999a	0.075
168	0x3d99999a	0.075
169	0x3d99999a	0.075
170	0x3d99999a	0.075
171	0x3d99999a	0.075
172	0x3d99999a	0.075
173	0x3d99999a	0.075
174	0x3d99999a	0.075
175	0x3d99999a	0.075
176	0x3d99999a	0.075
177	0x3d99999a	0.075
178	0x3d99999a	0.075
179	0x3d99999a	0.075
180	0x3d99999a	0.075
181	0x3d99999a	0.075
182	0x3d99999a	0.075
183	0x3d99999a	0.075
184	0x3d99999a	0.075
185	0x3d99999a	0.075
186	0x3d99999a	0.075
187	0x3d99999a	0.075
188	0x3d99999a	0.075
189	0x3d99999a	0.075
190	0x3d99999a	0.075
191	0x3d99999a	0.075
192	0x3d99999a	0.075
193	0x3d99999a	0.075
194	0x3d99999a	0.075
195	0x3d99999a	0.075
196	0x3d99999a	0.075
197	0x3d99999a	0.075
198	0x3d99999a	0.075
199	0x3d99999a	0.075
200	0x3d99999a	0.075
201	0x3d99999a	0.075
202	0x3d99999a	0.075
203	0x3d99999a	0.075
204	0x3d99999a	0.075
205	0x3d99999a	0.075
206	0x3d99999a	0.075
207	0x3d99999a	0.075
208	0x3d99999a	0.075
209	0x3d99999a	0.075
210	0x3d99999a	0.075
211	0x3d99999a	0.075
212	0x3d99999a	0.075
213	0x3d99999a	0.075
214	0x3d99999a	0.075
215	0x3d99999a	0.075
216	0x3d99999a	0.075
217	0x3d99999a	0.075
218	0x3d99999a	0.075
219	0x3d99999a	0.075
220	0x3d99999a	0.075
221	0x3d99999a	0.075
222	0x3d99999a	0.075
223	0x3d99999a	0.075
224	0x3d99999a	0.075
225	0x3d99999a	0.075
226	0x3d99999a	0.075
227	0x3d99999a	0.075
228	0x3d99999a	0.075
229	0x3d99999a	0.075
230	0x3d99999a	0.075
231	0x3d99999a	0.075
232	0x3d99999a	0.075
233	0x3d99999a	0.075
234	0x3d99999a	0.075
235	0x3d99999a	0.075
236	0x3d99999a	0.075
237	0x3d99999a	0.075
238	0x3d99999a	0.075
239	0x3d99999a	0.075
240	0x3d99999a	0.075
241	0x3d99999a	0.075
242	0x3d99999a	0.075
243	0x3d99999a	0.075
244	0x3d99999a	0.075
245	0x3d99999a	0.075
246	0x3d99999a	0.075
247	0x3d99999a	0.075
248	0x3d99999a	0.075
249	0x3d99999a	0.075
250	0x3d99999a	0.075
251	0x3d99999a	0.075
252	0x3d99999a	0.075
253	0x3d99999a	0.075
254	0x3d99999a	0.075
255	0x3d99999a	0.075

final_layer.bias_mu f4 [32]
0	0x3d4346f8	0.047675103
1	0xbd8a793e	-0.06761406
2	0x3decca28	0.11561996
3	0xbc556010	-0.013023391
4	0x3dc00984	0.09376815
5	0x3d00d0d4	0.031449154
6	0x3cac6f50	0.021049172
7	0xbd456000	-0.048187256
8	0x3df01438	0.117226064
9	0xbdacceba	-0.084378675
10	0x3dca2d74	0.09871951
11	0x3cbae070	0.022812098
12	0x3c2da9c0	0.010599554
13	0xbde93072	-0.11386193
14	0xbd973df4	-0.073848635
15	0xbdbb8972	-0.09157075
16	0x3da718d0	0.081590295
17	0xbdfb0fba	-0.12258859
18	0x3d5cb374	0.053882077
19	0x3dc857c0	0.09782362
20	0x3d023808	0.031791717
21	0xbd61a368	-0.055087477
22	0x3df9e786	0.12202363
23	0xbdd335b0	-0.103129745
24	0x3dca2224	0.09869793
25	0x3de6b2d2	0.11264576
26	0xbd4bf644	-0.049795404
27	0xbdb3e878	-0.08784574
28	0x3bcfe8a0	0.0063448697
29	0xbd9d21c6	-0.076724574
30	0x3de0a014	0.109680325
31	0xbd5f0b28	-0.054454

final_layer.bias_sigma f4 [32]
0	0x3dd93924	0.10606602
1	0x3dd93924	0.10606602
2	0x3dd93924	0.10606602
3	0x3dd93924	0.10606602
4	0x3dd93924	0.10606602
5	0x3dd93924	0.10606602
6	0x3dd93924	0.10606602
7	0x3dd93924	0.10606602
8	0x3dd93924	0.10606602
9	0x3dd93924	0.10606602
10	0x3dd93924	0.10606602
11	0x3dd93924	0.10606602
12	0x3dd93924	0.10606602
13	0x3dd93924	0.10606602
14	0x3dd93924	0.10606602
15	0x3dd93924	0.10606602
16	0x3dd93924	0.10606602
17	0x3dd93924	0.10606602
18	0x3dd93924	0.10606602
19	0x3dd93924	0.10606602
20	0x3dd93924	0.10606602
21	0x3dd93924	0.10606602
22	0x3dd93924	0.10606602
23	0x3dd93924	0.10606602
24	0x3dd93924	0.10606602
25	0x3dd93924	0.10606602
26	0x3dd93924	0.10606602
27	0x3dd93924	0.10606602
28	0x3dd93924	0.10606602
29	0x3dd93924	0.10606602
30	0x3dd93924	0.10606602
31	0x3dd93924	0.10606602

final_layer.weight_epsilon f4 [32, 64]
0	0x3f8f0758	1.1174116
1	0x3f6acd06	0.9171909
2	0xbe160e97	-0.14654003
3	0x3f3b6bcc	0.7321136
4	0xbf09224e	-0.5356797
5	0xbf98e178	-1.1943808
6	0xbf2ffe0a	-0.6874701
7	0xbec02ece	-0.3753571
8	0xbe65e534	-0.22450715
9	0x3f6bb71c	0.9207628
10	0xbe93ef27	-0.28893396
11	0x3ed431e5	0.41444317
12	0x3ec6012f	0.38672778
13	0xbf0ce8be	-0.55042636
14	0x3ec45bec	0.3835138
15	0xbf2db7c6	-0.6785854
16	0x3f5dc538	0.86629057
17	0x3f85ce7d	1.045364
18	0xbfa7ebe7	-1.3118867
19	0xbeff9ea2	-0.49925715
20	0xbf0ae1c8	-0.54250765
21	0xbf30b0b4	-0.6901963
22	0x3f2f964a	0.685887
23	0x3f232ffd	0.637451
24	0x3f600c12	0.8751842
25	0x3f85f9b9	1.0466834
26	0x3f7c38df	0.9852428
27	0xbd15b296	-0.036547266
28	0xbebd91cb	-0.37025294
29	0xbec01bac	-0.37521112
30	0x3eafd222	0.34340006
31	0x3f21b4a2	0.6316625
32	0x3f3f068b	0.7461936
33	0xbf363888	-0.7118001
34	0x3f518b35	0.8185304
35	0x3f2d195d	0.67616826
36	0xbf49f486	-0.7888874
37	0xbf990d33	-1.1957153
38	0x3f4fbaba	0.811443
39	0xbf3110bc	-0.6916616
40	0xbf363f42	-0.71190274
41	0xbf4101bf	-0.7539329
42	0x3f3f683c	0.74768424
43	0xbf170600	-0.5899353
44	0xbf2b67df	-0.6695537
45	0xbedc4da7	-0.43027994
46	0xbf26cda6	-0.65157545
47	0x3f5587d0	0.8341036
48	0xbee740ef	-0.45166728
49	0x3ee0290e	0.43781322
50	0x3ea00809	0.3125613
51	0xbf425494	-0.75910306
52	0xbf7b0117	-0.9804854
53	0xbe498e62	-0.19683221
54	0x3f4c2cb4	0.7975571
55	0x3f3360eb	0.7006976
56	0x3f4307e5	0.7618392
57	0x3ee967aa	0.45586902
58	0x3f116efc	0.56809974
59	0x3f345e66	0.7045654
60	0x3fbd3936	1.4783084
61	0x3e134697	0.14382397
62	0x3ea9e3e4	0.3318168
63	0xbf59c2c5	-0.8506282
64	0x3eea7400	0.45791626
65	0x3ec07176	0.37586564
66	0xbd75f955	-0.060052235
67	0x3e999c54	0.3000208
68	0xbe60ca62	-0.21952203
69	0xbefa9a47	-0.4894583
70	0xbe903e5f	-0.28172585
71	0xbe1d836d	-0.15382166
72	0xbdbc6c31	-0.092003234
73	0x3ec13152	0.3773294
74	0xbdf27e88	-0.1184054
75	0x3e2dea52	0.16983917
76	0x3e2248f2	0.15848139
77	0xbe66fa91	-0.22556521
78	0x3e20efae	0.1571643
79	0xbe8e6125	-0.2780849
80	0x3eb5c36e	0.35500664
81	0x3edb5615	0.42839113
82	0xbf09a0f6	-0.5376123
83	0xbe51819f	-0.20459603
84	0xbe63a7e2	-0.22232011
85	0xbe90d0ce	-0.28284305
86	0x3e8fe957	0.28107712
87	0x3e85bfad	0.261228
88	0x3eb7a123	0.35865125
89	0x3edb9cf3	0.4289318
90	0x3eceb8c3	0.40375337
91	0xbc756285	-0.014977102
92	0xbe1b5f1b	-0.15172999
93	0xbe1d73bf	-0.15376185
94	0x3e101a63	0.14072566
95	0x3e8488c1	0.25885585
96	0x3e9c909d	0.3057908
97	0xbe955939	-0.29169634
98	0x3eabbe11	0.33543447
99	0x3e8ddf50	0.27709436
100	0xbea585d7	-0.32328674
101	0xbefae1f5	-0.49000517
102	0x3eaa4161	0.33253005
103	0xbe911f83	-0.28344354
104	0xbe955ebc	-0.2917384
105	0xbe9e3051	-0.30896237
106	0x3e9ce0ae	0.30640167
107	0xbe778ee3	-0.241756
108	0xbe8c7c06	-0.27438372
109	0xbe348f9e	-0.1763291
110	0xbe88b659	-0.2670162
111	0x3eaf028e	0.34181637
112	0xbe3d8931	-0.18509366
113	0x3e37b8e5	0.17941625
114	0x3e032979	0.1280879
115	0xbe9f4606	-0.3110811
116	0xbecdb939	-0.40180376
117	0xbda53221	-0.08066202
118	0x3ea75786	0.32683963
119	0x3e9304de	0.2871465
120	0x3e9fd8fe	0.3122024
121	0x3e3f4c92	0.18681553
122	0x3e6e652a	0.23280779
123	0x3e93d49e	0.28873152
124	0x3f1b1681	0.60581213
125	0x3d716a38	0.05893919
126	0x3e0b3e08	0.13597882
127	0xbeb27a27	-0.3485882
128	0xbf397f8c	-0.72460246
129	0xbf18429b	-0.5947663
130	0x3dc29d0b	0.0950261
131	0xbef31273	-0.47475013
132	0x3eb1da6e	0.3473696
133	0x3f464691	0.77451426
134	0x3ee43ff2	0.44580036
135	0x3e793f6b	0.24340598
136	0x3e151440	0.14558506
137	0xbf18da67	-0.59708256
138	0x3e3fdc3f	0.18736361
139	0xbe8999da	-0.26875192
140	0xbe80662b	-0.25077948
141	0x3eb6bfd4	0.35693228
142	0xbe7ea9fd	-0.24869533
143	0x3ee14cc9	0.44003895
144	0xbf0fcf74	-0.56175923
145	0xbf2d89af	-0.67788213
146	0x3f59c84f	0.8507127
147	0x3ea5c2ac	0.32375085
148	0x3eb41ec6	0.35179728
149	0x3ee527a9	0.4475682
150	0xbee3b964	-0.4447738
151	0xbed3a48b	-0.41336474
152	0xbf114969	-0.5675264
153	0xbf2dc1c1	-0.6787377
154	0xbf238ea9	-0.6388956
155	0x3cc225b9	0.023699628
156	0x3e75dbc2	0.24009612
157	0x3e79269b	0.24331133
158	0xbe640701	-0.22268297
159	0xbed1b88b	-0.40961108
160	0xbef7bf30	-0.48388052
161	0x3eec53e5	0.46157756
162	0xbf07e1c0	-0.5307884
163	0xbee07f58	-0.43847156
164	0x3f02f5fc	0.5115659
165	0x3f467f48	0.77537966
166	0xbf06b48d	-0.5261925
167	0x3ee5a435	0.44851843
168	0x3eec5c9e	0.4616441
169	0x3efa50fe	0.48889917
170	0xbef83de3	-0.48484716
171	0x3ec3ddeb	0.38255247
172	0x3ede4d22	0.43418223
173	0x3e8edbe9	0.27902153
174	0x3ed85510	0.42252398
175	0xbf0a7793	-0.54088706
176	0x3e95f5be	0.2928905
177	0xbe915c35	-0.2839066
178	0xbe4f8caf	-0.2026851
179	0x3efc0870	0.49225187
180	0x3f22c47b	0.63581055
181	0x3e02b3c1	0.12763883
182	0xbf04666e	-0.51718795
183	0xbee8a43a	-0.45437795
184	0xbefcf0ff	-0.49402615
185	0xbe975adf	-0.29561517
186	0xbebc9dfd	-0.36839285
187	0xbee9ecf9	-0.45688608
188	0xbf7568df	-0.95863146
189	0xbdbf01a1	-0.093264826
190	0xbe5c55f3	-0.21517162
191	0x3f0d35d6	0.5516027
192	0xbf874ca8	-1.0570269
193	0xbf5e1cbe	-0.8676261
194	0x3e0df2ac	0.13862103
195	0xbf314afa	-0.6925503
196	0x3f01b92a	0.5067316
197	0x3f909e7c	1.1298366
198	0x3f267b53	0.6503193
199	0x3eb5cc1b	0.35507283
200	0x3e5978c9	0.21237482
201	0xbf5efa2d	-0.8710049
202	0x3e8bf09a	0.27332002
203	0xbec8ba59	-0.39204672
204	0xbebb4df3	-0.36582908
205	0x3f054b60	0.5206814
206	0xbeb9bf73	-0.36278877
207	0x3f245486	0.6419147
208	0xbf51c933	-0.8194763
209	0xbf7d26c3	-0.9888727
210	0x3f9ed8d7	1.2409924
211	0x3ef1ce56	0.47227734
212	0x3f036075	0.51319057
213	0x3f272456	0.6528982
214	0xbf26192f	-0.6488218
215	0xbf1a5e6c	-0.60300326
216	0xbf53f08e	-0.8278893
217	0xbf7d788f	-0.9901208
218	0xbf6e9794	-0.9320004
219	0x3d0d9ba3	0.034572255
220	0x3eb35340	0.35024452
221	0x3eb5ba03	0.35493478
222	0xbea651cb	-0.32484278
223	0xbf18f790	-0.5975275
224	0xbf34b3db	-0.7058694
225	0x3f2c5fa7	0.67333454
226	0xbf463856	-0.7742971
227	0xbf23bead	-0.63962823
228	0x3f3f0aa2	0.746256
229	0x3f90c7da	1.131099
230	0xbf4480f5	-0.7675927
231	0x3f277f2d	0.6542843
232	0x3f2c6604	0.67343163
233	0x3f3693a6	0.71319044
234	0xbf351045	-0.7072795
235	0x3f0edcb6	0.5580553
236	0x3f22249c	0.6333711
237	0x3ed065ee	0.40702766
238	0x3f1dca0f	0.6163644
239	0xbf49fdc9	-0.7890287
240	0x3edac1ba	0.42725927
241	0xbed40bfa	-0.41415387
242	0xbe976220	-0.2956705
243	0x3f37d42c	0.71808124
244	0x3f6d70a5	0.92750007
245	0x3e3eaa04	0.18619543
246	0xbf41241c	-0.75445724
247	0xbf29af5b	-0.66283196
248	0xbf387dcc	-0.7206695
249	0xbedccab2	-0.43123394
250	0xbf099307	-0.5373997
251	0xbf2a9f23	-0.66649073
252	0xbfb2ff74	-1.3984208
253	0xbe0b5125	-0.13605173
254	0xbea0b598	-0.31388545
255	0x3f4dfe39	0.8046604

final_layer.bias_epsilon f4 [32]
0	0xbf5940b7	-0.8486437
1	0xbeb20f8f	-0.34777495
2	0x3f0ce180	0.55031586
3	0x3f4d8332	0.80278313
4	0x3eefb0bf	0.46814534
5	0x3f5b4413	0.8565075
6	0xbf269134	-0.6506531
7	0x3fb117aa	1.3835347
8	0x3eea1f0f	0.4572682
9	0xbe8c7271	-0.27431062
10	0x3f970b53	1.1800331
11	0xbf851fcd	-1.040033
12	0x3f27b608	0.6551213
13	0xbf038faa	-0.5139109
14	0xbf827fc0	-1.0195236
15	0xbf18dbb6	-0.5971025
16	0xbf18d857	-0.5970511
17	0x3f4fd64e	0.8118638
18	0xbf54f779	-0.83190113
19	0x3f473085	0.7780841
20	0x3f5ed8e1	0.8704968
21	0xbf5a2a22	-0.8522054
22	0x3f8ac6ab	1.0841879
23	0x3f64e224	0.89407563
24	0xbedd0648	-0.43168855
25	0x3f7364eb	0.95075864
26	0xbf30400f	-0.68847746
27	0xbfd0a36e	-1.6299875
28	0x3e48096c	0.19534844
29	0xbf4dce7a	-0.80393183
30	0x3f53bfa4	0.82714295
31	0x3f8ba41b	1.0909456

out1.weight_mu f4 [51, 32]
0	0x3ec43d64	0.38328087
1	0x3e5abdcc	0.21361464
2	0x3ee3c168	0.44483495
3	0x3edc0215	0.42970338
4	0x3e1e0e40	0.15435123
5	0xbf37b8f4	-0.7176659
6	0x3ecfc095	0.40576616
7	0x3d98a2c3	0.07452919
8	0xbf50ebfd	-0.8161009
9	0xbec3de45	-0.38255516
10	0x3ec77899	0.38959196
11	0x3eae2501	0.34012607
12	0x3e2bf640	0.16793156
13	0xbe840b2f	-0.25789782
14	0xba9e9259	-0.0012098058
15	0x3de220e3	0.11041429
16	0xbf37f173	-0.718528
17	0xbe8085a5	-0.25101963
18	0x3cf99126	0.03046472
19	0x3e50aa98	0.20377576
20	0xbee75463	-0.4518157
21	0x3ea67df8	0.32517982
22	0xbcf2bff3	-0.029632544
23	0xbe4f602d	-0.20251532
24	0x3ea8905c	0.32922637
25	0x3ea8f727	0.33001062
26	0x3f4d050b	0.8008582
27	0x3f2b4590	0.6690302
28	0x3f1d9974	0.61562276
29	0xbe8726b0	-0.26396704
30	0x3e030974	0.12796575
31	0xbf036418	-0.51324606
32	0x3eb1fcb0	0.34763098
33	0x3eeefd81	0.46677783
34	0x3f125a95	0.5716947
35	0x3e8003c3	0.2500287
36	0x3d2357d9	0.0398787
37	0xbe874b17	-0.26424477
38	0x3f30d404	0.6907351
39	0x3ea97161	0.33094314
40	0x3e165da4	0.14684159
41	0x3ea0b3bb	0.31387123
42	0x3f0ddca3	0.5541479
43	0x3eb5a5ac	0.3547796
44	0xbc921bd7	-0.01783554
45	0xbec23f7f	-0.3793907
46	0xbd82904b	-0.06375178
47	0x3f4e383f	0.80554575
48	0xbf1d9d99	-0.615686
49	0xbe13f023	-0.14447074
50	0x3ecda545	0.40165153
51	0x3f31b426	0.6941551
52	0xbefd3393	-0.4945341
53	0x3eded845	0.43524376
54	0x3cad0084	0.02111841
55	0x3dbbd929	0.091722794
56	0x3f21c452	0.63190186
57	0x3f217608	0.63070726
58	0x3f372ebc	0.71555686
59	0x3e0921dc	0.13391823
60	0x3e7fbd89	0.24974646
61	0x3e274925	0.16336496
62	0x3d840f0a	0.06448181
63	0xbe83105d	-0.25598422
64	0xbec494a1	-0.38394645
65	0x3e66ba7a	0.22532073
66	0xbe6854ab	-0.22688548
67	0x3c0af941	0.008482278
68	0xbe7c582d	-0.24643011
69	0xbee6f8ae	-0.45111603
70	0xbeb210c9	-0.3477843
71	0xbf38faa6	-0.7225746
72	0xbdb69f0b	-0.08917054
73	0x3f023745	0.50865585
74	0x3cb7da8a	0.022443075
75	0x3f0fb681	0.56137854
76	0x3dcf1bd5	0.101127304
77	0xbec94f71	-0.3931842
78	0xbe4274de	-0.18989894
79	0x3ec24633	0.37944183
80	0xbf19900d	-0.5998543
81	0x3c82d2e4	0.015969701
82	0x3daa76b2	0.083234206
83	0x3db86c38	0.09005016
84	0xbec832ee	-0.39101356
85	0x3e9e6beb	0.3094171
86	0xbf3e1fb7	-0.74267143
87	0xbf29876a	-0.6622225
88	0xbe4dc58a	-0.20094886
89	0x3d22359a	0.0396019
90	0x3f0d3e24	0.55172944
91	0x3e1f37a8	0.15548575
92	0xbe0444f3	-0.12916927
93	0x3e3d7170	0.18500304
94	0xbe43650b	-0.19081514
95	0xbcceb8d9	-0.025234627
96	0xbeac6628	-0.3367169
97	0x3d42c6d4	0.0475529
98	0xbe4ca0d2	-0.19983223
99	0x3d564bd2	0.0523184
100	0xbdfee74a	-0.12446459
101	0xbf239c00	-0.6390991
102	0x3c8f0dab	0.017462572
103	0xbf128658	-0.5723624
104	0xbd5ec85e	-0.054390304
105	0x3ed093a1	0.40737632
106	0xbd1ccbba	-0.038280226
107	0x3e9ee8ab	0.31036887
108	0x3e642ea5	0.22283418
109	0xbeef5b5a	-0.46749383
110	0xbe123213	-0.14276914
111	0x3eed8719	0.46392134
112	0xbef5e25c	-0.4802426
113	0xbe8ccb55	-0.2749888
114	0x3ea001a9	0.31251267
115	0x3ea1c95d	0.3159894
116	0xbebdfd47	-0.37107298
117	0x3ed45b7e	0.41476053
118	0xbf148968	-0.58022165
119	0xbeccfd00	-0.40036774
120	0xbea10f6a	-0.31457072
121	0x3da4d496	0.0804836
122	0x3f396b44	0.724293
123	0x3e3e7b28	0.18601668
124	0x3e395ecc	0.18102568
125	0x3eae094e	0.33991474
126	0xbea540d3	-0.3227602
127	0x3c47691a	0.012171054
128	0xbefdc03d	-0.4956073
129	0x3d36d08d	0.044632483
130	0xbd9bff72	-0.07617082
131	0xbd9afb29	-0.07567436
132	0x3b713a7c	0.003680854
133	0xbf3d3512	-0.73909104
134	0xbdc59bb9	-0.09648842
135	0xbed60d06	-0.4180681
136	0xbdc85ed6	-0.097837135
137	0x3eb3d00a	0.3511966
138	0xbd51791f	-0.0511409
139	0x3ead6ba8	0.33871198
140	0x3dd2bec9	0.10290296
141	0xbf328797	-0.69738144
142	0xbe5b12c2	-0.21393874
143	0x3eaeaeed	0.34117833
144	0xbf622c62	-0.8834897
145	0xbeb81763	-0.35955343
146	0x3e9c1b52	0.30489594
147	0x3e649179	0.22321118
148	0xbeb9ee44	-0.36314595
149	0x3e731a13	0.23740415
150	0xbf2ee597	-0.68319076
151	0xbf33017c	-0.6992414
152	0xbe8e40e5	-0.27783886
153	0x3d8988ee	0.067155704
154	0x3ea758cb	0.3268493
155	0x3d017696	0.031607233
156	0x3e52eb6f	0.20597623
157	0x3ed8c51c	0.42337883
158	0xbe4f2030	-0.20227122
159	0xbdac9290	-0.08426392
160	0xbefd37c4	-0.49456608
161	0xbd659f10	-0.056059897
162	0x3e2df7d6	0.16989073
163	0xbeeb7592	-0.45988137
164	0xbde0ca2c	-0.10976061
165	0xbf43dca8	-0.7650857
166	0x3dc57ba6	0.09642725
167	0xbecd6fac	-0.4012426
168	0x3dfbaa07	0.122882895
169	0x3f1f4dc8	0.6222806
170	0xbe26ef24	-0.16302162
171	0x3f050f1d	0.51976186
172	0x3d5936d5	0.053030808
173	0xbf01c58f	-0.50692075
174	0xbe52ff13	-0.20605116
175	0x3ca6c499	0.020357417
176	0xbe14d504	-0.14534384
177	0xbeb1eed8	-0.34752536
178	0x3eb9171a	0.36150438
179	0xbd161baa	-0.036647476
180	0xbed30252	-0.41212708
181	0x3e983e3e	0.29734987
182	0xbf62c7e6	-0.8858627
183	0xbeea5b90	-0.45772982
184	0xbe11ee4c	-0.1425106
185	0x3d210756	0.039313637
186	0x3f25cdfc	0.6476743
187	0xbe8a968e	-0.2706799
188	0xbe5cc04a	-0.21557727
189	0x3edc4aca	0.4302581
190	0xbd9ea1a4	-0.07745674
191	0xbd89c43b	-0.06726881
192	0xbf2e374c	-0.68053126
193	0xbe40a75a	-0.1881384
194	0x3d5b3366	0.053515814
195	0xbe186f84	-0.1488629
196	0xbdb151d2	-0.08658184
197	0xbf0d4d42	-0.5519601
198	0xbdb8a8ff	-0.090166084
199	0xbedec0d6	-0.43506497
200	0x3e69334f	0.22773479
201	0x3f40209c	0.7504976
202	0xbe342d99	-0.17595519
203	0x3ebe280c	0.37139928
204	0x3e83a143	0.2570897
205	0xbeaf6733	-0.34258422
206	0xbd9f099f	-0.07765507
207	0x3e98ab54	0.29818213
208	0x3ca929e5	0.02064986
209	0xbf02156d	-0.50813943
210	0x3ea27023	0.3172618
211	0x3e7c89ef	0.24661992
212	0xbe8417fc	-0.2579955
213	0x3e92bbb1	0.28658822
214	0xbf77896c	-0.96694064
215	0xbe67033e	-0.2255983
216	0xbede6ff1	-0.4344478
217	0xbc05da3b	-0.008169706
218	0x3ed2a7eb	0.41143736
219	0xbdab357d	-0.083598115
220	0x3d98855a	0.0744731
221	0x3e5595ac	0.20857877
222	0xbe7c44ba	-0.24635592
223	0x3e1e18a5	0.15439089
224	0xbf324f1f	-0.6965198
225	0xbdd3b090	-0.10336411
226	0xbe3e4335	-0.18580325
227	0xbeb4c4a3	-0.35306272
228	0xbe5e2f27	-0.21697675
229	0xbf0e0603	-0.55477923
230	0xbe80209f	-0.25024888
231	0xbed523c1	-0.4162884
232	0x3e382c9c	0.17985767
233	0x3f4413a5	0.76592475
234	0xbe7c1862	-0.24618676
235	0x3ed2b55b	0.41153988
236	0x3e0d6ea9	0.13811745
237	0xbf102021	-0.56299025
238	0xbe83c61a	-0.25737077
239	0x3ec0e54a	0.37674934
240	0xbed568c9	-0.41681507
241	0xbe1d7f1b	-0.15380518
242	0x3ecc1753	0.39861545
243	0x3e272b8d	0.16325207
244	0xbeb62675	-0.35576215
245	0x3e676bd9	0.22599734
246	0xbf61114d	-0.87917024
247	0xbf299773	-0.6624672
248	0xbe5703b6	-0.2099751
249	0xbdef55cb	-0.116862856
250	0x3efabdda	0.4897297
251	0xbe3a2b75	-0.1818064
252	0x3dcbc537	0.09949725
253	0x3e68f29d	0.227488
254	0xbe54181e	-0.20712325
255	0x3e0416b9	0.12899293
