turtlebot3_machine_learning/turtlebot3_td3/steer&spd/models111/TD3_stage2_critic_1_target.pth (torch_old, 50151 bytes, 5 tensors)

l1.weight f4 [128, 30]
-0.12841097 -0.105918586 0.01771305 -0.08532394 0.13189639 0.023130873 0.23782726 0.09194981
-0.050154295 0.10647146 0.20806871 0.13113028 0.03627188 0.043838594 -0.09239694 0.037895802
0.013697344 0.13241561 0.13854465 -0.04141244 0.06631792 0.059191775 0.13015707 0.10527227
-0.4620153 -0.064290464 -0.2043748 -0.021326385 0.048641656 -0.04500329 0.20068687 0.24674262
-0.006613228 0.2548908 0.09909562 0.057051964 0.24274555 0.24144989 0.10522766 0.18076076
-0.0120595 -0.06214087 0.15277375 0.2530382 0.23310053 0.03887778 0.14975424 0.0076635913
0.136803 0.13126081 0.20032276 -0.108754836 0.036471706 0.15513435 0.8968156 0.31109884
0.22648235 0.058973856 -0.44110265 0.22096728 -0.0032028933 0.018920207 0.120129295 0.034718506
-0.09037449 0.09302988 -0.08447401 -0.023768105 0.2052949 0.207387 -0.054398194 0.1619518
0.19063187 0.23463291 0.1751237 0.18021263 0.07303764 0.077582054 0.013318235 -0.06782199
-0.12003194 -0.16640511 -0.2261836 -0.07924511 0.34434628 -0.04469147 -0.30659565 -0.017298188
-0.09782821 0.12716982 -0.17409492 0.1645045 -0.02016483 -0.011344172 -0.09877021 -0.056519043
0.0441831 0.12477424 -0.03642779 -0.1586573 -0.098203965 0.0011002006 0.16637608 -0.09725625
0.11793461 -0.08712196 -0.055582505 0.046198484 -0.107363716 -0.17097758 -0.12059745 -0.097452946
-0.11347022 -0.16570555 0.079255626 -0.12982054 -0.00014400177 -0.14526539 0.14715655 -0.024242535
-0.06397624 0.0010587816 -0.14261225 0.099560656 0.0012942331 0.1661661 -0.072472386 -0.023772666
0.16121332 0.070690624 0.070378065 -0.06061605 0.30869678 0.2632391 0.21838133 0.22359821
0.037728302 0.2691204 0.19968306 0.09438644 0.18267925 -0.1320125 -0.14580409 -0.18859836
1.1522499 0.23663743 0.17498295 0.041475985 -0.42455742 -0.029220073 -0.112183295 0.15193348
0.10602655 0.026691688 0.07405879 0.21781456 0.18669853 0.11243442 0.061267875 0.22292165
0.15538332 0.036904823 -0.0077848826 -0.045777764 0.26614097 0.22962081 0.2014692 0.18503514
0.27730843 -0.09800629 0.095948495 0.25284123 0.16104783 0.20143953 -0.52169037 0.36786637
-0.24420261 0.17862089 -0.036733553 0.10779767 -0.039788708 0.27372733 0.13627942 -0.12583719
-0.06080189 0.058809202 0.08888331 0.13997889 -0.056672864 -0.014221619 -0.06034672 0.082566544
0.16577987 0.32317284 -0.18281166 0.1252938 0.07911295 -0.10586315 0.021327842 -0.05429069
0.07791216 -0.031627875 0.0034666047 0.034428433 0.50418895 0.5946919 -1.6754149 0.025395298
-0.3056796 0.0944358 0.2118256 0.24547742 0.12917602 0.18098938 0.10977071 0.05264325
-0.0875494 -0.080625944 0.31146094 0.27923262 0.25965968 0.22892247 0.22955753 0.10488668
0.051559065 0.015258673 0.25715056 0.1959137 0.086427875 0.18707025 -0.101461485 0.11370088
-0.014918259 0.017756626 -0.57043886 0.29148003 -0.23893537 0.00417337 -0.03865326 0.22042531
0.17085318 0.21481965 -0.06812409 0.25121924 0.025311988 0.04571366 0.14630987 0.06474849
0.29170227 0.26108223 -0.048850063 0.16057229 0.0512286 -0.0064504114 0.30621356 0.22969754
00000000: 2a7e 03be d8eb d8bd f51a 913c 51be aebd
00000010: d90f 073e f57c bd3c fd88 733e 2f50 bc3d
00000020: 976e 4dbd b50d da3d f70f 553e 0447 063e
00000030: d391 143d 1990 333d 9b3a bdbd a138 1b3d
00000040: d36a 603c f597 073e a6de 0d3e 17a0 29bd
00000050: b1d1 873d 1373 723d e547 053e fd98 d73d
00000060: 458d ecbe b8aa 83bd a147 51be acb4 aebc
00000070: 793c 473d 5f55 38bd dc80 4d3e 19aa 7c3e
00000080: c7b3 d8bb 0c81 823e a5f2 ca3d 52af 693d
00000090: 4a92 783e a43e 773e 9981 d73d 5919 393e
000000a0: 3695 45bc 6d87 7ebd b970 1c3e 398e 813e
000000b0: e8b1 6e3e 4f3e 1f3d 2d59 193e dd1e fb3b
000000c0: 1616 0c3e 3c69 063e 6921 4d3e dbba debd
000000d0: 5b63 153d 8adb 1e3e b595 653f 5948 9f3e
000000e0: fdea 673e 928e 713d 35d8 e1be 3f45 623e
000000f0: a2e7 51bb 8dfe 9a3c 5906 f63d fe34 0e3d
00000100: 4316 b9bd 7386 be3d b600 adbd 54b5 c2bc
00000110: d438 523e 425d 543e a4d0 5ebd b1d6 253e
00000120: 0035 433e 9c43 703e a153 333e a989 383e
00000130: c294 953d 57e3 9e3d ba34 5a3c 41e6 8abd
00000140: 4ed3 f5bd 1a66 2abe ac9c 67be 434b a2bd
00000150: 284e b03e 670e 37bd 1bfa 9cbe eeb4 8dbc
00000160: 285a c8bd ce38 023e f045 32be de73 283e
00000170: b730 a5bc e8dc 39bc 0948 cabd 8380 67bd
00000180: 57f9 343d a389 ff3d 4e35 15bd 0f77 22be
00000190: 291f c9bd 9b34 903a 7e5e 2a3e 492e c7bd
000001a0: b387 f13d 006d b2bd 7baa 63bd 9f3a 3d3d
000001b0: 82e1 dbbd bf14 2fbe ccfb f6bd 6995 c7bd
000001c0: 1363 e8bd b7ae 29be c650 a23d adef 04be
000001d0: 2eff 16b9 73c0 14be 35b0 163e 4898 c6bc
000001e0: fa05 83bd d1c6 8a3a f208 12be 75e6 cb3d
000001f0: 42a3 a93a 7227 2a3e 676c 94bd e5be c2bc
00000200: 1b15 253e 3fc6 903d 6022 903d 8948 78bd
00000210: 810d 9e3e 46c7 863e 5b9f 5f3e eef6 643e
00000220: fe88 1a3d 26ca 893e b779 4c3e ae4d c13d
00000230: 4510 3b3e 492e 07be ab4d 15be ee1f 41be
00000240: ed7c 933f 1551 723e bb2e 333e b9e2 293d
00000250: 975f d9be ef5e efbc 5bc0 e5bd 7394 1b3e
00000260: 7324 d93d 87a8 da3c 23ac 973d c80a 5f3e
00000270: e62d 3f3e 0444 e63d 06f4 7a3d 9345 643e
00000280: ce1c 1f3e 8329 173d 5418 ffbb 7781 3bbd
00000290: a143 883e b821 6b3e f14d 4e3e da79 3d3e
000002a0: 5ffb 8d3e 86b7 c8bd a580 c43d 6874 813e
000002b0: b9e9 243e 2a46 4e3e 808d 05bf fb58 bc3e
000002c0: 4010 7abe 65e8 363e ec75 16bd 06c5 dc3d
000002d0: 7cf9 22bd fd25 8c3e d58c 0b3e 77db 00be
000002e0: 670b 79bd ebe1 703d 7408 b63d a056 0f3e
000002f0: ce21 68bd cb01 69bc 1f2e 77bd a618 a93d
00000300: 33c2 293e e976 a53e fb32 3bbe 054d 003e
00000310: f805 a23d c7ce d8bd bab7 ae3c ea5f 5ebd
00000320: 6990 9f3d 3b8c 01bd fa2f 633b d404 0d3d
00000330: 8712 013f ba3d 183f ff73 d6bf cd09 d03c
00000340: 0982 9cbe 8f67 c13d cfe8 583e 6f5e 7b3e
00000350: b846 043e 4855 393e 77cf e03d 73a0 573d
00000360: 1a4d b3bd 371f a5bd cf77 9f3e 94f7 8e3e
00000370: 1df2 843e a76a 6a3e 2111 6b3e d4ce d63d
00000380: 992f 533d 83ff 793c 3da9 833e 9a9d 483e
00000390: 1901 b13d 588f 3f3e 0acb cfbd 02dc e83d
000003a0: b76b 74bc 5876 913c 4808 12bf df3c 953e
000003b0: 79ab 74be c4c0 883b e152 1ebd 2cb7 613e
000003c0: 23f4 2e3e aff9 5b3e a584 8bbd cf9f 803e
000003d0: 165b cf3c 3f3e 3b3d 41d2 153e db9a 843d
000003e0: 005a 953e 92ac 853e 0117 48bd 106d 243e
000003f0: 15d5 513d f95d d3bb 06c8 9c3e d535 6b3e

l1.bias f4 [128]
-0.2024255 0.40196347 -0.043208648 -0.09430433 0.39462414 0.69976074 0.6855868 0.7096253
0.47945577 -0.16796008 0.024257673 0.108669914 0.25747195 -0.89996636 0.35569257 -0.42440915
0.037486196 0.45504194 0.111751094 -0.7396973 -0.43166453 -0.11957484 0.32645836 -0.422849
0.31849936 0.40064433 0.21723309 -0.101415545 0.16241127 -0.15283689 -0.083209 -0.3778011
-0.008439037 0.56064695 0.24138665 0.5192257 -0.13930884 -0.14098762 0.049779534 0.44846797
-0.5130962 0.26292393 0.40926003 -0.46246725 -0.5394442 -0.098265015 -0.3560149 -0.33154112
0.031241098 0.45461014 0.3823048 0.060867257 0.39280474 0.44547287 -0.16985936 0.29201123
0.60624886 0.46975935 -0.028086752 0.24320993 0.30298877 -0.32972437 -0.14086081 -0.41728714
0.56015456 0.7055538 0.42518157 -0.2971141 0.1451384 0.27299488 0.5084361 0.50252813
0.05164211 -0.50989056 -0.09343754 -0.32210293 0.3466185 0.01317437 -0.28442615 -0.40048552
0.34362108 -0.56823045 0.37433487 -0.30006167 -0.14194556 0.09757662 0.5979927 0.13181941
-0.5626805 -0.10552169 0.4710343 -0.32072207 0.5979719 -0.022219026 -0.23224491 0.1211327
0.14868407 -0.09131261 0.50292605 -0.20263855 0.44405624 0.01901777 0.34790134 0.7581317
0.011383524 0.5306234 0.2391463 0.5810516 -0.16448028 0.42689764 -0.2985231 -0.13187571
0.60003406 0.1570662 0.48527396 -0.22675417 0.23470056 0.21227418 0.14780016 -0.20070969
0.28761598 0.6120041 -0.08677951 -0.11250706 0.34133893 0.6230554 -0.47118977 -0.28389114
00000000: a148 4fbe 28ce cd3e 8dfb 30bd a122 c1bd
00000010: 2d0c ca3e 8523 333f 9e82 2f3f 01aa 353f
00000020: 3a7b f53e bafd 2bbe 07b8 c63c 558e de3d
00000030: 5dd3 833e 3264 66bf 561d b63e 284c d9be
00000040: 208b 193d 42fb e83e c2dd e43d cd5c 3dbf
00000050: 2203 ddbe a7e3 f4bd 8d25 a73e aa7f d8be
00000060: 5912 a33e 4121 cd3e 5a72 5e3e f4b2 cfbd
00000070: 244f 263e 4681 1cbe 7b69 aabd 256f c1be
00000080: e343 0abc 8f86 0f3f 102e 773e faeb 043f
00000090: faa6 0ebe 0f5f 10be a0e5 4b3d 989d e53e
000000a0: 465a 03bf f79d 863e 888a d13e 82c8 ecbe
000000b0: 0419 0abf 2b3f c9bd 9647 b6be c2bf a9be
000000c0: 55ed ff3c a9c2 e83e 74bd c33e f24f 793d
000000d0: b41d c93e 0515 e43e 9def 2dbe 7f82 953e
000000e0: 2033 1b3f 4c84 f03e 3016 e6bc 060c 793e
000000f0: 5821 9b3e a2d1 a8be d13d 10be a9a6 d5be
00000100: 4a66 0f3f 2d9f 343f 66b1 d93e 571f 98be
00000110: 299f 143e fcc5 8b3e de28 023f afa5 003f
00000120: ad86 533d 3088 02bf 2e5c bfbd adea a4be
00000130: fb77 b13e 50d9 573c 4ea0 91be 700c cdbe
00000140: 1aef af3e 8d77 11bf d2a8 bf3e afa1 99be
00000150: 2d5a 11be 40d6 c73d 0d16 193f abfb 063e
00000160: d40b 10bf c11b d8bd 682b f13e af35 a4be
00000170: b014 193f ad04 b6bc 9cd1 6dbe 6c14 f83d
00000180: a340 183e 1b02 bbbd c3bf 003f 7b80 4fbe
00000190: 575b e33e 28cb 9b3c 2020 b23e eb14 423f
000001a0: f681 3a3c efd6 073f c5e2 743e ccbf 143f
000001b0: 856d 28be 5492 da3e 05d8 98be 6d0a 07be
000001c0: d59b 193f f6d5 203e d475 f83e 3f32 68be
000001d0: 5855 703e 675e 593e ed58 173e d786 4dbe
000001e0: 6742 933e 4dac 1c3f 75b9 b1bd 1a6a e6bd
000001f0: fac3 ae3e 8f80 1f3f c93f f1be 2e5a 91be

l2.weight f4 [64, 128]
-0.1469435 0.12133827 -0.39519337 -0.031917945 0.04192215 0.017090809 0.21535212 0.0968897
0.08094741 0.35161635 -0.8906497 -1.6732892 -0.14673868 -0.37982464 0.106706314 -0.3727249
-0.68573403 -0.035011243 0.027112035 -1.2276075 -0.5084754 -1.0272554 0.30462566 0.44706255
0.048378903 0.16315465 0.07928856 0.015822392 -1.0224363 0.023846753 -0.67077434 -0.4128985
0.082359746 0.14417906 0.15142909 0.13620797 0.694728 -0.31979042 -0.533125 0.26396778
-0.124909446 -0.045659292 -0.002361786 -0.43640724 -0.7234985 0.27610198 -0.20718691 -0.27434808
-1.1018898 0.19720617 0.09338167 0.38984916 0.0151852835 0.0032587128 -0.08208712 -0.81354296
0.083852485 0.09906728 -0.93166703 -0.036940802 -2.8575118 -0.20158571 1.3762413 -0.24580884
0.062730394 0.052095976 0.0029855855 -0.1325426 0.0022536374 0.14223404 0.11349259 -0.040402208
0.40322903 -0.5380498 0.022193603 -1.1788735 0.1777723 -0.276319 -0.09275479 -0.46075836
0.022184087 -0.38029224 0.096570976 -0.31177828 0.19748765 0.061859623 0.09963652 -0.3620001
-0.37841785 0.0124477 0.10482085 0.19428346 0.18016636 -0.34888792 -0.04261287 0.039550714
-0.24900036 -0.24440005 0.072080806 -0.36711544 0.21251191 0.046285354 -0.8864912 0.17687897
0.09448948 0.27942067 -0.70042914 0.11164992 -0.14906617 0.25755185 -0.21193537 0.035814643
0.20530595 -0.020452464 0.08401821 -0.4802776 -0.30348167 -0.07840645 -0.19520035 -0.39411685
-0.5887765 0.018346429 0.26584408 -0.11039088 0.31654942 -0.0022982217 -1.0394839 0.27827564
-0.31111586 0.0755927 -0.43464047 -0.04930538 0.18085828 0.08689992 0.16022764 0.016290328
0.16300622 0.120881744 -0.8212908 -1.6288217 0.05832403 -0.4066174 0.037210252 -0.5125212
-0.7682366 0.12208032 -0.025981063 -1.3980447 -1.039295 -1.0973494 0.34214044 0.47903547
0.051037975 0.018195178 0.10899192 0.108939484 -0.8269941 -0.055778466 -1.2582595 -0.5737298
-0.20908484 0.08361699 0.12240611 0.15447968 0.8092089 -0.41499367 -0.51959264 0.1875274
-0.36667025 0.051676862 0.052800648 -0.54525346 -0.7356348 0.48058715 -0.11483987 -0.0027819322
-1.148261 0.49390408 0.105063014 0.5493783 0.08173192 0.14256354 0.05586431 -0.89113957
0.21504419 -0.025385084 -0.7897159 0.15927583 -3.0964177 -0.3275478 1.4992111 -0.08059784
-0.013603983 0.07432748 0.085413046 -0.0947155 -0.022456452 0.27462146 0.013878046 0.13234396
0.48012826 -0.4826652 -0.044808283 -1.8199543 0.19545409 -0.33601248 -0.03087193 -0.49515212
-0.011471084 -0.31625637 0.17470904 -0.6433536 0.5118898 -0.040327422 0.009871635 -0.4905026
-0.36053586 0.052362405 0.06558184 0.20058672 0.046970434 -0.2725599 -0.063086726 0.060909502
-0.13248411 -0.19612096 0.12097367 -0.46922064 0.17985265 -0.030961696 -0.5753528 0.12700906
-0.041617993 0.28816965 -0.68478805 0.08089671 -0.24888146 0.21115237 0.010801217 0.07690684
0.22596708 -0.13848296 0.15388483 -1.1313785 -0.0140414545 0.08282402 -0.19723877 -0.37166765
-0.6831702 0.09214405 0.27812755 -0.16806218 0.3077156 0.043710586 -0.9349953 0.34254625
00000000: 5b78 16be 3380 f83d c956 cabe 64bc 02bd
00000010: 8fb6 2b3d 0602 8c3c 4485 5c3e 1b6e c63d
00000020: c1c7 a53d 0f07 b43e 9e01 64bf 572e d6bf
00000030: aa42 16be 6078 c2be d788 da3d ccd5 bebe
00000040: 448c 2fbf f367 0fbd 0f1a de3c 3e22 9dbf
00000050: 722b 02bf 1b7d 83bf e5f7 9b3e 62e5 e43e
00000060: f528 463d 0312 273e 0a62 a23d f69d 813c
00000070: 31df 82bf 445a c33c deb7 2bbf 6f67 d3be
00000080: 3aac a83d ada3 133e 3a10 1b3e 1a7a 0b3e
00000090: b2d9 313f 92bb a3be e17a 08bf c926 873e
000000a0: 86d0 ffbd 3d05 3bbd 32c8 1abb c570 dfbe
000000b0: 3337 39bf 3d5d 8d3e ce28 54be 5a77 8cbe
000000c0: ba0a 8dbf 6af0 493e e43e bf3d 4f9a c73e
000000d0: b2cb 783c 2190 553b 4b1d a8bd 5a44 50bf
000000e0: daba ab3d c9e3 ca3d bb81 6ebf 3d4f 17bd
000000f0: 79e1 36c0 7c6c 4ebe ad28 b03f 50b5 7bbe
00000100: cb78 803d 9762 553d d0a9 433b 3fb9 07be
00000110: c3b1 133b cda5 113e ce6e e83d c97c 25bd
00000120: 0974 ce3e a2bd 09bf 5ccf b53c 54e5 96bf
00000130: f109 363e af79 8dbe 39f6 bdbd 85e8 ebbe
00000140: 67bb b53c aab5 c2be 01c7 c53d 67a1 9fbe
00000150: 343a 4a3e 8460 7d3d 3b0e cc3d 1458 b9be
00000160: fcbf c1be 70f1 4b3c 50ac d63d 3ef2 463e
00000170: 887d 383e 70a1 b2be d58a 2ebd eeff 213d
00000180: f3f9 7ebe 0244 7abe 1a9f 933d 8ef6 bbbe
00000190: b99c 593e b695 3d3d 16f1 62bf c31f 353e
000001a0: b383 c13d 3a10 8f3e 534f 33bf b7a8 e43d
000001b0: cda4 18be d6dd 833e 9605 59be 60b2 123d
000001c0: b93b 523e ed8b a7bc bd11 ac3d f2e6 f5be
000001d0: f361 9bbe 9093 a0bd 9ae2 47be afc9 c9be
000001e0: 0fba 16bf 404b 963c b71c 883e 9d14 e2bd
000001f0: c412 a23e c39d 16bb cf0d 85bf 257a 8e3e
00000200: 944a 9fbe 58d0 9a3d 3289 debe 70f4 49bd
00000210: ea32 393e 96f8 b13d b712 243e 4b73 853c
00000220: 1aeb 263e d990 f73d 1d40 52bf 3b7d d0bf
00000230: 2ee5 6e3d 2830 d0be c769 183d 9734 03bf
00000240: 27ab 44bf 3f05 fa3d 3dd6 d4bc 21f3 b2bf
00000250: 9e07 85bf f275 8cbf 082d af3e 2344 f53e
00000260: 320d 513d 0e0e 953c 2837 df3d aa1b df3d
00000270: e3b5 53bf f677 64bd a60e a1bf f5df 12bf
00000280: 561a 56be 623f ab3d 0eb0 fa3d ec2f 1e3e
00000290: 5128 4f3f 0d7a d4be 0604 05bf 2f07 403e
000002a0: 34bc bbbe 1eab 533d 7e45 583d bb95 0bbf
000002b0: 9052 3cbf 850f f63e 2a31 ebbd 1451 36bb
000002c0: 37fa 92bf ffe0 fc3e 472b d73d 0ea4 0c3f
000002d0: 1163 a73d 2dfc 113e fad1 643d b921 64bf
000002e0: 8b34 5c3e 61f4 cfbc d22a 4abf 3419 233e
000002f0: b52b 46c0 58b4 a7be 26e6 bf3f 7b10 a5bd
00000300: 3ee3 5ebc 0139 983d 09ed ae3d 33fa c1bd
00000310: 98f6 b7bc 2f9b 8c3e be60 633c 2d85 073e
00000320: 5fd3 f53e e51f f7be e488 37bd 43f4 e8bf
00000330: 1e25 483e d409 acbe 21e7 fcbc 9484 fdbe
00000340: 37f1 3bbc 5bec a1be ede6 323e d2b2 24bf
00000350: 360b 033f 5e2e 25bd a3bc 213c 2823 fbbe
00000360: 2898 b8be f679 563d c64f 863d 9b66 4d3e
00000370: 1264 403d f98c 8bbe 9d33 81bd 3e7c 793d
00000380: eaa9 07be efd3 48be 0bc1 f73d b03d f0be
00000390: 4b2b 383e 62a3 fdbc 524a 13bf aa0e 023e
000003a0: a177 2abd f98a 933e 454e 2fbf 2dad a53d
000003b0: c8da 7ebe 5438 583e 96f7 303c 5581 9d3d
000003c0: ea63 673e 7ace 0dbe fc93 1d3e 03d1 90bf
000003d0: 210e 66bc a49f a93d f6f8 49be 394b bebe
000003e0: 3ee4 2ebf 05b6 bc3d bc66 8e3e 7e18 2cbe
000003f0: e68c 9d3e df09 333d da5b 6fbf 3962 af3e

l2.bias f4 [64]
0.52046543 0.4076959 0.44170612 -0.2393139 -0.374042 -0.027125806 -0.20878783 0.47431523
-0.28366572 0.42042914 0.4969297 0.55294186 0.38455793 -0.2873308 0.49715182 0.079877004
0.5090609 -0.23942742 0.4304627 0.38142928 -0.27819353 -0.34321457 -0.26181132 0.4131625
-0.046994958 0.07135353 0.4235192 0.034615055 0.43178326 0.4886211 0.4981904 0.46711394
0.07435836 -0.27106002 -0.25025854 -0.2643549 -0.2157482 0.08633796 -0.49664116 -0.34154212
-0.38336673 0.46515632 0.19619675 0.47108972 0.012789027 -0.3213443 -0.032694355 0.42994487
0.5668012 -0.05201334 0.5750724 -0.098762244 0.52944845 -0.17810631 -0.22620799 -0.31385332
-0.37760472 0.45310992 -0.06085792 0.49271205 -0.35779706 -0.24823233 0.42498863 0.5177805
00000000: 393d 053f 84bd d03e 4e27 e23e b40e 75be
00000010: 6f82 bfbe f036 debc 7acc 55be 72d9 f23e
00000020: a23c 91be 7d42 d73e 926d fe3e 998d 0d3f
00000030: c7e4 c43e 061d 93be af8a fe3e 8e96 a33d
00000040: d151 023f 762c 75be 9b65 dc3e b34a c33e
00000050: 626f 8ebe d2b9 afbe 220c 86be 098a d33e
00000060: c97d 40bd cd21 923d 82d7 d83e 84c8 0d3d
00000070: b212 dd3e 8b2c fa3e d012 ff3e 8f29 ef3e
00000080: 3249 983d 61c8 8abe e321 80be 8759 87be
00000090: 19ed 5cbe f5d1 b03d c047 febe 9cde aebe
000000a0: a548 c4be f828 ee3e cde7 483e ac32 f13e
000000b0: 1189 513c 3d87 a4be 84ea 05bd bc21 dc3e
000000c0: e219 113f f10b 55bd f237 133f dc43 cabd
000000d0: ef89 073f 8061 36be 11a3 67be 62b1 a0be
000000e0: 6855 c1be 06fe e73e 2846 79bd c144 fc3e
000000f0: 2d31 b7be 9e30 7ebe 1c98 d93e 438d 043f

l3.weight f4 [1, 64]
0.8861068 0.82554036 0.9795818 -0.51846343 2.7639236 -5.196132 -1.693143 0.8270453
-0.61697656 0.7225527 0.8283436 0.8804451 0.85675037 -0.5311143 0.8210233 0.01744052
0.727776 -0.540379 0.7300786 0.84707695 -0.55581653 -0.5293501 -0.6001002 0.91323817
0.092618994 0.030613905 0.7415729 0.07661513 0.78509575 1.1085509 0.74316204 0.72283185
-4.667676 -1.3605294 -0.7656798 -0.439606 -0.5099274 -4.840959 2.6808538 -0.70034814
-0.5487126 0.6905008 -4.0491295 0.99305266 -0.06767145 -0.4754981 0.09628259 0.97138727
0.9021131 0.05129181 0.85036725 -3.8804457 0.84108204 -1.5876427 -0.5526675 -0.5892036
-0.52258927 0.7297164 -0.02343361 0.7809145 -0.58278656 -0.5286304 1.0479833 0.7267978
00000000: e5d7 623f 9d56 533f dfc5 7a3f 05ba 04bf
00000010: 20e4 3040 b746 a6c0 e9b8 d8bf 3eb9 533f
00000020: 2df2 1dbf 37f9 383f 530e 543f da64 613f
00000030: fe53 5b3f 1bf7 07bf 952e 523f 6cdf 8e3c
00000040: 874f 3a3f 4756 0abf 6ee6 3a3f 09da 583f
00000050: fe49 0ebf 7d83 07bf 2ba0 19bf fac9 693f
00000060: 07af bd3d 03ca fa3c b9d7 3d3f 65e8 9c3d
00000070: 09fc 483f ffe4 8d3f de3f 3e3f 820b 393f
00000080: 9a5d 95c0 d425 aebf 9703 44bf 0a14 e1be
00000090: 9a8a 02bf 23e9 9ac0 1c93 2b40 044a 33bf
000000a0: 6e78 0cbf a9c4 303f 7892 81c0 b338 7e3f
000000b0: 5497 8abd 7d74 f3be ce2f c53d d6ac 783f
000000c0: e2f0 663f 5c17 523d abb1 593f 3959 78c0
000000d0: 2751 573f e037 cbbf 9e7b 0dbf 0cd6 16bf
000000e0: 69c8 05bf b2ce 3a3f d8f7 bfbc 03ea 473f
000000f0: 8031 15bf 5254 07bf 5124 863f 6c0f 3a3f
