turtlebot3_machine_learning/turtlebot3_td3/steer&spd/models111/TD3_stage2_critic_2_target.pth (torch_old, 50151 bytes, 5 tensors)

l1.weight f4 [128, 30]
000000 9c 0f 12 3d 52 70 92 3c 6c 01 66 bd ce 7c 24 bd
       0.035659418 0.017875824 -0.0561537 -0.040158086
000010 90 3d 98 bd 50 12 9c bd 67 f3 ae 3c aa 33 ff 3c
       -0.07433617 -0.0762068 0.021356298 0.031152565
000020 71 d2 e9 39 f9 2e 2a bd 13 e3 5f bd 06 bd ab 3d
       0.00044598014 -0.041548703 -0.054659914 0.08385663
000030 2e f0 63 be e8 04 81 bc 7a 7e b5 bd 47 6c 01 be
       -0.2225959 -0.01574941 -0.08862014 -0.12638961
000040 5b 24 92 be db 25 16 be ab 4d 35 bd ce ac 6f 3d
       -0.28543362 -0.14662878 -0.044263523 0.05851441
000050 36 72 8a 3d 9f c8 11 3e e1 d8 35 3e 38 a9 5b bd
       0.06760065 0.14236687 0.17758514 -0.053628176
000060 c9 97 42 3f fb d9 e4 3d 2e f5 96 3f 53 52 d4 3d
       0.76012856 0.11174389 1.1793573 0.103672646
000070 30 d8 98 3d 23 25 2b 3e df c6 a0 3d 0f 6f 94 3c
       0.074631095 0.16713385 0.07850432 0.018119363
000080 7a c3 92 3d 3d da ce 3d bc bb 3c 3d 40 75 fc 3d
       0.071661904 0.101002194 0.046077475 0.12327051
000090 98 21 4e 3e 74 cf 96 bb 84 6c 63 bd 01 ec d4 3e
       0.20130002 -0.004602367 -0.05552341 0.41586307
0000a0 6c 9e a1 3e 55 0a 68 bd dd 37 36 be b7 4b 27 3e
       0.3156618 -0.05665048 -0.17794748 0.16337477
0000b0 b4 46 0e bc 69 78 34 3e 82 6d 3c bd 80 c9 35 3d
       -0.008683849 0.17624058 -0.046002872 0.04438162
0000c0 d0 56 70 3e bb 47 98 be ea fe cf be 51 a0 8b 3e
       0.23470616 -0.29742226 -0.40624171 0.2727075
0000d0 ba 47 21 3e a4 b1 3b 3e 9b 9d ea 3d 20 64 77 3d
       0.15750018 0.18329483 0.11455842 0.06039822
0000e0 98 b2 e9 bb e4 9b 64 be 08 01 fe bd f6 f9 75 ba
       -0.0071318857 -0.22325093 -0.124025404 -0.00093832554
0000f0 98 92 7d 3d ab 82 ae 3c a0 85 b4 3e 14 82 c9 3e
       0.06190738 0.021302542 0.35258198 0.39357054
000100 24 4c 69 3d 81 a3 fc 3d 8e d9 b1 3d ba 81 55 be
       0.05695738 0.123358734 0.086840734 -0.20850268
000110 73 0c be 3d 09 d8 26 3e b1 6d 8d bd 16 26 62 be
       0.09279718 0.16293348 -0.069056876 -0.22084841
000120 ae 8f 90 bd 1a 4d ba 3d 93 23 67 3c 7b ba af 3c
       -0.07058655 0.09096737 0.014107603 0.021451226
000130 20 5f de bd 59 23 74 3d 1e 86 a4 3e 4b 14 7a 3e
       -0.108579874 0.059604023 0.32133573 0.24421804
000140 ed b7 22 bd 35 93 03 be c0 08 09 3e d6 5a 56 be
       -0.039726187 -0.12849124 0.13382244 -0.20933089
000150 e6 1f 56 be 6e e1 49 3f c0 b4 37 bf 9d 1a 7b 3e
       -0.20910606 0.78859603 -0.7176018 0.24521871
000160 15 a2 be 3d d8 4e a6 bd f3 61 66 3e 22 46 93 3d
       0.093082584 -0.08120507 0.22498302 0.07191111
000170 68 83 f2 bd 65 98 85 be bc 90 f9 be 6a f4 9f be
       -0.1184147 -0.2609283 -0.48743236 -0.3124116
000180 ca 30 e3 3d c4 dc 3c be e8 86 93 be e4 2a d4 be
       0.1109329 -0.1844359 -0.28813863 -0.41438973
000190 28 ff 28 be b8 37 3b be 4d b8 02 be bb 14 41 be
       -0.16503584 -0.18282974 -0.12765618 -0.18855564
0001a0 45 f3 10 3e af 46 38 3d fc ce d6 3d 8f f3 7b 3e
       0.141553 0.044989284 0.10488698 0.24604629
0001b0 78 f9 8e 3e c0 4b 11 3d 0b f8 3a 3e 5d 08 a6 3e
       0.27924705 0.03547263 0.18258683 0.32428256
0001c0 54 9b c1 3e 14 b3 3f bb d1 b0 f3 be fb f4 10 3c
       0.37813818 -0.0029251026 -0.47595838 0.00884747
0001d0 c4 89 e9 3e bc 87 37 3d 24 bd 9e be cc 94 c7 3d
       0.4561292 0.04480718 -0.31003678 0.097451776
0001e0 33 ad d5 3e 71 03 bf 3d e6 11 ca 3d 56 b2 b1 3d
       0.41733703 0.09326828 0.09866695 0.08676593
0001f0 f2 94 81 bd 1d 92 13 bd 24 6f 83 3c 8c 04 6c bd
       -0.06327237 -0.036028016 0.016044207 -0.057621524
000200 41 b1 48 bd d9 49 19 3d 7e 18 e9 3d eb d6 d2 bd
       -0.048997167 0.037423942 0.11381625 -0.102948986
000210 7a 93 5c 3d f3 f6 e7 bc da 86 1b 3d 64 6b 89 3e
       0.053851582 -0.028315997 0.0379704 0.26839745
000220 c3 a2 89 3e 0e ab 83 3e 7d 70 a9 3d 36 9f 74 3e
       0.2688199 0.25716442 0.082734086 0.23888859
000230 bc a1 2e 3e 31 d0 97 be 10 66 f1 3d 3b ce 9b 3e
       0.17053884 -0.29651025 0.11787045 0.3043078
000240 2c 9f ab be 27 08 92 3d 54 4e 5a be 2a 8d 0d be
       -0.33519876 0.07130461 -0.21318942 -0.13823381
000250 cb 67 11 be d9 1e e8 3d aa 77 6b be d0 8c 8c be
       -0.1419975 0.11334009 -0.22994867 -0.2745118
000260 b8 8e 89 3d 93 3f 30 3e f1 b1 4b 3e 12 5b 95 3e
       0.067166746 0.17211752 0.19892098 0.29171044
000270 d1 a9 dd 3d 86 7d b1 bd da f5 8f bb cb ce 52 3e
       0.108234055 -0.0866652 -0.0043933215 0.20586698
000280 2c 29 31 be 68 b1 34 3d 8b 97 34 3e 40 d6 77 bc
       -0.17300862 0.0441145 0.17635934 -0.015126765
000290 df ba 31 3e 56 5b 25 3e 38 5d 06 be 2e 65 bc bc
       0.17356442 0.16148123 -0.13121498 -0.022997465
0002a0 c8 af 3b bd 91 15 d1 bd 75 c3 7f bd 10 7f fe bd
       -0.045821935 -0.102091916 -0.06244226 -0.12426579
0002b0 3b 92 fa 3d a7 da 4d be ae 55 db be 25 42 ff 3e
       0.122349225 -0.2010294 -0.42838806 0.49855152
0002c0 13 f1 32 3e e5 e2 eb bc ba c6 d9 3e c2 48 15 be
       0.17474775 -0.028794715 0.4253443 -0.14578536
0002d0 e1 a2 35 be dd a0 5e be 89 37 8d 3d 94 7d 61 3e
       -0.17737915 -0.21741052 0.06895358 0.2202056
0002e0 b2 94 aa ba fa f2 9e 3d 09 03 c2 3c 7e 36 25 be
       -0.0013014285 0.07761188 0.023683088 -0.16134068
0002f0 93 f1 9c 3d 3c a1 e9 bd ea 04 00 be e4 9a af be
       0.07663264 -0.11407706 -0.12501875 -0.3429786
000300 ac 1c 1f be f2 e2 44 be 56 98 df 3b eb 56 82 bd
       -0.15538281 -0.19227198 0.00682358 -0.063642345
000310 dc 09 e2 bb 49 0c a2 3d 17 ee 45 3d 62 d8 89 3e
       -0.006898148 0.079124995 0.048322763 0.269229
000320 f1 ea c5 3e 50 04 68 3e a2 a4 b6 bc 80 19 72 bd
       0.3865581 0.22657895 -0.0222953 -0.05910635
000330 4e 02 12 be 78 b2 03 bd 57 6b 06 bf 28 f1 14 3c
       -0.14258692 -0.032152623 -0.5250754 0.009090699
000340 df 62 e0 3d 77 83 c9 3c 55 82 54 3d 11 c2 17 3e
       0.10956358 0.02459882 0.051882107 0.14820124
000350 84 1a f2 3d 5f 46 c1 3d 8b 7d b7 bc 75 2e 1e bc
       0.11821464 0.0943725 -0.02239873 -0.009654631
000360 a2 eb 5c 3e 6a 80 d7 3d 2c 9a bd 3d 1b 57 1e be
       0.21574262 0.1052254 0.092579216 -0.15462916
000370 8b 74 b8 bc 61 0c 24 bd 22 b8 27 be 79 72 b0 bc
       -0.02251651 -0.040050868 -0.16378835 -0.02153896
000380 4d 35 08 be 91 0b 23 3d fb da cf bc a5 bc 20 3e
       -0.13301583 0.039805952 -0.025372973 0.15696962
000390 e5 5c 45 3e e4 cd ee bc 6e 3e 50 bd 65 08 6a 3d
       0.19273718 -0.02915091 -0.050840788 0.057136912
0003a0 ce 8c 31 3e e5 07 96 3d 6d 6c 14 bf 6b 62 00 3f
       0.17338869 0.073257245 -0.57977945 0.50150174
0003b0 22 0d 8b 3e 72 4a bf 3b ca 83 05 3e 1e 1a 34 be
       0.27158457 0.005837732 0.13038555 -0.17588088
0003c0 83 66 fd 3c c1 52 14 3b eb 90 69 bd 85 2f 43 3e
       0.03093267 0.0022632333 -0.05702297 0.19061096
0003d0 dc 7d 80 3d f9 5b 85 3d 68 9c ad 3d 22 96 ce 3d
       0.06274006 0.06511683 0.08477098 0.10087229
0003e0 f6 af 27 3e 8c 3d 4f 3e 16 b5 be 3d 77 94 b2 3d
       0.16375718 0.20238322 0.09311883 0.08719724
0003f0 bd 2a d7 3d ab 2f f5 3c e0 7e b2 bc 0d 93 bd bc
       0.105061986 0.029929956 -0.021789014 -0.023141408

l1.bias f4 [128]
000000 7a e7 80 3e 68 49 01 3f e4 4f 49 3f a8 84 81 3d
       0.25176603 0.50502634 0.7863753 0.0632413
000010 3b 75 82 be 0d a7 13 3f 58 b2 a1 bd 3f b7 ac 3e
       -0.25480065 0.57676774 -0.078953445 0.33733556
000020 22 69 db 3e 91 e4 02 be a7 81 72 3e 91 d0 d2 3d
       0.42853647 -0.12782504 0.23682271 0.10293687
000030 7d b7 86 3e e3 b8 b8 bb 6c 10 d0 bd 94 b3 b4 3e
       0.26311865 -0.0056372746 -0.10159382 0.35293257
000040 43 e0 8f 3c 00 ef d1 3e 83 d0 4e 3e 20 1c 24 3c
       0.017562991 0.41002655 0.20196728 0.010016471
000050 8d 64 a5 3e 7c a6 05 3e b0 f9 45 3d 19 d5 78 be
       0.32303277 0.1305179 0.048333824 -0.2430004
000060 bb 36 a7 be 12 2c 84 3d b0 f5 24 3c 2b fe c2 3e
       -0.32658944 0.06453718 0.010068342 0.3808454
000070 0c 7d 31 bf 0c ae bd 3e 82 ff 16 3f 7d 34 d4 3e
       -0.6933143 0.3704685 0.58983624 0.41446295
000080 a8 3a b4 3d bd 8a ef 3e 6c b3 bd be 44 47 ce 3e
       0.0880025 0.46785536 -0.3705095 0.40288746
000090 e3 8b 67 3e c0 86 f0 3e ee 8e 96 3e 58 15 18 3f
       0.22611956 0.46977806 0.29405922 0.5940757
0000a0 a6 24 06 3e 20 2d 89 3c 03 c1 cb be 06 60 67 3e
       0.13099918 0.01674515 -0.39795694 0.22595224
0000b0 19 d4 d0 3e 35 ef b9 3e eb a8 d9 bd 48 3e 54 3e
       0.40786818 0.36315313 -0.10627922 0.20726883
0000c0 3a 29 bc bd 67 54 27 bd 80 b4 cd 3e 19 ec 88 bd
       -0.09187551 -0.040851977 0.40176773 -0.06685657
0000d0 fd fe aa 3e b9 95 ff 3e c3 7e 68 be 25 da 40 bd
       0.33397666 0.49918917 -0.22704606 -0.04708304
0000e0 5c 88 15 3e 3a 84 31 3f 36 4d a4 3d 20 62 06 3f
       0.14602798 0.69342387 0.08022539 0.52493477
0000f0 46 db 1c 3f d4 9b f8 3e 8c 88 b3 3d 56 d1 22 3f
       0.61272085 0.48556387 0.087662786 0.6360067
000100 80 3e 29 bd 1a 37 11 3e cc b7 67 be 92 91 37 3c
       -0.04131937 0.14181176 -0.22628707 0.01120414
000110 e5 9e 1f 3f 90 99 96 3f 5b 84 56 3c 2d 31 9c 3e
       0.6235183 1.1765614 0.013093079 0.30506268
000120 c6 8c f0 be ac 57 8b 3d 27 f2 00 3e 41 8e 02 b9
       -0.46982402 0.068038315 0.12592374 -0.0001245076
000130 3d 2f 33 be 96 71 c3 bd 84 5e b3 3e b5 a6 79 3e
       -0.17498489 -0.09543149 0.35033047 0.2438
000140 49 5c 0f 3f c9 fa ff bd 8f 5e bd be 41 8b 03 3f
       0.5600019 -0.12499005 -0.36986205 0.5138436
000150 21 e9 2c be 26 3f 18 3f 91 fb 6b 3e 79 88 2d be
       -0.16885807 0.59471357 0.23045184 -0.16946591
000160 50 0d 07 be dc d6 ac 3e 9b 02 3a be 77 3f ae bd
       -0.13188672 0.33757675 -0.18165056 -0.08508199
000170 dd 15 38 be 0d db 1b 3f df 7b 80 be 76 89 b3 3d
       -0.1797709 0.6088112 -0.25094506 0.08766453
000180 58 90 40 3f 57 a6 09 3f 8f bf 04 3f 11 d5 65 3e
       0.7522025 0.5376944 0.51854795 0.2244456
000190 12 75 e6 3e 21 8c b5 3b 82 b3 08 bd 67 f2 d9 3e
       0.45011193 0.0055403863 -0.033374317 0.4256775
0001a0 31 b7 d7 bd dc c8 50 3f a7 e1 c5 3e 57 f7 0d 3f
       -0.10532988 0.8155649 0.38648722 0.55455536
0001b0 29 8f 3e 3e 31 4b 26 3f 68 27 c2 be 2e 6a 02 be
       0.18609299 0.64958483 -0.3792069 -0.12735817
0001c0 c1 ca 89 3e 36 4d 43 bc 0f 17 4b 3f db 71 ff bc
       0.269125 -0.011920264 0.7933206 -0.03118222
0001d0 8a a0 49 3d 22 6e 25 3f 33 33 61 be b0 6e 35 3e
       0.049225368 0.64621174 -0.21992187 0.17718005
0001e0 fd 04 27 3d 08 47 8c 3e 54 19 3f 3f d4 cc 06 be
       0.04077624 0.27397943 0.7464802 -0.13164073
0001f0 dd 4a 92 3e 7a f2 b5 bd b7 a7 b1 3e e6 d2 c3 3e
       0.2857274 -0.08884139 0.3469827 0.3824684

l2.weight f4 [64, 128]
000000 2a 47 4e bf e6 77 16 3e ce ca 64 bc b9 ff d1 be
       -0.8057734 0.14694175 -0.013964368 -0.41015413
000010 62 16 e7 3e b2 a4 7d be 7c f0 55 3f e8 7a 82 be
       0.45134264 -0.24769858 0.83570075 -0.25484395
000020 02 31 df 3e 03 09 2a 3f e4 00 81 3f bb d9 33 40
       0.43592077 0.6642 1.0078397 2.8101642
000030 34 ce ab be 6f 2a 34 3f a8 4b 2d 3c 8e ef cf 3d
       -0.33555758 0.7037725 0.01057712 0.10153113
000040 83 45 ad 3e 15 c2 e7 be be 91 7f be c4 28 14 bf
       0.33842096 -0.4526526 -0.2495794 -0.57874703
000050 e8 d9 eb be b4 04 0b 3f 1e a5 a5 3f a6 25 2d 3e
       -0.46064687 0.5430405 1.2941015 0.16908893
000060 a3 47 26 3f c5 bb c0 be 07 5d 36 bf f3 64 a8 3f
       0.6495306 -0.37643257 -0.712357 1.3155807
000070 c8 3d 15 3f f6 5c 0c bf 15 e0 df 3e 41 c2 e9 be
       0.58297396 -0.5482935 0.4372565 -0.45656016
000080 7b e1 65 bd b6 b1 0a be ee c0 83 3f 7f 12 d6 be
       -0.056123238 -0.13544354 1.0293252 -0.41810986
000090 e1 7d 52 3f 96 dd f1 be 5d 67 9a 3f 1c ad 05 bf
       0.82223326 -0.4723937 1.2062794 -0.5221727
0000a0 73 69 69 be 9c c3 32 bd ca eb 79 3e fd 00 52 3f
       -0.22794132 -0.04364358 0.24406353 0.8203276
0000b0 51 c0 57 3f 83 42 39 bf e1 a8 83 3f a5 f1 7b 3d
       0.84277827 -0.72367114 1.0285913 0.061509747
0000c0 23 d8 a9 3f 01 52 57 3e fb b7 07 3f c0 5b 61 bf
       1.3269085 0.21027376 0.53015107 -0.88030624
0000d0 2f 92 de 3e 04 c4 45 3f b9 00 91 3e 14 9d 9b bf
       0.43470904 0.7725222 0.28320864 -1.2157311
0000e0 02 59 89 3f 02 7c 43 bd 23 f9 06 3f 30 83 c0 bd
       1.0730288 -0.047725685 0.527239 -0.09400022
0000f0 ad dd ca bd ef 9d 99 bd 7a b2 7c bf dd f3 2d 3e
       -0.099055625 -0.075008266 -0.98709834 0.16987558
000100 a9 f4 39 3e 8f ce a7 be d9 a9 a9 bf 53 5f 00 3e
       0.18159737 -0.3277478 -1.3254958 0.12536363
000110 97 7b c2 3d c4 90 7f 3e 14 a7 43 3e e1 ab dd be
       0.09496229 0.24957567 0.19106704 -0.43295196
000120 b8 a0 88 3e df 26 c8 3e e0 f7 43 bf 0b 0e a9 3f
       0.2668512 0.39092156 -0.765501 1.320741
000130 38 76 19 bc f8 9e ed ba 94 9f e8 be 7e 54 5b be
       -0.009366564 -0.0018129041 -0.45434248 -0.2141895
000140 95 e0 e1 3c 57 b2 e0 3e ce f6 41 3d de bf da bd
       0.02757291 0.43886063 0.047354512 -0.10681127
000150 72 35 2c 3f 8a 03 e6 be 82 17 a6 3d b0 aa 91 3e
       0.6726905 -0.44924575 0.081099525 0.28450537
000160 27 2f 09 bf 38 a7 d0 be 5a 79 5c 3e 4d 08 10 3c
       -0.53587574 -0.40752578 0.21530667 0.008791042
000170 e8 5a 1a bf 8d ec 0e bd 3c b5 7f 3e 2c 62 ef be
       -0.6029496 -0.03489356 0.24971479 -0.46754587
000180 20 a6 b7 3d cb 13 b3 bd 8e 95 dd bc 16 11 17 be
       0.08967233 -0.087440096 -0.027048852 -0.14752612
000190 28 b1 d1 be f7 f1 92 3f e5 94 ef 3e 77 81 cd 3d
       -0.40955472 1.1480092 0.46793285 0.10034459
0001a0 33 f7 64 bd 22 49 35 3e 0f e1 bc 3e ce 45 a3 bd
       -0.05589981 0.17703679 0.36890456 -0.079722986
0001b0 bd a8 6b be e5 e1 37 3a 6c d5 1c 3f e0 04 78 3f
       -0.23013587 0.0007014557 0.61263156 0.9688244
0001c0 ca dd ab 3e bf c3 05 3d ab 34 b0 bd 5c 2b 7b 3f
       0.3356765 0.03265738 -0.086037956 0.98113036
0001d0 e0 d7 a5 be 8e 25 c4 bd 96 74 ef 3e a4 3c 3b 3f
       -0.32391262 -0.095774755 0.46768636 0.73139405
0001e0 22 dc eb 3e 92 11 9c be 91 28 07 3f 56 c0 87 3f
       0.46066386 -0.30482155 0.52796274 1.0605571
0001f0 ec 5a 3e be 81 a1 8d bf 37 10 b8 3f 3b 91 7b bd
       -0.18589371 -1.1064912 1.4379948 -0.0614178
000200 fc 0a 0b bf 85 99 bb 3e 31 98 e6 3d 04 e8 29 bc
       -0.54313636 0.36640564 0.11259497 -0.010370258
000210 5e 62 da 3e 6f 5d 94 be b2 23 df 3e 3f e6 24 be
       0.42653173 -0.28977534 0.4358192 -0.16103457
000220 c3 8c eb 3e ba 11 a4 3e e8 04 77 3f 5d 4b e3 3f
       0.4600583 0.32044774 0.9649186 1.7757374
000230 1d 17 02 be 7b 7c 0e 3f 58 e0 0a 3d 6c fa 65 3d
       -0.1270413 0.5565869 0.033905357 0.056147024
000240 cb 41 20 3f c3 17 26 bf a4 cb dc bd 2b dd a6 bf
       0.6260039 -0.6488001 -0.10781029 -1.3036245
000250 5c 12 43 3e 28 c1 47 3f df bc b9 3f b2 8a 23 3e
       0.19049972 0.7802911 1.4510764 0.15970877
000260 e6 10 12 3f a6 f7 c2 be 1a ba 2b 3d 9e 25 87 3f
       0.57057035 -0.38079566 0.041925527 1.0558355
000270 5e d2 91 3f 38 9b ca be a5 bb 0f 3d dd 60 05 bf
       1.1392324 -0.39571548 0.03509106 -0.52100927
000280 da 8c 5b 3d 88 b4 85 be a7 ce 82 3f a0 c6 fc be
       0.053601123 -0.26114297 1.0219315 -0.4937029
000290 ce 8b bf 3f a0 1f ed be 89 04 81 3d 30 b6 6b bf
       1.496454 -0.4631319 0.06299693 -0.9207487
0002a0 6e be 2f bd 7a 88 d8 bc a0 b0 d1 3e ca 1f 5b 3f
       -0.042906217 -0.026432265 0.40955067 0.8559538
0002b0 2d 93 a8 3e 49 2e 19 bf a9 c7 c5 3e 47 54 c8 3c
       0.32924786 -0.5983625 0.3862889 0.02445425
0002c0 5b c8 9d 3f f8 66 79 3e 5b ae 7a 3f 32 56 6d bf
       1.2326769 0.24355686 0.97922295 -0.9270965
0002d0 7e 40 e5 3e d8 56 91 3f 4f 86 b9 3e f5 c2 1d bf
       0.44775766 1.1354628 0.36235282 -0.61625606
0002e0 68 e1 1a 3e 28 0e 80 3d 53 34 7a 3f 14 83 67 bd
       0.15125048 0.062527 0.9773609 -0.05652149
0002f0 46 68 de 3b ca 06 ba bd ae a7 f6 be 13 6d 53 bd
       0.0067873327 -0.09083326 -0.48174804 -0.051617693
000300 29 de 30 3e 82 47 a8 bd fc 5c 7e bf c7 c5 2e 3e
       0.17272247 -0.08216764 -0.9936063 0.17067634
000310 fe 10 19 3e 0e b3 ab 3e 9a 9d 8b 3e 28 d1 27 bf
       0.14947888 0.33535045 0.27268678 -0.6555352
000320 35 d5 d4 3e 8d 3c 5b 3e e3 e1 90 bf ca 59 ca 3f
       0.41568914 0.21409817 -1.1318935 1.5808651
000330 85 26 30 bd 98 13 87 3e 67 f4 48 bf 20 ad 13 be
       -0.043005485 0.26382136 -0.7849793 -0.1442151
000340 2e e6 70 3e ac fa 19 3e cd a2 da 3d 2a f5 8f ba
       0.23525307 0.1503703 0.10675583 -0.0010983099
000350 98 ac 64 3f a2 fa 23 bf ad 03 38 3e 9c 9a 3b 3e
       0.8932586 -0.6405431 0.17970152 0.18320698
000360 b6 33 84 bf ea cb 3d bf 2a e4 08 3f 73 4c 65 bd
       -1.0328281 -0.74139273 0.5347315 -0.05598111
000370 ff da bb bd e6 4f f9 3c ca 39 5e 3e c9 b3 e5 be
       -0.091726296 0.030433606 0.21701732 -0.44863728
000380 c9 1e 3d 3d 67 1a a4 bd e0 2a 11 bb 6e c3 85 3e
       0.046171937 -0.08012848 -0.00221508 0.26125664
000390 74 6c 2e bf 72 77 91 3f 69 74 9d 3f 7c e0 df 3d
       -0.68134236 1.1364577 1.230115 0.10931489
0003a0 48 79 88 3e 63 23 03 3f 55 df 69 3f c8 63 7c 3d
       0.2665503 0.5122587 0.913564 0.061618596
0003b0 09 4a 88 bd a5 af e1 3c d7 8a 51 3f d1 c0 91 3f
       -0.06654746 0.027549574 0.8185248 1.1386968
0003c0 d5 51 16 3e 46 32 75 bf f9 dc aa bc 09 67 c1 3f
       0.14679654 -0.95779836 -0.020857321 1.5109569
0003d0 a5 aa f2 bd c6 a4 ef bd c9 eb 96 3d 61 b3 59 3d
       -0.11848954 -0.1170135 0.07369191 0.053149585
0003e0 98 ea 7a bf e3 8a f2 bd e4 0f b8 3d 1a c2 59 3f
       -0.9801421 -0.11842897 0.08987406 0.850618
0003f0 15 f5 e5 bd bf 2c af bf 6c 25 c3 3f 47 e7 57 3d
       -0.11228386 -1.368553 1.5245795 0.052710798

l2.bias f4 [64]
000000 ef 36 91 3e ba 4b 8d be 9e f7 1d bf c0 a9 a1 be
       0.28362224 -0.27596837 -0.6170596 -0.3157482
000010 1b c4 1c 3f 66 ba 2c 3d 7e f8 26 3f 5a bd 27 3f
       0.61236733 0.04216995 0.6522292 0.655233
000020 36 16 e4 be c6 8a e4 be 79 2d c4 be 94 18 03 3d
       -0.44548196 -0.44637126 -0.38315943 0.03200586
000030 b7 e5 a4 bd d8 75 2d 3f 66 b2 a8 3d 4a c8 2a bd
       -0.08051627 0.6775794 0.08237152 -0.041694917
000040 8d b7 24 3f f1 09 44 3f 9c 13 2c 3f 7a d9 45 be
       0.64342576 0.7657767 0.6721742 -0.19321242
000050 46 a7 87 be 5c ab 1c 3d 0c 81 23 3f 87 97 2f 3f
       -0.26494807 0.03824936 0.63868785 0.6859059
000060 cb 47 84 3d b5 f8 36 3f 0d d3 8f 3e 47 a4 39 be
       0.06459006 0.71473247 0.28090706 -0.18129073
000070 a0 05 ae be 3f 03 35 3e a7 28 23 3f b9 27 32 3f
       -0.33988667 0.1767702 0.63733906 0.6959186
000080 b2 75 a4 be 01 ba 06 3e 69 bc 37 3e ac 44 2f 3f
       -0.32121044 0.13156892 0.17942967 0.6846416
000090 f5 b9 84 be 9b 5c 1a 3f c0 7b 34 3f 71 2e 32 bd
       -0.25923124 0.60297555 0.7050133 -0.04350132
0000a0 f9 f6 1f 3f 67 a5 a5 be de 96 9e bd 6e 17 31 3f
       0.62486225 -0.32352754 -0.077436194 0.69176376
0000b0 41 64 41 bd 6d ce 34 3f 80 8b 54 bc 8a d5 7e be
       -0.04721475 0.7062748 -0.0129727125 -0.24886146
0000c0 58 df 77 be 80 26 44 3d 3c af 3b 3e 57 5c ec 3d
       -0.24206293 0.04788828 0.18328565 0.1154105
0000d0 c3 35 67 be 91 06 21 3f af 20 21 bd c6 df 84 be
       -0.22579102 0.62900645 -0.03933781 -0.25951976
0000e0 61 3a 1f bf db df 89 3e 37 17 6c 3e c7 83 2b 3f
       -0.62198454 0.269286 0.23055731 0.6699795
0000f0 a9 99 43 3f 8f 8b 17 3f cd 11 7b be 77 62 52 3e
       0.7640634 0.59197325 -0.24518509 0.20545374

l3.weight f4 [1, 64]
000000 0f 25 a3 c0 d8 9f 05 c0 26 94 77 bf af eb 25 c0
       -5.0982738 -2.087881 -0.9671043 -2.59251
000010 99 00 f2 3e ae 75 a9 bd 71 27 f9 3e af 1e f6 3e
       0.4726608 -0.08274399 0.48662904 0.48070285
000020 f0 15 e9 bf 15 6c ac bf 3b 45 a3 bf 41 7e de 3d
       -1.820982 -1.3470484 -1.2755502 0.10863925
000030 0f cd b5 3d d8 66 39 3f db b4 c3 bf 6a a3 83 bd
       0.088770024 0.7242255 -1.5289568 -0.06427653
000040 a5 d2 3d 3f 93 a4 3d 3f a4 6c 39 3f bc f6 a5 bf
       0.74149543 0.74079245 0.724314 -1.2965922
000050 dc e9 f1 bf f6 11 c1 bf 6e 60 f6 3e 87 31 46 3f
       -1.8899493 -1.5083606 0.48120445 0.7741932
000060 50 0a 3b 3d eb f2 45 3f 42 e0 c7 bf ee 68 34 bf
       0.04566413 0.7732379 -1.5615313 -0.7047261
000070 78 86 b9 bf f0 b0 ea bf bb 7e 27 3f f2 a5 f8 3e
       -1.4494162 -1.8335247 0.6542775 0.48564106
000080 8d 62 3c bf bf 8c 63 c0 05 4a 7d c0 13 e7 01 3f
       -0.73587877 -3.5554655 -3.9576428 0.50743216
000090 3c ad d0 bf 2d 17 16 3f 23 b3 ea 3e 24 f9 1d c0
       -1.6302867 0.58629113 0.45839795 -2.4683313
0000a0 2f 79 07 3f 9c 4e 0b c0 2a 99 ef bd b3 2a e1 3e
       0.52919286 -2.176673 -0.116991356 0.4397789
0000b0 64 7e 84 bd 52 0a 14 3f cc ec 52 bd a4 ff 79 bf
       -0.064694196 0.5782825 -0.05149536 -0.976557
0000c0 91 c6 2f bf 89 5e d9 3d 87 ff 81 c0 3f 66 62 c0
       -0.68662363 0.10613734 -4.0624423 -3.5374906
0000d0 99 70 47 bf d9 67 00 3f e4 92 8c c0 05 f4 15 c0
       -0.77906185 0.5015846 -4.392931 -2.3430188
0000e0 52 80 78 bf 34 03 8e c0 e3 be 2c c0 95 5c 33 3f
       -0.970708 -4.437891 -2.6991508 0.70063144
0000f0 4c e9 1c 3f fb cc 07 3f 89 c5 a0 bf ad bd 4c c0
       0.6129348 0.5304715 -1.2560283 -3.199077
