turtlebot3_machine_learning/turtlebot3_td3/steer&spd/models16/TD3_stage2_crtic_2.pth (torch_old, 50151 bytes, 5 tensors)

l1.weight f4 [128, 30]
0	0xbbf404dd	-0.007446869
1	0x3d440009	0.047851596
2	0xbdba0672	-0.090832606
3	0x3d693361	0.056933764
4	0xbe1f5d0d	-0.1556284
5	0xbe06b840	-0.13156223
6	0x3d80ac72	0.06282891
7	0x3c32bead	0.010909718
8	0x3defbf45	0.11706404
9	0xbcd425ea	-0.025896985
10	0x3d4949bf	0.049142595
11	0x3d7404c4	0.059574857
12	0xbe495670	-0.1966188
13	0xbda65d27	-0.08123236
14	0x3cf07ccb	0.02935638
15	0xbb63e7d6	-0.0034775636
16	0xbe10eb28	-0.14152205
17	0xbe3f2023	-0.18664603
18	0xbda9eefb	-0.08297535
19	0x3ceea78e	0.02913263
20	0x3dae1d7e	0.08501719
21	0x3ce528ed	0.027973616
22	0x3e0f2385	0.13978393
23	0xbdc9e7fb	-0.098587
24	0x3f3f5f27	0.74754566
25	0xbdc4538e	-0.09586249
26	0x3fa38000	1.2773438
27	0x3d900721	0.0703261
28	0x3bc7ea74	0.006100947
29	0x3e2f4025	0.17114313
30	0x3def3d83	0.11681654
31	0x3d1e836c	0.038699552
32	0xbe1a80d6	-0.1508821
33	0x3e1c8e12	0.1528857
34	0x3d12479b	0.03571282
35	0xbdbf4b11	-0.0934049
36	0x3e50dd63	0.20396952
37	0x3d32e5c8	0.043676168
38	0x3db1bb6a	0.086783245
39	0x3ebdc3f0	0.3706355
40	0x3e95960b	0.29216036
41	0x3c81b474	0.015833117
42	0xbe3004e1	-0.17189361
43	0x3e4f8e06	0.20269021
44	0xbda229e3	-0.079181455
45	0x3e8bcdb5	0.2730538
46	0xbd03bdd2	-0.03216345
47	0x3e0ab46d	0.1354539
48	0x3e0c35e3	0.13692431
49	0xbe73ac55	-0.23796208
50	0xbed00b51	-0.40633634
51	0x3ed860be	0.42261308
52	0x3e34e8b4	0.17666894
53	0x3e6edb2a	0.23325792
54	0x3d170dd1	0.03687841
55	0x3e1aecd2	0.15129402
56	0xbd2f93e0	-0.042865634
57	0xbe712bf7	-0.23551928
58	0xbe78a539	-0.24281777
59	0x3e611c5e	0.21983477
60	0x3df38143	0.11889889
61	0x3e151b42	0.1456118
62	0x3eb73c85	0.3578836
63	0x3ead8959	0.3389385
64	0x3d4bd180	0.04976034
65	0x3e60817e	0.21924397
66	0x3decb51a	0.1155798
67	0xbdc4f534	-0.09617081
68	0x3e1f049b	0.155291
69	0x3e824c03	0.25448617
70	0x3da5be92	0.08092989
71	0xbe2b295e	-0.16714999
72	0xbc6485b0	-0.013947889
73	0x3de3f16f	0.11130034
74	0x3c17d427	0.00926689
75	0x3d5e7b46	0.05431678
76	0xbdc4f182	-0.096163765
77	0x3d29406f	0.041321214
78	0x3e0101dd	0.12598367
79	0x3ddeaf3f	0.10873269
80	0xbdab39f2	-0.083606616
81	0xbe95f1ba	-0.29285985
82	0x3e327522	0.17427495
83	0xbe160374	-0.14649755
84	0xbd9cd453	-0.07657685
85	0x3fe75fbe	1.8076093
86	0xbea2034a	-0.31643134
87	0x3e3ca139	0.18420877
88	0xbd9c3145	-0.07626585
89	0xbdcf2fed	-0.10116563
90	0x3e8844fe	0.26615137
91	0x3dcf4a5d	0.101216055
92	0xbe7e7dbe	-0.24852654
93	0xbe3ecb78	-0.18632305
94	0xbe69b593	-0.22823171
95	0xbde69d73	-0.112605
96	0x3d82373f	0.063581936
97	0xbe902794	-0.28155196
98	0xbe8cbc3e	-0.27487367
99	0xbe6f0eaa	-0.23345438
100	0xbde8c694	-0.11366001
101	0xbeb642d8	-0.35597873
102	0xbe4f10dd	-0.20221277
103	0xbe5b548a	-0.21418968
104	0x3dfbbef3	0.1229228
105	0x3e09643d	0.13417144
106	0x3ddfe754	0.10932794
107	0x3e3b6e4e	0.18303797
108	0x3e3895d4	0.18025905
109	0x3dec1d57	0.11529034
110	0x3e85e5d7	0.26151916
111	0x3ec0b6a1	0.37639335
112	0x3eafaa14	0.34309447
113	0x3d30be12	0.043150015
114	0xbe106952	-0.14102677
115	0xbe1d99e4	-0.15390736
116	0x3ec89abe	0.3918056
117	0x3daac5ba	0.083384946
118	0xbe6ae20d	-0.22937794
119	0xbd5636b6	-0.05229827
120	0x3ef93a70	0.48677397
121	0x3de54f19	0.11196727
122	0xbc37f4ee	-0.011227829
123	0x3e4c17e9	0.19930996
124	0xbd2a37fd	-0.0415573
125	0xbd09fa17	-0.03368577
126	0x3dd2a984	0.10286239
127	0xbddfde81	-0.10931111
128	0xbc1940b3	-0.009353804
129	0x3e1024ee	0.14076588
130	0x3e328c5e	0.17436358
131	0xbcfacbfa	-0.030614842
132	0x3e06dde1	0.13170578
133	0x3c39513d	0.011310873
134	0xbccd4084	-0.025055178
135	0x3def3442	0.11679889
136	0x3ddda0ff	0.10821723
137	0x3e517768	0.20455706
138	0xbcf8708b	-0.030327102
139	0x3dfad7d7	0.122481994
140	0x3e2c981b	0.16854899
141	0xbed6081e	-0.41803068
142	0xbd02157c	-0.03175877
143	0x3ec7bcf2	0.3901134
144	0x3e4b0925	0.19827707
145	0x3e0bd113	0.13653974
146	0xbeeeca48	-0.46638703
147	0xbdeca879	-0.11555571
148	0x3d056342	0.032565363
149	0xbd367e0b	-0.044553798
150	0xbe02edce	-0.12786028
151	0xbe65c446	-0.22438154
152	0x3d67a1d3	0.056550812
153	0x3e522cd9	0.2052492
154	0x3e3db418	0.18525732
155	0x3e90a51d	0.2825097
156	0x3de99a3d	0.11406372
157	0xbd8f0b7d	-0.06984613
158	0xbce41eba	-0.027846683
159	0x3e666349	0.22498812
160	0xbe27cfa5	-0.16387804
161	0x3d50e09b	0.05099545
162	0x3e5144db	0.20436423
163	0x3d161e95	0.03665026
164	0x3e1d00c9	0.15332331
165	0x3e1f04b3	0.15529136
166	0xbe004a79	-0.12528409
167	0x3ac742fd	0.0015202459
168	0x3b145ee7	0.0022639574
169	0xbda770b7	-0.081757955
170	0xbbf26c13	-0.0073981374
171	0xbe0a9c27	-0.1353613
172	0x3e083854	0.13302737
173	0xbddf3a19	-0.10899753
174	0xbef04f0e	-0.46935314
175	0x3f4b6b74	0.79460835
176	0x3ed0ee57	0.4080684
177	0x3bce92ba	0.0063041123
178	0x3e9134d3	0.28360614
179	0xbe396ec4	-0.1810866
180	0xbeb115c6	-0.34586924
181	0xbd8035e0	-0.06260276
182	0x3e97f31b	0.29677662
183	0x3e96c7ab	0.2944921
184	0x3a4f47cc	0.0007907122
185	0x3d8aeac2	0.06783058
186	0xbba76de3	-0.005109535
187	0xbddf1b59	-0.10893888
188	0xbd040f0d	-0.032240916
189	0xbe3692c4	-0.17829424
190	0xbe2ea71c	-0.17055935
191	0xbe8582f9	-0.26076487
192	0xba9e53e7	-0.0012079448
193	0xbd07b549	-0.03313187
194	0xbdd13b00	-0.102163315
195	0xbd9cc10a	-0.07654007
196	0xbd4b5771	-0.049643937
197	0xbc6f23f0	-0.0145959705
198	0x3dd15d6e	0.102228984
199	0x3d552574	0.05203767
200	0x3e8015ea	0.2501672
201	0x3e692a8d	0.22770138
202	0xbe8d9c6c	-0.27658403
203	0xbe73fc50	-0.23826718
204	0xbdb56d74	-0.08858767
205	0x3dcac838	0.0990147
206	0xbe87dc2c	-0.26535165
207	0x3daa88f1	0.08326901
208	0x3d03234c	0.032016084
209	0x3c08b6ac	0.008344334
210	0x3c8e891a	0.01739936
211	0x3e001e6e	0.12511608
212	0x3dad1ff3	0.084533595
213	0x3dc15c26	0.09441404
214	0xbd6b8064	-0.05749549
215	0xbb7c62d1	-0.0038511048
216	0x3e420b8f	0.18949722
217	0x3df43571	0.11924256
218	0x3dcd88c9	0.10035855
219	0xbe00b77c	-0.12569994
220	0x3d11b5e9	0.035573874
221	0xbbf93623	-0.0076053306
222	0xbdda4d75	-0.10659305
223	0x3d039973	0.032128762
224	0xbe04cc94	-0.12968665
225	0x3d786972	0.060647435
226	0xbd85687f	-0.06514072
227	0x3e1ff59e	0.1562104
228	0x3e0ad689	0.13558401
229	0xbde6d9f5	-0.11272041
230	0xbdb8bda7	-0.09020548
231	0x3cc8f2ac	0.024529777
232	0x3e16971d	0.14706083
233	0x3cf45693	0.029826438
234	0xbf06ccbc	-0.5265615
235	0x3f509372	0.81474984
236	0x3edb23e9	0.42800835
237	0xbb2a9e0d	-0.0026034147
238	0x3cc15366	0.023599338
239	0xbe2e8d6d	-0.17046137
240	0xbb82292a	-0.0039721923
241	0xbd9ad3c4	-0.07559922
242	0xbd256e78	-0.040388554
243	0x3e0f5815	0.13998444
244	0x3d96aa45	0.07356695
245	0x3e02b9d7	0.12766205
246	0x3dcd4a7b	0.10023972
247	0x3e20feb6	0.15722165
248	0x3e8fdd6c	0.2809862
249	0x3e96c700	0.294487
250	0x3e6c57ab	0.23080318
251	0x3d4c735e	0.04991471
252	0xbd7a791a	-0.061150648
253	0xbd814dfe	-0.06313704
254	0xbd5c9be4	-0.053859606
255	0xbd9d5601	-0.076824196

l1.bias f4 [128]
0	0x3e8651d5	0.26234308
1	0x3eb49ff3	0.35278282
2	0x3f30d075	0.6906808
3	0xbc7d3205	-0.01545382
4	0xbe692a8e	-0.2277014
5	0x3f14acba	0.5807606
6	0xbe0a2110	-0.13489175
7	0x3ece03e3	0.4023734
8	0x3e85ec8d	0.26157036
9	0xbc100a37	-0.008791498
10	0x3e364a7f	0.17801856
11	0x3d35df4a	0.0444024
12	0x3f0515bb	0.51986283
13	0xbcc2552e	-0.023722257
14	0xbdd0106c	-0.10159382
15	0x3f0c8e14	0.54904294
16	0xbe3df73b	-0.18551342
17	0x3eb1ceb1	0.34728006
18	0x3e974728	0.29546475
19	0x3ebdd03b	0.3707293
20	0x3e492d36	0.19646153
21	0x3e4f08dc	0.20218223
22	0x3ca844b7	0.020540578
23	0xbe8b6fb9	-0.27233675
24	0xbeba109f	-0.36340806
25	0x3dd56829	0.104202576
26	0x3dfe8418	0.12427539
27	0x3ea6be95	0.32567278
28	0xbf020e78	-0.5080333
29	0x3eb76484	0.35818875
30	0x3ebb0c6d	0.36532918
31	0x3edc2ca8	0.4300282
32	0x3db43aa8	0.0880025
33	0x3eec9b92	0.4621244
34	0xbec23cf1	-0.3793712
35	0x3eb43031	0.35193017
36	0xbb96d638	-0.0046031736
37	0x3eebb64a	0.46037513
38	0x3eb580a5	0.3544971
39	0x3f0e2151	0.55519587
40	0x3efa2f82	0.4886437
41	0x3c892d20	0.01674515
42	0xbe7edb11	-0.24888255
43	0x3e1bbdd8	0.15209138
44	0x3e6304c7	0.22169791
45	0x3ed33534	0.41251528
46	0xbe5389e0	-0.20658064
47	0x3e05af63	0.13055186
48	0xbe50b665	-0.20382078
49	0xbd416fe3	-0.047225844
50	0x3eaf966c	0.3429445
51	0xbd74bef1	-0.05975241
52	0x3e05c5a3	0.13063674
53	0x3ea37c5b	0.31930813
54	0xbe8f6285	-0.28004852
55	0x3d21a4e5	0.039463896
56	0x3dafa670	0.08576667
57	0x3f2c1c0f	0.67230314
58	0xbe7a7657	-0.24459206
59	0x3f141044	0.5783732
60	0x3eebb7ff	0.46038815
61	0x3f2666c6	0.6500057
62	0x3da74c57	0.081688575
63	0x3f236729	0.63829285
64	0xbdce6ab7	-0.10078948
65	0x3eb6b413	0.3568426
66	0xbd959fec	-0.07305893
67	0xbd772be7	-0.060344603
68	0x3f2196ee	0.63120925
69	0x3f682874	0.90686727
70	0x3c2be306	0.010491138
71	0x3e6c0305	0.23048027
72	0xbebd5eba	-0.36986333
73	0xbdb56a10	-0.088581204
74	0x3e311c41	0.17295934
75	0xbd3b599c	-0.045739755
76	0xbe332f3d	-0.17498489
77	0x3edc2e6d	0.4300417
78	0x3ea8210d	0.32837716
79	0x3ea086d1	0.31352857
80	0x3f0c688a	0.54847014
81	0xbe36e778	-0.17861736
82	0xbe0d899a	-0.13822022
83	0x3f02670d	0.50938493
84	0xbe164125	-0.14673288
85	0x3f052962	0.5201627
86	0xbd637d70	-0.05553955
87	0xbe9bade1	-0.30406097
88	0x3bc4433e	0.005989461
89	0x3e8e8e7d	0.27843085
90	0xbdffcd3e	-0.12490319
91	0xbdae3fde	-0.085082754
92	0xbd9bb73a	-0.07603307
93	0x3ef813e4	0.48452675
94	0xbea17ba9	-0.31539658
95	0x3e5cb182	0.21552089
96	0x3f1c3ac0	0.61027145
97	0x3f0ca7e7	0.549437
98	0x3f03549c	0.5130098
99	0x3ddcdb84	0.10784057
100	0x3ec600f0	0.3867259
101	0xbd6a118c	-0.05714564
102	0xbe9ee963	-0.31037435
103	0x3f06e377	0.52690834
104	0x3f1071d0	0.56423664
105	0x3f4471a3	0.76735896
106	0x3eae4c79	0.3404272
107	0x3f24015c	0.64064574
108	0x3ea5904b	0.3233665
109	0x3f3456e6	0.70445096
110	0xbebfb75b	-0.37444577
111	0xbeae5283	-0.34047326
112	0x3d41fff5	0.04736324
113	0x3cf1dd4f	0.029524473
114	0x3f2fbbe3	0.6864607
115	0xbd9b6a1b	-0.075885974
116	0x3da83de3	0.08214929
117	0x3f1e1ce1	0.61762816
118	0xbe90a4fe	-0.2825088
119	0xbd176ecb	-0.036970895
120	0x3e672440	0.22572422
121	0x3e9df32b	0.30849585
122	0x3f0b364d	0.5437973
123	0xbe2157cc	-0.15756148
124	0x3ec3bf1f	0.3823175
125	0xbd3289ac	-0.043588325
126	0x3e735d3c	0.23766035
127	0x3ee6b975	0.45063367

l2.weight f4 [64, 128]
0	0xbf248bff	-0.6427612
1	0x3ea074bf	0.3133907
2	0x3c9e6009	0.019332903
3	0xbe6dbe60	-0.23217154
4	0x3f03a33a	0.5142094
5	0xbe64829f	-0.22315453
6	0x3eaa3a2a	0.332475
7	0xbe3c8e00	-0.18413544
8	0xbf1b2939	-0.60609776
9	0x3e980900	0.29694366
10	0x3f3d0025	0.73828346
11	0x40073cba	2.1130815
12	0xbe3621bf	-0.1778631
13	0x3f196295	0.5991605
14	0x3c2d4ba8	0.01057712
15	0x3e04732c	0.1293456
16	0x3eba316e	0.36365837
17	0xbf04aeb3	-0.5182907
18	0xbe683e97	-0.22680126
19	0xbf084922	-0.5323659
20	0xbe2901ec	-0.1650464
21	0x3f729ec4	0.9477351
22	0x3fa1537f	1.2603606
23	0x3dafd9a2	0.08586432
24	0x3f3a0dd7	0.7267737
25	0xbeb621ee	-0.3557276
26	0xbf0a8a30	-0.5411711
27	0x3f6a7484	0.9158404
28	0x3f10681f	0.56408876
29	0xbf8d55c8	-1.1041803
30	0x3f151549	0.58235604
31	0xbf0e0a27	-0.5548424
32	0xbd65e17b	-0.056123238
33	0xbe17e6b9	-0.14834107
34	0x3f801109	1.0005199
35	0xbee59fca	-0.44848472
36	0x3e83dbce	0.25753635
37	0xbee29a68	-0.44258428
38	0x3faa02b4	1.3282075
39	0xbf0a9674	-0.54135823
40	0xbe21a6c0	-0.15786266
41	0xbd32c39c	-0.04364358
42	0x3e82f56f	0.25577876
43	0x3f5178e5	0.81825095
44	0x3f3ab815	0.72937137
45	0xbf3da419	-0.7407852
46	0x3f60a576	0.87752473
47	0x3ca5a070	0.020218104
48	0x3f93f9a7	1.1560563
49	0x3e310c31	0.17289807
50	0x3f3275db	0.69711083
51	0xbf93a133	-1.1533569
52	0x3e57d832	0.21078566
53	0x3f067e3e	0.5253638
54	0x3e5d5d35	0.21617587
55	0xbf51916f	-0.8186254
56	0x3f87308c	1.056169
57	0xbd3f65bd	-0.046727885
58	0x3eb59ff6	0.35473603
59	0x3d95fd10	0.073236585
60	0xbe405fc0	-0.18786526
61	0x3e38a03d	0.18029876
62	0xbf7ed573	-0.9954445
63	0x3e61a65a	0.22036114
64	0x3e08a194	0.13342887
65	0xbe95b002	-0.29235846
66	0xbfec3b57	-1.8455609
67	0x3d9f2b4b	0.07771929
68	0x3d96c514	0.073618084
69	0x3dafe492	0.08588518
70	0x3e1d3708	0.15353024
71	0xbeea0df3	-0.45713767
72	0x3e8b4b81	0.27206042
73	0x3eb9975f	0.362483
74	0xbe4c62bd	-0.1995954
75	0x3f3c1ef6	0.7348474
76	0xbc197638	-0.009366564
77	0x3e02c2c0	0.12769604
78	0xbee9937a	-0.45620328
79	0xbe5dcc83	-0.21660046
80	0x3d083c63	0.033260714
81	0x3eead66a	0.4586671
82	0x3f1316cf	0.5745668
83	0xbd64feb1	-0.055906955
84	0x3f4a44d0	0.7901125
85	0xbf15f42f	-0.5857572
86	0x3d0c674a	0.03427819
87	0x3e5740cd	0.21020813
88	0xbf141e7c	-0.57859015
89	0xbeeef5e6	-0.4667198
90	0x3e64530d	0.22297306
91	0x3c1007b9	0.008790904
92	0xbf076730	-0.52891827
93	0xbc9c4095	-0.019073764
94	0x3e1d5e9c	0.15368122
95	0xbe1cbf3c	-0.15307325
96	0x3da7bf10	0.08190739
97	0xbd623904	-0.055230156
98	0xbcf516e1	-0.029918136
99	0x3db2b6ce	0.087262735
100	0xbee39b23	-0.44454297
101	0x3fa3a585	1.2784888
102	0x3f53471e	0.8253039
103	0x3dc10fac	0.09426817
104	0xbcd69f9f	-0.02619916
105	0x3db8f194	0.09030452
106	0x3de97059	0.11398382
107	0xbdabee49	-0.08395059
108	0xbe52124d	-0.20514794
109	0x3aff7ed5	0.0019492755
110	0x3f3cb2a9	0.73710114
111	0x3f6a84ac	0.9160869
112	0x3ea1b144	0.31580555
113	0xbe2f7925	-0.17136057
114	0xbd9c9193	-0.076449536
115	0x3f79e2c2	0.9761163
116	0xbe88dbb2	-0.26730114
117	0xbccf6b54	-0.025319733
118	0x3ee10aae	0.4395346
119	0x3f1cd1fa	0.612579
120	0x3f0c233e	0.54741275
121	0xbe8a7045	-0.2703878
122	0x3e914e75	0.2838017
123	0x3f837c33	1.0272278
124	0xbe216e4b	-0.1576473
125	0xbf92f582	-1.1481173
126	0x3fa40922	1.2815287
127	0xbd47c261	-0.04876936
128	0xbf1875be	-0.5955466
129	0x3f165963	0.58730143
130	0x3df5c95b	0.12001296
131	0xbdf350e0	-0.1188066
132	0x3efd0f5d	0.49425784
133	0xbe939b2a	-0.28829318
134	0x3f6bb816	0.9207777
135	0xbe446f7c	-0.19183153
136	0xbf08dde3	-0.5346357
137	0x3f0cf4a1	0.55060774
138	0x3f8c3b33	1.0955566
139	0x3fddd448	1.7330408
140	0xbe229c9c	-0.15880054
141	0x3f4522b0	0.77006054
142	0x3d0ae058	0.033905357
143	0x3e52fa94	0.206034
144	0x3f3219bd	0.69570524
145	0xbf0f369d	-0.5594271
146	0xbe8d7d36	-0.2763459
147	0xbf957950	-1.1677647
148	0xbe34446a	-0.17604223
149	0x3fc46c4b	1.5345548
150	0x3fc1d72a	1.5143788
151	0x3de30d6c	0.110865444
152	0x3f467f7f	0.77538294
153	0xbed30143	-0.412119
154	0xbf34e8dd	-0.7066782
155	0x3f3a5b5a	0.7279564
156	0x3f8bee6b	1.0932134
157	0xbf98c4ac	-1.193502
158	0x3d125784	0.035727993
159	0xbef5dab4	-0.4801842
160	0x3d5b8cda	0.053601123
161	0xbea1998d	-0.31562462
162	0x3f9596ce	1.1686647
163	0xbee412ad	-0.44545498
164	0x3f92c5ef	1.1466655
165	0xbee6bc19	-0.45065382
166	0x3f03c8c6	0.5147823
167	0xbf5f5f59	-0.87254864
168	0xbe320a25	-0.17386682
169	0xbcd88872	-0.02643225
170	0x3ef09b7a	0.4699362
171	0x3f7666b3	0.96250457
172	0x3e8de308	0.27712274
173	0xbf3628e8	-0.7115617
174	0x3e9f6bce	0.31136936
175	0x3d49d4a4	0.049275056
176	0x3fca7d08	1.5819407
177	0x3e668934	0.22513276
178	0x3f90324c	1.1265349
179	0xbf154954	-0.58315015
180	0x3ee0462a	0.4380353
181	0x3f85f48e	1.0465257
182	0x3e87ba01	0.26509097
183	0xbe88ee78	-0.26744437
184	0x3f0d1540	0.5511055
185	0x3b440150	0.002990801
186	0x3f2f67c5	0.68517715
187	0x3e25dd70	0.16197753
188	0xbe9ea432	-0.30984646
189	0x3e03fa77	0.12888514
190	0xbf81ab8f	-1.013048
191	0x3e1bae6d	0.15203257
192	0x3e0d1116	0.13776049
193	0xbe6553a2	-0.22395185
194	0xbf8489c8	-1.0354548
195	0x3e14b957	0.14523827
196	0x3e1bafbd	0.15203758
197	0x3e9760d2	0.29566056
198	0x3e9fd567	0.312175
199	0xbf22e05c	-0.63623595
200	0x3ec5c330	0.3862548
201	0x3e0d0dac	0.13774747
202	0xbf627f18	-0.8847518
203	0x3f4a75b9	0.7908588
204	0xbd302685	-0.043005485
205	0x3eef1db3	0.46702346
206	0xbf3b5555	-0.7317708
207	0xbe98c8de	-0.2984075
208	0x3e25a72c	0.16177052
209	0x3e2bfbc6	0.16795263
210	0x3edaf73a	0.42766744
211	0xbda691d4	-0.08133283
212	0x3f8710c7	1.0551995
213	0xbf07b069	-0.53003556
214	0x3e33d960	0.1756339
215	0x3e42a88c	0.19009608
216	0xbf50ac12	-0.8151256
217	0xbf419a39	-0.7562595
218	0x3ebf25a8	0.37333417
219	0xbd654c8f	-0.055981215
220	0x3e9fb473	0.3119236
221	0xbcd8e87f	-0.02647805
222	0x3e8a2ea4	0.2698871
223	0xbf5e3cdd	-0.8681162
224	0x3d862c32	0.06551398
225	0xbe0e0213	-0.13867979
226	0xbdcf9d6c	-0.10137448
227	0x3e5419eb	0.20713012
228	0xbf2ec500	-0.6826935
229	0x3fb6dc6e	1.428602
230	0x3f1286f2	0.5723716
231	0x3defca77	0.11708539
232	0x3e103ea9	0.14086403
233	0x3ed70ee5	0.4200355
234	0x3f8295e8	1.0201998
235	0x3ca8eb15	0.020619908
236	0xbe475df4	-0.19469434
237	0xbcdbea8e	-0.026845243
238	0x3f6b6264	0.9194701
239	0x3f50f699	0.8162628
240	0x3dd80a23	0.105488084
241	0xbf6fdb14	-0.9369366
242	0x3ceda8d1	0.029011162
243	0x3fbf7c8f	1.4959887
244	0xbf01475b	-0.50499505
245	0x3da4d8f5	0.08049194
246	0x3dd23c76	0.10265438
247	0xbc0fb642	-0.008771481
248	0xbe88bdff	-0.26707456
249	0xbe439537	-0.1909989
250	0x3e76149a	0.24031296
251	0x3f4a12ac	0.7893474
252	0xbe327056	-0.17425665
253	0xbf745a8e	-0.95450675
254	0x3fa2266c	1.2667975
255	0xbc33650e	-0.010949386

l2.bias f4 [64]
0	0x3de89224	0.11355999
1	0xbe0e9c97	-0.13926922
2	0xbeb9948e	-0.3624615
3	0xbea3dbba	-0.32003576
4	0x3edf50fb	0.4361647
5	0x3d39bc32	0.045345493
6	0x3ef3cb98	0.47616267
7	0x3ef5438f	0.47903106
8	0xbe8730b7	-0.26404354
9	0xbe8c64a0	-0.2742052
10	0xbeb90e09	-0.3614352
11	0x3d03182b	0.03200547
12	0x3d089d7d	0.033353318
13	0x3f002ef0	0.5007162
14	0xbea20200	-0.3164215
15	0xbd44cdcf	-0.048047837
16	0x3eeeddc2	0.46653563
17	0x3f16c0cd	0.5888794
18	0x3efd9afc	0.49532306
19	0xbe0f5a54	-0.13999301
20	0xbe7d8b41	-0.24760152
21	0xbd8f2b3b	-0.069906674
22	0x3eecbebe	0.46239275
23	0x3f0245d9	0.5088783
24	0x3d8447cb	0.06459006
25	0x3f09a998	0.53774405
26	0x3d8e2035	0.06939737
27	0x3cbf57c8	0.023357287
28	0xbde89378	-0.113562524
29	0x3df95aed	0.12175546
30	0x3eebd4a5	0.46060672
31	0x3f050812	0.5196544
32	0xbd758e7a	-0.05995033
33	0xbe5ec6f2	-0.21755579
34	0xb7fa36ae	-2.9827785e-05
35	0x3f022477	0.5083689
36	0xbe85532b	-0.26040015
37	0x3eda5570	0.4264331
38	0x3f076135	0.528827
39	0x3da658c7	0.08122402
40	0x3ee5a82f	0.44854876
41	0xbed14f1f	-0.40880677
42	0xbd9e9712	-0.07743658
43	0x3f03fdfb	0.5155942
44	0xbd4164c1	-0.047215227
45	0x3f07a357	0.5298361
46	0xbc548b80	-0.0129727125
47	0xbe55faf4	-0.20896512
48	0x3afb5c7a	0.001917734
49	0x3d485a99	0.048914526
50	0xbe36d6e3	-0.1785541
51	0x3cc7df1f	0.024398385
52	0xbcdeb9ac	-0.027188145
53	0x3ee7c858	0.45270038
54	0xbd40213d	-0.0469067
55	0xbea0e49e	-0.3142442
56	0xbed62ea2	-0.41832453
57	0x3dc8a061	0.09796215
58	0x3d94e481	0.07270146
59	0x3efc8997	0.49323723
60	0x3f166295	0.58744174
61	0x3ed4c739	0.41558245
62	0x3c9d5ec6	0.01921023
63	0xbe2394fa	-0.15974799

l3.weight f4 [1, 64]
0	0xc08868d4	-4.2627964
1	0xc0115f73	-2.2714508
2	0xbf899c3d	-1.0750805
3	0xc0019111	-2.0244792
4	0x3f20010c	0.625016
5	0xbdaff316	-0.08591287
6	0x3f2ae351	0.6675311
7	0x3f245cee	0.642043
8	0xbfedc9b6	-1.8577182
9	0xbfb35530	-1.4010372
10	0xbfb8744a	-1.4410489
11	0x3dde7d9e	0.10863803
12	0x3f437190	0.7634516
13	0x3f6651e1	0.8996869
14	0xbfaa0b08	-1.3284616
15	0xbd6d43bb	-0.05792592
16	0x3f69b526	0.91292036
17	0x3f6a3d83	0.9150011
18	0x3f648052	0.892583
19	0xbf88ed13	-1.0697349
20	0xbfd3c526	-1.654454
21	0xbf855437	-1.0416325
22	0x3f205cb5	0.6264146
23	0x3f6d39b4	0.92666173
24	0x3d3b0a50	0.04566413
25	0x3f7073e7	0.9392685
26	0xbfe45053	-1.7837013
27	0xbf53f750	-0.82799244
28	0xbfbeb15a	-1.4897873
29	0xc0066331	-2.0998042
30	0x3f5278bb	0.8221547
31	0x3f24f34a	0.6443373
32	0xbf6b8e9d	-0.92014486
33	0xc02eb731	-2.729931
34	0xc059d2dd	-3.403495
35	0x3f2bead8	0.6715522
36	0xbfb11092	-1.3833182
37	0x3f3fcb12	0.74919236
38	0x3f1b128f	0.60575193
39	0xc02366f9	-2.55316
40	0x3f32ceeb	0.6984698
41	0xbff2de3d	-1.8974072
42	0xbdef991a	-0.11699124
43	0x3f138e1d	0.5763872
44	0xbd847de3	-0.064693235
45	0x3f41a326	0.7563957
46	0xbd52eccc	-0.05149536
47	0xbf824151	-1.0176183
48	0xbf4989a9	-0.7872568
49	0x3dd654c3	0.10465386
50	0xc030c53e	-2.7620387
51	0xc04113a8	-3.0168247
52	0xbf63e16f	-0.8901586
53	0x3f278c30	0.65448284
54	0xc08174d6	-4.045512
55	0xc000fb49	-2.0153372
56	0xbf68ca03	-0.90933245
57	0xc08610ac	-4.189535
58	0xbfc7f687	-1.5622109
59	0x3f61f310	0.8826151
60	0x3f4764ee	0.7788838
61	0x3f303766	0.6883453
62	0xbfade9c0	-1.358696
63	0xc036c9c8	-2.8560658
