turtlebot3_machine_learning/turtlebot3_td3/basic_models/TD3_stage1_actor.pth (torch_old, 48103 bytes, 5 tensors)

l1.weight f4 [128, 26]
0.18295495 -0.12482367 0.16673586 -0.03977278 0.039316397 0.09033969 0.18819456 -0.13991356
-0.07744797 -0.027607523 0.06613214 0.16195865 0.14494516 0.022598797 0.09157925 -0.00022226512
0.007220015 0.11510421 0.06612371 0.07071757 -0.060713127 0.17796667 0.19972123 -0.11306422
0.09506118 0.2117377 -0.08338144 0.06258674 -0.18408346 -0.039351687 -0.09960869 -0.017244084
0.039948393 0.07393985 0.18068689 0.1915747 0.10021283 -0.105587825 -0.01019573 -0.18742904
0.17626794 0.11160113 -0.1257368 0.05570579 0.18686144 -0.012945547 0.027206505 -0.036772907
-0.01584323 0.1375898 0.18377349 0.17350455 -0.078743234 0.058452908 -0.09523445 0.06946008
-0.1732476 0.06899543 0.11469698 0.16323896 0.1716997 0.10742793 0.012135945 0.17218786
0.052217145 0.13093852 0.11521172 -0.11133154 -0.19337556 0.027277038 -0.035461955 0.06384418
-0.11529052 0.19971232 -0.09465888 -0.07672881 -0.24255691 0.09422744 -0.11550038 -0.14044747
-0.12165047 0.097756945 0.033107184 0.2023736 -0.12574494 0.011930954 -0.1272592 0.09201349
0.05805782 -0.04456192 0.1942215 0.12887025 0.1061919 0.13062355 -0.043992963 0.10090194
0.1778368 0.052884817 0.056724302 -0.08121829 0.027577141 -0.115634784 0.2213644 -0.0138539625
0.16403584 0.032872718 -0.029369377 0.01930033 -0.044404216 0.10564806 -0.069272235 -0.024767397
-0.089529924 -0.041592218 -0.04497444 0.060952388 0.026900882 0.051370412 -0.007774943 -0.06500884
-0.15424867 -0.095756 -0.17041385 -0.1702622 -0.20576857 0.047590066 -0.010184569 0.01067535
0.22666883 0.09061651 0.15806773 0.05965036 -0.09444295 0.02400977 -0.13207245 0.14499973
0.00070126535 0.04426578 0.013165902 0.15357958 -0.095163904 -0.0042519257 -0.042719964 0.14475182
0.19341876 -0.17800964 0.10801822 -0.09256752 0.12127365 -0.14584768 0.1221718 -0.033788
-0.20482825 0.11842478 0.08310356 -0.1508907 -0.015936464 -0.0007523149 0.06592454 -0.055292487
0.030277938 -0.18926506 0.192147 0.19544767 -0.1837853 0.0797966 -0.18297887 -0.07059412
-0.007036343 0.0010372698 -0.050950244 -0.019814074 -0.13173941 0.059145853 -0.11707495 0.06561352
-0.18028075 0.1956342 -0.16233677 -0.034573853 -0.058628425 0.090917096 -0.19488022 -0.07603202
0.032060593 -0.03464589 0.12664671 -0.09193372 0.07101487 -0.19913982 0.053583894 0.17549948
-0.07285355 -0.18768173 0.16312863 -0.11837167 0.18840161 -0.19076027 0.108086586 -0.0686646
0.03412686 -0.07074367 0.08224081 -0.17192595 -0.121817574 -0.094396375 -0.10823813 -0.032156333
0.088311255 0.13954309 0.020767704 0.109589115 -0.14762713 -0.03439855 -0.01440067 -0.107778154
0.059289988 0.1752176 0.10632061 -0.026112115 -0.12075431 0.0683765 -0.062502414 -0.067210086
0.17590712 0.050760202 -0.027577244 0.1686817 0.14157768 -0.051204897 0.08435574 0.01793994
-0.03665941 -0.06725142 -0.08438443 -0.08179157 -0.016793568 0.09987192 -0.16635987 -0.15881845
-0.12455873 0.054851174 0.15026052 -0.17060286 0.19385865 -0.19765903 0.08606562 0.122282594
0.18127169 0.15370706 -0.08806071 0.13817799 0.08814369 0.07974986 -0.0894359 0.16314536
00000000: 8b58 3b3e 8da3 ffbd cebc 2a3e c8e8 22bd
00000010: 3b0a 213d 0404 b93d 13b6 403e 8045 0fbe
00000020: 0b9d 9ebd 2c29 e2bc 4a70 873d 7dd8 253e
00000030: 816c 143e 1d21 b93c e78d bb3d d70f 69b9
00000040: e095 ec3b c2bb eb3d de6b 873d 60d4 903d
00000050: 54ae 78bd e53c 363e b983 4c3e 378e e7bd
00000060: 70af c23d c5d1 583e e3c3 aabd 7a2d 803d
00000070: 6080 3cbe 3c2f 21bd a4ff cbbd 7743 8dbc
00000080: eda0 233d c76d 973d fc05 393e 282c 443e
00000090: 623c cd3d 6e3e d8bd fe0b 27bc 66ed 3fbe
000000a0: 957f 343e 228f e43d 26c1 00be c12b 643d
000000b0: 9b58 3f3e 8f19 54bc 2de0 de3c 309f 16bd
000000c0: a9c9 81bc 57e4 0c3e 1e2f 3c3e 2dab 313e
000000d0: 2244 a1bd 516c 6f3d 480a c3bd 1641 8e3d
000000e0: d267 31be 7a4d 8d3d 40e6 ea3d 1d28 273e
000000f0: 0cd2 2f3e 2d03 dc3d d8d5 463c 0452 303e
00000100: a5e1 553d bf14 063e 1ff4 eb3d ca01 e4bd
00000110: 3e04 46be 1874 df3c 8e40 11bd bdc0 823d
00000120: 701d ecbd 6381 4c3e 84dc c1bd ff23 9dbd
00000130: d760 78be 51fa c03d 778b ecbd 76d1 0fbe
00000140: e223 f9bd cb34 c83d 669b 073d 063b 4f3e
00000150: 48c3 00be 0c7a 433c 3c50 02be 9271 bc3d
00000160: 09ce 6d3d 8f86 36bd 00e2 463e 90f6 033e
00000170: 247b d93d 2ec2 053e f731 34bd ada5 ce3d
00000180: da1a 363e c09d 583d be57 683d c655 a6bd
00000190: 75e9 e13c eed1 ecbd 59ad 623e bbfb 62bc
000001a0: 03f9 273e 8ba5 063d 0c98 f0bc ba1b 9e3c
000001b0: 32e1 35bd 035e d83d 9ade 8dbd ffe4 cabc
000001c0: 775b b7bd 9a5c 2abd 1e37 38bd 36a9 793d
000001d0: 3d5f dc3c c869 523d f3c4 febb 5b23 85bd
000001e0: 5df3 1dbe b91b c4bd f880 2ebe 3759 2ebe
000001f0: ffb4 52be cded 423d 2edd 26bc aae7 2e3c
00000200: e01b 683e 2695 b93d 82dc 213e f053 743d
00000210: 4e6b c1bd 23b0 c43c 003e 07be cf7a 143e
00000220: 1fd5 373a 0950 353d ccb5 573c f743 1d3e
00000230: 4be5 c2bd bd53 8bbb 21fb 2ebd d239 143e
00000240: 910f 463e 2948 36be a838 dd3d 0a94 bdbd
00000250: 525e f83d 1859 15be 3535 fa3d 4965 0abd
00000260: 7fbe 51be b188 f23d 3332 aa3d 1783 1abe
00000270: 308d 82bc 0037 45ba 7203 873d 607a 62bd
00000280: 7009 f83c b3ce 41be 2fc2 443e 6f23 483e
00000290: 3732 3cbe 666c a33d d05e 3bbe a693 90bd
000002a0: 2091 e6bb 00f5 873a 34b1 50bd 2051 a2bc
000002b0: b2e6 06be ec42 723d fec4 efbd 6260 863d
000002c0: 849b 38be 5554 483e 9c3b 26be 509d 0dbd
000002d0: 5c24 70bd be32 ba3d ae8e 47be adb6 9bbd
000002e0: f851 033d d9e8 0dbd adaf 013e bf47 bcbd
000002f0: 3f70 913d 4feb 4bbe c97a 5b3d 23b6 333e
00000300: 3e34 95bd a42f 40be 310b 273e d96c f2bd
00000310: 5aec 403e a956 43be 805c dd3d 07a0 8cbd
00000320: 9bc8 0b3d 0fe2 90bd df6d a83d 5b0d 30be
00000330: 7e7b f9bd e352 c1bd f4ab ddbd 5cb6 03bd
00000340: 88dc b43d 62e4 0e3e 0821 aa3c 4270 e03d
00000350: 912b 17be 7ee5 0cbd caf0 6bbc cbba dcbd
00000360: 0fda 723d 3e6c 333e 9fbe d93d 13e9 d5bc
00000370: 094e f7bd fa08 8c3d 4401 80bd 71a5 89bd
00000380: ff20 343e eee9 4f3d ace9 e1bc e5ba 2c3e
00000390: bdf9 103e 3abc 51bd b4c2 ac3d c8f6 923c
000003a0: 2d28 16bd 1dbb 89bd bed1 acbd 5782 a7bd
000003b0: aa92 89bc a689 cc3d 3e5a 2abe 4ea1 22be
000003c0: a618 ffbd a0ab 603d e5dd 193e 84b2 2ebe
000003d0: e282 463e 2167 4abe 2c43 b03d 4c6f fa3d
000003e0: 499f 393e 6265 1d3e 2c59 b4bd 887e 0d3e
000003f0: ae84 b43d e553 a33d 2b2a b7bd 940f 273e

l1.bias f4 [128]
0.1989464 -0.091410756 0.12940955 0.18447714 -0.026453918 0.088000655 0.029940173 0.16733587
-0.15548092 -0.06020055 0.051288035 0.15885508 -0.17206806 0.06280847 0.16165894 -0.14544526
0.0058730096 -0.031201648 -0.079370186 0.15510942 -0.156814 -0.22341032 0.00970391 0.0018484156
0.0039376765 -0.08750964 0.21471259 0.17850724 0.039587006 0.05412008 -0.12167926 0.13443303
-0.14486516 0.08222385 0.07534447 -0.15522462 0.023654697 -0.08498631 -0.17760777 -0.11368599
0.0860781 0.17579426 -0.16048448 0.022326346 0.12643845 0.13070127 0.05905219 -0.019435145
-0.18278672 0.23934959 0.024781182 -0.026447454 0.0045218077 -0.108727835 0.025382949 0.10893376
-0.092856854 0.11868517 -0.08209764 -0.06396343 0.12853841 -0.1424296 -0.16832407 -0.18073244
0.20845418 -0.03610786 0.037782453 -0.15206091 -0.05568285 0.12820603 -0.023290046 -0.046833646
-0.03714462 -0.06100106 -0.18903314 0.071442135 -0.08484027 -0.113248914 0.0101805525 -0.027990539
0.12910365 0.14264227 -0.08923838 0.18328774 -0.1652093 -0.032906067 -0.17583486 0.16575639
-0.10234582 0.11446406 -0.13804406 -0.043332648 0.005461501 -0.12497149 0.04212622 -0.18789215
-0.057081588 0.09168144 -0.007237657 0.1260881 -0.08900653 -0.08423621 -0.048467696 0.07233084
0.17224325 -0.10714955 0.15033002 0.14782286 0.13497722 0.016138315 -0.04257065 -0.060094677
-0.18290581 0.17763413 -0.06609309 0.12596259 -0.17770663 0.11952238 -0.21786346 0.18557708
-0.14848562 0.15476812 -0.028375873 0.095151305 0.12371202 -0.03280583 -0.022331275 0.1642047
00000000: 9bb8 4b3e 9035 bbbd f083 043e 93e7 3c3e
00000010: e3b5 d8bc b039 b43d 1845 f53c 185a 2b3e
00000020: 6436 1fbe da94 76bd 6713 523d e8aa 223e
00000030: 9c32 30be baa1 803d ec89 253e 9aef 14be
00000040: 6072 c03b 999a ffbc d68c a2bd 01d5 1e3e
00000050: d993 20be adc5 64be 26fd 1e3c 8946 f23a
00000060: a007 813b 4138 b3bd 9edd 5b3e 9aca 363e
00000070: fc25 223d 04ad 5d3d fa32 f9bd d0a8 093e
00000080: 8857 14be fa64 a83d 344e 9a3d 34f3 1ebe
00000090: 7fc7 c13c 4d0d aebd d0de 35be 33d4 e8bd
000000a0: b749 b03d 6903 343e 0b56 24be bee5 b63c
000000b0: 1579 013e 8ed6 053e b6e0 713d 7436 9fbc
000000c0: 712c 3bbe 0f18 753e e801 cb3c 55a8 d8bc
000000d0: ac2b 943b b3ac debd e7ef cf3c aa18 df3d
000000e0: bc2b bebd 3611 f33d cf22 a8bd 42ff 82bd
000000f0: 939f 033e 11d9 11be 255d 2cbe ed11 39be
00000100: 0375 553e d6e5 13bd c6c1 1a3d dbb5 1bbe
00000110: b313 64bd 7148 033e c4ca bebc a3d4 3fbd
00000120: f524 18bd 3fdc 79bd e791 41be 4150 923d
00000130: bcc0 adbd 0cef e7bd 55cc 263c 6a4c e5bc
00000140: bf33 043e d110 123e 9dc2 b6bd c8af 3b3e
00000150: a02c 29be 83c8 06bd 0e0e 34be 0bbc 293e
00000160: af9a d1bd 226c ea3d 6c5b 0dbe 937d 31bd
00000170: 64f6 b23b 0df1 ffbd 8b8c 2c3d cd66 40be
00000180: 62ce 69bd 7bc3 bb3d de29 edbb 3d1d 013e
00000190: 0e49 b6bd 0984 acbd 1086 46bd 3122 943d
000001a0: 8960 303e 3971 dbbd 1df0 193e e05e 173e
000001b0: 7837 0a3e 8034 843c 905e 2ebd d625 76bd
000001c0: a94b 3bbe b9e5 353e d05b 87bd 56fc 003e
000001d0: baf8 35be 26c8 f43d 9917 5fbe eb07 3e3e
000001e0: 9d0c 18be 897b 1e3e 8574 e8bc b0de c23d
000001f0: ba5c fd3d 685f 06bd 14f0 b6bc 4725 283e

l2.weight f4 [64, 128]
0.0560354 -0.04113916 0.028388713 0.01678622 -0.108732894 0.02499049 0.042070888 0.031067139
0.035987 -0.012508119 0.072156556 0.05646977 -0.0093496675 0.01254098 -0.035552654 -0.047970824
-0.0468766 0.060719173 -0.022321291 0.045946855 -0.035302736 0.082139805 0.12434872 0.18093725
0.05048888 0.067364566 0.15313677 -0.11739245 -0.029918948 0.035282012 0.054157786 0.08640605
-0.022713697 0.043884464 0.08907536 0.0007044822 0.0022984457 0.0039555263 -0.05040183 0.02576557
-0.06960198 0.034430612 0.08882444 0.044592775 -0.02257222 -0.10446277 0.005873631 0.060684085
-0.0173615 -0.098407045 0.04328736 -0.069280565 -0.021760045 -0.06531397 0.0401913 -0.010365397
0.16614205 0.02369325 -0.1128343 -0.035973337 -0.0002872088 0.016810983 -0.081736036 -0.05676098
-0.14767505 0.07529332 -0.032728974 -0.053680707 0.09966317 0.022640893 0.069167316 0.04980404
0.011963949 -0.0324804 0.0577216 -0.037222385 0.05139076 -6.953114e-05 -0.0624651 0.094393656
-0.08693668 -0.02881656 -0.14279021 -0.09785975 0.015193619 0.13730462 0.11333836 0.13434494
-0.01508136 0.14238916 0.03592276 -0.0022809822 -0.13002321 0.03500081 0.059522714 0.0009888211
0.07322884 -0.048388645 0.05310252 -0.07170519 -0.08479672 -0.07475779 -0.04653466 0.07284447
0.024260066 0.053358864 0.02296093 0.21935734 0.25099742 -0.01678046 -0.052958786 0.022618242
-0.073326945 -0.06825561 0.041694168 0.10584774 0.005034736 0.019018995 0.015852991 -0.043304622
0.14108439 0.027446382 -0.02831971 0.01686756 0.066257544 -0.07610359 -0.027307568 -0.012683844
0.059030768 -0.04225932 0.06557792 -0.008246121 -0.18529887 0.043351397 -0.074735306 0.046453062
0.0062056133 -0.033903852 -0.055816937 0.066855185 0.09649654 0.03872584 0.12971123 -0.0037629828
-0.047794577 0.026374668 0.0034579865 0.04294819 0.048571758 0.01888908 0.10620269 0.1328076
0.0204271 -0.020316795 0.12139635 -0.041711263 0.04478271 0.034022305 -0.014006571 0.002155345
-0.05673878 -0.025447793 0.01736456 -0.018465422 0.06389777 -0.06085091 -0.05637623 0.111853555
-0.028763533 -0.00668961 -0.006487521 0.03313545 -0.052678388 -0.21762188 0.049345154 0.006350909
0.013296396 -0.026210343 0.041417502 0.004632858 -0.01727078 0.051809933 0.0025572975 -0.01110284
0.1294482 0.00037008445 -0.065139145 0.028048456 0.04342457 0.07386879 0.018821606 -0.06188979
-0.14818999 -0.055763904 0.056074645 0.053205144 -0.019377703 0.116286 0.10781499 -0.034356974
-0.054509062 0.043671157 0.07378667 -0.025296677 0.00506997 0.0352476 -0.005841502 0.057312194
0.041604735 -0.060624618 -0.015677756 0.018823316 -0.022312067 0.05853444 0.08639792 0.01941793
-0.064587094 0.14643006 0.048832405 0.08026293 -0.09361198 -0.0012365282 -0.07450219 0.007176202
0.1361979 0.0210866 -0.046656273 -0.014431583 -0.10135761 -0.08212961 0.036094047 -0.086828455
0.014978483 -0.072052576 0.036817063 0.15411265 0.07165926 0.01726167 -0.06104505 -0.055302832
0.038276456 0.0018049941 0.09569903 0.036626816 0.016466435 0.04947073 -0.099052496 0.0023184419
0.026305862 0.12189882 -0.066632554 0.028368251 0.024896068 -0.021844119 -0.0024461676 -0.08240906
00000000: 6085 653d 8981 28bd 728f e83c 4183 893c
00000010: 5aaf debd dbb8 cc3c 8652 2c3d 8380 fe3c
00000020: 1b67 133d dbee 4cbc d1c6 933d d84c 673d
00000030: 592f 19bc af78 4d3c a99f 11bd 0e7d 44bd
00000040: ad01 40bd abb4 783d 24db b6bc c532 3c3d
00000050: 9a99 10bd ea38 a83d 8baa fe3d 9d47 393e
00000060: 6ecd 4e3d 6ff6 893d e3cf 1c3e 746b f0bd
00000070: 9518 f5bc df83 103d 8ed4 5d3d a8f5 b03d
00000080: 1312 babc 32c0 333d 246d b63d 00ad 383a
00000090: 85a1 163b 5c9d 813b 2672 4ebd 5112 d33c
000000a0: 7c8b 8ebd 1d07 0d3d 97e9 b53d eaa6 363d
000000b0: 60e9 b8bc 94f0 d5bd 9777 c03b e08f 783d
000000c0: b439 8ebc a289 c9bd 164e 313d f8e2 8dbd
000000d0: 1f42 b2bc 55c3 85bd a29f 243d a0d3 29bc
000000e0: 2421 2a3e 5918 c23c ab15 e7bd c758 13bd
000000f0: 8394 96b9 30b7 893c 3965 a7bd 347e 68bd
00000100: 2138 17be 6233 9a3d d10e 06bd 4de0 5bbd
00000110: 341c cc3d 6579 b93c 98a7 8d3d 52ff 4b3d
00000120: 7004 443c 2b0a 05bd 7c6d 6c3d 8076 18bd
00000130: 1e7f 523d 3fd1 91b8 68db 7fbd 7651 c13d
00000140: dc0b b2bd b510 ecbc 9937 12be b16a c8bd
00000150: a8ee 783c 9599 0c3e f11d e83d b891 093e
00000160: cf17 77bc 77ce 113e be23 133d 887c 15bb
00000170: ce24 05be 025d 0f3d 17ce 733d 559b 813a
00000180: 01f9 953d 2c33 46bd 0782 593d 2cda 92bd
00000190: e7a9 adbd 9d1a 99bd 219b 3ebd 7b2f 953d
000001a0: 0cbd c63c d38e 5a3d 8f18 bc3c 369f 603e
000001b0: bc82 803e 2d77 89bc 50eb 58bd e449 b93c
000001c0: 702c 96bd 99c9 8bbd 81c7 2a3d b3c6 d83d
000001d0: 6dfa a43b b9cd 9b3c 22de 813c 3060 31bd
000001e0: 6d78 103e 3cd7 e03c bdfe e7bc d62d 8a3c
000001f0: 09b2 873d 33dc 9bbd 1fb4 dfbc e6cf 4fbc
00000200: 3fca 713d 1c18 2dbd b74d 863d bd1a 07bc
00000210: fdbe 3dbe 3c91 313d d30e 99bd 9145 3e3d
00000220: 7558 cb3b c4de 0abd 4da0 64bd 5feb 883d
00000230: fa9f c53d fd9e 1e3d 05d3 043e 609c 76bb
00000240: 3fc4 43bd b00f d83c 639f 623b 71ea 2f3d
00000250: 2ef3 463d 46bd 9a3c cc80 d93d b7fe 073e
00000260: bc56 a73c 686f a6bc a69e f83d 6ed9 2abd
00000270: 136e 373d f95a 0b3d d17b 65bc b040 0d3b
00000280: ec66 68bd e477 d0bc 1f40 8e3c cc44 97bc
00000290: d6dc 823d ce3e 79bd c3ea 66bd 7a13 e53d
000002a0: 80a1 ebbc 8434 dbbb 4595 d4bb 0ab9 073d
000002b0: 4bc5 57bd 45d8 5ebe 251e 4a3d 491b d03b
000002c0: 20d9 593c 13b7 d6bc 66a5 293d 3bcf 973b
000002d0: 737b 8dbc a736 543d 5598 273b b0e8 35bc
000002e0: 128e 043e e507 c239 ac67 85bd e0c5 e53c
000002f0: f6dd 313d 8548 973d c52f 9a3c 2680 7dbd
00000300: 1ebf 17be b168 64bd 87ae 653d a3ed 593d
00000310: fdbd 9ebc 5b27 ee3d 1bce dc3d e6b9 0cbd
00000320: e544 5fbd 87e0 323d 771d 973d fa3a cfbc
00000330: fe21 a63b ca5f 103d 126a bfbb 31c0 6a3d
00000340: ba69 2a3d 8551 78bd a36e 80bc 5b33 9a3c
00000350: ccc7 b6bc cfc1 6f3d 65f1 b03d 5a12 9f3c
00000360: 3d46 84bd c3f1 153e 7d04 483d e460 a43d
00000370: a3b7 bfbd 0013 a2ba 9b94 98bd 5826 eb3b
00000380: 7677 0b3e cebd ac3c a61a 3fbd 7272 6cbc
00000390: 9494 cfbd 9233 a8bd 5ad7 133d 1ed3 b1bd
000003a0: 5068 753c 4d90 93bd 7dcd 163d b5cf 1d3e
000003b0: 17c2 923d 5968 8d3c 600a 7abd 3985 62bd
000003c0: c6c7 1c3d 8d95 ec3a dafd c33d 0006 163d
000003d0: 9ee4 863c d2a1 4a3d 09dc cabd 00f1 173b
000003e0: 647f d73c 17a6 f93d a676 88bd 8964 e83c
000003f0: d7f2 cb3c 70f2 b2bc e24f 20bb 15c6 a8bd

l2.bias f4 [64]
-0.05942765 -0.062359106 -0.049267035 0.004818131 0.06106365 0.024075227 -0.052663796 0.0025483798
0.062592044 -0.08233897 -0.06431389 -0.032819826 -0.061147973 -0.0053156908 0.014027095 -0.05788234
-0.03735727 -0.012202295 -0.07017963 0.052903257 -0.012640235 -0.039358497 0.10851625 0.068151616
-0.01272097 0.020274518 -0.053618833 0.06347287 -0.021866858 -0.0105834305 -0.08505892 0.0070697977
0.011987098 0.0066416324 0.07083259 -0.08973664 0.0011368049 -0.010720133 0.032929026 0.026110206
-0.040072463 0.020908449 0.04344205 0.028599914 -0.06427934 0.013389083 0.06733995 -0.009324235
0.0675204 0.07433021 0.057184745 -0.089365155 0.07209237 -0.084916465 0.003934391 0.06648893
-0.03254169 -0.0889416 0.040236354 0.06488853 -0.018936902 0.05914604 -0.051976815 0.08108506
00000000: 686a 73bd 436c 7fbd 3bcc 49bd 6ae1 9d3b
00000010: e11d 7a3d 6939 c53c feb5 57bd b802 273b
00000020: 4230 803d 55a1 a8bd 00b7 83bd 156e 06bd
00000030: 4c76 7abd 3f2f aebb e7d1 653c 0816 6dbd
00000040: f003 19bd 22ec 47bc 56ba 8fbd 16b1 583d
00000050: fd18 4fbc 6036 21bd c53d de3d 1393 8b3d
00000060: 9e6b 50bc bf16 a63c 6c9f 5bbd 10fe 813d
00000070: 2022 b3bc 2066 2dbc 5f33 aebd c3a9 e73b
00000080: 8865 443c 0da2 d93b ad10 913d d8c7 b7bd
00000090: d800 953a 7fa3 2fbc 96e0 063d 12e5 d53c
000000a0: 0623 24bd 3248 ab3c 4bf0 313d 5e4a ea3c
000000b0: e3a4 83bd e25d 5b3c 87e9 893d adc4 18bc
000000c0: 2348 8a3d 703a 983d 8d3a 6a3d 1405 b7bd
000000d0: 2aa5 933d afe8 adbd 10ec 803b 592b 883d
000000e0: 6f4a 05bd 0327 b6bd e0ce 243d 47e4 843d
000000f0: 9021 9bbc 1e43 723d a4e5 54bd ed0f a63d

l3.weight f4 [1, 64]
-0.050671015 -0.053936694 -0.111261114 0.030105978 -0.1644245 -0.0713767 -0.18745565 -0.11078716
0.10903352 0.09440589 -0.11031228 -0.09528761 -0.11469763 -0.043881096 -0.14749233 -0.057278108
0.05976534 -0.1883928 -0.07949293 -0.059993237 -0.088385954 -0.036705926 0.15899251 -0.056425877
-0.092071034 -0.09121839 -0.01124586 -0.14534093 0.092941925 0.08438659 -0.059763376 -0.087172344
-0.084372 -0.11958654 -0.16420165 0.10725265 -0.07663237 -0.08870452 -0.13599595 -0.08212721
0.06178478 0.13893025 -0.09106161 -0.092884265 0.2107146 -0.17791863 0.021408616 0.07480812
0.086837746 -0.1286206 0.13727956 0.114570364 -0.124375366 0.016301261 -0.094158664 -0.11259754
0.2610563 -0.0770339 0.16450068 -0.0399016 0.05185759 0.076518066 -0.081229456 0.1249322
00000000: 698c 4fbd b9ec 5cbd dedc e3bd d0a0 f63c
00000010: e55e 28be f32d 92bd 60f4 3fbe 61e4 e2bd
00000020: f74c df3d e057 c13d 68eb e1bd 2726 c3bd
00000030: 97e6 eabd aabc 33bd 3b08 17be 739c 6abd
00000040: 80cc 743d 0bea 40be 30cd a2bd 78bb 75bd
00000050: b203 b5bd f458 16bd efce 223e d21e 67bd
00000060: bd8f bcbd b5d0 babd 8e40 38bc 41d4 14be
00000070: 5658 be3d e0d2 ac3d 71ca 74bd 6a87 b2bd
00000080: 3acb acbd cae9 f4bd 7a24 28be 47a7 db3d
00000090: 6ff1 9cbd b7aa b5bd 8642 0bbe 5032 a8bd
000000a0: 0a12 7d3d bb43 0e3e 827e babd 1b3a bebd
000000b0: 91c5 573e 4d30 36be 1f61 af3c 0035 993d
000000c0: fdd7 b13d 1eb5 03be 0393 0c3e dea3 ea3d
000000d0: 83b8 febd 398a 853c 42d6 c0bd 8a99 e6bd
000000e0: 2ca9 853e f3c3 9dbd de72 283e dc6f 23bd
000000f0: a068 543d 81b5 9c3d a15b a6bd 74dc ff3d
