turtlebot3_machine_learning/turtlebot3_td3/basic_models/TD3_stage1_actor_target.pth (torch_old, 48103 bytes, 5 tensors)

l1.weight f4 [128, 26]
00000000: ecee 3b3e a6c1 ffbd c1d5 2a3e 48f2 1ebd
00000010: 36e2 233d 1aaa b93d b9c8 403e 75da 0fbe
00000020: 5da4 9ebd b3a1 e4bc 6878 873d b468 263e
00000030: fbc4 143e d7ab bc3c 7a59 bb3d 2e1d a739
00000040: 952a f83b fb6a ec3d 4e06 883d e971 913d
00000050: b24c 7abd 591b 363e 5121 4d3e ee65 e6bd
00000060: 45a7 c33d 6e75 573e 3be5 a9bd c6ef 7e3d
00000070: a6af 3cbe 14b4 1dbd 1e07 cbbd b7b6 8cbc
00000080: 0f1d 233d 2eca 953d c6de 383e 8caf 433e
00000090: 1ffe cc3d 292b d7bd 38c2 21bc 2a81 3fbe
000000a0: 7f52 343e 77c2 e53d ec4d 00be e96a 653d
000000b0: 0392 3f3e d616 50bc eeee d93c f16f 18bd
000000c0: 591c 7dbc 5c51 0d3e bc2e 3d3e c7d8 2f3e
000000d0: 9965 a2bd 20bc 6e3d 2982 c3bd 8fb4 8c3d
000000e0: dd0e 32be 0b99 8c3d 8b8a ea3d 2f53 273e
000000f0: b5b7 2f3e ca27 dc3d 3f23 443c 1ee7 2f3e
00000100: 7443 553d 6def 053e 3f5e ec3d 5773 e4bd
00000110: 8efb 45be 1ac0 df3c ee9b 11bd 285f 823d
00000120: f6cb ebbd f56a 4c3e 480e c3bd d741 9ebd
00000130: e52b 78be 1ab9 c33d 2b84 ecbd 5f9f 10be
00000140: 4886 fabd 2fbf c83d 09ff 063d 65b4 4e3e
00000150: b759 01be 697d 313c 13c3 02be 7211 bb3d
00000160: dd76 6c3d 1443 35bd 4f16 473e 7e48 043e
00000170: 5a09 d93d 4e3b 063e 12a4 32bd 3318 cf3d
00000180: ef35 363e 2321 593d 9243 653d 4eb9 a7bd
00000190: be21 e23c a4ce ecbd 4bf4 633e b743 80bc
000001a0: 48a0 293e cd9e 0d3d 2c75 e1bc 8a00 ae3c
000001b0: d49b 2dbd c5ab dc3d cb5e 89bd 8d13 b8bc
000001c0: af18 b3bd 1e1d 22bd 7b33 30bd 9bd9 803d
000001d0: ae65 ec3c 67f8 573d 8a39 dcbb 3125 83bd
000001e0: 73fe 1cbe 8754 c2bd 0aac 2dbe f97e 2dbe
000001f0: fd96 51be bbb5 483d 9ebe 0ebc 0b3d 493c
00000200: 0610 693e d713 bf3d d43a 223e 5633 763d
00000210: 4d92 c0bd 50cc c63c 35eb 06be bfd2 143e
00000220: 126f 8c3a 5b78 373d b145 5d3c cda7 1d3e
00000230: 7c1e c2bd dfce 83bb 4076 2ebd 5041 143e
00000240: 152c 463e 4f26 36be 5233 dd3d 3bc6 bdbd
00000250: e794 f83d 0f18 15be cb28 fb3d 17a8 08bd
00000260: be5c 51be 2345 f33d 625f a93d 5701 1bbe
00000270: 308d 82bc 0037 45ba 7203 873d 607a 62bd
00000280: 7009 f83c b3ce 41be 2fc2 443e 6f23 483e
00000290: 3732 3cbe 666c a33d d85e 3bbe a693 90bd
000002a0: 2091 e6bb 00f5 873a 34b1 50bd 2051 a2bc
000002b0: b2e6 06be ec42 723d fec4 efbd 6260 863d
000002c0: 849b 38be 5554 483e 9c3b 26be 509d 0dbd
000002d0: 5c24 70bd be32 ba3d 618e 47be 26b6 9bbd
000002e0: 6452 033d 8de8 0dbd 6cb0 013e a847 bcbd
000002f0: 7570 913d c9ea 4bbe 297b 5b3d afb6 333e
00000300: be33 95bd a92f 40be b60b 273e 9c6c f2bd
00000310: b8ec 403e b156 43be 315d dd3d a59f 8cbd
00000320: ccc8 0b3d 7ee1 90bd 666e a83d 300d 30be
00000330: dc7a f9bd 4952 c1bd 19ac ddbd 9eb5 03bd
00000340: 1361 b33d 79dd 0e3e 6f87 a83c 5310 de3d
00000350: 3101 18be 328a 0ebd cd87 6ebc d5ac dbbd
00000360: fbc3 723d 7fbc 333e 689a d93d 1410 dbbc
00000370: ee04 f8bd e63f 8b3d 9c4b 7fbd f5da 8abd
00000380: d7c9 333e 2f34 4f3d 2ebd e3bc 0e60 2c3e
00000390: 3c56 113e d538 51bd 304f ab3d 311d 8d3c
000003a0: 9244 18bd 3688 85bd e218 adbd 5922 a5bd
000003b0: 332f 7ebc 9f9a cd3d e881 29be 0119 21be
000003c0: b46c fcbd ec17 6a3d e430 1b3e bb81 2dbe
000003d0: 2bf4 463e 0ec5 4abe 9ed5 af3d e9b6 f93d
000003e0: 85e2 393e fbd7 1c3e 078d b5bd 9cb4 0c3e
000003f0: 6d6c b23d f9be a13d 8bcb b5bd 10bb 273e
0.1835286 -0.124881074 0.16683103 -0.038805276 0.040010653 0.090656474 0.1882657 -0.14048178
-0.077461936 -0.027909135 0.066147625 0.16250879 0.14528267 0.023031158 0.09147926 0.00031874463
0.0075734355 0.115438424 0.066418275 0.07101805 -0.0611083 0.1778387 0.2003224 -0.1124991
0.095533885 0.2104089 -0.08295675 0.062240385 -0.1842638 -0.038501814 -0.09913467 -0.017176969
0.039822634 0.07313953 0.18053731 0.19109935 0.10009407 -0.10506279 -0.0098729655 -0.18701616
0.17609595 0.11218732 -0.12529725 0.05601016 0.18708043 -0.012700757 0.026603188 -0.03721613
-0.015448653 0.13800567 0.18474859 0.17172538 -0.079295345 0.05828488 -0.095463105 0.06870376
-0.17388482 0.06865128 0.11452206 0.16340326 0.17159922 0.10749777 0.011971294 0.17178008
0.05206628 0.13079615 0.115414135 -0.11154812 -0.19334242 0.02731328 -0.035549097 0.06365806
-0.11513512 0.19962676 -0.09524208 -0.07727402 -0.24235494 0.0955679 -0.115486465 -0.14123295
-0.12232643 0.098020904 0.032958064 0.20186003 -0.1263188 0.010833123 -0.12769727 0.09134187
0.057730544 -0.044253424 0.19442104 0.12918279 0.10597487 0.1310856 -0.0436135 0.101120375
0.17794012 0.053010117 0.055972643 -0.08189641 0.02760398 -0.11562851 0.22261159 -0.015657289
0.16565049 0.034575272 -0.027521692 0.021240491 -0.042384937 0.1077495 -0.067075334 -0.02247026
-0.087449424 -0.03957855 -0.043017846 0.06291505 0.028857078 0.05272713 -0.0067207264 -0.06403578
-0.1533144 -0.094887786 -0.16960159 -0.16942967 -0.20467754 0.049001437 -0.008712439 0.01228262
0.22760019 0.09329956 0.15842754 0.06010755 -0.09402905 0.024267346 -0.13175662 0.14533518
0.0010714254 0.044792514 0.013505385 0.15396042 -0.09478471 -0.0040224637 -0.04259324 0.1447804
0.19352753 -0.17788051 0.10800804 -0.09266325 0.12137776 -0.14559959 0.1226364 -0.033363428
-0.20445535 0.11878421 0.08270146 -0.1513723 -0.015936464 -0.0007523149 0.06592454 -0.055292487
0.030277938 -0.18926506 0.192147 0.19544767 -0.1837853 0.0797966 -0.18297899 -0.07059412
-0.007036343 0.0010372698 -0.050950244 -0.019814074 -0.13173941 0.059145853 -0.11707495 0.06561352
-0.18028075 0.1956342 -0.16233677 -0.034573853 -0.058628425 0.090917096 -0.19487907 -0.076031014
0.032060996 -0.034645606 0.12664956 -0.09193355 0.071015276 -0.19913782 0.05358425 0.17550157
-0.0728526 -0.18768181 0.16313061 -0.11837122 0.18840301 -0.19076039 0.108087905 -0.06866387
0.03412704 -0.07074259 0.08224182 -0.1719253 -0.12181637 -0.09439523 -0.10823841 -0.032155626
0.0875875 0.13951673 0.020572392 0.10842957 -0.14844204 -0.034799762 -0.014558745 -0.107263245
0.059268933 0.17552374 0.10625154 -0.026741065 -0.12110315 0.06799297 -0.062327966 -0.06780044
0.17557465 0.050586876 -0.027800169 0.16833517 0.14193052 -0.05107959 0.08364713 0.017225834
-0.03717477 -0.06520121 -0.08452012 -0.08063192 -0.015514183 0.10039257 -0.16553462 -0.15732194
-0.12325421 0.05715172 0.15155369 -0.1694402 0.1942908 -0.19801733 0.08585666 0.121930905
0.18152817 0.15316765 -0.088647895 0.13740772 0.08712087 0.07897753 -0.08876713 0.16379952

l1.bias f4 [128]
00000000: 891e 4c3e eca2 babd 763f 043e c1e1 3c3e
00000010: 8021 cabc 90af b43d 1845 f53c d65a 2b3e
00000020: 02a9 1fbe 20c0 75bd b274 533d dbfc 223e
00000030: cf9c 30be eb91 813d be3d 253e 9aef 14be
00000040: 6072 c03b 96c0 00bd 748b a3bd 9c59 1d3e
00000050: 3fd5 20be 65cf 64be f1e6 173c 36cd 113b
00000060: a007 813b 4138 b3bd 0f97 5b3e ba0b 363e
00000070: 952c 1d3d 889d 5b3d fc32 f9bd 528f 093e
00000080: eaf0 13be fa64 a83d 0912 9a3d 34f3 1ebe
00000090: 3f5a c83c 055e acbd 413f 35be 9484 e9bd
000000a0: fad4 af3d ad58 333e 1943 24be 327b ba3c
000000b0: 1579 013e ab8c 053e befc 723d 60e0 9bbc
000000c0: 712c 3bbe b282 753e e801 cb3c aa0d d3bc
000000d0: 2524 a73b 60e1 ddbd 9cef cf3c aa18 df3d
000000e0: 1314 bfbd 7311 f33d f732 a9bd 42ff 82bd
000000f0: 5022 043e 11d9 11be 4bbf 2cbe ed11 39be
00000100: 1fdc 553e 338d 0fbd 65c2 1a3d 1a39 1bbe
00000110: 5742 61bd f185 043e 91cc c1bc 78f9 40bd
00000120: de24 18bd fa4d 78bd ecde 41be b586 913d
00000130: 3e6a aebd a918 e7bd a83f 223c 74cb e9bc
00000140: bf33 043e 6511 123e 9515 b5bd 5a0e 3c3e
00000150: a02c 29be 61c9 08bd e97e 34be 4c67 293e
00000160: 5cd9 d0bd afe1 e83d dcad 0dbe f09b 31bd
00000170: c722 8d3b 0df1 ffbd 1403 2e3d 7954 44be
00000180: 2f5d 73bd 3e7f bc3d ec7e debb 95a0 023e
00000190: 91eb b9bd 30f6 abbd abed 44bd 30aa 923d
000001a0: 8960 303e be54 ddbd 11c0 193e 3b9f 153e
000001b0: 3763 0a3e 1336 863c 81a8 2ebd c30d 78bd
000001c0: a94b 3bbe 1bbe 353e ce17 88bd a7a1 003e
000001d0: a6e9 35be 5fde f33d 8f77 5ebe eb07 3e3e
000001e0: ac9a 18be 71ac 1d3e 0a1d e5bc 28df c23d
000001f0: ef03 fd3d 685f 06bd a6f3 bdbc 7989 283e
0.19933523 -0.09113106 0.12914833 0.18445493 -0.024674177 0.088225484 0.029940173 0.1673387
-0.15591815 -0.059997678 0.05162496 0.15916769 -0.17247318 0.0632666 0.16136834 -0.14544526
0.0058730096 -0.031433664 -0.07985583 0.15366215 -0.15706347 -0.2234474 0.009271369 0.002224756
0.0039376765 -0.08750964 0.21444343 0.17777911 0.038372595 0.05361703 -0.121679276 0.13433579
-0.1444737 0.08222385 0.07522971 -0.15522462 0.024457095 -0.0841637 -0.1769991 -0.114022404
0.08585544 0.17514296 -0.1604122 0.022763822 0.12643845 0.13041942 0.059323065 -0.019027889
-0.18278672 0.23975638 0.024781182 -0.025763351 0.0051007443 -0.108340025 0.02538281 0.10893376
-0.09330001 0.118685625 -0.08261674 -0.06396343 0.12903714 -0.1424296 -0.16869847 -0.18073244
0.20884751 -0.035046767 0.037783045 -0.15158501 -0.054994907 0.1294172 -0.023657115 -0.047112912
-0.037144534 -0.06062124 -0.18932694 0.071057715 -0.08516358 -0.112840004 0.009902872 -0.028539397
0.12910365 0.14264448 -0.08842007 0.1836485 -0.1652093 -0.033395175 -0.17626537 0.16543311
-0.10197708 0.11371171 -0.13835853 -0.043361604 0.0043071243 -0.12497149 0.042483404 -0.19172849
-0.05941504 0.09203957 -0.0067900326 0.1275657 -0.09078134 -0.08396566 -0.04807822 0.07161367
0.17224325 -0.10807179 0.15014674 0.14611523 0.1351441 0.016383206 -0.042641167 -0.06056
-0.18290581 0.177483 -0.066451654 0.12561665 -0.17764911 0.11907648 -0.21725295 0.18557708
-0.14902753 0.15397812 -0.027967948 0.0951522 0.12354266 -0.03280583 -0.02318747 0.16458692

l2.weight f4 [64, 128]
00000000: 6a64 643d cd78 24bd 311d ee3c 301b 843c
00000010: 2e8c e1bd 3cc5 cd3c 8652 2c3d 0480 fe3c
00000020: ccb2 123d 7d62 66bc 91ae 933d 0123 663d
00000030: 7651 16bc 5b7a 4c3c 79c8 12bd 0e7d 44bd
00000040: ad01 40bd 5cff 7a3d d72a c4bc 2a8d 413d
00000050: aa72 0ebd 0522 a63d ff09 fd3d 077e 383e
00000060: 6ecd 4e3d 6ff6 893d 2691 1c3e 21ee f0bd
00000070: a630 02bd e51b 0f3d b9d4 5d3d edf0 af3d
00000080: b36c b9bc 32c0 333d 1356 b63d 00ad 383a
00000090: 4886 103b 22da 7e3b 54fe 4ebd 2535 d43c
000000a0: bdc3 8ebd ea3c 043d 85b4 b43d 0748 363d
000000b0: 60e9 b8bc 433c d5bd 7207 a33b 90a4 783d
000000c0: b439 8ebc e7f6 cabd 164e 313d cb0a 8abd
000000d0: 34ba b2bc 1448 86bd c39e 253d a0d3 29bc
000000e0: 2ce5 273e b818 c23c 758c e4bd c758 13bd
000000f0: ce5e ddba 30b7 893c eea9 a8bd 347e 68bd
00000100: 4d62 17be cd7b 963d 2c0f 06bd 940d 58bd
00000110: 1cc8 cb3d 59d7 a53c c8a1 8d3d 8cf1 4a3d
00000120: e804 443c 5135 05bd fa5f 6c3d 31c1 10bd
00000130: 245a 533d 40e0 13b8 8ecf 7fbd c19e bf3d
00000140: dc0b b2bd 4211 ecbc f78e 12be 5202 c9bd
00000150: a8ee 783c 9682 0b3e 4845 e63d 42a5 083e
00000160: 8089 75bc 8588 0c3e 5816 103d 513e 04bb
00000170: 0362 f8bd 025d 0f3d c3f0 733d 6af1 8dbb
00000180: 27fc 723d a131 47bd 24a2 593d 3474 92bd
00000190: e170 a0bd 09ce 9bbd 2da3 3ebd db00 933d
000001a0: 0cbd c63c bfa0 583d f682 c73c 0edf 5d3e
000001b0: b6fa 803e 0104 8bbc 25fd 5bbd fc78 b93c
000001c0: 702c 96bd 02fb 8bbd 608f 253d 8bbe d83d
000001d0: 9acc a43b 8c8e 983c 6c5d 843c 3060 31bd
000001e0: ca01 063e 4ea9 f83c 0889 e7bc a42e 8a3c
000001f0: 3d56 873d 33dc 9bbd 4cc4 f7bc 8727 4bbc
00000200: 64b3 703d 6828 29bd 8ca9 873d dca6 11bc
00000210: 6f26 3fbe d013 323d d30e 99bd 0845 3e3d
00000220: f2ec c53b cc1a 11bd 76cc 64bd 4b5c 883d
00000230: b5fa c53d b863 1e3d 9c8b 043e 609c 76bb
00000240: 3fc4 43bd 0683 dc3c 2ea3 013b 4f40 353d
00000250: 300b 493d ecab 923c 40ec d73d 3c3a 073e
00000260: bc56 a73c 686f a6bc 8d24 f83d 61d9 2bbd
00000270: 0ff5 2f3d b002 0a3d 537b 65bc 3f6e db3a
00000280: a412 68bd e477 d0bc 10e4 8d3c cc44 97bc
00000290: 9dac 823d d770 79bd d76b 67bd 5759 e53d
000002a0: b178 ecbc e6b9 0fbc 657e e7bb 475e 073d
000002b0: 4bc5 57bd 6279 5ebe 058e 463d 02d1 d03b
000002c0: 20d9 593c 9f41 dcbc 66a5 293d a441 d33b
000002d0: e3e8 8dbc 3a38 533d 771a 373b b0e8 35bc
000002e0: d975 023e 5008 c239 17ee 82bd e0c5 e53c
000002f0: 313c 2c3d 8e48 973d ee42 953c 2680 7dbd
00000300: 06e6 17be 4ba1 6bbd 1bae 653d af90 5d3d
00000310: be07 a0bc 9e61 e93d 36ca dc3d c8bc 0dbd
00000320: b244 5fbd 20ba 323d 5417 973d d216 c0bc
00000330: 3dd4 ac3b af83 103d 6c09 bfbb 606a 673d
00000340: ba69 2a3d fb51 78bd abe9 82bc 1ae8 973c
00000350: ccc7 b6bc 4684 6b3d d424 af3d 7fe9 973c
00000360: d414 84bd b0e0 103e d90d 453d fce5 a43d
00000370: 2df6 adbd 0013 a2ba 7283 98bd 3a38 f13a
00000380: c5d9 fa3d 05d8 aa3c a8f9 3ebd 0954 69bc
00000390: 39b1 c2bd 29c2 aabd 21d2 133d ccf3 b3bd
000003a0: 5068 753c c480 94bd c25d 1c3d 3918 1b3e
000003b0: 1a94 943d d9ea 8b3c b509 7dbd 336c 62bd
000003c0: c6c7 1c3d 2beb e03a f373 c13d 5afc 153d
000003d0: 06db 863c a10e 493d 534b cabd 00f1 173b
000003e0: 1072 843c ac78 ff3d b159 88bd a264 e83c
000003f0: 9e92 ca3c 70f2 b2bc d4c1 adbb c133 a8bd
0.055759825 -0.040154267 0.029066654 0.016126245 -0.11013065 0.025118463 0.042070888 0.031066902
0.035815045 -0.014061567 0.0721103 0.056185726 -0.009174695 0.012480344 -0.035835717 -0.047970824
-0.0468766 0.061278686 -0.023946209 0.047253765 -0.03477732 0.081119575 0.12355422 0.18016826
0.05048888 0.067364566 0.15289745 -0.117641695 -0.031784676 0.03493871 0.054157946 0.08590875
-0.02263484 0.043884464 0.08903136 0.0007044822 0.0022052694 0.0038887342 -0.050535515 0.025904248
-0.06970928 0.032284655 0.08823494 0.044502284 -0.02257222 -0.10411885 0.004975253 0.060703814
-0.0173615 -0.09910374 0.04328736 -0.0674034 -0.021817304 -0.065567166 0.04043461 -0.010365397
0.16396016 0.023693427 -0.111596026 -0.035973337 -0.0016889216 0.016810983 -0.082355365 -0.05676098
-0.14783593 0.07347832 -0.032729313 -0.052747324 0.09950277 0.020244287 0.06915623 0.049546763
0.01196406 -0.03252155 0.057708718 -0.03534049 0.051599637 -3.525638e-05 -0.0624538 0.09356452
-0.08693668 -0.028816823 -0.1431235 -0.09814896 0.015193619 0.13624033 0.11243683 0.13344291
-0.014986396 0.13723953 0.03517756 -0.0020178745 -0.12128069 0.03500081 0.05955578 -0.0043317573
0.059322502 -0.048631314 0.053133145 -0.0715107 -0.0783403 -0.076076575 -0.046542335 0.071778975
0.024260066 0.052887674 0.02435444 0.2166712 0.25191277 -0.016969683 -0.053708214 0.022640698
-0.073326945 -0.06834985 0.040419936 0.10583218 0.005029273 0.01862266 0.016157828 -0.043304622
0.1308662 0.030354168 -0.028263584 0.016867943 0.066082455 -0.07610359 -0.030244969 -0.012399561
0.05876483 -0.0412983 0.066241354 -0.00888988 -0.18667005 0.043475926 -0.074735306 0.046452552
0.006040209 -0.035425946 -0.05585905 0.066582285 0.09666959 0.038669318 0.12943882 -0.0037629828
-0.047794577 0.026917946 0.00197811 0.044250783 0.049082935 0.017904244 0.10543108 0.13205808
0.0204271 -0.020316795 0.121163465 -0.041955356 0.042958315 0.03369397 -0.014006454 0.001674123
-0.056658402 -0.025447793 0.017320663 -0.018465422 0.063805796 -0.060898628 -0.05649933 0.11198681
-0.028866144 -0.008772349 -0.007064628 0.033048894 -0.052678388 -0.21725991 0.048475284 0.006372572
0.013296396 -0.02688676 0.041417502 0.006447034 -0.017322963 0.051567294 0.0027939358 -0.01110284
0.12740268 0.00037008757 -0.06393068 0.028048456 0.04204959 0.073868856 0.018220391 -0.06188979
-0.1483384 -0.057526868 0.056074243 0.05409306 -0.019534942 0.11395572 0.10780756 -0.034603864
-0.054508872 0.043634534 0.07377496 -0.023448382 0.005274324 0.035281833 -0.0058299806 0.05649793
0.041604735 -0.060625058 -0.015980562 0.018543292 -0.022312067 0.057499193 0.08551946 0.018543957
-0.06449285 0.14148211 0.04810891 0.080516785 -0.0849422 -0.0012365282 -0.07446946 0.0018403598
0.122485675 0.02085496 -0.04662481 -0.014241227 -0.09506459 -0.08337814 0.036089066 -0.08786735
0.014978483 -0.072511226 0.038175352 0.15145959 0.07254811 0.017079758 -0.061776835 -0.055278968
0.038276456 0.0017159929 0.09445944 0.036617614 0.01646186 0.049086217 -0.09877648 0.0023184419
0.01616767 0.12474188 -0.06657732 0.028368298 0.024728116 -0.021844119 -0.005302647 -0.08212996

l2.bias f4 [64]
00000000: f4f7 74bd 3475 80bd fc45 4bbd 9de1 9d3b
00000010: a9a3 783d 3621 c23c da3f 59bd 7ca8 0e3b
00000020: caed 803d 55a1 a8bd 65b6 83bd e4eb 07bd
00000030: a475 7abd ae2f babb 34c7 5f3c de9c 6ebd
00000040: f003 19bd d8f7 4dbc ce76 90bd 1ab1 583d
00000050: 822a 55bc 6036 21bd c3f8 de3d e5d1 8a3d
00000060: cda6 56bc 2e17 a63c 1a9f 5bbd af37 813d
00000070: 2022 b3bc 2066 2dbc c4f0 aebd 829c db3b
00000080: 8865 443c d5a1 cd3b 2b51 903d 50c7 b7bd
00000090: 4570 483a efa2 2fbc f961 053d 06d1 d23c
000000a0: d39f 22bd d52f ae3c c269 303d 5159 e73c
000000b0: 9ca6 82bd 4b65 553c e4e9 893d 23cc 12bc
000000c0: bd05 8b3d 6b7e 973d f1af 6b3d c804 b7bd
000000d0: 76de 923d bee8 adbd 10ec 803b 9467 873d
000000e0: 4d30 06bd 6de8 b6bd a846 263d 47e4 843d
000000f0: 9021 9bbc 71be 733d d96a 56bd 11ca a63d
-0.05980678 -0.06272355 -0.04962729 0.004818155 0.060702953 0.023697477 -0.05303941 0.0021767905
0.06295355 -0.08233897 -0.06431273 -0.033183947 -0.061147347 -0.0056819534 0.013658334 -0.05825507
-0.03735727 -0.012571298 -0.0705391 0.052903272 -0.013010623 -0.039358497 0.10887291 0.067783155
-0.013101292 0.020274725 -0.053618528 0.06309449 -0.021866858 -0.0105834305 -0.08542016 0.006702007
0.011987098 0.0062753954 0.070467316 -0.08973563 0.0007646124 -0.010719999 0.032564137 0.025734436
-0.0397032 0.021263042 0.04306961 0.028240832 -0.063794345 0.013024638 0.06734064 -0.008959803
0.06788204 0.07397159 0.057540838 -0.08936459 0.07171337 -0.08491658 0.003934391 0.06611553
-0.032760907 -0.089310504 0.040594727 0.06488853 -0.018936902 0.05950779 -0.05234799 0.0814401

l3.weight f4 [1, 64]
00000000: 4f7f 4cbd 8826 5bbd d441 e3bd 2ba1 f63c
00000010: 3ee9 27be a9b5 90bd e0e5 3ebe 32ec e0bd
00000020: 6c3e df3d e057 c13d 9aeb e1bd a9f5 c1bd
00000030: d2e6 eabd 0f11 32bd b09c 16be 2cc1 67bd
00000040: 80cc 743d b1a9 3fbe 6fe9 a1bd 7cbb 75bd
00000050: e4bd b3bd f458 16bd 3be3 223e abd5 65bd
00000060: 00cf babd 6fd1 babd 2f41 38bc 3a3e 14be
00000070: 5658 be3d e0d2 ac3d c34c 73bd 4d20 b1bd
00000080: 3acb acbd 03fa f3bd f1b0 27be b1a7 db3d
00000090: e1a4 9bbd 77ab b5bd 8bd3 0abe dc1b a7bd
000000a0: 32ff 7b3d 1561 0e3e 9751 b9bd 0a5b bdbd
000000b0: 3fb9 563e fbf3 35be 4e61 af3c 3dda 983d
000000c0: ffe1 b13d 2d4b 03be ba6d 0c3e 6aa4 ea3d
000000d0: 36a0 fcbd 5c8a 853c 42d6 c0bd ce6b e4bd
000000e0: 6fa4 833e af10 9dbd 0f59 283e dc6f 23bd
000000f0: a068 543d 84e0 9c3d 4c74 a4bd 95db ff3d
-0.0499261 -0.053503543 -0.1109654 0.030106148 -0.16397569 -0.07065899 -0.18642378 -0.10982551
0.10900578 0.09440589 -0.110312656 -0.09470684 -0.11469807 -0.0434733 -0.14708209 -0.056580707
0.05976534 -0.18717076 -0.07905852 -0.059993252 -0.08776453 -0.036705926 0.15906994 -0.056111973
-0.09121513 -0.091219775 -0.01124601 -0.14476863 0.092941925 0.08438659 -0.059399378 -0.08648739
-0.084372 -0.1191292 -0.16376092 0.10725344 -0.075998075 -0.08870595 -0.1355726 -0.08159611
0.06152267 0.13904221 -0.09048765 -0.0924588 0.20969103 -0.17768852 0.021408703 0.07463501
0.086856835 -0.12821646 0.13713732 0.11457141 -0.12335245 0.016301326 -0.094158664 -0.111533746
0.2571139 -0.07669198 0.16440223 -0.0399016 0.05185759 0.076600105 -0.08029994 0.12493054
