turtlebot3_machine_learning/turtlebot3_td3/steer&spd/model228_sl/TD3_stage2_actor_target.pth (torch_old, 103102 bytes, 8 tensors)

l1.weight f4 [24, 60]
00000000: 9896 86bc f01f 4fbd b09e b0bc 0cd5 5cbd
00000010: fd7e a93d 5bff 253d 4d45 39bc c7a6 883d
00000020: ef31 b13d f658 0a3d 2393 bb3d 6bb5 3c3d
00000030: db11 9e3d 98c2 9a3d 62ef 983d 7e41 223d
00000040: 64c2 a83c 3c8b 6b3d fafb 09bc d6f6 013d
00000050: e44b 253c 7d52 1dbd 5a6f 503d 6325 06bc
00000060: a74e 1c3d 03de 8a3c 9464 a33d 6d71 963b
00000070: 6f93 1b3d a015 a73c eca3 5c3d 2ba7 d63c
00000080: 0f08 ecb9 309b 863d 4abe 083d fe8c db3d
00000090: 1651 523d 7e18 053e 5ffe 823c 5ce3 153e
000000a0: a31d f03d 1f33 f73d 69e5 cf3d 11cd 0a3d
000000b0: c16b ae3d 1523 8d3c 0900 1abe 7137 503c
000000c0: 0295 abbd 7e40 72bd 8585 86bd e164 15bd
000000d0: a572 aebc baec 7cbd 937f 01bd 81fd f1bd
000000e0: ef38 c6bc 78d7 21bd 643f 153d 185f 833d
000000f0: 3958 e33d 8f42 e13d 0b0a 413d a98e 06bb
00000100: 2514 063d 6781 9fbb 5b1c 5c3c ea63 b33c
00000110: 3cc1 973d b43b 27bc 614d ab3d 1c3c d33d
00000120: 314f d63d 4420 e33d 43b8 df3d 18f2 ae3d
00000130: 04f7 813d f537 c83d 9337 f63d 5e74 e03c
00000140: 7bb1 203d 7abd 2c3d e10d b03d acdc 093e
00000150: c667 7f3c 76c6 053e 5515 ad3b c415 1c3e
00000160: 4944 4c3e 4910 a53d 6db3 c53d 1f24 573c
00000170: 62f0 ebbd d548 d2bd c449 3abe 22ad 88be
00000180: b0c2 1bbe 4cac 7fbe 6d7f aebe c68d 46be
00000190: d6a0 03be 131a 2cbe 3d6a 02be 934c a7bd
000001a0: 673b 0abe 9759 02be c687 f2bc 7896 b8bd
000001b0: d313 95bd f6f8 57bd 6139 93bd 8330 dabd
000001c0: ce99 19bd 83ad 45bd 5507 c3bd 77c3 04bc
000001d0: 1c80 24bd 414c e8bc 8fae 983d fc92 673c
000001e0: 274e 2f3e 11f0 df3d 996d a33b 3e1a b8bc
000001f0: 4cde abbc 4117 febc 744f 073d 9fbe d8bc
00000200: d1b7 2cbc 1e77 463d eca8 843d 890e 223d
00000210: 3aac f33c 68ca d13c 0013 393d c240 153d
00000220: 4a29 513d 2f24 25bc ec42 1fbd 517e 45bd
00000230: 7fea c7bd 34bd 2abe 3470 80bd 61eb 2dbd
00000240: ba51 5abd 6387 653b 2278 d1bc 6e97 5c3d
00000250: 2c46 d23d 8356 1e3d f7db 143e cffd 0d3e
00000260: e9e7 1f3e c598 033e 2564 143e c5f2 0d3e
00000270: 7e91 c03d fe0d e23d a9e6 6c3d c5f4 a33c
00000280: f5c2 b53c 33ab 1e3a 946a f1bc b94f 9d3d
00000290: 278b efbc eff5 c23c ae2b 65bc 5a44 21bc
000002a0: a4b0 e9bc 467e 0c3d 0222 93bd 8caa 9e3d
000002b0: b11c 43bd e382 1d3c a621 1c3d b148 283c
000002c0: 1114 abbb 2a9f ce3c 683b 46bd aa81 85bd
000002d0: b1c2 18bd 0d88 cbbc b750 013d 5f49 d4bb
000002e0: 9dad 15bb 50a4 9e3c 84c6 3abd 7c41 753c
000002f0: 1ce0 9f3c 73e7 e03c 1564 163d 84aa 5d3c
00000300: d401 033d dcc6 9e3c 51af 053e b2b7 1e3d
00000310: 0955 9e3d 7ade 8e3d 6db2 003e 0a1c ab3d
00000320: d52e 423d e544 233d d8d4 6b3d 85b5 a23b
00000330: 2246 f8bc 9d01 7ebd dc7c c73d 8492 15bd
00000340: e14f 103c 754d f43d 0996 4e3d f62f 993d
00000350: dad4 bcbb 44e7 f03d 7700 b03d 2f73 993d
00000360: a850 f43d 0dd3 083e 1aeb ee3d ae2f da3d
00000370: 2dd4 fa3d cfed 0e3d 13c7 ef3d 7744 8f3d
00000380: 78f1 8abc dec0 bcba 93dc 863d 10e8 293c
00000390: 0af1 21bd 91cb abbd ad1a 68bd 25ea 88bd
000003a0: 4d2c 07bd 735d 5abd e6df 89bc 97b8 8dbc
000003b0: 0a81 15bd c455 07bc fdd5 543d aaa7 01be
000003c0: 85e3 893d c254 cebc f9a4 b9ba 8851 153d
000003d0: 7e04 2cbd 18ae febc 03a4 85bd 56d8 14bd
000003e0: 10d7 44bd cf0b 3abc abef b7bc 1511 22bd
000003f0: 7096 97bd de40 65bd b6ad c0bd 054f 55bd
-0.01642923 -0.050567567 -0.021560043 -0.053914115 0.08276174 0.04052673 -0.0113080265 0.06672435
0.08652102 0.033776246 0.091589235 0.04607145 0.077182494 0.07556647 0.07467534 0.03961324
0.020600505 0.05750583 -0.008421892 0.03172954 0.0100888945 -0.038408745 0.050887443 -0.008187625
0.038160946 0.016951567 0.07978168 0.004591158 0.0379824 0.020396054 0.053867266 0.026202759
-0.00045019432 0.065725684 0.0333846 0.107202515 0.05134686 0.12997624 0.015990434 0.14637512
0.11724403 0.120702974 0.101511784 0.033886973 0.08516646 0.017228642 -0.15039076 0.012708531
-0.0837803 -0.059143536 -0.065684356 -0.03647316 -0.021294901 -0.061749198 -0.031615805 -0.1181593
-0.02419707 -0.039512128 0.036437407 0.06414622 0.111008115 0.10999023 0.04712872 -0.002053181
0.032734055 -0.004867721 0.013434495 0.021898229 0.074099034 -0.010207105 0.08364368 0.10314199
0.10464323 0.110901386 0.10923817 0.085422695 0.063459426 0.09776298 0.12022319 0.027399238
0.03923176 0.042172886 0.08596397 0.13463086 0.015588706 0.13063988 0.005282084 0.15242678
0.19947924 0.08059747 0.096533634 0.0131311705 -0.11520459 -0.10267798 -0.18192202 -0.2669459
-0.15210986 -0.2496807 -0.34081593 -0.1939002 -0.12854323 -0.16806822 -0.12735839 -0.08168902
-0.13499223 -0.12729488 -0.029605757 -0.09013075 -0.07279172 -0.052727662 -0.071886785 -0.10653784
-0.037500195 -0.048261177 -0.09522883 -0.008103243 -0.040161237 -0.028356673 0.074551694 0.014134165
0.17119657 0.10934461 0.0049874303 -0.02247345 -0.020980023 -0.031016948 0.033034757 -0.026458083
-0.010541872 0.048453443 0.06477532 0.039564643 0.02974521 0.02560921 0.045184135 0.03643871
0.051064767 -0.010079428 -0.03888218 -0.048216168 -0.097615235 -0.16673738 -0.06271401 -0.042460803
-0.053300597 0.0035023324 -0.02556998 0.053855352 0.102672905 0.038656723 0.14537035 0.13866352
0.1561581 0.12851246 0.14491327 0.1386214 0.094027504 0.11037825 0.057837162 0.020014176
0.02218769 0.00060527324 -0.029469766 0.076812215 -0.029241158 0.02379891 -0.013987465 -0.009842956
-0.028526612 0.03430011 -0.07184221 0.07747373 -0.047634784 0.009613725 0.038118027 0.010271237
-0.005220898 0.02522238 -0.048396498 -0.06518872 -0.037295047 -0.024845148 0.031571116 -0.006478473
-0.0022839077 0.01936546 -0.045599476 0.014969226 0.019516043 0.027454114 0.03671654 0.013529424
0.031984165 0.019381933 0.13055159 0.038749404 0.07731063 0.06976028 0.12568064 0.083549574
0.047407944 0.039860625 0.05757603 0.0049654865 -0.03030688 -0.062013257 0.09740612 -0.03651668
0.008808107 0.11928836 0.050436053 0.07479851 -0.0057626786 0.117628604 0.08593839 0.07492673
0.119294465 0.1336176 0.11665936 0.106536254 0.122475006 0.03489476 0.11707892 0.069954805
-0.016960844 -0.0014400741 0.0658504 0.010370269 -0.039536513 -0.083884366 -0.056666065 -0.066852845
-0.033001233 -0.053311776 -0.016830396 -0.017299933 -0.036500014 -0.008260194 0.051961888 -0.12661615
0.06732849 -0.0251869 -0.0014163546 0.036454707 -0.04199647 -0.031088874 -0.065254234 -0.036339127
-0.048056662 -0.011355354 -0.02245315 -0.039567072 -0.074017406 -0.055970065 -0.09408133 -0.052077312

l1.bias f4 [24]
00000000: d038 0ebe c6a7 363e 7b27 1dbe 548f 28be
00000010: a07e 41bd 5959 5cbd 08b0 80bd cca7 0a3e
00000020: 5d5b 16bd 28fc b9bd d041 483c 8ac9 44be
00000030: 9a1e 1bbc 5bd2 113e 564a 32be 96b1 233e
00000040: 6298 73be 7de8 15bd c622 113e b707 11be
00000050: 49bf c53e 3b0c a3bd 4e3a e13e d3c3 8f3e
-0.1388886 0.17837438 -0.15347092 -0.16460925 -0.0472399 -0.053796146 -0.06283575 0.13540572
-0.036708225 -0.09081298 0.012222722 -0.19217506 -0.009467745 0.142404 -0.1741117 0.15985712
-0.23788598 -0.03659867 0.14173421 -0.14163099 0.38622501 -0.07961317 0.43989795 0.2807909

l2.weight f4 [256, 28]
00000000: 6517 1fbe 0724 10be 80e4 90bb a44c 20be
00000010: 4054 a43c 73f5 19be 6004 a63b 449f 033d
00000020: ab5e 193e 1ea5 b93d 30b3 04be 0fc7 ebbd
00000030: 98a1 e4bd a87d 1fbd 80c3 80bc 1881 0dbe
00000040: ba1c 01be 58af 0bbd a8b9 29be ccdd 24be
00000050: 882c cdbc b8a6 5b3d 842e e7bd 5e11 d23d
00000060: fa05 c33d af5a 21bd ea45 dcbd 9524 20be
00000070: 94b8 c8bb e3a8 87be 0b70 193e 5379 043e
00000080: 721c 683b bf1c f7bd 89f4 303e 8a2c ee3d
00000090: 2f27 803d 52e0 833d 25d6 73bd 338b 99bd
000000a0: c876 61be b7ef 0a3d 2cc2 05be 01a2 c2bd
000000b0: 66de 523c 8431 713d a94e ba3d ab08 9abc
000000c0: 12a1 52be 0b41 febd c61a 19be 7d6d c5bc
000000d0: fb10 673f 4f9b 4abb 1342 f33c 588d 08bd
000000e0: d0a1 a3bb d7ae 6ebd 12d8 4c3d 3271 c5bd
000000f0: 8c0c 113e 904b 1fbe 32a3 3cbe bb58 37be
00000100: c71c 5fbe 7f03 b53d adea 113e 9139 dc3d
00000110: f31a 9b3d bb5e 19be 2858 4bbe 1238 c7bc
00000120: b064 20bc 3472 25be a730 183e 1f9e 4d3e
00000130: 6107 1f3a f075 1ab7 b83c d3bd 1d41 623d
00000140: 84fc 823e 50bb ea3d 1d36 543f 9e1a ad3d
00000150: 5c56 873d e234 913e d325 30bd 4353 eabc
00000160: 1662 083e bd88 353e 63f0 213e d767 073e
00000170: 1745 19bd a3c9 32be fa99 07bd 47f6 5e3d
00000180: 38d1 a1be af3c 29bd 0d7e 46bc 7aaf bcbd
00000190: 46c0 8a3e aa54 36be 3f66 8c3d 6e51 72be
000001a0: bcc1 48be fe2f 8a3d a730 c03c d884 f13d
000001b0: 9ddf 0fbc 6dd8 943d 7791 4cbd 030e 41be
000001c0: c871 e73b 96ef 443a d93e 6fbe ff5d 6fbc
000001d0: 457e aabd 2bc8 8ebc d04c 61bd aa46 f3bb
000001e0: b033 18be 5e04 133e 2276 83be b5a4 94bd
000001f0: 650e 39be 131d 1bbd 6bfa ca3d 72b9 fb3d
00000200: 0c69 d83d 6d61 003c ce27 b0bd e991 94be
00000210: 9d17 d5bd a4d0 0cbe 3a58 263e 6939 8d3c
00000220: ff30 83be 0f19 96bd 35bb cabe 109a af3d
00000230: 2c37 71bd 5f8c 6a3e 1d8f ffbd f89a 87be
00000240: 19b1 45be 02f1 95bd 0eb1 cd3d 04a0 7b3d
00000250: bbab 05be cbf0 7cbd eebb f93d 109c 9c3d
00000260: b262 0fbe f3c1 263e 652f 073e e4de d83d
00000270: 06d6 2abd 1236 663d 78f4 593c 4c54 90bd
00000280: 6a01 00be 6a09 963c 2534 283e 48cd af3e
00000290: 6c72 d7bb 930b 903d 6f41 f63d 3cef 90bd
000002a0: 8455 37be bdf7 1b3d 8a78 133e df40 11be
000002b0: 7992 e8bc 976d 823d 40f9 49bd 5ab6 d8bc
000002c0: c2df b7bd cf4b 24be 1018 e33b 585a 073e
000002d0: 65fe eb3d 25d2 02bd fa53 9b3c 1266 523c
000002e0: b314 3e3e daed 75bd 7284 a2bc 1259 e13d
000002f0: 7990 0abe d0fc b0bd eb51 52bd a31c 13be
00000300: 529b c2be 739b df3d 9673 90be 2d80 d23d
00000310: 5b3b aa3d 8bbf 203e c27a 983d 544f 01bd
00000320: 7f1e 903d 4646 613d 52ab a63d b967 f9bd
00000330: 4760 ce3d 6000 b5bd 2801 88bd f71b 803d
00000340: 1518 7bbe 2f2c ffbd c052 cc3c 6181 103e
00000350: 34e2 f53d b2e8 b43d dccb af3d 5523 e83d
00000360: 1141 68be a0f1 233e 337c fd3c cedf 1fbb
00000370: 2ed2 38be c649 b5bd 1a64 813d ab1d 34be
00000380: a408 76bd dcbc 983e db7d 3cbe c112 1d3d
00000390: fbe4 05be 9552 68be 3fee 183e 8ca5 083e
000003a0: e5ef 11be 81a2 d9bd dbd2 2dbe ea6c 23be
000003b0: e9e2 da3d d353 d33d d06e 6abe 34ae 0c3e
000003c0: f1d2 a1be b264 89bd 0f2c aa3d 8e3f c8bd
000003d0: 83a5 bb3c bbac 6c3e 8fbc 103e c714 9a3d
000003e0: c7b5 b8be fb2f 923d 5957 eabe 7fa1 c839
000003f0: 8abd 373c d6dd d53c 8fa5 cabd 2f50 c33d
-0.15536268 -0.14076243 -0.0044217706 -0.15654236 0.020059705 -0.15035038 0.0050664395 0.03213431
0.14977519 0.09064697 -0.1295898 -0.11512577 -0.11163634 -0.038938195 -0.015718222 -0.13818777
-0.12608615 -0.034102768 -0.16574728 -0.16100234 -0.025045648 0.053625792 -0.11288169 0.10257219
0.09522624 -0.039393123 -0.107555225 -0.15638955 -0.006125519 -0.26496038 0.14984147 0.12936907
0.0035417345 -0.1206603 0.17280783 0.11629589 0.06257474 0.0643927 -0.059530396 -0.07497253
-0.22017968 0.033920016 -0.13062352 -0.09503556 0.012870407 0.058885112 0.090970345 -0.018802961
-0.20569256 -0.1241475 -0.1495162 -0.02410006 0.90260285 -0.0030915325 0.029694593 -0.03333792
-0.004993655 -0.05827221 0.05001075 -0.09640731 0.14164943 -0.15556169 -0.18421629 -0.17904942
-0.21788321 0.088385575 0.14249678 0.107531674 0.075734995 -0.14977543 -0.19857848 -0.024318729
-0.009789631 -0.16156846 0.1486231 0.2007985 0.0006066468 -9.206575e-06 -0.103143156 0.055237878
0.2558328 0.11461508 0.8289507 0.084523425 0.066082686 0.2836066 -0.043004822 -0.028604155
0.13318667 0.17727943 0.15814357 0.13223206 -0.037419405 -0.17459731 -0.033105828 0.054434087
-0.31604934 -0.041317638 -0.012115014 -0.09213157 0.27099818 -0.17805734 0.068554394 -0.23663875
-0.19605154 0.06747435 0.0234607 0.11792916 -0.008781341 0.072678424 -0.049943414 -0.18853001
0.0070631243 0.0007512508 -0.23363818 -0.014609813 -0.08324865 -0.017429432 -0.055004895 -0.0074241953
-0.14863467 0.14357135 -0.25676066 -0.07257978 -0.18071897 -0.037869524 0.09911045 0.1229123
0.10566911 0.007835728 -0.08601342 -0.2901757 -0.104048945 -0.13751465 0.16244593 0.01723929
-0.2562332 -0.07328998 -0.39595953 0.08574307 -0.058890507 0.2290511 -0.124784686 -0.2648542
-0.19305839 -0.07321359 0.10043536 0.0614319 -0.13053791 -0.061753076 0.12194048 0.07646954
-0.14002493 0.16284923 0.13201673 0.10589388 -0.041708015 0.05620391 0.013302915 -0.07047328
-0.1250054 0.018315036 0.16426142 0.34336305 -0.0065749194 0.070334576 0.12024199 -0.0707688
-0.17903715 0.03807806 0.14401451 -0.14184903 -0.028390156 0.06368559 -0.04930997 -0.02645414
-0.08978225 -0.16044544 0.0069303587 0.13218057 0.11523131 -0.03193869 0.018960942 0.012841718
0.18562584 -0.060041286 -0.019838545 0.11003317 -0.13531674 -0.0864197 -0.051347654 -0.14366393
-0.38009125 0.109183215 -0.28213185 0.10278354 0.083121024 0.15698068 0.07445289 -0.031569794
0.07037067 0.05499866 0.081381455 -0.12177987 0.10076957 -0.08837962 -0.066408455 0.06255334
-0.24520905 -0.12459599 0.024941802 0.14111854 0.120060354 0.088334456 0.08583805 0.11334864
-0.22681071 0.16010141 0.030943012 -0.0024394873 -0.18048927 -0.08851962 0.06317921 -0.17589442
-0.060066834 0.29831588 -0.18407385 0.038347963 -0.1307563 -0.22687753 0.14934634 0.13344401
-0.14251669 -0.10626698 -0.16974966 -0.15959516 0.10687811 0.103187226 -0.22893834 0.13738328
-0.31606248 -0.06708659 0.08309185 -0.09777747 0.02290607 0.23112766 0.1413443 0.07523494
-0.36076185 0.07138058 -0.45769766 0.00038267297 0.011214623 0.026106756 -0.09894859 0.09536778

l2.bias f4 [256]
00000000: bce5 29bd 443a 8f3d fb8f 78bd cd84 b43d
00000010: 5b7e bebd e51b 5d3e bbdb 7e3d 3030 4bbd
00000020: 7d30 9f3c 1582 78bc c880 403e c1b2 41be
00000030: c97d 86be d09e 04be d4af e43d ca3d f53d
00000040: 7f69 803d 7185 e7bb 0ec2 6dbd f452 15be
00000050: 12ad 58be 9a52 86bc 8e02 1a3d 09c7 35be
00000060: 489d 3fbe 4815 93bd ae9d 273e eda3 fe3d
00000070: 48d8 6ebe d059 2e3d 95fb 693d caf5 c93d
00000080: 3b74 56be f426 65be 7c39 58be 6d27 e9bb
00000090: b64e ad3c e798 a4bd fe35 073e f41b 0a3d
000000a0: 68ef 19be d938 973d ae19 17bc 19eb 04ba
000000b0: f51a 54be 77bd 4b3d ecc3 c23d 726e 433e
000000c0: 719b 843d 06a5 aa3d 91b6 9abd 93be 39bc
000000d0: d3cd 2bbd 2adf 67bd c453 a8bd 5e6e d53e
000000e0: 29a2 8bbe a7fd f6bd 01de 8ebe f09e 803d
000000f0: 0734 073e 0cca ba39 a214 003b b9c4 09be
00000100: aaa3 84bd 2b68 4b3e dc88 0ebe 3552 15bd
00000110: c1a9 2d3d 7289 52be a781 1bbe b69a 203c
00000120: 17c0 febc 23df 8dbd 9298 9abe d665 acbb
00000130: ae48 55bd 66e8 393e 5109 cc3c 4b7a 1ebe
00000140: 609b 95be 38f9 30bd 84eb 45bd cbce 943e
00000150: cfc3 2ebe 9e70 1bbe b730 5d3d 117d 1a3e
00000160: f103 79bd 8231 203d eb57 383e 93dc 96bd
00000170: e366 0c3e 2ba5 0fbe 588c c2bd bf9a 903d
00000180: 9063 f03c c769 55bd cdf3 823e a399 cdbc
00000190: 0964 59bd b192 853e 5c79 91be 2d4a 17bd
000001a0: 51de 67be d8fa f43d da84 e33c 7603 61be
000001b0: f10d 1bbe 8541 413e 3c49 e93d 805a 003e
000001c0: 80c6 a7bd b791 8dbd b1f4 313d d807 2b3d
000001d0: 02b5 86be 1f01 4ebe 7528 06bd 4657 a3bd
000001e0: 8096 773e 16f4 08be 28f3 a0be 8a75 2bbe
000001f0: e50e 763d 9ea5 3b3e ba7c fd3d d407 ffbd
00000200: 91ba 8f3d f010 623e 4882 723e fc01 043e
00000210: 7aab ae3d 3bcc dd3c bf83 d3bc 34a9 b53d
00000220: 0fe0 e33d 180e 26bb 14b4 67be ed2f ac3e
00000230: 0426 2e3e ee3e 163e c834 823d 5cc8 5f3c
00000240: 7021 b73c ccec 78be b94b debd 491d a63c
00000250: 59d9 03be 3c2e a2bd 1cd6 4abe c656 743e
00000260: 8038 eb3c 4024 673d 5173 073e 4b8c 8a3d
00000270: 40b3 3f3e ebc4 363c bc3f d03c 3fc9 873e
00000280: 9a26 a3bd aaae eabd ab4e ae3d e2c8 25be
00000290: 7e49 acbd 59f0 c6bd 76eb ba3d 3b9f a3bd
000002a0: f606 dc3d 1399 963d 2764 fdbd af91 eabc
000002b0: 2382 b9bd da66 56be 1eca 493d a217 8dbd
000002c0: 19c4 0b3e 66b4 4e3e d7ef 3c3e eb83 0c3d
000002d0: c9c5 5e3d b05b 7cbd 4411 553b 91b3 de3d
000002e0: 92dc 3c3e 3f4d 0bbc e6a9 9bbd 5456 86be
000002f0: 7437 843e bc52 953d e9b8 693d fbac 633d
00000300: cbba 613e f43b 21be 2942 f0bd 4b6d d3bd
00000310: 6bc8 c6bb b317 f0bc 6d96 383e 2fe0 a73e
00000320: 5ccb eabd 5e34 18bd e280 a53c 3974 39bd
00000330: 7d83 fc3d 80e3 c7bc ef19 6b3d e25b b7bd
00000340: eace 17be 2b7f 4e3d 4208 7e3e 313b d93c
00000350: e46a 15ba 51ba 0ebe c5b0 78bd 384c c53d
00000360: c645 d1bc 1dfa 8cbd b824 233e 578c 8f3e
00000370: ffbe bdbd b56f 06bd 4778 b1bc d7f2 953b
00000380: 567a 0b3e 88e1 11be 36a4 873e 3105 db3d
00000390: 7296 813d eb33 433e 1227 35bd b6e3 123d
000003a0: 92ca 213d 9274 35be 179a 193e f8a9 f1bd
000003b0: 40bd 963d 969d 98bd e892 0bbe 13bd 543d
000003c0: 9b2f 6abd 07b2 363e 1ced 5c3e 3ce1 43bd
000003d0: 7338 3ebd 9f24 91be 8c90 d7bd 37dc e4bd
000003e0: 7a67 d8bd 1d5f fd3d 4668 e03b 62b5 3e3b
000003f0: fccc 0a3d ff95 16be a346 e93d 1daf f6bd
-0.041478857 0.06993535 -0.060684185 0.08814392 -0.09301444 0.21592672 0.06222127 -0.049606502
0.0194323 -0.015167733 0.18799126 -0.18915845 -0.2626784 -0.12951207 0.11166349 0.11974676
0.06270122 -0.007065468 -0.058046393 -0.14582425 -0.21159771 -0.01639681 0.037600093 -0.17751707
-0.18712342 -0.071817935 0.16368744 0.1243361 -0.23324692 0.04256612 0.057124693 0.09861334
-0.20942776 -0.2237814 -0.21115679 -0.0071152956 0.021155696 -0.08036976 0.1320419 0.033718064
-0.15032732 0.0738389 -0.009222431 -0.00050704327 -0.20713408 0.049741235 0.095100254 0.190851
0.064749606 0.08332257 -0.07554353 -0.01133694 -0.041944336 -0.05660931 -0.08219102 0.41685766
-0.27272156 -0.12060099 -0.2790375 0.06280315 0.1320344 0.0003562722 0.0019543548 -0.1345395
-0.06476529 0.19863956 -0.13919395 -0.03645535 0.042398218 -0.20560244 -0.15186177 0.009802511
-0.031097455 -0.069273256 -0.30194527 -0.005261163 -0.052071266 0.18155059 0.024906786 -0.15476339
-0.29220104 -0.043206424 -0.04832031 0.2906402 -0.17066883 -0.15179679 0.054001536 0.15086772
-0.060794774 0.039109714 0.18002288 -0.0736629 0.13711123 -0.1402785 -0.09499425 0.070607655
0.02934435 -0.05210283 0.2557663 -0.025097674 -0.053073917 0.2608848 -0.28412902 -0.036935974
-0.226434 0.11961907 0.02777331 -0.21973976 -0.15142037 0.1887265 0.113909215 0.12534523
-0.08192158 -0.069125585 0.043446247 0.041755527 -0.26309973 -0.20117615 -0.032753427 -0.079756305
0.24178505 -0.13374361 -0.31435513 -0.16744056 0.0600728 0.18324897 0.12377305 -0.12452665
0.070180066 0.22076774 0.23682511 0.12891382 0.085288 0.027074924 -0.025819657 0.088701636
0.1112672 -0.002533799 -0.22627288 0.33630314 0.1700669 0.14672443 0.063577235 0.013658609
0.022354811 -0.24309081 -0.10854287 0.020277636 -0.1287588 -0.07918975 -0.19808239 0.23861226
0.028713465 0.056431055 0.13227583 0.0676504 0.18720722 0.011155347 0.025421016 0.26520726
-0.07966347 -0.11459096 0.085110985 -0.16189912 -0.08412455 -0.097138114 0.09126942 -0.07989355
0.10743515 0.07353415 -0.12372618 -0.02863392 -0.09058025 -0.20937672 0.04926502 -0.06889273
0.13649024 0.20186004 0.18450867 0.034305494 0.05438784 -0.061610878 0.0032511512 0.10874093
0.18443516 -0.008502304 -0.07600765 -0.26237738 0.25823557 0.07291171 0.05706111 0.05558489
0.22043912 -0.15745527 -0.11731369 -0.1032358 -0.006066372 -0.029308176 0.18026133 0.32788226
-0.11464569 -0.037159316 0.020203058 -0.045276854 0.12329767 -0.024400473 0.05739778 -0.08953072
-0.14825025 0.050414246 0.24807838 0.026517482 -0.0005699827 -0.13938262 -0.060715456 0.09633678
-0.025545966 -0.06883643 0.15931976 0.28036758 -0.09264945 -0.032821376 -0.021663798 0.004576068
0.13620886 -0.1424619 0.2649247 0.106943496 0.06327523 0.19062774 -0.044226713 0.035861693
0.039499827 -0.1772025 0.15000187 -0.11799997 0.07360315 -0.07451932 -0.13630259 0.051938128
-0.057174306 0.1784135 0.21574825 -0.047822222 -0.046440553 -0.28348252 -0.10525617 -0.11174815
-0.105666116 0.12371657 0.006848368 0.0029099812 0.033886895 -0.14705656 0.11390426 -0.12045119

l3.weight f4 [64, 256]
00000000: 567c 3d3d 23cf 503f 02ab d7ba 631f 2c3e
00000010: 0531 df3d b001 fcbc 3476 6c3d beb4 e33d
00000020: 7c12 be3d d7db cc3e fb94 45bb 7a0e a53f
00000030: a9a5 ee3c e2e4 a63d 8a5d 983d b717 7cbd
00000040: 8ca7 bdbd 85b5 febc 0bc0 bf3c 66d1 f3bc
00000050: 0128 4fbd 8b3b 313e 9d53 41bd f82c 2dbc
00000060: a88b 54bc 32b6 76bd 4d4f 7f3e 9d9e e13c
00000070: f6dc 9b3b 7389 6cbb 687f 30bc da61 743b
00000080: 6894 103d fa7d a6be ffab 8b3e cf8b 98bd
00000090: 2628 febc a22e 03bf 16ff 303d 9e7d 15bf
000000a0: 7f58 b53d b614 93bd 3acf 603f d1f0 c6bd
000000b0: c47d 1bbd f973 bd3e a5ef 2c3e 963e 193d
000000c0: d59d ad3e 8766 243d fdf7 56bd c00c cf3d
000000d0: 073b 143e 0954 0d3e 4935 a8be d64d d2bb
000000e0: 3d38 9c3f ad38 52be 593d f3bd 1c5f 33be
000000f0: d0ba 8a3d 74e9 153d ff96 e1bd 8635 84be
00000100: 04b0 e43d 43e6 87bd 5c15 cd3d 630a 3b3c
00000110: c8b3 863d 8973 b73d 4647 66bf e13d d7bd
00000120: 1c2b 4d3e 71d3 4bbe 3d8c fa3b 619a b63d
00000130: 656e 1e3d b8ef 3f3d 076f 9f3c 08a5 eb3d
00000140: 378d fe3c a7fb 6abd ee95 26be 251e 72bd
00000150: 7bd8 0cbd c3f2 6ebd cd5f 003b c6e5 b83c
00000160: 3f01 4a3e 5333 edbc be9f a03c 38fc 7abd
00000170: 698c ac3c adc6 043d 1957 4c3d ee6e 703e
00000180: 6c47 b13d 20be 0d3d b6a8 01bf eae6 c2bc
00000190: 171b 513d 3acd 0ebe e868 bcbc aa8e a5be
000001a0: cffb 65bb 8b43 c53b 757d 9abc 1bf9 2d3d
000001b0: 70d4 74bd f54d ca3c 6164 ce3c 1b3e 6dbd
000001c0: abee ddbc 22e7 3b3f 5fb8 3e3d 9af2 8d3c
000001d0: 25d2 45bd 1899 923d 702d f33c dac0 b53c
000001e0: c919 203e 21b9 6c3d 3859 a53d 056b 503d
000001f0: daf0 163e bf9a 3e3e 22f3 903c d0df 9c3d
00000200: 538e f73c a437 333c 2b9c 7ebc 011c 0c3f
00000210: efa8 1a3d 825e d6bc 9092 6bbc f5b4 1139
00000220: e804 91bd a693 4d3c 1a9f e63d b13b b23d
00000230: 899b 0d3e 5aca 593d d3fe 503d b42d 863c
00000240: 3afe 113c b323 9a3e 789f 81be 1b7f b5bc
00000250: c8be 9ebd 736e 013d 88b0 113d e6bf cfbd
00000260: 3cda 9c3e f839 99bd bb53 8f3c 5cea 303d
00000270: 22b9 1a3c 7d5b dcbd ba87 903e 80a3 5c3c
00000280: 10dd 513d 9b17 14be 44b5 203c a747 0bbe
00000290: 8dd4 203e 8e4e cabd 05df 9c3c 0e4d 0d3c
000002a0: 8c4f 47bd 869f 843d 566e 723e cb08 2cbc
000002b0: 688f 0abd 4fc0 ccbc ec54 40bd 531a 1cbd
000002c0: 0e08 d63d b7da b2bd b1ea 58bd de03 ba3e
000002d0: 244b 363f 72ad 65bc 5ec3 ac3d 19d1 3c3d
000002e0: 91a5 0abd f747 28bd 837e 253f 3112 9ebf
000002f0: 3c41 5d3d 8d09 13bd 8db3 49bc f293 49bd
00000300: f110 6bbd 506b aabc a1f2 98bc f73d b03e
00000310: 2a31 66bd 0f1a 14be b853 153d c0e2 ad3c
00000320: 7f7f 9dbc 2b8b dc3d 0961 763d f9bf 9e3d
00000330: a01b 10bf dfd7 863d 1767 f83d 4831 133e
00000340: d3c7 6c3c 0540 b3bd 0c7c 03bd d67b 4ebe
00000350: 3be9 413b 7df2 3abe 57ba ab3a 79ea ee3d
00000360: 0ef0 0cbd 451f 0ebe 4c8d 5fbd 508d db3d
00000370: e79b a6bd 4b3f 3a3f e384 b8bd ee8a 8e3d
00000380: 80fd 543c 00d8 463d e31e df3d e415 0bbe
00000390: c899 223d c5c3 8cbe a055 7a3d a317 9bbe
000003a0: c308 1ebd bcb2 52bd 617a 923d c983 b23c
000003b0: c2bd a73d 447a ae3d d022 f9bc 2737 393b
000003c0: d51f 0bbd bc2d 1a3c 5cd7 953c 7b40 e6bb
000003d0: fe6e 903e 1fdb 2cbd d04f dcbc dd3c 513c
000003e0: a657 a3bd bcdc f53b 7ce8 a2bd 2cc8 033d
000003f0: b978 60bd a7aa 7b3e 7ffd d43d b974 b63d
0.046261154 0.81566066 -0.0016454163 0.16808848 0.108980216 -0.030762523 0.057729915 0.11118458
0.09280869 0.40011474 -0.0030148614 1.2895043 0.029131727 0.08149125 0.07439716 -0.061546054
-0.09260473 -0.031092415 0.023407003 -0.029762935 -0.05057526 0.1730787 -0.04719888 -0.010569803
-0.01297275 -0.06023235 0.24932595 0.027541453 0.004756565 -0.0036092668 -0.0107725635 0.003728977
0.03529778 -0.32517987 0.2727966 -0.074485414 -0.031025004 -0.5124303 0.04321202 -0.583948
0.0885477 -0.07181685 0.878162 -0.09713901 -0.037961736 0.37002543 0.16888292 0.037413202
0.3390948 0.04013684 -0.052482594 0.10109854 0.14475642 0.13801588 -0.32853153 -0.00641797
1.2204663 -0.20529433 -0.118769355 -0.1751675 0.06773913 0.03659959 -0.11015128 -0.25822085
0.11166385 -0.06635716 0.100138396 0.011416051 0.06577259 0.089575835 -0.89952505 -0.10509849
0.20035976 -0.19904877 0.0076461122 0.08916164 0.0386795 0.046859473 0.019462122 0.115060866
0.031073196 -0.0573689 -0.16268131 -0.05911078 -0.03438614 -0.058336984 0.0019588352 0.022570502
0.19727038 -0.028955137 0.019607421 -0.06127569 0.021063047 0.032416034 0.04988775 0.23479816
0.08656201 0.034605145 -0.5064806 -0.023791749 0.051051226 -0.13945475 -0.022999242 -0.32335407
-0.0035092717 0.0060200146 -0.01885865 0.042473894 -0.05977291 0.024695376 0.025194349 -0.057920557
-0.027091345 0.73399556 0.04656255 0.017327596 -0.048296113 0.071581066 0.029684752 0.022186685
0.15634836 0.05779374 0.08073658 0.05088331 0.14740315 0.18613718 0.01769406 0.07659876
0.030219233 0.010938559 -0.015540163 0.5473023 0.037758764 -0.026168112 -0.014378205 0.0001389569
-0.07081014 0.012547409 0.11260815 0.087027915 0.13828863 0.053171493 0.05102427 0.016379215
0.00891071 0.3010536 -0.25316978 -0.022155335 -0.077512324 0.031599473 0.035568744 -0.101440236
0.3063525 -0.0748176 0.01749598 0.043192253 0.009443553 -0.107596375 0.2822855 0.013466716
0.051236212 -0.1446213 0.009808842 -0.13601552 0.15706082 -0.09878264 0.019149313 0.008624328
-0.048659846 0.06475739 0.23674902 -0.010500143 -0.03382817 -0.024994044 -0.046955988 -0.038111042
0.10450755 -0.08733123 -0.052958194 0.36331075 0.71208405 -0.014018403 0.08435701 0.04609785
-0.033849303 -0.041084256 0.64646167 -1.2349302 0.05401729 -0.03589778 -0.012310875 -0.049213357
-0.057389203 -0.020803124 -0.018670382 0.34422275 -0.05619923 -0.14463066 0.036456794 0.021226287
-0.019225834 0.10768732 0.060151134 0.0775146 -0.5629215 0.06584143 0.12129038 0.14374268
0.014451939 -0.08752445 -0.032100722 -0.20164427 0.002958848 -0.18256564 0.0013101798 0.11665816
-0.03440862 -0.13879116 -0.05457811 0.107203126 -0.08135205 0.7275283 -0.09009721 0.069600925
0.012999892 0.048545837 0.10894563 -0.1358257 0.03969744 -0.2749311 0.061116815 -0.3029147
-0.038582575 -0.051439986 0.07152248 0.021791356 0.0819049 0.08519414 -0.030412108 0.0028261633
-0.033965904 0.009410318 0.018291168 -0.0070267296 0.2820968 -0.042201158 -0.026893526 0.012770859
-0.07975702 0.00750312 -0.07954499 0.03217332 -0.05480263 0.24576817 0.10399913 0.08908982

l3.bias f4 [64]
00000000: f369 2a3b 3839 4738 0710 7f3c 12ef 69bd
00000010: c1a2 4f3d bf91 d73a a92f edbd 9c91 893a
00000020: cb54 523d 9679 943d 17ec 54bc a5f0 0bbd
00000030: 4d04 89bd 4b74 563c fb49 8c3c 0ce2 24bc
00000040: bba2 3e3d 58cf 06bd 8e20 10be 1c89 7bbd
00000050: 78bd bebc 1041 97bd e9d9 373d d4f3 913d
00000060: e3c5 b73d 50ec af3d 0a5e 823d 38aa 183d
00000070: eaad 453d e0e3 3fbd 5154 123d b1c0 92bc
00000080: d32b babd cd4c 01bd 487e 703d 64ba 61bb
00000090: 8557 e23d 3af5 febb 0661 d03d ae4e ca3d
000000a0: e0c6 483d 9d7a 913b 8e26 b33b 64e3 87bd
000000b0: 7c85 7eba 50bc 4fbd f4a8 79bd 4dd0 093d
000000c0: c2ce a13d c38b b13d 073f b8bc a3a4 90bd
000000d0: 1439 b4bd 8a71 49bc e951 1e3d 1962 c33d
000000e0: 50e8 593c 7d05 033e 7d5e 353d cdce 0e3c
000000f0: 7663 283d 10f6 823d a834 c03d cb09 e4b8
0.0026003092 4.7498586e-05 0.015567786 -0.05711276 0.050692324 0.0016446634 -0.11581356 0.0010495665
0.051350396 0.07249753 -0.012995741 -0.034165043 -0.066902734 0.01308925 0.01712512 -0.010063659
0.04654191 -0.032912582 -0.14074919 -0.061410055 -0.023283705 -0.073854566 0.04488555 0.07126585
0.08973291 0.08589995 0.06365593 0.03727171 0.04826156 -0.046848178 0.03572494 -0.017914148
-0.0909039 -0.031567384 0.05871418 -0.0034443373 0.11051849 -0.007780698 0.10174756 0.09878288
0.049017787 0.0044396655 0.0054672426 -0.06635168 -0.0009709222 -0.0507167 -0.060952142 0.033645917
0.07900764 0.086692356 -0.022490991 -0.07062652 -0.08799949 -0.012295136 0.038652334 0.09540195
0.0133000165 0.12795062 0.044279564 0.008716297 0.04111048 0.06394589 0.093850434 -0.00010873711

l4.weight f4 [2, 64]
00000000: 5058 3e3e f289 e1bd 13ce fcbe a436 1cbe
00000010: a200 b5bd 14ce b8bd 6c87 6bbd d554 13bd
00000020: ce2b d63d 51f0 c6bd c571 5ebf 3a68 6dbd
00000030: c9a9 1b3e 0937 c1bd 7994 eb3d ea79 813e
00000040: 9496 7ebe 087b a1bd dc0b c83e c90f 66bf
00000050: 8537 04be b45c 663e a146 dabd 1500 183f
00000060: 294c a03e 283a 37bf b9a2 e1bd 25ca c8bd
00000070: 36d3 363f ef96 b13c 0ef9 89bd ec51 08be
00000080: f3fd 103f 2a4a 4b3e 3d9e e63e 7c95 73bc
00000090: a646 263f 5bd5 003f 1e74 073d 77da 923f
000000a0: e5b6 85bc 37c5 38bd e2df 7d3e f61a a0bd
000000b0: 3bf9 f2bd e169 973e 4bb1 78bd 95bf 583f
000000c0: 0634 6f3e d92b 13be 7ed2 cb3e d6c6 0abe
000000d0: f757 00bf 718b d03f e55a 76be a766 17bc
000000e0: 801b fcbd 9a35 f9bd 7866 b43d d36d e8bd
000000f0: aab7 6cbd 9718 72bc a942 04be 5ef7 a9bd
00000100: 2562 02be 596e c7bd a7b9 7a3e 83a0 de3e
00000110: 9812 11be 5e0d cdbc 73a2 ad3e 3896 44bb
00000120: 7619 f2bd a9fe e8be 02ef f53e 4839 413d
00000130: 4743 653e af2a e33d 2f3d 54be df5e c1bf
00000140: b76d f0be 784a 51be 52e3 d5be 6923 933f
00000150: c225 ccbd d35f a3bf 3eab 48bf 965a 903e
00000160: 4626 263e fd09 d1be d4eb 02be 57da b93d
00000170: 1d23 96be 468f a23b 6bd0 29be 6496 443e
00000180: 66b6 743d 64db 1b3e f7aa e6bc 23d7 f0bd
00000190: 74c1 a7bf 47c8 383d 8fc3 05be d346 c3bf
000001a0: f9ff db3d f458 fe3d f198 a43e 6b41 aa3d
000001b0: da48 60bd 7263 18bf a853 3abc a593 8fbe
000001c0: af0f b73e 3920 713f 816a a63d ebe4 73be
000001d0: b961 33bd c939 bcbf 54c7 923e 8f1a 04be
000001e0: 6427 713e 0990 c4bd 155d 643e 1aad 933d
000001f0: 6083 cd3d 16d5 213e 94d9 76be c71b 2fbd
0.18588376 -0.11012639 -0.49375972 -0.15255219 -0.08838011 -0.09023681 -0.057502195 -0.035969574
0.10457574 -0.097138055 -0.8689235 -0.057960726 0.15201487 -0.09434325 0.11502928 0.25288326
-0.24862128 -0.078847945 0.39071548 -0.89867836 -0.12911804 0.22496301 -0.10658003 0.59375125
0.31308106 -0.71573114 -0.11017365 -0.09804181 0.7141603 0.021678416 -0.067369565 -0.133125
0.56637496 0.1985251 0.450426 -0.014867183 0.6495155 0.50325555 0.033069722 1.147292
-0.016322562 -0.045109954 0.24792436 -0.078176424 -0.11863943 0.29572967 -0.060715955 0.8466733
0.23359689 -0.14372195 0.3980903 -0.13552412 -0.50134224 1.6292554 -0.24058111 -0.009240783
-0.12309933 -0.12168427 0.08808607 -0.11349072 -0.057792343 -0.0147763705 -0.12916054 -0.08299135
-0.12732752 -0.09737844 0.24484883 0.43481836 -0.14167249 -0.025030788 0.33913 -0.0029996764
-0.118212625 -0.4550679 0.4803391 0.04717377 0.22388946 0.110921256 -0.20726465 -1.5107077
-0.46958706 -0.20438564 -0.41774994 1.1495181 -0.09968139 -1.2763618 -0.78386295 0.28194112
0.16225538 -0.40827933 -0.12785274 0.09074848 -0.29323664 0.004960927 -0.16583411 0.19197994
0.05974426 0.1522041 -0.028157694 -0.11759784 -1.3105912 0.045112874 -0.13062881 -1.5255989
0.10742182 0.1241931 0.32147935 0.08313259 -0.054756977 -0.5952674 -0.011372484 -0.2804233
0.35754153 0.9418979 0.08125783 -0.23817794 -0.043794367 -1.4705135 0.286677 -0.12900756
0.23550183 -0.09597785 0.22301133 0.07210751 0.100348234 0.15803942 -0.24106437 -0.0427511

l4.bias f4 [2]
00000000: c99f 95bc 1e99 093d
-0.018264668 0.03359329
