turtlebot3_dqn/save_model/stage_1_360target.pth (torch_old, 164553 bytes, 22 tensors)

feature_layer.0.weight f4 [64, 26]
00000000: cd6a cabd 8687 9abd ca4e 90bf 77a9 d8bd
00000010: 277b 9d3d 2732 9a3e 1acf a53d eb77 0f3e
00000020: 3e52 593e 2fc8 a5bc 8515 163e 906d 0fbe
00000030: 5e59 98be 57b6 19be f16c 26be 1d50 9dbd
00000040: c129 223e 07a1 2ebc e76a 103e 1c18 983d
00000050: 736c 643e 6fc3 873e 29ae ce3d 176f 62be
00000060: ab3d 92be 4455 283d 7857 9fbe f699 87be
00000070: 6826 243c ba44 713e 0056 063e 3db2 b0bd
00000080: 7595 5cbe 819d 193e b5fe 033e fb79 293e
00000090: 1b78 333e 71cd 593e 2cdb 8b3e 5d51 833d
000000a0: 4cd4 703e 2311 1c3e f556 523d 8185 b0bd
000000b0: e64c 9bbb 997f 13bd 85b7 19be c7ee ccbe
000000c0: ce30 dfbe 2938 e9be f81f 373f 6ff1 17bd
000000d0: fe8b 9cbe aa04 aabe 6628 71be a619 9d3e
000000e0: da45 6a3e 89d2 473e 3205 803e 21ca cbbc
000000f0: ce3a 28be d12a 363d c2e7 4f3b c950 1fbd
00000100: 8a58 5fbe fbec edbd 4421 2c3d 6bde 9b3d
00000110: 42ac 683d c4c0 903e 8894 083e b16e 25bd
00000120: 355a 8e3e 3b5c 843e f29b 0cbf 90f9 d8be
00000130: 5f1b 4b3f e767 873d c451 b33c 8835 edbd
00000140: 2be4 d63d a916 27be 61a7 bdbe 5cf2 90bd
00000150: 13e4 b1bd 0586 1bbe ff35 a2bd 5511 9d3d
00000160: 12e6 713d d680 babd fccb ad3a 504d b9bd
00000170: fefe 8b3c d757 ff3d b351 563d 2153 093e
00000180: 5564 553e b881 14be 6a9c c1bd 2529 c5be
00000190: 5204 aebe 3279 7cbe 1195 883f 1a76 c23e
000001a0: a1e2 c9be 2818 bcbf 1084 6abd b34c c9be
000001b0: 9276 b13e 5a3c 2f3d d804 1c3c be5b 5a3c
000001c0: 1a57 6b3e acff 4bbd 219a 8f3d 1917 30bd
000001d0: 69c0 2c3d 68cc 3fbc cbc0 83bc aadc 603d
000001e0: 4b1e 883d d56c c03d c934 9d3d fbdd e33b
000001f0: a71a 773e a73c bb3e 9b19 25be a51c 18bf
00000200: fcc1 c33d 2897 6dbe 6339 063e 44d4 0abd
00000210: 1dbc 96bd 31ee bcbc 6115 c73b 73ba 0fbd
00000220: bfb0 a4bd c238 a9bd 5927 52bc 0ef3 19bd
00000230: e8cb 95bd 7e29 debc 9c8e 8bbd 81bb 043d
00000240: d53c e4bc 82a3 843d 5f77 84bc a561 d23b
00000250: a841 b7bb 31df c9bd d180 94bd acc6 a23d
00000260: 9777 123e 45a7 14be feff 73bf 878f 403f
00000270: 97c0 d6bd 1469 6fbf 38bb a43d 74ed 433e
00000280: 4e66 58bc a7df 5a3e 64b7 143e d925 ca3d
00000290: ba0d c53d 5a89 02be 6aad 2abe 466f 6dbd
000002a0: f0d0 58bd 6a54 9dbe 9911 aabe 7e12 adbd
000002b0: 5824 513e b516 a2bd 151c e53e 78f7 873e
000002c0: 5002 b83d a340 d13d 280e 453e 88da 203c
000002d0: 9679 443f 9df3 44bf f453 8ebe ff83 8ebe
000002e0: 960e 643d 6964 e13d cd3f 8fbe e9d6 00be
000002f0: 2fde 8fbd 8b11 30bd 519e 77be 27c2 0fbe
00000300: 5e87 77bd 9dc3 90bc 7f89 123b 0b91 81bd
00000310: 9a5b fb3c ccad 4b3d b90a 423c 8370 5fbe
00000320: f567 58be 98b9 4bbe 5cc0 4bbe 7dac 98be
00000330: 5c43 c5be 637a b2bd 4e2a c03e 11b1 ed3e
00000340: e8aa a9bd fa99 7fbe 9d7d 3dbe 537b c6be
00000350: 845f 04bf e1ef 28be 01fd 43be 1d6e d7be
00000360: ec08 e9bd 9032 153e 47f4 073d 4532 9abb
00000370: eba4 953d 4823 3c3c 7e42 3bbd 7de5 0ebc
00000380: 6ca3 d6bd 6f94 2b3d aa92 1e3e f533 853e
00000390: e24a ee3d f2c3 c2bd 6da2 0fbe a1ba 63be
000003a0: e67e 103f cf3d e1bd 0759 533a de29 4d3e
000003b0: 6ea7 543e d0e8 96bc 6c0a 803e f047 2b3e
000003c0: 5654 bebd 7b27 51be 1d9a 59be 0062 7cbe
000003d0: af95 b4be ec51 d9be d270 7dbe c838 85be
000003e0: 821f 3bbe c4f8 f1bd 0049 30bc 28fd 353d
000003f0: abdc e53d 1631 963d d5c2 5e3e df21 023e
-0.09883652 -0.0754538 -1.1274045 -0.10579198 0.07689505 0.30116388 0.08096142 0.14010589
0.21222779 -0.020237057 0.14656647 -0.14006639 -0.29755682 -0.15010963 -0.16252495 -0.07681296
0.1583624 -0.010658509 0.1410328 0.074264735 0.22306995 0.26516291 0.10091812 -0.2211269
-0.28562674 0.04109694 -0.3112142 -0.2648465 0.010018922 0.23561373 0.13118744 -0.08627746
-0.21541388 0.15001489 0.12890132 0.16550438 0.17526285 0.21269776 0.27315652 0.06412003
0.23518485 0.15240912 0.05135246 -0.08619214 -0.0047393916 -0.03601036 -0.15011413 -0.40025923
-0.43591923 -0.4555066 0.71533155 -0.037095483 -0.30575556 -0.33206683 -0.23550567 0.3068363
0.22878209 0.19513907 0.25003964 -0.024876656 -0.16428682 0.044474427 0.0031723832 -0.038895402
-0.21811119 -0.11617466 0.042023912 0.07610782 0.056804903 0.28272069 0.1333791 -0.040388767
0.27803198 0.25851616 -0.54925454 -0.423779 0.7933864 0.06611615 0.021889575 -0.11582476
0.10492738 -0.16317238 -0.37041762 -0.070774764 -0.0868608 -0.15187843 -0.07920455 0.076693214
0.059057303 -0.09106605 0.0013259645 -0.09047949 0.017089363 0.12467926 0.05232401 0.13410617
0.20839055 -0.14502609 -0.09453662 -0.38507953 -0.3398767 -0.24655607 1.0670491 0.3798073
-0.39430717 -1.4694872 -0.05725485 -0.3931633 0.34660774 0.042782165 0.009522639 0.013327537
0.22982445 -0.049804375 0.0701182 -0.042990778 0.042175684 -0.011706449 -0.016083142 0.05489794
0.06646403 0.09395758 0.076760836 0.0069539524 0.24131261 0.36569712 -0.16123049 -0.5941871
0.09558484 -0.23202193 0.13107829 -0.03389384 -0.073600985 -0.023062797 0.0060755466 -0.03508992
-0.08041524 -0.08262779 -0.012826764 -0.03758531 -0.07314283 -0.027119394 -0.0681431 0.03240538
-0.027861038 0.06476499 -0.016170202 0.0064203315 -0.0055925436 -0.098570235 -0.07251132 0.0794805
0.14303432 -0.14516933 -0.9531249 0.75219005 -0.10485952 -0.9351971 0.08043522 0.1913355
-0.013207985 0.21374379 0.14523083 0.098705 0.09621759 -0.12747708 -0.16667715 -0.057967447
-0.052933633 -0.30728465 -0.3321655 -0.08450793 0.2042402 -0.07914487 0.44747987 0.2655599
0.08984816 0.102174066 0.19243681 0.009817727 0.76748025 -0.76934224 -0.27798426 -0.2783508
0.055677973 0.1100548 -0.27978364 -0.12581982 -0.070248 -0.04298548 -0.24181487 -0.14038907
-0.06043183 -0.0176714 0.0022359786 -0.06326493 0.030683327 0.049726292 0.011843377 -0.21820264
-0.21133406 -0.19895017 -0.19897598 -0.29819098 -0.38527954 -0.0871475 0.37532276 0.46424153
-0.08284551 -0.24961081 -0.18504949 -0.38765964 -0.51708245 -0.16497757 -0.19139482 -0.42076197
-0.11378655 0.1457007 0.033191945 -0.0047056996 0.07306846 0.011483021 -0.04571771 -0.008721706
-0.10480389 0.041889604 0.15485635 0.26016203 0.116353765 -0.0951003 -0.14026804 -0.22239162
0.5644363 -0.10998117 0.00080622773 0.20035502 0.20766994 -0.01842156 0.2500795 0.1672666
-0.092934296 -0.20425217 -0.21250196 -0.24646759 -0.3527045 -0.42445314 -0.24750069 -0.26019883
-0.18273738 -0.118150264 -0.010759592 0.04443088 0.1122373 0.07333581 0.2175401 0.12708233

feature_layer.0.bias f4 [64]
00000000: 2d3e 4abe 6183 28bc bcb9 a0bd 890c 3d3e
00000010: 299b c33d bd39 0fbf 976f f33d b136 63bd
00000020: 018a 0f3e 0550 9a3e 1593 fabc a73e 54be
00000030: bea5 d83d 5b1e edbe b6d8 193d 4e83 923e
00000040: 3a0a 4bbd da4a 973d 1ac4 793e e638 983e
00000050: 6908 b1be 6c27 46be b9a9 4c3e 3f0a 103e
00000060: 3702 193e bd08 e3be 7e2e d8bc 5eef b83c
00000070: 09f8 06bc 5de0 533e df66 3fbe 2e56 443e
00000080: 4595 e53e fcbd 363c 5ebb a33d 631a 29be
00000090: b013 7f3e c6b5 d03e 3c41 7fbd 3a60 df3d
000000a0: 6d73 7a3e 867e 8f3e c8a7 003d e73b 953d
000000b0: 031e 28be 0332 d63c dbb1 8d3e f5d0 ad3e
000000c0: eecb bb3e b1e7 c6bd a8e1 e53e 0bc8 6bbc
000000d0: 410f b2bd 32ba 4bbe 7862 683b 01bb 38be
000000e0: fbf3 0dbe d4ee bbbc 5a10 4d3e 3b0a 9b3e
000000f0: 11ac a3be b20b 813d b31f 53be 1258 24bd
-0.1975028 -0.010285229 -0.07847926 0.18461813 0.09551079 -0.55947477 0.118865184 -0.05547208
0.14017488 0.30139175 -0.030587712 -0.20727025 0.10578488 -0.46312222 0.037560187 0.28615803
-0.0495703 0.07387324 0.24391213 0.2973091 -0.3457673 -0.19350976 0.19986619 0.14066409
0.14942251 -0.44342604 -0.026389357 0.022575077 -0.008237847 0.20691057 -0.18691586 0.191735
0.44840446 0.011153694 0.07994722 -0.16513972 0.24909854 0.40763682 -0.06231807 0.10907026
0.24458094 0.28026217 0.03141001 0.07286816 -0.16417699 0.026146894 0.27674755 0.33948484
0.36679024 -0.097121604 0.44898725 -0.014390956 -0.08694316 -0.19895247 0.0035459083 -0.18040086
-0.13862602 -0.02294103 0.20025769 0.30281243 -0.31967214 0.06301059 -0.20617561 -0.040123053

feature_layer.3.weight f4 [32, 64]
00000000: 502b 40be c627 e83e 344b 863d 6ae4 173f
00000010: 1640 13bf 2b41 8e3d c849 4d3e 01a1 e03e
00000020: d174 fcbd 5bd4 013e e2f0 4e3f ac59 573f
00000030: 6ce3 5cbe cccd 0e3d 0979 90bd 2b71 b7bd
00000040: 61de fa3e c03a e63d 753f bdbd 5bca 86be
00000050: 63e9 f3bc 57f8 c9bd 435e 49bf 8778 74bc
00000060: 550d a03d 8641 3f3e bc6a 00bf 2bd4 d9bd
00000070: 42d9 01bd c599 b53d 3c6e 14bf c881 8e3d
00000080: 75ea bebd 736a ffbd e6e5 b4be 76d1 0a3f
00000090: f423 b7bb f68c 103f 5aee 44bc cab5 9c3d
000000a0: d759 cdbe deb3 4cbe 1f20 73bd e210 72be
000000b0: 0dcc 453e 1caa 403f 5c9b 82be ba2a c33e
000000c0: ca0c 7b3e 2f37 8e3d 8cb9 843d 661f 25bd
000000d0: cf2d af3e b9e0 433c 9d66 3cbf 9342 e63d
000000e0: a7ba 163f 7ee1 f03e 6b4b c5bd 7669 b93d
000000f0: 1389 103e 95cf c9be 282c c7bd 32b3 94be
00000100: ed69 d53d 4c0c 4dbe d01d 883e 5ce0 74be
00000110: 8032 c13c 7273 753e bf28 babd 6877 d0bd
00000120: 6d91 12be 9548 453e 31a7 a23d 23cd 913e
00000130: 3a8a d9be b917 4dbe e914 99bc 7b6d a9bd
00000140: d747 3ebe 32e6 99bb 7a6d 243e cfcf 453e
00000150: ec1b 11bf a36c 8dbd d5c6 f03e e450 273d
00000160: 8189 29be 2d18 253e 5629 7ebe 6dc6 a13d
00000170: 991d 02bf a6a1 babd fd02 6cbe fc17 ba3d
00000180: 6c4e 11bd 0e3d 99bc 52af 87bc 97e0 b03e
00000190: e70d 7abd 3472 4cbe 1dbf 563d 6db8 993d
000001a0: aa76 15bf 8e9a 17bf 6011 713f 5d88 183e
000001b0: 714e 753e 3fb8 73be 5a50 a2bd c9b1 493d
000001c0: 5280 a0bd 143e 903e 5cbf e43e 8788 a6be
000001d0: 931d 173d c03b 833d 0ff1 c8be cb7d 07bd
000001e0: 398c 763e 6905 cb3d 6b76 e43c 2a65 103e
000001f0: 0b87 32bd 4e44 1b3f 9981 debe 578e 3d3e
00000200: ca2d ecbd e8f0 bb3d 3159 26bc 02a9 493e
00000210: 3509 053f bcbc b93d 3469 ecbc 9419 ef3e
00000220: f623 1f3e 46fb be3c 193b f43d f3ab 75bd
00000230: b7fb e7be 8426 52be 6ad3 7b3d ad18 bebd
00000240: 3a5e dd3d 4f8b b6be 382a 1dbf e5ff 0fbe
00000250: efc4 73be 31e9 f23c 09e2 10be 61cd 01bd
00000260: 8fe9 70bc 35f6 7b3d f69c 7dbe 8b36 833d
00000270: 9dbe bfbd 58c1 47be 3f64 bfbd 8ba7 803d
00000280: 3318 db3c 5d69 e03e 6572 83be 8d03 e53e
00000290: 133f 61be 5f1b 8d3e af11 e1bd 0236 db3e
000002a0: 3a5a 703e 53de 2abf 4426 8f3e 34f7 843d
000002b0: 14b9 8c3e eca8 18bf 3526 85be b18b 213e
000002c0: df0c a9bd cd03 513d f0e0 9f3d 7854 0b3e
000002d0: 1eba c43e 58c7 95bb 6a4e 27bf 113b 18bc
000002e0: 7e03 013f dded 293e fcf5 213e 9989 063e
000002f0: 6478 8f3c 2c92 093f d0cb 6cbe acfe 08be
00000300: 4bb2 993e 9342 93bd 72b5 883d 981a ba3e
00000310: cd8d 1b3e 7e1d f13d 29c6 003f ea44 f63c
00000320: bfe6 3d3e 727a bf3d 1a7b 86bc 3e98 2abe
00000330: 4913 8f3e 652e b2be f481 823d 9012 50be
00000340: 84f7 923e c4a3 c63c a8e9 c53e 6a27 2abe
00000350: 0bf2 b8be fc58 3abc 72f1 85be 0c53 09bd
00000360: 9c4e bebd ff5e 853e b50e ddbd 3dbe 5b3d
00000370: ae64 26bf 63cb 0bbe 8f9f f23d 271e 383e
00000380: e4db 80be fdf2 673e 781c 6fbc f0c4 c63d
00000390: e8a6 8e3e ed86 0fbf a72c 5dbd 3d74 9ebe
000003a0: d690 723e 7187 1a3e ef21 f8bd d4ba ba3d
000003b0: e707 023f 147f 553e 2780 6b3e c804 b73d
000003c0: 293f 02bf 68bb aa3d 89c6 a83e 8e62 7cbe
000003d0: 99fd 973d 83dc 893d 627c 8dbe f388 1bbc
000003e0: b440 ec3e cf4c 873d 0d04 c7be fa2d 5a3e
000003f0: c695 6ebe 1a11 5b3e 571f 34bf dcb9 6cbd
-0.18766522 0.45342845 0.065573126 0.5933291 -0.5751966 0.069460236 0.20047677 0.43872836
-0.123269685 0.12678663 0.8083631 0.84121203 -0.2157113 0.034864232 -0.070543356 -0.08957132
0.48997787 0.112416744 -0.09240619 -0.2632626 -0.029774373 -0.0986182 -0.78659457 -0.014921314
0.07815043 0.18677339 -0.50162864 -0.10636171 -0.031701334 0.0886722 -0.57980704 0.069583476
-0.09322063 -0.124714755 -0.3533165 0.5422586 -0.0055890027 0.5646509 -0.012019718 0.07651861
-0.40107605 -0.19990489 -0.059356805 -0.23639253 0.1931612 0.75259566 -0.25509155 0.38118535
0.24516597 0.06944119 0.06480703 -0.040313147 0.34214637 0.0119554335 -0.73594075 0.11243167
0.5887856 0.47047037 -0.096335255 0.09053318 0.1411479 -0.39416185 -0.09725219 -0.29042965
0.10420594 -0.20024222 0.26585245 -0.23913711 0.02358365 0.2396982 -0.09089803 -0.10179025
-0.14313288 0.19265969 0.079420455 0.2847682 -0.4248827 -0.2002858 -0.018686729 -0.08272835
-0.18582092 -0.004696631 0.16057387 0.19317554 -0.5668323 -0.069054864 0.47026697 0.040848628
-0.1655636 0.16122504 -0.24820456 0.07899175 -0.5082641 -0.09112863 -0.23048015 0.09086606
-0.03547518 -0.018705871 -0.016563091 0.34546348 -0.061048415 -0.1996544 0.052428354 0.075058796
-0.5838419 -0.59220207 0.9416714 0.14895768 0.23955704 -0.23800753 -0.07925482 0.049241815
-0.07836975 0.28172362 0.44677246 -0.32526037 0.03689344 0.06407881 -0.39246413 -0.03307895
0.24076928 0.09913141 0.027888497 0.14101091 -0.04358582 0.606511 -0.4345825 0.1851133
-0.11532171 0.091768086 -0.010153101 0.19693378 0.51967174 0.09069201 -0.028858759 0.46699202
0.15541062 0.023313176 0.119253345 -0.059978437 -0.4530923 -0.20522505 0.061480917 -0.0928205
0.10808988 -0.3565316 -0.61392546 -0.1406246 -0.23805593 0.02965221 -0.14148726 -0.031690005
-0.014704122 0.0615141 -0.24766907 0.064068876 -0.093625285 -0.19507349 -0.09345292 0.06281956
0.026744938 0.43830386 -0.25673214 0.44729272 -0.21996717 0.27559945 -0.10989701 0.42814642
0.23471919 -0.6674549 0.27958882 0.06492463 0.27484953 -0.59632754 -0.26005712 0.15775944
-0.08254408 0.051029015 0.07806575 0.13606441 0.38423246 -0.004570883 -0.65354025 -0.009291426
0.50395954 0.16594644 0.15816492 0.13138427 0.017513461 0.53738666 -0.23124623 -0.133784
0.3001884 -0.071904324 0.06675233 0.36348414 0.15190811 0.11773203 0.5030237 0.030062158
0.18545054 0.093495265 -0.016416121 -0.16659638 0.279444 -0.3480102 0.06372443 -0.20319581
0.28704464 0.024248011 0.38654828 -0.16616598 -0.36122164 -0.011373755 -0.2616077 -0.033526465
-0.09292337 0.2604904 -0.10793821 0.053648222 -0.64997375 -0.13651805 0.1184684 0.17980252
-0.25167763 0.22651286 -0.01459419 0.097055316 0.27861714 -0.56065255 -0.053997662 -0.30948058
0.23688063 0.1509073 -0.12115847 0.09117666 0.5079331 0.20849258 0.22998105 0.08936459
-0.50877625 0.08336526 0.3296397 -0.2464697 0.07421417 0.067315124 -0.2763396 -0.0094931
0.46143115 0.06606447 -0.38870278 0.21306601 -0.23299322 0.21393242 -0.7036032 -0.057794437

feature_layer.3.bias f4 [32]
00000000: 44b8 a13d 3c3a 93be c74f 6ebe b9a4 c1bd
00000010: 4863 cbbe 37b1 133c e80f 1ebf ed32 9d3e
00000020: 0fe6 083c 3f4b a1bd 1d3c 19be 63ca 4bbe
00000030: f80d d2bd e5a1 333e aa2e 4d3e e1a3 a5bd
00000040: a50d 2dbe 2a6b fa3e b4a5 a63e d046 4dbe
00000050: 0cf7 aabd a793 48be 114c 2e3f 7393 45be
00000060: 1b03 d4bd cbf7 5e3c 8b6f 3bbd 77fb bebe
00000070: 27d0 c3be 69c0 8a3e 2217 893d 1830 ea3e
0.07896474 -0.28755367 -0.2327262 -0.094552465 -0.39724183 0.009014419 -0.6174302 0.30702916
0.0083556315 -0.0787568 -0.14964338 -0.19901423 -0.102565706 0.17542227 0.20037332 -0.08087898
-0.16899736 0.48909885 0.32548296 -0.20046544 -0.08347902 -0.19587575 0.6808482 -0.19294529
-0.10352155 0.013608883 -0.045760673 -0.37301227 -0.38244745 0.27099922 0.06693865 0.45739818

final_layer.weight_mu f4 [32, 64]
00000000: 90de 76bd c439 613d 909f a3bd 903e a43d
00000010: b427 2abd 78e0 babd 482e f4bc 00df 4d3b
00000020: f036 6a3c 6665 b2bd acbe bdbd 70ae 823d
00000030: 067f eebd 4a23 a0bd 2426 e83d 1c37 adbd
00000040: 0080 29bd 5467 2a3d 7cf5 5f3d b006 fbbc
00000050: 901a 9bbc d00c c43d cc87 d6bd 903d f13c
00000060: 0061 98bb 6801 25bd 38da b4bd 90aa 023c
00000070: 023b c0bd 4c56 09bd 62a5 c23d 3a6e 8e3d
00000080: 804e c53a a89a b8bd 0061 993a e42d 813d
00000090: 6693 eb3d 60c8 c93b 5e59 9a3d 12dc d0bd
000000a0: 0a41 8abd 9c33 4a3d 2e33 d8bd 9214 813d
000000b0: 184b d43c 6cf7 83bd a071 10bc a88f 24bd
000000c0: 3c20 a43d 58e4 c03d 2829 423d c8db 653d
000000d0: b4fd 80bd 74a4 bf3d b820 743d 96c1 ea3d
000000e0: 08b7 4b3d 1cb3 dcbd a6ef d73d 12e6 9a3d
000000f0: c819 43bd 009a 773c 4ce7 5c3d b0cc ecbc
00000100: 781d adbd 3492 1a3d c037 06bd 402d 443b
00000110: 6a75 92bd 8046 03bc f055 f53d f84f dfbd
00000120: b85c 2f3d ec75 323d e0dd 3d3d c416 2abd
00000130: 28c5 f53c 4c02 a5bd 7cac 03bd f84c f0bd
00000140: c68b e83d 90d9 dfbc f0d7 ffbc 9a6d 8e3d
00000150: 38b0 28bd 7031 ecbc 2816 df3d 32c5 dc3d
00000160: 0020 4cb9 6034 afbb c885 3cbd 501a 2abd
00000170: 709f f43d 18a0 a8bd 6c77 333d 3858 d0bd
00000180: 56a0 da3d c87d c3bc 0a3d c1bd 20ae bbbb
00000190: b034 163c 14c1 723d f8cc 193d b6e9 edbd
000001a0: 8cce 603d 105e d0bd 84fb e6bd d80d debd
000001b0: f28a 82bd b06c bbbc a02f f23b c882 ca3c
000001c0: 9c7c 09bd 0054 9fbd 48cc 723d d024 70bc
000001d0: 4073 a83c f22f fabd c07e 293d 2455 86bd
000001e0: d2a1 d9bd d0f5 b83c 20de 4dbc 4073 6ebb
000001f0: c238 a63d 1c45 6a3d 387f b1bc 7418 fe3d
00000200: 9048 11bc 34ae a83d 2e1e 9cbd c0af f9bb
00000210: 1027 e0bd 668e cebd 00a2 a13c e62c c7bd
00000220: 003e d23c 74eb 3d3d 3cd2 45bd 8427 513d
00000230: 0051 ba3d a050 c13d 9035 91bc e881 14bd
00000240: e255 c0bd 786b cd3d 282a ddbc 5055 9dbc
00000250: a85a 5bbd 94c8 c63d 7abd f73d b8aa 8e3c
00000260: 3ab3 893d dc1f 813d c85b cfbd c0f9 773b
00000270: d8eb 713d e4d4 bb3d a04d a43d 800a fc3c
00000280: b4c8 8abd 4411 03bd 78f7 463d 7825 f13d
00000290: 50f5 493c a065 bdbb 902b 16bd 40da 79bb
000002a0: 4cef 6f3d 1a84 88bd 086b babc acfe 053d
000002b0: b066 1fbc 60a6 4cbd e070 97bc 80d9 b8ba
000002c0: 88a6 c7bd d2e6 d63d f689 a23d 5e7c 863d
000002d0: d86c 9fbc 16f6 87bd 2ae2 c03d 448f 7ebd
000002e0: 3293 d03d d01e 293c 105c ff3c 4847 6abd
000002f0: 4c56 933d bed7 81bd ecde 70bd c8a9 50bd
00000300: 2e3f c93d 088a a13c 50a7 80bc c8bf 6d3d
00000310: 5026 55bd 6cff 5f3d 30b9 563c 9083 333d
00000320: 6830 bebd 7c62 38bd 18da c53d fa9b 95bd
00000330: b69a e6bd 5835 9e3c fa12 87bd e05a 50bc
00000340: b0dc 1abc 3c1c 2b3d 36b4 8ebd 02ab 893d
00000350: 8e08 dbbd bce7 17bd 1c91 d93d 2844 22bd
00000360: 7abd 813d 6816 e8bc 4024 b03d 9e5c 9e3d
00000370: 2016 563c c0e8 bcbc 5071 c33d 8867 02bd
00000380: 10a7 f9bc 4ca7 733d 68da 853c 48b5 febc
00000390: 0030 d83a 76c1 80bd 6e5f 9d3d 841d 54bd
000003a0: cc4a d1bd 8893 b53d 10d9 873d 6681 eebd
000003b0: a037 54bc a86b 2abd 801b d03a 60db 7f3c
000003c0: 48c0 f73d 10bb babd a01c cdbb bc66 75bd
000003d0: 5c72 7b3d 7461 d13d d815 8b3c e0ba b5bc
000003e0: 604a bdbc 18ff b5bd a49c 043d 9c75 c83d
000003f0: f498 3dbd 842e b13d e0dd 6ebc 8095 903a
-0.060270846 0.05498673 -0.079894185 0.08019745 -0.04154177 -0.09124845 -0.029807225 0.0031413436
0.014295325 -0.087107465 -0.092648834 0.063809276 -0.116453215 -0.07819231 0.113354 -0.08457777
-0.041381836 0.041602448 0.05467747 -0.030642837 -0.018933564 0.09572756 -0.1047512 0.0294483
-0.004650235 -0.040284544 -0.088306844 0.007975236 -0.09386255 -0.033529565 0.095042005 0.06954618
0.0015053302 -0.09013873 0.0011701882 0.06307581 0.115027234 0.0061579198 0.07536577 -0.10198225
-0.067506865 0.049365625 -0.10556637 0.063027516 0.025914714 -0.06443676 -0.008816153 -0.040176064
0.08013961 0.09418553 0.04740253 0.056117803 -0.0629839 0.09357539 0.059601516 0.11462705
0.0497351 -0.1077635 0.10543756 0.07563414 -0.04763201 0.0151124 0.05393152 -0.028906196
-0.08452886 0.037737086 -0.03276801 0.0029934198 -0.07151301 -0.008012414 0.11979282 -0.10903925
0.042813033 0.04356949 0.046354175 -0.041525617 0.030001238 -0.08057079 -0.032146916 -0.117334306
0.11354785 -0.027325422 -0.031230897 0.069544986 -0.04118368 -0.028832167 0.10892898 0.107797995
-0.00019466877 -0.0053468198 -0.04602602 -0.041529 0.11944473 -0.082336605 0.04381506 -0.101730764
0.10675113 -0.023863688 -0.094354704 -0.0057275444 0.009167835 0.059266165 0.03754899 -0.116168424
0.05488448 -0.10174191 -0.112784415 -0.10842484 -0.06374158 -0.022878975 0.0073909312 0.024720564
-0.033566102 -0.077796936 0.05927685 -0.014657214 0.020562768 -0.12216176 0.041380644 -0.06559208
-0.10626568 0.02257815 -0.012565166 -0.0036384612 0.081162944 0.057194814 -0.021667108 0.12407008
-0.008867398 0.082363516 -0.07622944 -0.007619828 -0.109449506 -0.10085754 0.019730568 -0.097253606
0.02566433 0.046367124 -0.0482962 0.051063076 0.09097481 0.09439206 -0.017725736 -0.0362567
-0.09391381 0.10030264 -0.02699764 -0.01920572 -0.053553253 0.09706226 0.12096687 0.01741539
0.06723638 0.06304905 -0.10124928 0.0037838072 0.05906281 0.09171465 0.08022618 0.030766726
-0.06776562 -0.031998888 0.04857585 0.11774725 0.012326553 -0.005779937 -0.03666264 -0.0038124472
0.05857782 -0.066658214 -0.022756115 0.032713577 -0.009729072 -0.049963355 -0.01848644 -0.0014102906
-0.0974856 0.10493244 0.0793647 0.0656669 -0.01946108 -0.06638734 0.09418137 -0.062148347
0.10184325 0.010322288 0.031171829 -0.057196885 0.07194194 -0.06339978 -0.058806345 -0.050943166
0.09826504 0.019719139 -0.01570478 0.058044225 -0.05203849 0.05468695 0.013105676 0.04382664
-0.092865765 -0.045015797 0.09660739 -0.07305141 -0.112599775 0.019312546 -0.06595416 -0.012716979
-0.00945203 0.041774973 -0.06967966 0.0672207 -0.10694991 -0.037086233 0.106233805 -0.03961578
0.06334968 -0.028330997 0.08600664 0.07732509 0.013066798 -0.023060203 0.09543097 -0.031837016
-0.03047517 0.05948572 0.016339496 -0.031092301 0.0016493797 -0.062869 0.076842174 -0.05178596
-0.102193445 0.0886603 0.06633198 -0.116457745 -0.012952715 -0.041606575 0.0015877336 0.015616268
0.120972216 -0.091177106 -0.006259516 -0.05991243 0.06138836 0.10223666 0.01697819 -0.022183836
-0.023106754 -0.08886546 0.032375947 0.09788057 -0.046288446 0.0865145 -0.014579266 0.0011030883

final_layer.weight_sigma f4 [32, 64]
00000000: 9a99 993d 9a99 993d 9a99 993d 9a99 993d
00000010: 9a99 993d 9a99 993d 9a99 993d 9a99 993d
00000020: 9a99 993d 9a99 993d 9a99 993d 9a99 993d
00000030: 9a99 993d 9a99 993d 9a99 993d 9a99 993d
00000040: 9a99 993d 9a99 993d 9a99 993d 9a99 993d
00000050: 9a99 993d 9a99 993d 9a99 993d 9a99 993d
00000060: 9a99 993d 9a99 993d 9a99 993d 9a99 993d
00000070: 9a99 993d 9a99 993d 9a99 993d 9a99 993d
00000080: 9a99 993d 9a99 993d 9a99 993d 9a99 993d
00000090: 9a99 993d 9a99 993d 9a99 993d 9a99 993d
000000a0: 9a99 993d 9a99 993d 9a99 993d 9a99 993d
000000b0: 9a99 993d 9a99 993d 9a99 993d 9a99 993d
000000c0: 9a99 993d 9a99 993d 9a99 993d 9a99 993d
000000d0: 9a99 993d 9a99 993d 9a99 993d 9a99 993d
000000e0: 9a99 993d 9a99 993d 9a99 993d 9a99 993d
000000f0: 9a99 993d 9a99 993d 9a99 993d 9a99 993d
00000100: 9a99 993d 9a99 993d 9a99 993d 9a99 993d
00000110: 9a99 993d 9a99 993d 9a99 993d 9a99 993d
00000120: 9a99 993d 9a99 993d 9a99 993d 9a99 993d
00000130: 9a99 993d 9a99 993d 9a99 993d 9a99 993d
00000140: 9a99 993d 9a99 993d 9a99 993d 9a99 993d
00000150: 9a99 993d 9a99 993d 9a99 993d 9a99 993d
00000160: 9a99 993d 9a99 993d 9a99 993d 9a99 993d
00000170: 9a99 993d 9a99 993d 9a99 993d 9a99 993d
00000180: 9a99 993d 9a99 993d 9a99 993d 9a99 993d
00000190: 9a99 993d 9a99 993d 9a99 993d 9a99 993d
000001a0: 9a99 993d 9a99 993d 9a99 993d 9a99 993d
000001b0: 9a99 993d 9a99 993d 9a99 993d 9a99 993d
000001c0: 9a99 993d 9a99 993d 9a99 993d 9a99 993d
000001d0: 9a99 993d 9a99 993d 9a99 993d 9a99 993d
000001e0: 9a99 993d 9a99 993d 9a99 993d 9a99 993d
000001f0: 9a99 993d 9a99 993d 9a99 993d 9a99 993d
00000200: 9a99 993d 9a99 993d 9a99 993d 9a99 993d
00000210: 9a99 993d 9a99 993d 9a99 993d 9a99 993d
00000220: 9a99 993d 9a99 993d 9a99 993d 9a99 993d
00000230: 9a99 993d 9a99 993d 9a99 993d 9a99 993d
00000240: 9a99 993d 9a99 993d 9a99 993d 9a99 993d
00000250: 9a99 993d 9a99 993d 9a99 993d 9a99 993d
00000260: 9a99 993d 9a99 993d 9a99 993d 9a99 993d
00000270: 9a99 993d 9a99 993d 9a99 993d 9a99 993d
00000280: 9a99 993d 9a99 993d 9a99 993d 9a99 993d
00000290: 9a99 993d 9a99 993d 9a99 993d 9a99 993d
000002a0: 9a99 993d 9a99 993d 9a99 993d 9a99 993d
000002b0: 9a99 993d 9a99 993d 9a99 993d 9a99 993d
000002c0: 9a99 993d 9a99 993d 9a99 993d 9a99 993d
000002d0: 9a99 993d 9a99 993d 9a99 993d 9a99 993d
000002e0: 9a99 993d 9a99 993d 9a99 993d 9a99 993d
000002f0: 9a99 993d 9a99 993d 9a99 993d 9a99 993d
00000300: 9a99 993d 9a99 993d 9a99 993d 9a99 993d
00000310: 9a99 993d 9a99 993d 9a99 993d 9a99 993d
00000320: 9a99 993d 9a99 993d 9a99 993d 9a99 993d
00000330: 9a99 993d 9a99 993d 9a99 993d 9a99 993d
00000340: 9a99 993d 9a99 993d 9a99 993d 9a99 993d
00000350: 9a99 993d 9a99 993d 9a99 993d 9a99 993d
00000360: 9a99 993d 9a99 993d 9a99 993d 9a99 993d
00000370: 9a99 993d 9a99 993d 9a99 993d 9a99 993d
00000380: 9a99 993d 9a99 993d 9a99 993d 9a99 993d
00000390: 9a99 993d 9a99 993d 9a99 993d 9a99 993d
000003a0: 9a99 993d 9a99 993d 9a99 993d 9a99 993d
000003b0: 9a99 993d 9a99 993d 9a99 993d 9a99 993d
000003c0: 9a99 993d 9a99 993d 9a99 993d 9a99 993d
000003d0: 9a99 993d 9a99 993d 9a99 993d 9a99 993d
000003e0: 9a99 993d 9a99 993d 9a99 993d 9a99 993d
000003f0: 9a99 993d 9a99 993d 9a99 993d 9a99 993d
0.075 0.075 0.075 0.075 0.075 0.075 0.075 0.075
0.075 0.075 0.075 0.075 0.075 0.075 0.075 0.075
0.075 0.075 0.075 0.075 0.075 0.075 0.075 0.075
0.075 0.075 0.075 0.075 0.075 0.075 0.075 0.075
0.075 0.075 0.075 0.075 0.075 0.075 0.075 0.075
0.075 0.075 0.075 0.075 0.075 0.075 0.075 0.075
0.075 0.075 0.075 0.075 0.075 0.075 0.075 0.075
0.075 0.075 0.075 0.075 0.075 0.075 0.075 0.075
0.075 0.075 0.075 0.075 0.075 0.075 0.075 0.075
0.075 0.075 0.075 0.075 0.075 0.075 0.075 0.075
0.075 0.075 0.075 0.075 0.075 0.075 0.075 0.075
0.075 0.075 0.075 0.075 0.075 0.075 0.075 0.075
0.075 0.075 0.075 0.075 0.075 0.075 0.075 0.075
0.075 0.075 0.075 0.075 0.075 0.075 0.075 0.075
0.075 0.075 0.075 0.075 0.075 0.075 0.075 0.075
0.075 0.075 0.075 0.075 0.075 0.075 0.075 0.075
0.075 0.075 0.075 0.075 0.075 0.075 0.075 0.075
0.075 0.075 0.075 0.075 0.075 0.075 0.075 0.075
0.075 0.075 0.075 0.075 0.075 0.075 0.075 0.075
0.075 0.075 0.075 0.075 0.075 0.075 0.075 0.075
0.075 0.075 0.075 0.075 0.075 0.075 0.075 0.075
0.075 0.075 0.075 0.075 0.075 0.075 0.075 0.075
0.075 0.075 0.075 0.075 0.075 0.075 0.075 0.075
0.075 0.075 0.075 0.075 0.075 0.075 0.075 0.075
0.075 0.075 0.075 0.075 0.075 0.075 0.075 0.075
0.075 0.075 0.075 0.075 0.075 0.075 0.075 0.075
0.075 0.075 0.075 0.075 0.075 0.075 0.075 0.075
0.075 0.075 0.075 0.075 0.075 0.075 0.075 0.075
0.075 0.075 0.075 0.075 0.075 0.075 0.075 0.075
0.075 0.075 0.075 0.075 0.075 0.075 0.075 0.075
0.075 0.075 0.075 0.075 0.075 0.075 0.075 0.075
0.075 0.075 0.075 0.075 0.075 0.075 0.075 0.075

final_layer.bias_mu f4 [32]
00000000: f846 433d 3e79 8abd 28ca ec3d 1060 55bc
00000010: 8409 c03d d4d0 003d 506f ac3c 0060 45bd
00000020: 3814 f03d bace acbd 742d ca3d 70e0 ba3c
00000030: c0a9 2d3c 7230 e9bd f43d 97bd 7289 bbbd
00000040: d018 a73d ba0f fbbd 74b3 5c3d c057 c83d
00000050: 0838 023d 68a3 61bd 86e7 f93d b035 d3bd
00000060: 2422 ca3d d2b2 e63d 44f6 4bbd 78e8 b3bd
00000070: a0e8 cf3b c621 9dbd 14a0 e03d 280b 5fbd
0.047675103 -0.06761406 0.11561996 -0.013023391 0.09376815 0.031449154 0.021049172 -0.048187256
0.117226064 -0.084378675 0.09871951 0.022812098 0.010599554 -0.11386193 -0.073848635 -0.09157075
0.081590295 -0.12258859 0.053882077 0.09782362 0.031791717 -0.055087477 0.12202363 -0.103129745
0.09869793 0.11264576 -0.049795404 -0.08784574 0.0063448697 -0.076724574 0.109680325 -0.054454

final_layer.bias_sigma f4 [32]
00000000: 2439 d93d 2439 d93d 2439 d93d 2439 d93d
00000010: 2439 d93d 2439 d93d 2439 d93d 2439 d93d
00000020: 2439 d93d 2439 d93d 2439 d93d 2439 d93d
00000030: 2439 d93d 2439 d93d 2439 d93d 2439 d93d
00000040: 2439 d93d 2439 d93d 2439 d93d 2439 d93d
00000050: 2439 d93d 2439 d93d 2439 d93d 2439 d93d
00000060: 2439 d93d 2439 d93d 2439 d93d 2439 d93d
00000070: 2439 d93d 2439 d93d 2439 d93d 2439 d93d
0.10606602 0.10606602 0.10606602 0.10606602 0.10606602 0.10606602 0.10606602 0.10606602
0.10606602 0.10606602 0.10606602 0.10606602 0.10606602 0.10606602 0.10606602 0.10606602
0.10606602 0.10606602 0.10606602 0.10606602 0.10606602 0.10606602 0.10606602 0.10606602
0.10606602 0.10606602 0.10606602 0.10606602 0.10606602 0.10606602 0.10606602 0.10606602

final_layer.weight_epsilon f4 [32, 64]
00000000: 2ce9 98be ca74 e83e f53f fdbe bef2 863e
00000010: cbf9 2b3e a8be a33e 16c7 9e3e 9663 c43e
00000020: 4f1e 593e 3b07 35be 6552 043f a153 1d3f
00000030: d102 8c3e 7f62 a1be b0c9 c1bd e9f1 abbe
00000040: 0ae7 b6be 6d64 c5bd 4d54 f63b 9410 613e
00000050: c447 c4be 2c0d b83d b6c8 0a3f c714 1cbe
00000060: cec2 f5be 3ea1 0ebf 0001 e03e 71c5 123f
00000070: dcbb 6f3e 3718 11bf 5ca1 473e e400 b73e
00000080: 6a44 ee3e 37f2 b3be be8e bcbe 39cf 08bf
00000090: 3741 f0be c580 013f b3e7 49be 7fdb a9be
000000a0: c3ec 9b3e d139 02bf 7b3a a4be 2316 0dbe
000000b0: ed54 8c3e d510 f33e ec93 06bf 0fc4 96be
000000c0: 4ab0 1e3f 101c 913e aa2c b83e 217b d4be
000000d0: 36f0 13be a024 9abe 0fe7 5ebe 346c b5be
000000e0: 7b8a 7a3e 9ea7 68be 3b4d 793e f7a9 2cbe
000000f0: 0577 a73e 7908 f3be 5425 9d3e 3c03 d3be
00000100: eb44 37bf bb4d 8b3f bcc3 97bf 89bd 213f
00000110: 861e ce3e 0b41 443f 044d 3e3f 2061 6b3f
00000120: b71c 023f 0ef8 d8be b397 9e3f d08f bc3f
00000130: edce 273f ef6c 41bf 0543 68be 1315 4ebf
00000140: 1f37 5bbf f594 6cbe 099e 933c c9df 063f
00000150: c83f 6bbf a797 5c3e 7556 a63f a811 bbbe
00000160: d946 93bf 74f2 aabf 0a3d 863f 24e9 af3f
00000170: 35aa 0f3f b2e6 adbf a343 ef3e 1c56 5b3f
00000180: 37c9 8e3f 0aac 57bf 3ffe 61bf 9cf8 a3bf
00000190: 1ffa 8fbf ce36 9b3f 98fd f1be 8e94 4bbf
000001a0: b2e1 3a3f 9714 9cbf 73d5 44bf e718 a9be
000001b0: 5631 283f 5ea9 913f e34b a1bf c9b2 34bf
000001c0: b231 be3f 4feb 2d3f 65bd 5c3f 8daa 7ebf
000001d0: 3a4f b1be 00bf 38bf 1494 05bf 1371 59bf
000001e0: 2824 163f 306c 0bbf 0a66 153f abf1 cebe
000001f0: 7bb6 483f 5ba4 91bf 5158 3c3f 07e8 7cbf
00000200: a3fe f43e ad38 3abf 15e1 4a3f 0237 d8be
00000210: 33c5 89be 2b2d 03bf 0465 febe ee53 1dbf
00000220: 29ef adbe b505 913e c501 54bf dd11 7cbf
00000230: 9553 e0be 2c49 013f 793e 1b3e e3be 093f
00000240: 1586 123f af21 1e3e cd55 45bc d24c b4be
00000250: a43d 1d3f b771 13be 535c 5ebf 0013 7a3e
00000260: 3fe1 443f bf85 643f 4273 33bf 6728 6bbf
00000270: 310d c0be b178 683f aaec 9fbe cb9a 12bf
00000280: 6be0 3ebf c927 103f d70d 173f 6c32 5b3f
00000290: 0578 403f 937d 4fbf 2dbf a13e c312 083f
000002a0: e2d2 f9be 0fa6 503f 5d90 033f b40c 623e
000002b0: 25d7 e0be 82b8 42bf 169f 573f d88e f13e
000002c0: 7e40 7ebf db7e e8be f18a 13bf 1c38 2a3f
000002d0: 1707 6d3e 0ff8 f63e 6591 b23e 9956 113f
000002e0: 8ab5 c8be 6561 ba3e 63b7 c7be 5552 8a3e
000002f0: 1b28 06bf cfb1 423f aec7 fbbe fa0a 293f
00000300: 2ccf 0b3e 048a 54be 168d 673e 7cc5 f6bd
00000310: 9e3d 9dbd 06b7 15be 672c 11be ec8f 33be
00000320: f683 c6bd 7f84 a53d 01f8 71be c5d8 8fbe
00000330: c403 00be a18e 133e 142f 313d 6936 1d3e
00000340: 313b 273e c27a 343d 3a39 61bb eec7 cdbd
00000350: 7c76 333e 2048 28bd 26c9 7dbe 3db5 8e3d
00000360: 33b4 603e c068 823e 9fcf 4cbe 1c32 86be
00000370: 7531 dbbd a9a9 843e 9986 b6bd d552 27be
00000380: 2dda 59be 3687 243e db66 2c3e ca2c 7a3e
00000390: 62ab 5b3e 69d0 6cbe 0b9b b83d c94d 1b3e
000003a0: a790 0ebe cc22 6e3e 3d28 163e 7fff 803d
000003b0: d84e 00be 583d 5ebe 1818 763e 1bd9 093e
000003c0: 8f17 91be 2dad 04be eb64 28be 8046 423e
000003d0: 4843 873d 99ef 0c3e d6cd cb3d d1e0 253e
000003e0: 0813 e5bd 7db8 d43d f6f0 e3bd b2de 9d3d
000003f0: c91d 19be b335 5e3e 70ae 0fbe d0ee 403e
-0.29865396 0.45401603 -0.49462858 0.26357073 0.16794507 0.31981397 0.31011266 0.38357228
0.21202968 -0.1767854 0.51688224 0.6145573 0.273459 -0.3152046 -0.09462297 -0.33583
-0.35723144 -0.09638295 0.0075173737 0.2197898 -0.38336003 0.08986887 0.5421251 -0.15242301
-0.48000187 -0.55714786 0.43750763 0.5733252 0.23411506 -0.56677574 0.19495147 0.35742867
0.4653657 -0.35145733 -0.36827654 -0.53441197 -0.46924755 0.5058711 -0.19717292 -0.33175275
0.30454072 -0.5086947 -0.32075867 -0.13777976 0.27408543 0.4747378 -0.5256946 -0.29446456
0.61987746 0.28341722 0.35971576 -0.4150019 -0.14447102 -0.30106068 -0.2176783 -0.35434115
0.24466889 -0.22720191 0.24345867 -0.16861711 0.32707992 -0.47467402 0.30692542 -0.41213405
-0.71589535 1.0883096 -1.1856608 0.6317983 0.40257663 0.7666175 0.74336267 0.91945076
0.50825065 -0.4237675 1.2390045 1.4731388 0.6555012 -0.75556844 -0.22681816 -0.80500907
-0.85630983 -0.23103698 0.018019693 0.5268522 -0.918942 0.21542226 1.2995135 -0.36536908
-1.1505996 -1.3355241 1.0487378 1.3743024 0.5611909 -1.3586028 0.4673129 0.8567827
1.1155156 -0.84246886 -0.88278574 -1.2810245 -1.1248206 1.21261 -0.4726379 -0.7952355
0.73000634 -1.2193784 -0.768882 -0.3302681 0.6570028 1.1379812 -1.2601284 -0.70585304
1.4858916 0.6793718 0.86226493 -0.9947899 -0.34630758 -0.7216644 -0.52179074 -0.8493816
0.5864892 -0.54461956 0.58358824 -0.40418753 0.78403443 -1.1378282 0.7357226 -0.98791546
0.47850522 -0.7274273 0.792497 -0.42229468 -0.26908264 -0.51240796 -0.49686444 -0.6145619
-0.33971527 0.28324667 -0.828152 -0.9846476 -0.43813768 0.50502276 0.1516055 0.53806895
0.5723584 0.15442537 -0.012044382 -0.3521486 0.6142218 -0.14398848 -0.86859626 0.2442131
0.769062 0.8926658 -0.70097744 -0.91858524 -0.37510064 0.9080916 -0.31235248 -0.57267445
-0.74561185 0.5631071 0.5900549 0.8562381 0.75183135 -0.81050986 0.31591168 0.5315363
-0.48793703 0.81503385 0.51392156 0.22075158 -0.43914142 -0.76062787 0.8422712 0.47179294
-0.9931716 -0.45409283 -0.5763388 0.66491866 0.23147236 0.4823613 0.34876552 0.5677276
-0.39201003 0.3640243 -0.390071 0.2701594 -0.52404946 0.76052564 -0.4917578 0.66032374
0.13653249 -0.20755774 0.22612414 -0.12049386 -0.07677768 -0.14620599 -0.14177094 -0.1753537
-0.09693138 0.08081912 -0.23629762 -0.2809507 -0.12501436 0.14409877 0.043257788 0.15352787
0.16331173 0.044062383 -0.0034366385 -0.10047899 0.17525667 -0.04108441 -0.24783763 0.06968162
0.2194374 0.25470543 -0.20001076 -0.26210105 -0.107027926 0.2591069 -0.08912391 -0.16340192
-0.21274634 0.16067204 0.16836111 0.24431148 0.21452096 -0.23126377 0.09013947 0.15166391
-0.13922368 0.23255461 0.14663787 0.06298732 -0.12530077 -0.21703088 0.24032629 0.13461725
-0.28338286 -0.12956686 -0.16444747 0.18972206 0.0660463 0.13763274 0.099513695 0.16199042
-0.111852705 0.10386751 -0.11129944 0.077084914 -0.14952768 0.21700172 -0.14031386 0.188411

final_layer.bias_epsilon f4 [32]
00000000: 2ce2 e03e fac3 863f a527 34bf 809d 4dbe
00000010: e2b8 793f 2008 58be 20f9 4cbf c1a1 35bf
00000020: fbf2 cdbe 0b83 913f 1f46 b6bf 73b9 a5bf
00000030: d75f d6bf e1c8 d8be 7b20 ab3f a857 743f
00000040: 5dc1 80bf 4f07 cb3e b9a6 d53e 7c33 373f
00000050: b57c d83e f217 a33f c71e babf fb25 623f
00000060: 675d 613f de0c 103f cd12 92bf b853 0fbf
00000070: 494e 3ebf 80d5 8d3e b969 003f 1ff2 343f
0.43922555 1.0528557 -0.7037299 -0.20079613 0.97547734 -0.2109685 -0.80067635 -0.7094994
-0.40224442 1.1368116 -1.4240149 -1.294722 -1.6747998 -0.42340758 1.3369287 0.9544625
-1.005901 0.39654014 0.41728762 0.71562934 0.42282644 1.2741683 -1.4540642 0.88339204
0.88033146 0.56269634 -1.1411988 -0.5598712 -0.74338204 0.2770195 0.5016132 0.7068195

out1.weight_mu f4 [51, 32]
00000000: 1bff 823e f88a 163e 893c 733d dcaf 293f
00000010: fe81 cfbd 961d 4cbf fe39 493e d5be 2a3d
00000020: 60ba 61bf 8a4f 2bbf 5195 2b3e 5bb2 cc3e
00000030: 70a6 afbe c3bb 48bf e963 d8bd efe0 1d3e
00000040: 5f66 57bf a9a0 fdbe a96d e7be e137 bc3e
00000050: 3ddc 17bf 4968 9d3e 42a7 3b3e 04bd 28be
00000060: efd8 b23e f9d1 823e 4e05 0c3f ab81 573f
00000070: 4fc7 233f 553c dcbe b067 113e 21ce 55bf
00000080: c8be 713e 302c 023f 3551 373f 3d65 7d3e
00000090: 1640 b9bd 50c8 eebe 7e4f 503f 3c05 803e
000000a0: acd5 3c3e c14d b93e 3b0b 223f 74e6 063f
000000b0: 6982 e0bd 6dc5 3dbf dbbb f03b 85ac 533f
000000c0: 827e 7fbf 2d6e bfbe 1eab ff3e 29f8 563f
000000d0: 690f a3be b87f 1f3f 12bf 203d 0da0 c33d
000000e0: 2c19 2d3f d528 6d3f 26c0 443f 58c6 703e
000000f0: cea4 b73e 4707 533e 9a1b d53d 25ef 8ebe
00000100: 1f83 44bf 4ca0 46be 13d0 aabe dd38 923e
00000110: 4ed1 9ebe a9c0 67bf a04a d1be 0f22 3dbf
00000120: 63fb 5ebd 064b ac3e 72bb 0bbf da5f 453f
00000130: 2ffd a13c 8c87 94be 6a29 89be 3e6e 493f
00000140: 80b3 dbbe 3001 4fbe 7472 493e 555b 85be
00000150: e224 9abe 61c4 243f 31d3 07bf 0c52 a7bf
00000160: 3bb6 61bf 7005 ce3d 5c87 523f b91e bc3e
00000170: bcb0 48be 73cd 25be 700c 38bf 170a 1a3e
00000180: 285b 19bf 43b3 80be 14ac a5bd fd5b a03e
00000190: eeb3 21be 68df 8ebf c961 a53e 7fd1 1cbf
000001a0: becc 753d 6f22 eb3e 35d2 0ebe 521a 0c3f
000001b0: ad83 493e ec44 fcbe a2b4 94bd 1644 253f
000001c0: fdd5 a4be 1aa0 07bf 4db0 913e 6c0e 1c3e
000001d0: 5280 6abe 1618 353f f7c0 ddbe d658 64bf
000001e0: 9a66 02bf 6f9e 443e 1bba 773f e36c a73e
000001f0: d81f 443e 5f44 3a3e 5802 fcbe 19ab 453e
00000200: 9da1 38bf 00f9 9cbe 27eb 113d 38b2 0b3e
00000210: d1d1 fa3b 7b89 a0bf 2142 263d 1c52 d3be
00000220: e8b9 28bd 28c6 153e 06a4 b2be d319 1c3f
00000230: be47 c33c 0dc1 86bf a65e 48be b79b 193f
00000240: 720c 37bf f171 2cbf c2df b33e 7fb5 1f3c
00000250: c573 35be ae9e 183f 8381 00bf 0eea 75bf
00000260: 2f66 6bbf 2ee8 013e b824 0f3f 2de2 493d
00000270: 8b45 8dbd e648 943d bfbe 2abf 5564 3c3d
00000280: 4aa5 15bf 81a9 84be ed7c a93e 3162 91be
00000290: e0ab d4bd 86c7 a0bf 5795 be3d 6f66 c9be
000002a0: 60e4 353e d074 d93e 4c38 d2be 0e6f 5c3f
000002b0: e69e a63d 9b50 4abf 1ad5 05be bcf2 e53d
000002c0: 3244 603d 20f0 29bf e440 b83e e361 29be
000002d0: ec4a c8be cbac 383f 6c0b 30bf cd1f 5abf
000002e0: 5129 2ebf 9741 193e 0dd8 513f 3448 adbd
000002f0: 9bb6 08bf ecbd 433e 9009 14bf dc1f 593d
00000300: bc9d 42bf 187e dabe 7397 ea3e 8dee 13be
00000310: 0355 92bd 257c 88bf cd23 17be 2afe 0dbf
00000320: 5ae9 023f 7c6b 733f 31ca 73be e698 1d3f
00000330: d6d9 5d3e a853 05bf 3f18 0bbe 1d3e 593e
00000340: 51a5 503e f547 69bf b24f d73e 179c 6c3e
00000350: 29af 9bbe e2b5 1f3f 7d36 59bf 079c 10bf
00000360: 0fc7 58bf 9bb6 343d fefe f63e bc1e 1abe
00000370: 827f 83be d07f 213e a5cb fdbe ccc7 fa3e
00000380: caee 85bf c6d3 c5be 60f9 3dbe 9961 33be
00000390: 15ad 1bbe 1b04 65bf b2e8 a5be 63ca 03bf
000003a0: 5190 8a3e e1e9 273f 178f 39bf 97c0 1e3f
000003b0: 3d49 d13c c3f7 36bf 23ad f2be 638a fb3e
000003c0: 8003 84be 4582 b5be 2e24 d33e e340 9ebd
000003d0: 0933 86be 10bf 1f3f 03cb 2abf 9dca a9bf
000003e0: 169a 96bf f916 4d3d 2b1a 423f 86d6 55bd
000003f0: f622 90be 8e51 dfbd 6455 48bf da6b 983e
0.25585255 0.1470145 0.059383903 0.66283965 -0.10132216 -0.79732645 0.19651029 0.041685898
-0.8817501 -0.6691824 0.16756178 0.39979824 -0.3430667 -0.784115 -0.10565931 0.15417837
-0.8414058 -0.49536636 -0.45200852 0.36761382 -0.5932043 0.30743626 0.18325523 -0.16478354
0.34931132 0.2555082 0.54695594 0.8418223 0.63975996 -0.4301478 0.1419971 -0.8351765
0.23607934 0.50848675 0.7160829 0.2474565 -0.090454265 -0.466372 0.81371295 0.25003994
0.18440884 0.36192134 0.63298386 0.52695394 -0.10962374 -0.7412937 0.007346613 0.8268512
-0.9980241 -0.37388745 0.4993524 0.8397241 -0.31847695 0.6230426 0.03924472 0.09552012
0.67616534 0.9264043 0.76855695 0.23513162 0.35867923 0.20608245 0.10405655 -0.27916828
-0.76762575 -0.19397086 -0.33361873 0.28559008 -0.31019062 -0.9052835 -0.40877247 -0.73880094
-0.05443896 0.33650988 -0.54582894 0.7709938 0.019774048 -0.29009664 -0.2678941 0.7868384
-0.42910385 -0.20215297 0.19672567 -0.26046243 -0.30106264 0.6436215 -0.5305663 -1.3071914
-0.88168687 0.10059631 0.8223779 0.3674219 -0.19598669 -0.16191654 -0.7189398 0.15042911
-0.5990472 -0.25136766 -0.08089462 0.3132018 -0.15791294 -1.1161928 0.32301167 -0.61257166
0.06000971 0.45924708 -0.13947375 0.5472766 0.19679137 -0.49271333 -0.072610155 0.64557016
-0.3219451 -0.5297867 0.2845482 0.15239877 -0.22900513 0.7073988 -0.43311283 -0.8919805
-0.5093781 0.19201063 0.9676835 0.3270026 0.19152772 0.18190144 -0.49220538 0.1930355
-0.721216 -0.30658722 0.03562465 0.13642204 0.0076544066 -1.2541956 0.04059041 -0.41273582
-0.04119292 0.14626372 -0.34890765 0.60976905 0.02383792 -1.0527664 -0.19567356 0.60003227
-0.71503365 -0.6736136 0.3513165 0.009747862 -0.17719944 0.59617126 -0.5019762 -0.96060264
-0.91952795 0.12686226 0.55915403 0.049287964 -0.0689803 0.07240467 -0.66697305 0.04599412
-0.58455336 -0.2591057 0.33103123 -0.28395227 -0.10384345 -1.256089 0.09305828 -0.39335963
0.177629 0.42471933 -0.41058576 0.86106956 0.08135776 -0.79029244 -0.13069573 0.112279385
0.054752536 -0.66382027 0.35987008 -0.16541247 -0.3911966 0.7213866 -0.6876743 -0.85204774
-0.68031794 0.14966427 0.8197029 -0.08461037 -0.53403634 0.19115418 -0.5782709 0.0530089
-0.76021934 -0.42674327 0.45818672 -0.14446469 -0.07145121 -1.0662886 -0.1475975 -0.5546595
0.51137316 0.95085883 -0.23807599 0.6156143 0.21665129 -0.52080774 -0.13583468 0.212151
0.20375563 -0.9112542 0.4205299 0.23106419 -0.30407074 0.62386906 -0.8484877 -0.5648808
-0.8467874 0.04411946 0.4824142 -0.15050787 -0.25683218 0.15771413 -0.4956943 0.48980558
-1.0463498 -0.38638133 -0.1855216 -0.175177 -0.15202744 -0.8945939 -0.32404095 -0.5148069
0.2706323 0.65591246 -0.7248396 0.6201262 0.025547618 -0.71471804 -0.47397718 0.49129018
-0.2578392 -0.3545095 0.4123854 -0.0772722 -0.26210812 0.62400913 -0.6671602 -1.3264958
-1.1765773 0.050070737 0.7582118 -0.05220654 -0.28151673 -0.10904227 -0.78255296 0.29769784

out1.weight_sigma f4 [51, 32]
00000000: 5534 343c f2ce adbc 742d febd d1b5 133d
00000010: b7a0 98bc e7e6 33be e90b 063e 04a2 d8bc
00000020: f075 7d3d 5c1e c33d 3671 993d 2fb1 6dbd
00000030: 6126 4f3d fc41 fd3d 9f7b 9bbd 822c 0a3e
00000040: 73f2 34bd 68d6 ed3d 4327 69bd 18e7 8dbd
00000050: d7bb 7c3e 6952 50be 5a06 5a3d b129 033d
00000060: 2394 d03a c90d e73d 34fe ea3d 4de7 49bb
00000070: f943 6dbc 1956 2fbd 33fc 72be 4201 f93b
00000080: 1d29 8ebc fa72 423a ae8b 7b3d 3db4 5e3d
00000090: c3ed c33d 9e70 113b c83f 31bd f145 06bc
000000a0: b7b4 22be 6dfe f33d cbb7 e6bc 41f9 263d
000000b0: 6fb8 b8bc 3b2d 583d 3cfd 6dbc ce83 a6bb
000000c0: c406 9b3c 3e18 73bd a4d4 313d 9846 833c
000000d0: 123e 06bd c49a 5ebc 88bd 023d d26d 5d3d
000000e0: 4dd8 8b3d 47c6 50bd d52f 273d a4e0 89bc
000000f0: 4810 d8bd a81a 26ba cfce 60bc e1d1 85bc
00000100: bb54 26bc eb2b 233d aed7 d63d 6710 fbbd
00000110: e832 7b3d 6bd4 583e e65f b23d e1b6 36bc
00000120: 315a 943d 09a2 053e 47c2 8c3d 6112 22bd
00000130: b454 083d 1eda 503e 3909 f3bd 0d96 003b
00000140: 00a2 873e 9c11 1e3e 9e2b 023e effd a93c
00000150: e279 ecbd 2054 c63d 7ab1 d23d 559c b2bd
00000160: 7bd6 bebd 9f07 1d3d 5524 a3bc ca11 78bd
00000170: 604c 3f3e dae7 9abd 2da0 3ebe 8b6b 93be
00000180: 93fe ffbd 7057 833b 5419 10be 19d4 773e
00000190: e9a3 01be ac74 463d 5c09 c3be a57a 3d3d
000001a0: f613 793c 6c92 9c3e 3b4e e83d dc11 bfbd
000001b0: 31ce 63be 7a25 36be 1b80 263e eaa5 a73e
000001c0: 5efc e93d 0fcb 0a3c b1d2 70bc c062 3f3d
000001d0: ed6c 403e 9b8b 4dbc 7fe6 7bbc 8330 19be
000001e0: 6632 74be e26f 2abd a1f4 39be 207e 8ebe
000001f0: 697f 7bbc 08aa 96bd 00ad 2b3d 78df 8d3e
00000200: bbad a63c 709a 87bd adcf b83d 58eb a83d
00000210: 84bf 02be e096 0a3e a3d5 d6bd e2bd 163e
00000220: c386 d73d f2dc 753e b78f 0c3d 5f24 0f3e
00000230: 0ef8 1d3c b00e 853e 6528 edbd d6bd 43be
00000240: a9e9 773d fe27 1e3e 27f4 173d df8a ff3d
00000250: 2d27 3e3d e7c2 46be 0d17 023d 9e81 0d3e
00000260: 99e7 933d cb77 74bd 1923 2d3d ed77 8fbc
00000270: 16e4 efbd 0d31 51bd b2e2 3bbe 814d a7bd
00000280: ff2d d0bd 778b 85be fa94 ae3c 197b 18ba
00000290: 6f44 32be 0677 a0bc ba82 3ebe c7bb 1d3d
000002a0: 7d59 1ebe f58e 0f3e fe53 3cbd 30e7 b43e
000002b0: 3449 433d 8080 2a3d 83b9 ea3d b40c 99be
000002c0: 38c0 e03d 96bf 30be 5652 243b f3e9 bfbc
000002d0: f5f0 48bd 612d 2a3e cee0 9fbe eb07 3abe
000002e0: 799e e3bd 1ed0 04be f4c0 d03d 182d 73bd
000002f0: d010 9d3e 3efc 583e 6a98 7dbc 30fc 973d
00000300: ec97 a9bc 138c a3bc f8fd 723e 0597 e3bd
00000310: ba69 a23d 10d8 5d3e 7289 1b3d 6420 043d
00000320: 312f 8abe 9b70 833d cdaa 453d cd0d 5fbe
00000330: fcdf 083d fb5a f53c 7ce1 343d f55e abbd
00000340: 3f59 c5bd b1b7 ceba f798 bdbd 8696 e23d
00000350: 41fd 9e3c d61c 03bd 660f a3be 4df1 c63d
00000360: a89d 2f3e 911c 063c 5a45 eb3d 21fe 9dbe
00000370: 2de8 37be d18c 9f3d dffc c7bd 9b4c e63c
00000380: 258b ab3b d431 c43e daa4 c23a 9a6c 7a3c
00000390: 9d9a 8dbd aeff a13e 8d9b a43c 6a15 adbc
000003a0: 2d5e f2bd 9d9f 203e aa70 e73d 8784 fe3d
000003b0: 7c5e 7cbc 4ece 01bc 874e d63c 1bb1 d53d
000003c0: a564 a93d 084d ed3c a2a3 723e b126 e3bd
000003d0: cad3 043e 8509 f6bb 8e95 c5bd 2cf2 943d
000003e0: 2fd2 5f3a b216 673e 79ea 623e b5cf e0bd
000003f0: 8cef 133d ed49 eebd a587 673d 26a3 013d
0.010998805 -0.021216843 -0.12411013 0.036062066 -0.018631322 -0.17568551 0.13090481 -0.026444443
0.061880052 0.09527275 0.074922964 -0.058030304 0.05057371 0.12366101 -0.07591938 0.13493541
-0.04417653 0.1161316 -0.05692221 -0.06928843 0.2468103 -0.20343937 0.053228714 0.032022182
0.0015913289 0.11281926 0.11474267 -0.0030808032 -0.014481538 -0.04280672 -0.23729019 0.007599027
-0.017353589 0.00074176455 0.061412506 0.054371107 0.09566834 0.002219237 -0.043273717 -0.008195386
-0.1588925 0.11913762 -0.028163811 0.04076505 -0.022548882 0.05277751 -0.014525708 -0.0050816303
0.018924125 -0.05934929 0.04341568 0.016024873 -0.03277404 -0.013586704 0.031919032 0.05405981
0.068283655 -0.050970342 0.0408171 -0.01683075 -0.105499804 -0.00063363696 -0.013721182 -0.01633543
-0.010152037 0.039836805 0.104903564 -0.12258988 0.061327845 0.21174781 0.087096974 -0.011152
0.07243765 0.13050093 0.06872993 -0.03956831 0.033283904 0.20395705 -0.118669935 0.0019620687
0.26490784 0.15436405 0.12711951 0.020750968 -0.11546685 0.09684014 0.10287757 -0.08721224
-0.09318253 0.038337346 -0.019914785 -0.06056384 0.18681479 -0.075637534 -0.1861579 -0.28792986
-0.12499728 0.004008226 -0.14072162 0.24202003 -0.12660183 0.04845111 -0.38093078 0.04625954
0.015202513 0.3058046 0.11343046 -0.09329578 -0.22246625 -0.17787734 0.16259806 0.3274377
0.11425088 0.0084712645 -0.01469867 0.046725035 0.18791552 -0.012545492 -0.015374779 -0.14959912
-0.2384735 -0.041610606 -0.18159725 -0.278306 -0.015350201 -0.0735665 0.041913033 0.27709556
0.020346513 -0.066212535 0.09023986 0.08248013 -0.1276837 0.13534117 -0.10489967 0.14720872
0.10523751 0.24010065 0.034316745 0.13978718 0.00964166 0.25987768 -0.1157997 -0.19115385
0.06052557 0.15444943 0.037098076 0.124776594 0.04642408 -0.19410287 0.031760264 0.13818976
0.07221908 -0.059684556 0.0422698 -0.01751324 -0.11713426 -0.05107217 -0.18348196 -0.081690796
-0.10165023 -0.26082966 0.021311272 -0.0005816683 -0.17408918 -0.019588005 -0.18604556 0.038509157
-0.15463825 0.14019378 -0.04597854 0.35332632 0.047677234 0.041626453 0.11461165 -0.29892504
0.10974163 -0.17260584 0.002507349 -0.023426985 -0.04905792 0.16618873 -0.312262 -0.18167083
-0.11114211 -0.12970015 0.10193053 -0.059369177 0.3067689 0.21189973 -0.015478233 0.07421148
-0.020702325 -0.019964254 0.23729694 -0.11112789 0.07930322 0.21664453 0.037972875 0.032257453
-0.2698913 0.06417962 0.04825859 -0.21782608 0.033416733 0.02995061 0.04416035 -0.08367721
-0.09636163 -0.0015771297 -0.09257691 0.11063866 0.01940787 -0.032009922 -0.31847686 0.09713993
0.17149985 0.008185522 0.11487837 -0.30857947 -0.17959662 0.077905305 -0.09765028 0.0281127
0.005235093 0.38319266 0.0014850155 0.015284682 -0.06914256 0.3164038 0.020093704 -0.021128375
-0.11834369 0.15685888 0.11300786 0.12427621 -0.015403386 -0.007922722 0.026160492 0.10434171
0.082711495 0.028967395 0.23695233 -0.11091364 0.12971416 -0.007508459 -0.09647666 0.07272753
0.00085380947 0.22567251 0.22159757 -0.10977117 0.03611712 -0.11635194 0.056525845 0.03164973

out1.bias_mu f4 [51]
00000000: e703 67be c9c1 fabd 6319 86be 089d 8dbe
00000010: bda9 04bf ec77 b9be 1432 d3be d129 b1be
00000020: 34dc a7be b7df acbe 7c56 e5be 788e 0dbe
00000030: 7a05 c5be 4fbc d7be 9907 d2be 5c53 c3be
00000040: 9157 d9be 3b83 c7be 5cc8 0cbf 2c0e fbbe
00000050: 7ad8 16bf 2045 c3be 73c4 14bf d0f0 a2be
00000060: 4557 1cbf a9cf dabe f0ee e3be d1bb 82be
00000070: f9ad e0be 971b 05bf d244 a9be aa9f dcbe
00000080: ab44 e1be e8bc b7bd c2a9 293e 1fc2 1a3e
00000090: 34e1 363e 6cbb 053f 97e2 873e 2787 033f
000000a0: 1fb6 033f 552b d33e ad71 3c3d de6d a03e
000000b0: ccde 353f 4b73 ea3e b3bd 023f b01a 083f
000000c0: 26c8 553f cac8 9e3e eb74 483f
-0.22560082 -0.12243993 -0.26191244 -0.27658868 -0.518215 -0.36224306 -0.41249144 -0.34602216
-0.3278519 -0.3376443 -0.44792545 -0.13823879 -0.3848074 -0.42135856 -0.41021422 -0.38149536
-0.4244962 -0.38967308 -0.54993224 -0.4903425 -0.5892407 -0.38138676 -0.5811226 -0.3182435
-0.6107066 -0.42736557 -0.44518232 -0.25533918 -0.4388273 -0.51995224 -0.33060318 -0.43090564
-0.43997702 -0.08971578 0.16568664 0.15113114 0.17859346 0.5223911 0.26540062 0.513781
0.5144977 0.41243997 0.046006847 0.31333822 0.71043086 0.45791087 0.5107071 0.5316572
0.8350853 0.31012565 0.783034

out1.bias_sigma f4 [51]
00000000: 4aa0 b1bc 7d62 c6bb c2fb fabd 4754 5b3c
00000010: e354 8abc f187 1f3d f24b 0fbe 3bfb 363d
00000020: cd06 c63c c5c5 fdbd 71b4 043e 3a61 56bd
00000030: 0be1 073d 325b bd3c 656d 34bd e7f7 19be
00000040: c498 94bd 4ecf aabc b9fa 2f3d 5b88 26bd
00000050: 3333 e33d ea6e 8fbd cd5b bc3b 9fbe fabd
00000060: 1aaa 303d e34e 59bd 851e c93c 9d6d 393d
00000070: 1dd2 e53c 4547 4b3d 9afd 01bd 0df3 06bd
00000080: e869 453d aab4 873a 6531 893d 8282 88bc
00000090: a25e 333d f8e7 a53c 8b71 373d b8ef 043e
000000a0: 745e b1bd 435e 2c3d 0e19 44bd 4592 d63c
000000b0: 6bac 6fbc 5785 5e3d 96ee 643d 3c3d bc3c
000000c0: 3225 823b 3494 38bc ff33 453b
-0.021682877 -0.006054221 -0.1225505 0.0133867925 -0.01688618 0.038948003 -0.13993815 0.044673186
0.024173165 -0.12391237 0.12959458 -0.052338816 0.033173602 0.023114774 -0.04404964 -0.15035973
-0.072557 -0.020850804 0.042963717 -0.040657382 0.1109375 -0.07003577 0.005748248 -0.12243389
0.04313097 -0.053053748 0.024550686 0.04527055 0.028054291 0.049628515 -0.031735994 -0.032946635
0.048196703 0.0010353525 0.066988744 -0.016663793 0.04379142 0.020252213 0.044786017 0.1298207
-0.08660594 0.042082082 -0.047875457 0.026192794 -0.01462851 0.05432638 0.055891596 0.022978418
0.003971719 -0.011265803 0.0030090807
