turtlebot3_dqn/save_model/stage_1_540.pth (torch_old, 164553 bytes, 22 tensors)

feature_layer.0.weight f4 [64, 26]
0	0xbc7d969b	-0.015477802
1	0x3c049686	0.008092528
2	0xbfcd4c94	-1.6038995
3	0xbd99448a	-0.07483776
4	0x3e911372	0.28335148
5	0x3e9226bf	0.28545186
6	0xbccb7be0	-0.024839342
7	0x3e5a22fe	0.21302411
8	0xbc611aa6	-0.013739264
9	0xbe095e6c	-0.13414925
10	0x3dd8e8df	0.10591292
11	0x3c96b2c8	0.018395796
12	0xbe96e3d7	-0.29470703
13	0xbe0b3b39	-0.1359681
14	0xbe2df53b	-0.16988079
15	0xb9e97deb	-0.0004453504
16	0xbce54e3e	-0.02799141
17	0x3d9fb6d3	0.07798543
18	0x3e8030ee	0.2503733
19	0x3d8a29a6	0.06746225
20	0x3e8cf6c8	0.2753203
21	0x3e244011	0.16040064
22	0x3cdcd6a4	0.026957817
23	0xbe0af8d3	-0.13571481
24	0xbe0301fd	-0.12793727
25	0x3e0686f1	0.13137414
26	0xbe072d6f	-0.13200925
27	0xbe8ac72d	-0.27105084
28	0xbeafef22	-0.3436213
29	0x3e3786fb	0.17922585
30	0x3d8b1868	0.067917645
31	0xbd187fee	-0.03723138
32	0xbdd6a2ba	-0.104802564
33	0x3e0052a4	0.12531525
34	0x3e0f32c0	0.13984203
35	0x3daa3379	0.08310599
36	0x3d814cc8	0.06313473
37	0x3dfd2460	0.123604536
38	0x3e6d2d02	0.231617
39	0x3cf314ed	0.029673064
40	0x3e3ad23a	0.18244258
41	0x3d8a6e33	0.067593
42	0x3c4d6022	0.012535127
43	0xbe95d274	-0.29262125
44	0xbe131d09	-0.14366545
45	0xbe5f4db9	-0.21806993
46	0xbe516d39	-0.20451821
47	0xbe776598	-0.24159849
48	0xbe841746	-0.25799006
49	0xbe8f395c	-0.2797345
50	0x3f8ea52a	1.1144154
51	0x3d6401c1	0.055665735
52	0xbea02d8c	-0.3128475
53	0xbe100596	-0.14064631
54	0xbe42c5af	-0.19020723
55	0x3e9905b4	0.29887164
56	0x3ec74a3e	0.3892383
57	0x3eb99863	0.36249074
58	0x3d953e6c	0.07287297
59	0xbe02b506	-0.12764367
60	0xbe90818b	-0.28223833
61	0xbbd6471f	-0.00653924
62	0xbe035105	-0.12823875
63	0xbe643ad6	-0.22288069
64	0xbeaf4778	-0.34234214
65	0xbe3536d3	-0.17696695
66	0x3df21af7	0.118215494
67	0x3ea00266	0.3125183
68	0x3c1465aa	0.009057442
69	0xbd06f47a	-0.032947995
70	0x3dc8f3ff	0.098121636
71	0xbe309d1c	-0.17247432
72	0x3e4d54d2	0.20051888
73	0x3de79825	0.11308316
74	0xbf1b2d58	-0.60616064
75	0xbeddc52a	-0.43314487
76	0x3f82a134	1.0205445
77	0x3e0ed41c	0.13948101
78	0xbc5d64a5	-0.013512765
79	0xbe33f1d2	-0.17572716
80	0x3d807f11	0.06274236
81	0xbdc716c8	-0.09721142
82	0xbf6b2067	-0.9184632
83	0xbdda2515	-0.10651604
84	0xbdadae42	-0.08480503
85	0xbe3a3e5e	-0.18187854
86	0xbd5d8e83	-0.054090988
87	0x3d08eef6	0.033431016
88	0x3d78334c	0.060595796
89	0xbd3ea229	-0.046541367
90	0x3ca95e69	0.020674901
91	0x3d09d4b2	0.033650108
92	0xbd7d31fb	-0.061815243
93	0xbdcaabd8	-0.09896058
94	0x3d43a206	0.04776194
95	0x3d00c6be	0.031439535
96	0x3e07dbad	0.13267393
97	0xbd90d646	-0.070721194
98	0x3dba5cfe	0.09099768
99	0xbe0bc0cb	-0.13647763
100	0xbe9e9041	-0.30969432
101	0xbe8f286c	-0.27960527
102	0x3f9ff39e	1.2496221
103	0x3ed28035	0.4111344
104	0xbf1e5a58	-0.61856604
105	0xc0044fe7	-2.0673769
106	0x3c291512	0.010319965
107	0xbe9a98e4	-0.3019477
108	0x3ecb2201	0.3967438
109	0x3d1907f6	0.037361108
110	0xbce96613	-0.028491056
111	0x3dbbcf44	0.09170392
112	0x3e81422f	0.25245807
113	0x3d8dc80c	0.069229215
114	0x3d4d0cdb	0.050061088
115	0x3d9c6bef	0.07637774
116	0xbcf36e40	-0.029715657
117	0x3db26f27	0.08712607
118	0xbc8fe54b	-0.01756539
119	0x3d5574ba	0.052113272
120	0x3d57604c	0.05258207
121	0xbb0ded73	-0.0021656423
122	0xbd6da921	-0.058022622
123	0xbddccab9	-0.10780854
124	0x3e51879e	0.2046189
125	0x3ebfa9bc	0.37434185
126	0xbdd589cc	-0.10426673
127	0xbf5bd1bc	-0.85866904
128	0xbdb14438	-0.0865559
129	0xbe438721	-0.19094516
130	0x3db98e0f	0.09060299
131	0xbd026afc	-0.03184031
132	0x38f8d4b8	0.000118651835
133	0xbd064b9a	-0.032786943
134	0xbcf42237	-0.029801471
135	0xbcf477c2	-0.029842261
136	0xbd0fd21c	-0.035112485
137	0x3d6dafad	0.058028866
138	0x3c366af3	0.011133897
139	0xbce8d56f	-0.028422086
140	0xbda68359	-0.08130521
141	0xbdfc554f	-0.12320959
142	0xbd9eb268	-0.07748872
143	0xbdacf94f	-0.08445989
144	0xbdecf552	-0.11570229
145	0x3cd8bfbe	0.026458617
146	0x3d196fd5	0.037460167
147	0xbcf1f801	-0.029537203
148	0xbd80e274	-0.062931925
149	0xbcc86de9	-0.024466472
150	0x3c1b5997	0.009481809
151	0x3e18982a	0.14901796
152	0x3dc3d9be	0.095630154
153	0xbe487552	-0.19576004
154	0xbf4d4f45	-0.8019908
155	0x3f7cf191	0.988061
156	0xbe113b5d	-0.14182802
157	0xbf9d0197	-1.226611
158	0xbd401f62	-0.04690493
159	0x3e77991b	0.24179499
160	0xbce76f36	-0.028251272
161	0x3e6dd3a3	0.23225264
162	0x3ddaa948	0.10676819
163	0x3c39a0ee	0.0113298725
164	0xbcadf723	-0.021236008
165	0xbe390db5	-0.18071635
166	0xbe156bbe	-0.14591882
167	0xbde7a7f9	-0.11311335
168	0x3e43187a	0.19052306
169	0xbe4f779e	-0.20260474
170	0xbe670ac5	-0.22562702
171	0xbe1766b8	-0.14785278
172	0x3e2b1e0d	0.16710682
173	0xbcb14d9d	-0.021643454
174	0x3e68ea1f	0.2274556
175	0x3e290060	0.1650405
176	0xbc838de3	-0.016058868
177	0x3e6570cf	0.22406314
178	0x3e320b6f	0.17387174
179	0xbd0e9985	-0.034814376
180	0x3f8130d2	1.0093024
181	0xbf53b365	-0.8269561
182	0xbe8e53f4	-0.27798426
183	0xbe8e83ff	-0.2783508
184	0x3d640e96	0.055677973
185	0x3de16469	0.1100548
186	0xbe8f3fcd	-0.27978364
187	0xbe00d6e9	-0.12581982
188	0xbd8fde2f	-0.070248
189	0xbd30118b	-0.04298548
190	0xbe779e51	-0.24181487
191	0xbe0fc227	-0.14038907
192	0xbd77875e	-0.06043183
193	0xbc90c39d	-0.0176714
194	0x3b12897f	0.0022359786
195	0xbd81910b	-0.06326493
196	0x3cfb5b9a	0.030683327
197	0x3d4badcc	0.049726292
198	0x3c420ab9	0.011843377
199	0xbe5f7083	-0.21820264
200	0xbe5867f5	-0.21133406
201	0xbe4bb998	-0.19895017
202	0xbe4bc05c	-0.19897598
203	0xbe98ac7d	-0.29819098
204	0xbec5435c	-0.38527954
205	0xbdb27a63	-0.0871475
206	0x3ec02a4e	0.37532276
207	0x3eedb111	0.46424153
208	0xbde41661	-0.11137081
209	0xbe94b7a6	-0.29046363
210	0xbe68a079	-0.22717465
211	0xbede2c38	-0.4339311
212	0xbf0fb39a	-0.56133425
213	0xbe593707	-0.21212398
214	0xbe6fcb53	-0.23417406
215	0xbeebfc2b	-0.46090826
216	0xbe17e444	-0.1483317
217	0x3dec4001	0.11535645
218	0xbc304742	-0.010759177
219	0xbd63a9e1	-0.05558193
220	0x3d1ef156	0.038804375
221	0xbd0ab492	-0.03386361
222	0xbda4d507	-0.08048444
223	0xbda92508	-0.08259016
224	0xbddb7fbb	-0.10717722
225	0x3d139b21	0.036036614
226	0x3e0caf0c	0.1373865
227	0x3e5e8398	0.21729887
228	0x3dde3017	0.10849016
229	0xbdc9fd24	-0.09862736
230	0xbe0f7bd9	-0.14012088
231	0xbe7ff124	-0.24994332
232	0x3f08ec5d	0.5348566
233	0xbe2f4f93	-0.17120199
234	0x3dc361db	0.09540149
235	0xbc157562	-0.0091222245
236	0xbe181a3f	-0.14853762
237	0xbcbe80fe	-0.023254868
238	0x3e8607a7	0.26177713
239	0x3d13e8e5	0.036110777
240	0xbe3beecb	-0.18352811
241	0xbe7387d5	-0.23782285
242	0xbe6d7f3c	-0.23193067
243	0xbe957a48	-0.29194856
244	0xbe9ebd41	-0.31003764
245	0xbec41cf6	-0.38303345
246	0xbe761e55	-0.24035008
247	0xbe8177b9	-0.25286654
248	0xbe0d77ad	-0.13815184
249	0xbdb218e0	-0.08696151
250	0xbc35b175	-0.011089672
251	0x3d965162	0.07339741
252	0x3e3df253	0.1854947
253	0x3e96a95a	0.2942608
254	0x3ea19dd8	0.31565738
255	0x3d13a343	0.03604437

feature_layer.0.bias f4 [64]
0	0xbe398008	-0.18115246
1	0xbde3c28c	-0.11121091
2	0xbe2f29ff	-0.17105864
3	0x3e2b4ba6	0.16728076
4	0x3e0fef86	0.14056215
5	0xbf3e1192	-0.7424556
6	0x3e0c9350	0.1372807
7	0xbd6336b1	-0.05547208
8	0x3de20852	0.11036743
9	0x3e95c736	0.29253548
10	0xbdeb48a2	-0.11488463
11	0xbe8c7ee9	-0.27440575
12	0x3ddb83dc	0.107185096
13	0xbf2519bb	-0.64492387
14	0x3d19d8b6	0.037560187
15	0x3eb573d0	0.3543992
16	0x3c3004b6	0.010743311
17	0x3d0f80b2	0.035034843
18	0x3e7ed940	0.24887562
19	0x3f292bf6	0.66082704
20	0xbedd666b	-0.432422
21	0xbe566462	-0.2093673
22	0x3ea5dd55	0.32395425
23	0x3e0517f8	0.12997425
24	0x3eafff1d	0.34374323
25	0xbf22bec0	-0.6357231
26	0xbbc198ab	-0.005908092
27	0x3cb8ef5e	0.022575077
28	0x3d64f204	0.055894867
29	0x3e99ffe2	0.30078036
30	0xbd7a22c6	-0.06106832
31	0x3e6495c7	0.2232276
32	0x3f2ae40a	0.6675421
33	0x3dc6823d	0.0969281
34	0x3da3bb5e	0.07994722
35	0xbe291a63	-0.16513972
36	0x3e77a939	0.24185647
37	0x3ee464dd	0.44608203
38	0xbd7f413c	-0.06231807
39	0x3e28a45e	0.16468951
40	0x3eb8f1f5	0.361221
41	0x3e9dd1cf	0.30824134
42	0x3d4a2d66	0.0493597
43	0xbc2ca3ce	-0.010537101
44	0xbe281e03	-0.16417699
45	0x3cb84871	0.02249548
46	0x3ebd8406	0.37014788
47	0x3e9756d5	0.29558435
48	0x3ede3f7a	0.43407804
49	0xbdaeea1b	-0.08540746
50	0x3f3790bb	0.71705216
51	0x3ca20186	0.019776117
52	0xbdaa182a	-0.0830539
53	0xbe4bba32	-0.19895247
54	0x3b686278	0.0035459083
55	0xbe38bb01	-0.18040086
56	0xbe0df3fb	-0.13862602
57	0xbcbbeed4	-0.02294103
58	0x3e5504eb	0.20802657
59	0x3f00ef25	0.50364906
60	0xbf07292b	-0.5279719
61	0x3e3a37d5	0.1818536
62	0xbeb97424	-0.3622142
63	0xbd245812	-0.040123053

feature_layer.3.weight f4 [32, 64]
0	0xbe3c3f84	-0.18383604
1	0x3ee61289	0.44936016
2	0x3e1cadbf	0.15300654
3	0x3f1e5e13	0.61862296
4	0xbef272aa	-0.47353107
5	0xbd23612b	-0.03988759
6	0x3e36ad57	0.17839561
7	0x3ee0a101	0.43872836
8	0xbe28ee58	-0.16497171
9	0x3e52eea0	0.2059884
10	0x3eeda85f	0.4641752
11	0x3ef7f0f6	0.48426026
12	0xbf364c38	-0.7121005
13	0xbc6ab9c5	-0.0143265175
14	0xbd907909	-0.070543356
15	0x3d50ba4d	0.05095892
16	0x3ee88e45	0.45421043
17	0x3e0fa8cb	0.14029233
18	0xbecc7539	-0.39933184
19	0xbcdb8493	-0.026796615
20	0xbe8ee348	-0.27907777
21	0xbdc9f857	-0.0986182
22	0xbf3d4382	-0.73931134
23	0xbe06ab13	-0.13151197
24	0x3e433824	0.19064385
25	0x3e468d27	0.19389783
26	0xbf2ab67e	-0.6668471
27	0xbdd9d42b	-0.10636171
28	0x3ae17c9c	0.0017203274
29	0xbe96a689	-0.2942393
30	0xbf5164fc	-0.81794715
31	0x3a8ea705	0.0010883516
32	0xbdb56bef	-0.08858477
33	0xbe2398af	-0.15976213
34	0xbeb4e5e6	-0.3533165
35	0x3f0ad176	0.5422586
36	0xbdb4f577	-0.08835881
37	0x3f17d127	0.59303516
38	0xbc44ee5a	-0.012019718
39	0xbce62351	-0.028093012
40	0xbf57658c	-0.84139323
41	0x3c850165	0.016236017
42	0xbf0c89a6	-0.54897535
43	0xbdb6b3df	-0.089210264
44	0x3e45cc0d	0.1931612
45	0x3f38acd9	0.72138745
46	0xbf01b812	-0.50671494
47	0x3ed826a6	0.42216986
48	0x3e3c30a8	0.18377936
49	0x3dec9792	0.11552347
50	0x3d4cfe24	0.050047055
51	0xbf324819	-0.6964126
52	0x3d1ca482	0.038242824
53	0x3c43e0b9	0.0119554335
54	0xbf3c669d	-0.73594075
55	0x3de64293	0.11243167
56	0x3f16baa7	0.5887856
57	0x3ef0e17e	0.47047037
58	0xbeda314f	-0.42615744
59	0x3e2cbe65	0.16869505
60	0x3e76234f	0.24036907
61	0xbedd0935	-0.43171087
62	0x3dcf9f15	0.10137764
63	0xbe94b332	-0.29042965
64	0x3d430756	0.047614418
65	0xbd3d0cd5	-0.046154816
66	0x3e9769df	0.2957296
67	0xbf3ce1ac	-0.7378185
68	0xbde9f67d	-0.11423967
69	0x3ebf6589	0.37382153
70	0xbea9b2e6	-0.331443
71	0xbdd07768	-0.10179025
72	0xbe12916d	-0.14313288
73	0xbd34350e	-0.04399591
74	0x3dfab963	0.12242391
75	0x3e83c359	0.25734976
76	0xbe1a051b	-0.1504101
77	0xbec0deb0	-0.37669897
78	0xbc9914e9	-0.018686729
79	0x3d08c949	0.033395085
80	0xbdbc7983	-0.09202864
81	0xbdd5d1b4	-0.10440388
82	0x3e369fe8	0.17834437
83	0x3dee6713	0.116407536
84	0xbf387ca1	-0.7206517
85	0xbdadef56	-0.08492915
86	0xbe2bb10d	-0.16766758
87	0xbdfebfad	-0.12438903
88	0xbe1feb84	-0.15617186
89	0x3e6564c8	0.22401726
90	0xbeb2a3ea	-0.34890682
91	0x3da1c66d	0.07899175
92	0xbdcbc3fc	-0.099494904
93	0x3d0d0044	0.03442408
94	0xbeb6ef78	-0.35729575
95	0x3da5403b	0.080688916
96	0xbdac2fcd	-0.08407555
97	0x3e7eaf1f	0.24871491
98	0xbc87af52	-0.016563091
99	0x3eb0e097	0.34546348
100	0x3d728579	0.05920932
101	0xbe2927ff	-0.16519164
102	0x3d56bf1d	0.052428354
103	0xbe9d31b1	-0.30701974
104	0xbf55fc6c	-0.8358829
105	0xbe8a274f	-0.26983115
106	0x3f24e100	0.6440582
107	0x3d951796	0.07279889
108	0x3e754e71	0.23955704
109	0xbeeb02a2	-0.45900446
110	0xbf153e74	-0.5829842
111	0x3d2f9e7d	0.042875756
112	0xbd9684e9	-0.07349569
113	0x3e8c623a	0.2741869
114	0x3f0147b5	0.5050004
115	0xbee98bc7	-0.45614454
116	0xbdd9e2a5	-0.10638932
117	0x3d833bc0	0.06407881
118	0xbec8f10f	-0.39246413
119	0xbd077dcb	-0.03307895
120	0x3e768c39	0.24076928
121	0x3dcb0569	0.09913141
122	0xbe00ee2c	-0.12590855
123	0x3dfbc622	0.1229365
124	0xbe6f067d	-0.23342319
125	0x3f49a675	0.7876962
126	0xbe98f4e8	-0.2987435
127	0x3e3d8e57	0.1851133
128	0xbe700d7c	-0.23442644
129	0xbe380054	-0.17968875
130	0x3d56ccaa	0.052441277
131	0xbde6da97	-0.112721615
132	0x3eda48c2	0.42633635
133	0x3e134fa3	0.14385848
134	0x3c8009e1	0.01562971
135	0x3eef1994	0.46699202
136	0x3e0fc867	0.14041291
137	0x3e48be4b	0.19603841
138	0x3da8ae21	0.082363375
139	0xbd83caa0	-0.06435132
140	0xbf14eb24	-0.58171296
141	0xbe76ae1c	-0.24089855
142	0x3d7bd36a	0.061480917
143	0xbe433384	-0.1906262
144	0x3e1f5484	0.15559584
145	0xbf0d2d68	-0.5514741
146	0xbec49eda	-0.38402444
147	0xbd7e023e	-0.062013857
148	0xbdc7da1c	-0.09758398
149	0x3cf2e931	0.02965221
150	0xbdcba6fc	-0.09943959
151	0xbf015292	-0.5051662
152	0x3e7346dc	0.237575
153	0x3daac874	0.08339015
154	0xbf55b6e2	-0.8348218
155	0x3d83368b	0.064068876
156	0xbeaf562b	-0.34245428
157	0xbe8cd450	-0.27505732
158	0xbe172009	-0.14758314
159	0xbe7a0085	-0.2441426
160	0x3dcfdd14	0.10149589
161	0x3f0615d2	0.52377045
162	0xbe837265	-0.25673214
163	0x3ee5038d	0.44729272
164	0xbee76853	-0.4519678
165	0x3e15744f	0.1459515
166	0xbde111af	-0.10989701
167	0xbe5466b1	-0.20742299
168	0x3e9dcd03	0.30820474
169	0xbf28be5d	-0.6591547
170	0x3ecfdae4	0.40596688
171	0x3e049810	0.12948632
172	0x3e8cb914	0.27484953
173	0xbf463c0b	-0.7743537
174	0xbf633434	-0.8875153
175	0x3c7dfa0e	0.015501512
176	0xbd8d73b9	-0.06906838
177	0xbe19e495	-0.15028603
178	0xbc16aab9	-0.009195977
179	0xbe21b575	-0.15791877
180	0x3ef842c4	0.48488438
181	0xbb95c758	-0.004570883
182	0xbf274e6a	-0.65354025
183	0xbc183b11	-0.009291426
184	0x3f01037e	0.50395954
185	0x3e29eddd	0.16594644
186	0x3d547bce	0.05187588
187	0x3e0844c3	0.1330748
188	0x3ddc33ae	0.107520446
189	0x3f292057	0.6606497
190	0xbdc5f075	-0.09665004
191	0xbe08feac	-0.133784
192	0x3e30fd27	0.1728407
193	0x3e57cafe	0.21073529
194	0x3e47b51a	0.19502679
195	0x3e9e4201	0.30909732
196	0x3e9773ea	0.29580623
197	0x3e076a53	0.13224153
198	0x3ee66c9b	0.45004734
199	0x3cf644ea	0.030062158
200	0x3e4c59b7	0.19956098
201	0xbe455389	-0.19270147
202	0x3ccfab15	0.025350133
203	0xbf13d34a	-0.57744277
204	0x3ef677ee	0.48138374
205	0xbf054308	-0.52055407
206	0x3d8281f4	0.06372443
207	0xbe81bca8	-0.25339246
208	0x3e738bb5	0.23783763
209	0xbe1e48af	-0.15457414
210	0x3f2de22d	0.6792324
211	0xbd5a53c5	-0.053302545
212	0xbf2b65b0	-0.6695204
213	0x3b939716	0.004504095
214	0x3cf5bad6	0.029996317
215	0xbc65a2de	-0.014015881
216	0xbe044853	-0.12918214
217	0x3e5d54d0	0.21614385
218	0xbd91996a	-0.071093395
219	0x3d5bbe3d	0.053648222
220	0xbe78cb48	-0.24296296
221	0xbe8a2518	-0.26981425
222	0x3e0a30f9	0.13495244
223	0x3dabede5	0.08394984
224	0xbc82e1ba	-0.015976775
225	0x3e97c732	0.2964416
226	0xbc6f1c78	-0.01459419
227	0x3dc6c4f0	0.097055316
228	0x3e4d7ac3	0.20066361
229	0xbf0387a1	-0.5137883
230	0xbd5d2ca7	-0.053997662
231	0xbe103946	-0.14084348
232	0x3f612f21	0.8796254
233	0x3e4e5945	0.20151241
234	0xbe148461	-0.14503624
235	0x3e6a09ae	0.22855255
236	0x3f0207e7	0.5079331
237	0x3e1b6ac3	0.15177445
238	0x3eabcd80	0.33555222
239	0x3e6c5bf7	0.23081957
240	0xbf1e5a33	-0.61856383
241	0xbda6b3d1	-0.08139766
242	0x3eb3686f	0.35040614
243	0xbe57927e	-0.21051976
244	0x3d83e45e	0.06440042
245	0x3d89dc83	0.067315124
246	0xbe8d7c62	-0.2763396
247	0xbc1b88f3	-0.0094931
248	0x3eec40b4	0.46143115
249	0x3d874ccf	0.06606447
250	0xbeb19f8d	-0.3469204
251	0x3ebcbf35	0.3686463
252	0xbe907c45	-0.2821981
253	0xbd35afe4	-0.044357195
254	0xbf9a3c9d	-1.2049748
255	0xbd6cb9dc	-0.057794437

feature_layer.3.bias f4 [32]
0	0x3daeb654	0.0853087
1	0xbebebc98	-0.3725326
2	0xbecb9435	-0.3976151
3	0x3b24f265	0.0025168892
4	0xbe91c64a	-0.28471595
5	0xbe27d22e	-0.16388771
6	0xbf575290	-0.84110355
7	0x3ed59df0	0.4172206
8	0xbd80a098	-0.06280631
9	0xbe16afdb	-0.14715521
10	0xbed017db	-0.406432
11	0x3dd04ccb	0.10170897
12	0x3daeb78e	0.08531104
13	0x3e95fbf1	0.2929378
14	0xbd96ecec	-0.07369408
15	0xbe136f59	-0.14397945
16	0xbe91c038	-0.28466964
17	0x3f0e01be	0.5547141
18	0x3eb29f92	0.34887367
19	0xbe505880	-0.2034626
20	0xbde030fa	-0.109468415
21	0xbef14f98	-0.47131038
22	0x3f260ded	0.64865
23	0xbebe943a	-0.37222463
24	0xbe0d595b	-0.13803618
25	0xbe7468b5	-0.23868068
26	0xbda827e1	-0.08210731
27	0xbf05b7d5	-0.5223363
28	0xbef71688	-0.48259377
29	0x3ea96218	0.33082652
30	0x3e86f0b0	0.26355505
31	0x3f1628b1	0.5865584

final_layer.weight_mu f4 [32, 64]
0	0xbd76de90	-0.060270846
1	0x3d6139c4	0.05498673
2	0xbda39f90	-0.079894185
3	0x3da43e90	0.08019745
4	0xbd2a27b4	-0.04154177
5	0xbdbae078	-0.09124845
6	0xbcf42e48	-0.029807225
7	0x3b4ddf00	0.0031413436
8	0x3c6a36f0	0.014295325
9	0xbdb26566	-0.087107465
10	0xbdbdbeac	-0.092648834
11	0x3d82ae70	0.063809276
12	0xbdee7f06	-0.116453215
13	0xbda0234a	-0.07819231
14	0x3de82624	0.113354
15	0xbdad371c	-0.08457777
16	0xbd298000	-0.041381836
17	0x3d2a6754	0.041602448
18	0x3d5ff57c	0.05467747
19	0xbcfb06b0	-0.030642837
20	0xbc9b1a90	-0.018933564
21	0x3dc40cd0	0.09572756
22	0xbdd687cc	-0.1047512
23	0x3cf13d90	0.0294483
24	0xbb986100	-0.004650235
25	0xbd250168	-0.040284544
26	0xbdb4da38	-0.088306844
27	0x3c02aa90	0.007975236
28	0xbdc03b02	-0.09386255
29	0xbd09564c	-0.033529565
30	0x3dc2a562	0.095042005
31	0x3d8e6e3a	0.06954618
32	0x3ac54e80	0.0015053302
33	0xbdb89aa8	-0.09013873
34	0x3a996100	0.0011701882
35	0x3d812de4	0.06307581
36	0x3deb9366	0.115027234
37	0x3bc9c860	0.0061579198
38	0x3d9a595e	0.07536577
39	0xbdd0dc12	-0.10198225
40	0xbd8a410a	-0.067506865
41	0x3d4a339c	0.049365625
42	0xbdd8332e	-0.10556637
43	0x3d811492	0.063027516
44	0x3cd44b18	0.025914714
45	0xbd83f76c	-0.06443676
46	0xbc1071a0	-0.008816153
47	0xbd248fa8	-0.040176064
48	0x3da4203c	0.08013961
49	0x3dc0e458	0.09418553
50	0x3d422928	0.04740253
51	0x3d65dbc8	0.056117803
52	0xbd80fdb4	-0.0629839
53	0x3dbfa474	0.09357539
54	0x3d7420b8	0.059601516
55	0x3deac196	0.11462705
56	0x3d4bb708	0.0497351
57	0xbddcb31c	-0.1077635
58	0x3dd7efa6	0.10543756
59	0x3d9ae612	0.07563414
60	0xbd4319c8	-0.04763201
61	0x3c779a00	0.0151124
62	0x3d5ce74c	0.05393152
63	0xbcecccb0	-0.028906196
64	0xbdad1d78	-0.08452886
65	0x3d1a9234	0.037737086
66	0xbd0637c0	-0.03276801
67	0x3b442d40	0.0029934198
68	0xbd92756a	-0.07151301
69	0xbc034680	-0.008012414
70	0x3df555f0	0.11979282
71	0xbddf4ff8	-0.10903925
72	0x3d2f5cb8	0.042813033
73	0x3d3275ec	0.04356949
74	0x3d3ddde0	0.046354175
75	0xbd2a16c4	-0.041525617
76	0x3cf5c528	0.030001238
77	0xbda5024c	-0.08057079
78	0xbd03ac7c	-0.032146916
79	0xbdf04cf8	-0.117334306
80	0x3de88bc6	0.11354785
81	0xbcdfd990	-0.027325422
82	0xbcffd7f0	-0.031230897
83	0x3d8e6d9a	0.069544986
84	0xbd28b038	-0.04118368
85	0xbcec3170	-0.028832167
86	0x3ddf1628	0.10892898
87	0x3ddcc532	0.107797995
88	0xb94c2000	-0.00019466877
89	0xbbaf3460	-0.0053468198
90	0xbd3c85c8	-0.04602602
91	0xbd2a1a50	-0.041529
92	0x3df49f70	0.11944473
93	0xbda8a018	-0.082336605
94	0x3d33776c	0.04381506
95	0xbdd05838	-0.101730764
96	0x3ddaa056	0.10675113
97	0xbcc37dc8	-0.023863688
98	0xbdc13d0a	-0.094354704
99	0xbbbbae20	-0.0057275444
100	0x3c1634b0	0.009167835
101	0x3d72c114	0.059266165
102	0x3d19ccf8	0.03754899
103	0xbdede9b6	-0.116168424
104	0x3d60ce8c	0.05488448
105	0xbdd05e10	-0.10174191
106	0xbde6fb84	-0.112784415
107	0xbdde0dd8	-0.10842484
108	0xbd828af2	-0.06374158
109	0xbcbb6cb0	-0.022878975
110	0x3bf22fa0	0.0073909312
111	0x3cca82c8	0.024720564
112	0xbd097c9c	-0.033566102
113	0xbd9f5400	-0.077796936
114	0x3d72cc48	0.05927685
115	0xbc7024d0	-0.014657214
116	0x3ca87340	0.020562768
117	0xbdfa2ff2	-0.12216176
118	0x3d297ec0	0.041380644
119	0xbd865524	-0.06559208
120	0xbdd9a1d2	-0.10626568
121	0x3cb8f5d0	0.02257815
122	0xbc4dde20	-0.012565166
123	0xbb6e7340	-0.0036384612
124	0x3da638c2	0.081162944
125	0x3d6a451c	0.057194814
126	0xbcb17f38	-0.021667108
127	0x3dfe1874	0.12407008
128	0xbc114890	-0.008867398
129	0x3da8ae34	0.082363516
130	0xbd9c1e2e	-0.07622944
131	0xbbf9afc0	-0.007619828
132	0xbde02710	-0.109449506
133	0xbdce8e66	-0.10085754
134	0x3ca1a200	0.019730568
135	0xbdc72ce6	-0.097253606
136	0x3cd23e00	0.02566433
137	0x3d3deb74	0.046367124
138	0xbd45d23c	-0.0482962
139	0x3d512784	0.051063076
140	0x3dba5100	0.09097481
141	0x3dc150a0	0.09439206
142	0xbc913590	-0.017725736
143	0xbd1481e8	-0.0362567
144	0xbdc055e2	-0.09391381
145	0x3dcd6b78	0.10030264
146	0xbcdd2a28	-0.02699764
147	0xbc9d5550	-0.01920572
148	0xbd5b5aa8	-0.053553253
149	0x3dc6c894	0.09706226
150	0x3df7bd7a	0.12096687
151	0x3c8eaab8	0.01741539
152	0x3d89b33a	0.06723638
153	0x3d811fdc	0.06304905
154	0xbdcf5bc8	-0.10124928
155	0x3b77f9c0	0.0037838072
156	0x3d71ebd8	0.05906281
157	0x3dbbd4e4	0.09171465
158	0x3da44da0	0.08022618
159	0x3cfc0a80	0.030766726
160	0xbd8ac8b4	-0.06776562
161	0xbd031144	-0.031998888
162	0x3d46f778	0.04857585
163	0x3df12578	0.11774725
164	0x3c49f550	0.012326553
165	0xbbbd65a0	-0.005779937
166	0xbd162b90	-0.03666264
167	0xbb79da40	-0.0038124472
168	0x3d6fef4c	0.05857782
169	0xbd88841a	-0.066658214
170	0xbcba6b08	-0.022756115
171	0x3d05feac	0.032713577
172	0xbc1f66b0	-0.009729072
173	0xbd4ca660	-0.049963355
174	0xbc9770e0	-0.01848644
175	0xbab8d980	-0.0014102906
176	0xbdc7a688	-0.0974856
177	0x3dd6e6d2	0.10493244
178	0x3da289f6	0.0793647
179	0x3d867c5e	0.0656669
180	0xbc9f6cd8	-0.01946108
181	0xbd87f616	-0.06638734
182	0x3dc0e22a	0.09418137
183	0xbd7e8f44	-0.062148347
184	0x3dd09332	0.10184325
185	0x3c291ed0	0.010322288
186	0x3cff5c10	0.031171829
187	0xbd6a4748	-0.057196885
188	0x3d93564c	0.07194194
189	0xbd81d7be	-0.06339978
190	0xbd70deec	-0.058806345
191	0xbd50a9c8	-0.050943166
192	0x3dc93f2e	0.09826504
193	0x3ca18a08	0.019719139
194	0xbc80a750	-0.01570478
195	0x3d6dbfc8	0.058044225
196	0xbd552650	-0.05203849
197	0x3d5fff6c	0.05468695
198	0x3c56b930	0.013105676
199	0x3d338390	0.04382664
200	0xbdbe3068	-0.092865765
201	0xbd38627c	-0.045015797
202	0x3dc5da18	0.09660739
203	0xbd959bfa	-0.07305141
204	0xbde69ab6	-0.112599775
205	0x3c9e3558	0.019312546
206	0xbd8712fa	-0.06595416
207	0xbc505ae0	-0.012716979
208	0xbc1adcb0	-0.00945203
209	0x3d2b1c3c	0.041774973
210	0xbd8eb436	-0.06967966
211	0x3d89ab02	0.0672207
212	0xbddb088e	-0.10694991
213	0xbd17e7bc	-0.037086233
214	0x3dd9911c	0.106233805
215	0xbd224428	-0.03961578
216	0x3d81bd7a	0.06334968
217	0xbce81668	-0.028330997
218	0x3db02440	0.08600664
219	0x3d9e5c9e	0.07732509
220	0x3c561620	0.013066798
221	0xbcbce8c0	-0.023060203
222	0x3dc37150	0.09543097
223	0xbd026788	-0.031837016
224	0xbcf9a710	-0.03047517
225	0x3d73a74c	0.05948572
226	0x3c85da68	0.016339496
227	0xbcfeb548	-0.031092301
228	0x3ad83000	0.0016493797
229	0xbd80c176	-0.062869
230	0x3d9d5f6e	0.076842174
231	0xbd541d84	-0.05178596
232	0xbdd14acc	-0.102193445
233	0x3db59388	0.0886603
234	0x3d87d910	0.06633198
235	0xbdee8166	-0.116457745
236	0xbc5437a0	-0.012952715
237	0xbd2a6ba8	-0.041606575
238	0x3ad01b80	0.0015877336
239	0x3c7fdb60	0.015616268
240	0x3df7c048	0.120972216
241	0xbdbabb10	-0.091177106
242	0xbbcd1ca0	-0.006259516
243	0xbd7566bc	-0.05991243
244	0x3d7b725c	0.06138836
245	0x3dd16174	0.10223666
246	0x3c8b15d8	0.01697819
247	0xbcb5bae0	-0.022183836
248	0xbcbd4a60	-0.023106754
249	0xbdb5ff18	-0.08886546
250	0x3d049ca4	0.032375947
251	0x3dc8759c	0.09788057
252	0xbd3d98f4	-0.046288446
253	0x3db12e84	0.0865145
254	0xbc6edde0	-0.014579266
255	0x3a909580	0.0011030883

final_layer.weight_sigma f4 [32, 64]
0	0x3d99999a	0.075
1	0x3d99999a	0.075
2	0x3d99999a	0.075
3	0x3d99999a	0.075
4	0x3d99999a	0.075
5	0x3d99999a	0.075
6	0x3d99999a	0.075
7	0x3d99999a	0.075
8	0x3d99999a	0.075
9	0x3d99999a	0.075
10	0x3d99999a	0.075
11	0x3d99999a	0.075
12	0x3d99999a	0.075
13	0x3d99999a	0.075
14	0x3d99999a	0.075
15	0x3d99999a	0.075
16	0x3d99999a	0.075
17	0x3d99999a	0.075
18	0x3d99999a	0.075
19	0x3d99999a	0.075
20	0x3d99999a	0.075
21	0x3d99999a	0.075
22	0x3d99999a	0.075
23	0x3d99999a	0.075
24	0x3d99999a	0.075
25	0x3d99999a	0.075
26	0x3d99999a	0.075
27	0x3d99999a	0.075
28	0x3d99999a	0.075
29	0x3d99999a	0.075
30	0x3d99999a	0.075
31	0x3d99999a	0.075
32	0x3d99999a	0.075
33	0x3d99999a	0.075
34	0x3d99999a	0.075
35	0x3d99999a	0.075
36	0x3d99999a	0.075
37	0x3d99999a	0.075
38	0x3d99999a	0.075
39	0x3d99999a	0.075
40	0x3d99999a	0.075
41	0x3d99999a	0.075
42	0x3d99999a	0.075
43	0x3d99999a	0.075
44	0x3d99999a	0.075
45	0x3d99999a	0.075
46	0x3d99999a	0.075
47	0x3d99999a	0.075
48	0x3d99999a	0.075
49	0x3d99999a	0.075
50	0x3d99999a	0.075
51	0x3d99999a	0.075
52	0x3d99999a	0.075
53	0x3d99999a	0.075
54	0x3d99999a	0.075
55	0x3d99999a	0.075
56	0x3d99999a	0.075
57	0x3d99999a	0.075
58	0x3d99999a	0.075
59	0x3d99999a	0.075
60	0x3d99999a	0.075
61	0x3d99999a	0.075
62	0x3d99999a	0.075
63	0x3d99999a	0.075
64	0x3d99999a	0.075
65	0x3d99999a	0.075
66	0x3d99999a	0.075
67	0x3d99999a	0.075
68	0x3d99999a	0.075
69	0x3d99999a	0.075
70	0x3d99999a	0.075
71	0x3d99999a	0.075
72	0x3d99999a	0.075
73	0x3d99999a	0.075
74	0x3d99999a	0.075
75	0x3d99999a	0.075
76	0x3d99999a	0.075
77	0x3d99999a	0.075
78	0x3d99999a	0.075
79	0x3d99999a	0.075
80	0x3d99999a	0.075
81	0x3d99999a	0.075
82	0x3d99999a	0.075
83	0x3d99999a	0.075
84	0x3d99999a	0.075
85	0x3d99999a	0.075
86	0x3d99999a	0.075
87	0x3d99999a	0.075
88	0x3d99999a	0.075
89	0x3d99999a	0.075
90	0x3d99999a	0.075
91	0x3d99999a	0.075
92	0x3d99999a	0.075
93	0x3d99999a	0.075
94	0x3d99999a	0.075
95	0x3d99999a	0.075
96	0x3d99999a	0.075
97	0x3d99999a	0.075
98	0x3d99999a	0.075
99	0x3d99999a	0.075
100	0x3d99999a	0.075
101	0x3d99999a	0.075
102	0x3d99999a	0.075
103	0x3d99999a	0.075
104	0x3d99999a	0.075
105	0x3d99999a	0.075
106	0x3d99999a	0.075
107	0x3d99999a	0.075
108	0x3d99999a	0.075
109	0x3d99999a	0.075
110	0x3d99999a	0.075
111	0x3d99999a	0.075
112	0x3d99999a	0.075
113	0x3d99999a	0.075
114	0x3d99999a	0.075
115	0x3d99999a	0.075
116	0x3d99999a	0.075
117	0x3d99999a	0.075
118	0x3d99999a	0.075
119	0x3d99999a	0.075
120	0x3d99999a	0.075
121	0x3d99999a	0.075
122	0x3d99999a	0.075
123	0x3d99999a	0.075
124	0x3d99999a	0.075
125	0x3d99999a	0.075
126	0x3d99999a	0.075
127	0x3d99999a	0.075
128	0x3d99999a	0.075
129	0x3d99999a	0.075
130	0x3d99999a	0.075
131	0x3d99999a	0.075
132	0x3d99999a	0.075
133	0x3d99999a	0.075
134	0x3d99999a	0.075
135	0x3d99999a	0.075
136	0x3d99999a	0.075
137	0x3d99999a	0.075
138	0x3d99999a	0.075
139	0x3d99999a	0.075
140	0x3d99999a	0.075
141	0x3d99999a	0.075
142	0x3d99999a	0.075
143	0x3d99999a	0.075
144	0x3d99999a	0.075
145	0x3d99999a	0.075
146	0x3d99999a	0.075
147	0x3d99999a	0.075
148	0x3d99999a	0.075
149	0x3d99999a	0.075
150	0x3d99999a	0.075
151	0x3d99999a	0.075
152	0x3d99999a	0.075
153	0x3d99999a	0.075
154	0x3d99999a	0.075
155	0x3d99999a	0.075
156	0x3d99999a	0.075
157	0x3d99999a	0.075
158	0x3d99999a	0.075
159	0x3d99999a	0.075
160	0x3d99999a	0.075
161	0x3d99999a	0.075
162	0x3d99999a	0.075
163	0x3d99999a	0.075
164	0x3d99999a	0.075
165	0x3d99999a	0.075
166	0x3d99999a	0.075
167	0x3d99999a	0.075
168	0x3d99999a	0.075
169	0x3d99999a	0.075
170	0x3d99999a	0.075
171	0x3d99999a	0.075
172	0x3d99999a	0.075
173	0x3d99999a	0.075
174	0x3d99999a	0.075
175	0x3d99999a	0.075
176	0x3d99999a	0.075
177	0x3d99999a	0.075
178	0x3d99999a	0.075
179	0x3d99999a	0.075
180	0x3d99999a	0.075
181	0x3d99999a	0.075
182	0x3d99999a	0.075
183	0x3d99999a	0.075
184	0x3d99999a	0.075
185	0x3d99999a	0.075
186	0x3d99999a	0.075
187	0x3d99999a	0.075
188	0x3d99999a	0.075
189	0x3d99999a	0.075
190	0x3d99999a	0.075
191	0x3d99999a	0.075
192	0x3d99999a	0.075
193	0x3d99999a	0.075
194	0x3d99999a	0.075
195	0x3d99999a	0.075
196	0x3d99999a	0.075
197	0x3d99999a	0.075
198	0x3d99999a	0.075
199	0x3d99999a	0.075
200	0x3d99999a	0.075
201	0x3d99999a	0.075
202	0x3d99999a	0.075
203	0x3d99999a	0.075
204	0x3d99999a	0.075
205	0x3d99999a	0.075
206	0x3d99999a	0.075
207	0x3d99999a	0.075
208	0x3d99999a	0.075
209	0x3d99999a	0.075
210	0x3d99999a	0.075
211	0x3d99999a	0.075
212	0x3d99999a	0.075
213	0x3d99999a	0.075
214	0x3d99999a	0.075
215	0x3d99999a	0.075
216	0x3d99999a	0.075
217	0x3d99999a	0.075
218	0x3d99999a	0.075
219	0x3d99999a	0.075
220	0x3d99999a	0.075
221	0x3d99999a	0.075
222	0x3d99999a	0.075
223	0x3d99999a	0.075
224	0x3d99999a	0.075
225	0x3d99999a	0.075
226	0x3d99999a	0.075
227	0x3d99999a	0.075
228	0x3d99999a	0.075
229	0x3d99999a	0.075
230	0x3d99999a	0.075
231	0x3d99999a	0.075
232	0x3d99999a	0.075
233	0x3d99999a	0.075
234	0x3d99999a	0.075
235	0x3d99999a	0.075
236	0x3d99999a	0.075
237	0x3d99999a	0.075
238	0x3d99999a	0.075
239	0x3d99999a	0.075
240	0x3d99999a	0.075
241	0x3d99999a	0.075
242	0x3d99999a	0.075
243	0x3d99999a	0.075
244	0x3d99999a	0.075
245	0x3d99999a	0.075
246	0x3d99999a	0.075
247	0x3d99999a	0.075
248	0x3d99999a	0.075
249	0x3d99999a	0.075
250	0x3d99999a	0.075
251	0x3d99999a	0.075
252	0x3d99999a	0.075
253	0x3d99999a	0.075
254	0x3d99999a	0.075
255	0x3d99999a	0.075

final_layer.bias_mu f4 [32]
0	0x3d4346f8	0.047675103
1	0xbd8a793e	-0.06761406
2	0x3decca28	0.11561996
3	0xbc556010	-0.013023391
4	0x3dc00984	0.09376815
5	0x3d00d0d4	0.031449154
6	0x3cac6f50	0.021049172
7	0xbd456000	-0.048187256
8	0x3df01438	0.117226064
9	0xbdacceba	-0.084378675
10	0x3dca2d74	0.09871951
11	0x3cbae070	0.022812098
12	0x3c2da9c0	0.010599554
13	0xbde93072	-0.11386193
14	0xbd973df4	-0.073848635
15	0xbdbb8972	-0.09157075
16	0x3da718d0	0.081590295
17	0xbdfb0fba	-0.12258859
18	0x3d5cb374	0.053882077
19	0x3dc857c0	0.09782362
20	0x3d023808	0.031791717
21	0xbd61a368	-0.055087477
22	0x3df9e786	0.12202363
23	0xbdd335b0	-0.103129745
24	0x3dca2224	0.09869793
25	0x3de6b2d2	0.11264576
26	0xbd4bf644	-0.049795404
27	0xbdb3e878	-0.08784574
28	0x3bcfe8a0	0.0063448697
29	0xbd9d21c6	-0.076724574
30	0x3de0a014	0.109680325
31	0xbd5f0b28	-0.054454

final_layer.bias_sigma f4 [32]
0	0x3dd93924	0.10606602
1	0x3dd93924	0.10606602
2	0x3dd93924	0.10606602
3	0x3dd93924	0.10606602
4	0x3dd93924	0.10606602
5	0x3dd93924	0.10606602
6	0x3dd93924	0.10606602
7	0x3dd93924	0.10606602
8	0x3dd93924	0.10606602
9	0x3dd93924	0.10606602
10	0x3dd93924	0.10606602
11	0x3dd93924	0.10606602
12	0x3dd93924	0.10606602
13	0x3dd93924	0.10606602
14	0x3dd93924	0.10606602
15	0x3dd93924	0.10606602
16	0x3dd93924	0.10606602
17	0x3dd93924	0.10606602
18	0x3dd93924	0.10606602
19	0x3dd93924	0.10606602
20	0x3dd93924	0.10606602
21	0x3dd93924	0.10606602
22	0x3dd93924	0.10606602
23	0x3dd93924	0.10606602
24	0x3dd93924	0.10606602
25	0x3dd93924	0.10606602
26	0x3dd93924	0.10606602
27	0x3dd93924	0.10606602
28	0x3dd93924	0.10606602
29	0x3dd93924	0.10606602
30	0x3dd93924	0.10606602
31	0x3dd93924	0.10606602

final_layer.weight_epsilon f4 [32, 64]
0	0x3f5054ec	0.8137958
1	0xbfc5e138	-1.5459356
2	0xbf8dff56	-1.1093547
3	0xbf0c52a4	-0.548136
4	0xbf8bf56e	-1.0934274
5	0x3fb65671	1.424513
6	0xbf93ad59	-1.1537277
7	0xbf4a0fd5	-0.7893041
8	0xbf21308a	-0.6296469
9	0x3f8f38a0	1.1189156
10	0xbfafea2f	-1.3743342
11	0x3f9bdc83	1.217667
12	0xbfc1d3b2	-1.5142729
13	0x3f8139f7	1.0095814
14	0xbfa8fa0f	-1.3201312
15	0xbf05ea27	-0.52310413
16	0xbfac7b34	-1.3475099
17	0x3fca7dec	1.5819678
18	0x3f8fb2f6	1.122649
19	0x3f49b576	0.7879251
20	0xbeddd228	-0.433244
21	0x3f06f1a7	0.5271248
22	0xbf305dc7	-0.6889309
23	0x3fbc5d30	1.4715939
24	0xbfad600e	-1.3544939
25	0xbfc4a9a4	-1.536427
26	0x3eda7f92	0.42675453
27	0xbfab14f8	-1.3365774
28	0x3f471e16	0.7778028
29	0xbf93101d	-1.1489292
30	0x3feecc97	1.8656186
31	0x3f2c7f9d	0.6738222
32	0x3fd3e2aa	1.6553547
33	0x401535c7	2.3314073
34	0xbfd1fe34	-1.6405702
35	0x3fa1d880	1.2644196
36	0x3fd0a973	1.6301712
37	0x3fab460e	1.3380754
38	0x3f7df155	0.9919637
39	0xbfb3fbb3	-1.4061188
40	0xbf6d2671	-0.9263678
41	0x3f82cdbb	1.0219034
42	0xbf881694	-1.063189
43	0xbfd082fa	-1.6289971
44	0xbf5948ec	-0.84876895
45	0xbfb7b4e1	-1.4352075
46	0xbf50d341	-0.8157235
47	0x3e9b179a	0.30291444
48	0xbfde36f5	-1.7360522
49	0xbfc23f55	-1.5175577
50	0x3fd2181e	1.641361
51	0xbfce6358	-1.6124067
52	0x3e785f28	0.24255049
53	0xbfd1b00d	-1.6381851
54	0xbef9ec99	-0.48813322
55	0x3fbabb3a	1.4588387
56	0x3f86df1f	1.0536841
57	0xbebbda1b	-0.3668984
58	0x400bf1ae	2.186626
59	0x3fa59677	1.2936543
60	0x3fb38e3b	1.402778
61	0xbf2ba7b6	-0.6705278
62	0x3fd9c105	1.701203
63	0x3f1a2d15	0.6022504
64	0xbf34eaf6	-0.7067102
65	0x3fabd758	1.3425093
66	0x3f769fe3	0.9633772
67	0x3ef3b751	0.47600797
68	0x3f73156d	0.9495457
69	0xbf9e5820	-1.2370644
70	0x3f803e9f	1.001911
71	0x3f2f7915	0.6854413
72	0x3f0bfaa1	0.54679304
73	0xbf78c004	-0.9716799
74	0x3f98c43c	1.1934886
75	0xbf875a17	-1.0574368
76	0x3fa85259	1.315013
77	0xbf607190	-0.8767328
78	0x3f92bdd4	1.1464181
79	0x3ee89613	0.45426998
80	0x3f95c8ea	1.1701939
81	0xbfafd8af	-1.3738002
82	0xbf79947d	-0.974922
83	0xbf2f2a9a	-0.6842438
84	0x3ec0a1ca	0.37623435
85	0xbeea5fbc	-0.45776165
86	0x3f19289e	0.598276
87	0xbfa393de	-1.27795
88	0x3f968fa7	1.1762589
89	0x3faac8c4	1.3342519
90	0xbebdbf21	-0.37059882
91	0x3f9491d2	1.1607001
92	0xbf2cea84	-0.6754534
93	0x3f7f6c2a	0.9977442
94	0xbfcf6049	-1.6201259
95	0xbf15ccbf	-0.5851554
96	0xbfb800fe	-1.4375303
97	0xc001936a	-2.0246224
98	0x3fb65c47	1.4246911
99	0xbf8c8c7d	-1.0980374
100	0xbfb5345d	-1.4156605
101	0xbf94bc73	-1.162001
102	0xbf5c86e6	-0.8614334
103	0x3f9c4cb2	1.2210906
104	0x3f4df1b0	0.8044691
105	0xbf632ed5	-0.88743335
106	0x3f6c5c7e	0.9232863
107	0x3fb512f4	1.4146409
108	0x3f3cb15c	0.7370813
109	0x3f9f8873	1.2463516
110	0x3f3558aa	0.70838416
111	0xbe86af17	-0.26305458
112	0x3fc0f953	1.5076088
113	0x3fa8afd2	1.3178656
114	0xbfb672c8	-1.4253778
115	0x3fb33adb	1.4002336
116	0xbe57b063	-0.2106338
117	0x3fb61869	1.4226199
118	0x3ed90988	0.42390084
119	0xbfa228e8	-1.2668734
120	0xbf6a3f8c	-0.91503215
121	0x3ea32208	0.318619
122	0xbff30eea	-1.8988926
123	0xbf8fcc65	-1.1234251
124	0xbf9beda3	-1.2181896
125	0x3f151141	0.5822945
126	0xbfbd19a7	-1.4773453
127	0xbf05e36e	-0.52300155
128	0xbe3cf02e	-0.18450996
129	0x3eb3758e	0.35050625
130	0x3e80c767	0.25152132
131	0x3dfe853b	0.124277554
132	0x3e7ddc29	0.24791016
133	0xbea55d29	-0.32297638
134	0x3e85ee0f	0.26158187
135	0x3e374082	0.17895702
136	0x3e122f3c	0.14275831
137	0xbe81e387	-0.25368902
138	0x3e9f89f8	0.3115995
139	0xbe8d5a30	-0.2760787
140	0x3eafc89d	0.34332743
141	0xbe6a64c1	-0.22889997
142	0x3e993f2f	0.29931018
143	0x3df2e5ad	0.118602134
144	0x3e9c6ccf	0.30551764
145	0xbeb7a459	-0.35867575
146	0xbe825279	-0.25453547
147	0xbe36ee8d	-0.17864437
148	0x3dc92bf3	0.09822836
149	0xbdf4c39f	-0.11951374
150	0x3e1ff2cd	0.15619965
151	0xbeaad44b	-0.33365092
152	0x3e9d3c5b	0.3071011
153	0x3eb25afb	0.34835038
154	0xbdc6288c	-0.096757025
155	0x3e9b27ec	0.30303895
156	0xbe3494ed	-0.17634936
157	0x3e855f77	0.26049396
158	0xbed891c7	-0.4229872
159	0xbe1c70d0	-0.1527741
160	0xbec0293c	-0.3753146
161	0xbf0751f5	-0.5285943
162	0x3ebe71df	0.37196252
163	0xbe92c790	-0.2866788
164	0xbebd3cd7	-0.3696048
165	0xbe9b5471	-0.3033786
166	0xbe664da3	-0.22490554
167	0x3ea33a87	0.3188059
168	0x3e5712ed	0.21003313
169	0xbe6d411c	-0.23169369
170	0x3e76d6ef	0.24105428
171	0x3ebd19f2	0.36933857
172	0x3e450ed1	0.19243933
173	0x3ea69afa	0.32540113
174	0x3e3d62c0	0.18494701
175	0xbd8ca79b	-0.06867906
176	0x3ec9875e	0.3936109
177	0x3eb02a3b	0.3440722
178	0xbebe895f	-0.3721418
179	0x3ebb2ceb	0.36557707
180	0xbd614039	-0.054992888
181	0x3ebe2afe	0.37142175
182	0x3de2a8aa	0.11067326
183	0xbea9593e	-0.330759
184	0xbe74a202	-0.23889926
185	0x3daa5d6a	0.083185986
186	0xbefdd55c	-0.49576843
187	0xbe962c5a	-0.29330713
188	0xbea2d740	-0.31804848
189	0x3e1bad01	0.15202715
190	0xbec57bbc	-0.38570964
191	0xbe0bd2eb	-0.13654678
192	0x3f26cb03	0.6515352
193	0xbf9e6ccf	-1.2376956
194	0xbf635eae	-0.88816345
195	0xbee0b03d	-0.4388446
196	0xbf601afd	-0.8754118
197	0x3f91fb59	1.140483
198	0xbf6c76e0	-0.9236889
199	0xbf21c5f5	-0.63192683
200	0xbf010ce9	-0.50410324
201	0x3f655454	0.895818
202	0xbf8cd6f0	-1.1003094
203	0x3f7991b5	0.97487956
204	0xbf9b2e28	-1.2123461
205	0x3f4eebae	0.8082837
206	0xbf8748f3	-1.0569137
207	0xbed66d72	-0.41880375
208	0xbf8a1736	-1.0788333
209	0x3fa21e18	1.2665434
210	0x3f661835	0.89880687
211	0x3f217d9b	0.63082284
212	0xbeb197b6	-0.3468606
213	0x3ed81360	0.42202282
214	0xbf0d337b	-0.5515668
215	0x3f96ce7e	1.1781766
216	0xbf8ace6f	-1.0844249
217	0xbf9d735b	-1.2300829
218	0x3eaeeeb9	0.34166506
219	0xbf88f868	-1.0700808
220	0x3f1f6a7f	0.62271875
221	0xbf6b7b1d	-0.9198473
222	0x3fbf2f86	1.4936378
223	0x3f0a1abf	0.5394706
224	0x3fa9a35d	1.325298
225	0x3feeeb3f	1.8665541
226	0xbfa81f7f	-1.3134612
227	0x3f819362	1.0123103
228	0x3fa70eb0	1.3051357
229	0x3f891fb5	1.0712801
230	0x3f4b4f4b	0.79417866
231	0xbf9018c9	-1.1257564
232	0xbf3ddd8c	-0.7416618
233	0x3f517232	0.81814873
234	0xbf59e869	-0.85120255
235	0xbfa6efe2	-1.3041956
236	0xbf2df604	-0.67953515
237	0xbf9313ea	-1.1490452
238	0xbf273027	-0.6530785
239	0x3e785669	0.24251713
240	0xbfb1e86a	-1.3899052
241	0xbf9b8455	-1.214976
242	0x3fa8343e	1.3140943
243	0xbfa53ca5	-1.2909132
244	0x3e46d97a	0.19418898
245	0xbfa7e0ed	-1.3115517
246	0xbec817ad	-0.39080563
247	0x3f957fde	1.1679647
248	0x3f57f5b3	0.8435928
249	0xbe96658b	-0.29374346
250	0x3fe014fc	1.7506404
251	0x3f849257	1.0357159
252	0x3f8fc125	1.1230818
253	0xbf096de3	-0.536833
254	0x3fae562b	1.3620046
255	0x3ef6dee3	0.48216924

final_layer.bias_epsilon f4 [32]
0	0xbfb7c239	-1.4356147
1	0x3f9f940a	1.2467053
2	0x3ea6a714	0.32549345
3	0xbf931e99	-1.1493713
4	0xbee971fe	-0.45594782
5	0xbf20b8b6	-0.62781847
6	0xbf96acfd	-1.1771542
7	0xbea405a8	-0.32035565
8	0xbf4079e9	-0.7518602
9	0xbe7e7144	-0.24847895
10	0x3fa336a1	1.2751046
11	0xbf7d5d45	-0.98970443
12	0x3f36ffcd	0.7148407
13	0xbf161b6c	-0.5863559
14	0x3fa270d0	1.2690678
15	0xbf8f2b2c	-1.118505
16	0x3f763cb1	0.9618636
17	0x3f5d9402	0.86553967
18	0x3e8128a6	0.25226325
19	0x3f0eb1f4	0.55740285
20	0x3fae62df	1.3623923
21	0xbf35abf0	-0.7096548
22	0x3f0fddd6	0.5619787
23	0xbf0ccf61	-0.55003935
24	0xbfcf3971	-1.6189405
25	0xbfb439fe	-1.4080198
26	0xbf88a5da	-1.0675614
27	0x3edf6a85	0.43635955
28	0xbf270ebb	-0.6525685
29	0x3eb50837	0.3535783
30	0x3f712bd2	0.9420749
31	0xbee93ea1	-0.45555595

out1.weight_mu f4 [51, 32]
0	0x3e5461f2	0.20740488
1	0x3dcddd9e	0.10052036
2	0xbdb2d2f1	-0.0873164
3	0x3f2af33e	0.6677741
4	0xbea9f7d7	-0.331969
5	0xbf9514d4	-1.1646981
6	0x3e6117b0	0.21981692
7	0x3b880c90	0.004151888
8	0xbf09f210	-0.53884983
9	0xbe889e4b	-0.26683268
10	0x3e917f72	0.28417546
11	0x3e31f74d	0.17379494
12	0xbec9158b	-0.39274248
13	0xbf55c9ed	-0.8351124
14	0xbe224f8f	-0.15850662
15	0x3e65362d	0.22383948
16	0xbf42a34e	-0.76030433
17	0xbeee6e8b	-0.46568713
18	0xbedb9b92	-0.42892128
19	0x3e851c5b	0.25998196
20	0xbf0db78e	-0.5535821
21	0x3e015c74	0.12632924
22	0x3cd20d62	0.025641147
23	0x3ca454c6	0.020059954
24	0x3ed6d61a	0.41960222
25	0x3ddd4fc3	0.10806229
26	0x3f04b5c0	0.5183983
27	0x3f81a099	1.0127136
28	0x3f3c56bc	0.73569846
29	0xbeeab926	-0.45844382
30	0x3e0b9ea4	0.13634735
31	0xbf4f727a	-0.8103405
32	0x3ead0e7b	0.3380011
33	0x3ee9aadd	0.4563817
34	0x3f5f8a7b	0.8732068
35	0x3eacb8dd	0.3373479
36	0xbf03c635	-0.51474315
37	0xbf0efd6e	-0.55855453
38	0x3f556d9c	0.83370376
39	0x3ea8b216	0.3294837
40	0x3e89d54f	0.26920554
41	0x3e61b14b	0.22040288
42	0x3f41ce35	0.7570527
43	0x3e908041	0.2822285
44	0xbd8f535c	-0.069983214
45	0xbf79b653	-0.9754383
46	0x3e4ad654	0.19808322
47	0x3f675ee3	0.9037916
48	0xbf7d66a7	-0.9898476
49	0xbf17daf7	-0.5931849
50	0x3ec4bed0	0.38426828
51	0x3f746fcc	0.9548309
52	0xbf099565	-0.5374358
53	0x3eef7761	0.46770766
54	0xbb70ce40	-0.0036744028
55	0x3e9ad945	0.30243888
56	0x3f4f2e2b	0.8092982
57	0x3f83c7ec	1.0295386
58	0x3f2f9a57	0.6859488
59	0x3edd8663	0.4326659
60	0x3f113dc3	0.56734866
61	0x3df3d6c9	0.119062014
62	0x3ee3355f	0.44376656
63	0xbf14b0fb	-0.5808255
64	0xbf4d2946	-0.80141103
65	0xbf7a2273	-0.97708815
66	0xbed8a23e	-0.4231128
67	0x3e62a085	0.22131546
68	0xbeda3ef8	-0.42626166
69	0xbf51580d	-0.8177498
70	0xbf3bc393	-0.733453
71	0xbf6b3001	-0.91870123
72	0xbc25845c	-0.010102358
73	0x3f10b9e0	0.5653362
74	0xbf0056ec	-0.5013263
75	0x3f811adf	1.0086325
76	0xbe41f1fb	-0.18939964
77	0x3f18052b	0.59382886
78	0xbd2a1ce4	-0.04153146
79	0x3f346c73	0.7047798
80	0xbe5ebca1	-0.21751644
81	0xbcc03915	-0.023464719
82	0x3e2b3ac5	0.16721638
83	0xbe922e27	-0.28550836
84	0xbedc519e	-0.4303102
85	0x3f0e2edb	0.55540246
86	0xbe261fc5	-0.16223057
87	0xbfa3e124	-1.2803082
88	0xbf49b0cc	-0.78785396
89	0x3e1789fc	0.1479873
90	0x3f1f763d	0.6228979
91	0x3ec734c9	0.3890746
92	0xbdc9c623	-0.09852245
93	0xbe0442b0	-0.12916064
94	0xbf837f31	-1.0273191
95	0xbd2153d7	-0.039386597
96	0xbf3ff5fd	-0.74984723
97	0xbf5e085a	-0.86731493
98	0xbe64d825	-0.22348078
99	0x3e8f8612	0.28031975
100	0xbe22f409	-0.15913405
101	0xbf804f60	-1.0024223
102	0x3d8d2d62	0.06893422
103	0xbf825394	-1.0181756
104	0x3e61f19e	0.22064826
105	0x3f461113	0.77369803
106	0xbde81537	-0.113321714
107	0x3f200c44	0.62518716
108	0x3c7348e0	0.014848918
109	0x3e125f37	0.14294134
110	0xbdfe4aed	-0.12416635
111	0x3f192b4c	0.5983169
112	0xbe2f04b7	-0.17091642
113	0xbf0e79ec	-0.5565479
114	0x3e385c44	0.18003947
115	0x3e24c340	0.16090107
116	0xbec64575	-0.38724867
117	0x3eead904	0.45868695
118	0xbe12c71e	-0.1433377
119	0xbf87c4a0	-1.060688
120	0xbe9e5c5a	-0.30929834
121	0x3ec7ab5b	0.3899792
122	0x3f60f8b4	0.8787949
123	0x3d2bac76	0.04191252
124	0x3e6724f2	0.22572687
125	0x3e2b190c	0.16708773
126	0xbf813bc5	-1.0096365
127	0xbe29a15f	-0.16565464
128	0xbf3f3087	-0.7468342
129	0xbf5cdee5	-0.8627761
130	0x3ec96c8a	0.3934062
131	0x3d36a214	0.044588163
132	0xbe451ba9	-0.19248833
133	0xbfa30297	-1.2735165
134	0xbe832d19	-0.25620344
135	0xbf0ec978	-0.55776167
136	0x3e44e878	0.19229305
137	0x3f0805a9	0.53133637
138	0xbe8a5922	-0.27021128
139	0x3f3eb48d	0.7449425
140	0x3e77512b	0.24152057
141	0xbeeb84f2	-0.45999867
142	0xbc6a28cc	-0.014291953
143	0x3f0d39fb	0.55166596
144	0xbe378f0f	-0.17925666
145	0xbf39b211	-0.7253733
146	0x3e6acaee	0.22928974
147	0xbdbb846d	-0.091561176
148	0xbef08e01	-0.4698334
149	0x3ea9ef01	0.33190158
150	0xbd39adc7	-0.045331743
151	0xbf702abe	-0.9381522
152	0xbf380019	-0.7187515
153	0x3ec31ca4	0.3810779
154	0x3eb688ee	0.35651344
155	0x3c2d8ff9	0.010593408
156	0x3e0ccb18	0.13749349
157	0x3e9a555d	0.30143252
158	0xbface471	-1.3507215
159	0x3e3a766b	0.18209235
160	0xbf010937	-0.50404686
161	0xbf0d3cb1	-0.5517073
162	0x3f2a4b2b	0.6652095
163	0xbefd206a	-0.49438792
164	0xbe81157b	-0.252117
165	0xbf70122f	-0.93777746
166	0x3d3f5a39	0.046716902
167	0xbf2631f4	-0.6491997
168	0x3eaac591	0.33353856
169	0x3f41e37f	0.75737756
170	0xbf31e130	-0.69484234
171	0x3f952f11	1.1654989
172	0x3e78c3a1	0.24293377
173	0xbf18baf8	-0.5966029
174	0xbe0f8cbe	-0.14018533
175	0xbd053e0c	-0.032529876
176	0x3f05168a	0.51987517
177	0xbf3c6585	-0.73592407
178	0xbe0f55be	-0.13997552
179	0xbf065672	-0.52475655
180	0xbef567c9	-0.47930744
181	0x3ec4bd96	0.38425893
182	0xbe3b6432	-0.1829994
183	0xbf8d1322	-1.1021464
184	0xbf0cf54a	-0.5506178
185	0x3ef73a55	0.4828669
186	0x3f1498db	0.5804574
187	0xbe711bdb	-0.23545782
188	0xbec654b0	-0.38736486
189	0x3ef3e379	0.47634485
190	0xbfc94c8b	-1.5726484
191	0x3ec46fce	0.3836655
192	0xbf32d735	-0.6985963
193	0xbf33eff8	-0.7028804
194	0x3f318dec	0.6935718
195	0xbe84dc5a	-0.25949365
196	0x3e1b0bdc	0.15141243
197	0xbf7b5711	-0.9817973
198	0xbe1bdd8a	-0.15221229
199	0xbf544a7a	-0.8292614
200	0x3f1f4dc9	0.62228066
201	0x3f96cc9d	1.1781193
202	0xbc8867a1	-0.016650977
203	0x3f4b87ee	0.7950429
204	0x3ef2533d	0.4732913
205	0xbef33c89	-0.47507122
206	0xbcfd9883	-0.030956512
207	0xbcc164d5	-0.02360765
208	0x3ea64c14	0.32479918
209	0xbf8b5206	-1.0884407
210	0x3cf70a98	0.030156419
211	0x3e107047	0.1410533
212	0xbe890745	-0.2676336
213	0x3dd26145	0.10272459
214	0xbebb87b0	-0.3662696
215	0xbf0c8776	-0.54894197
216	0xbf51fdec	-0.8202808
217	0x3eb86d08	0.36020684
218	0x3e8c7da2	0.274396
219	0xbec3467a	-0.38139707
220	0x3eb0c619	0.34526137
221	0x3e8dfa10	0.27729845
222	0xbf74b4f8	-0.95588636
223	0x3f378755	0.71690875
224	0xbf8c04e6	-1.0938995
225	0xbf3f3628	-0.7469201
226	0xbe127fa7	-0.14306508
227	0xbf6d70c2	-0.9275018
228	0xbeaef5a8	-0.34171796
229	0xbf123c18	-0.57122946
230	0xbedf1ddf	-0.43577477
231	0xbee882d0	-0.45412302
232	0x3e98e5dd	0.29862872
233	0x3f3b28af	0.73108953
234	0xbf910ee1	-1.1332666
235	0x3f688591	0.90828806
236	0xbdb17ff1	-0.08666981
237	0xbe318541	-0.17335989
238	0xbf22a056	-0.63525903
239	0x3e8716e1	0.26384643
240	0x3e0410c0	0.12897015
241	0xbe8ca93a	-0.2747286
242	0x3e569e3f	0.20958804
243	0xbece9c12	-0.40353447
244	0xbea113d9	-0.31460455
245	0x3ea76975	0.32697645
246	0xbed8d341	-0.42348674
247	0xbface8d5	-1.3508555
248	0xbfa7155e	-1.3053396
249	0xbd71ad4f	-0.05900317
250	0x3ea55842	0.32293898
251	0xbe03e8df	-0.12881802
252	0xbea2f6bb	-0.31828865
253	0xbdbb84e8	-0.09156209
254	0xbfcbd8c2	-1.5925524
255	0x3eaf28b1	0.34210733
