turtlebot3_dqn/save_model/stage_1_160.pth (torch_old, 164553 bytes, 22 tensors)

feature_layer.0.weight f4 [64, 26]
000000 56 8e 77 3d 09 51 2a be 5b 54 12 bf 0f 78 41 be
       0.060438477 -0.16632475 -0.57159966 -0.18893455
000010 65 48 18 bc 26 19 4d 3e 2c 2f 41 3d 94 a9 15 3c
       -0.009294604 0.20029125 0.047164127 0.009134669
000020 0a 04 44 3e f2 9d 2a bd f2 79 23 bc 11 9b 82 bd
       0.19142166 -0.041654535 -0.0099778045 -0.06377233
000030 18 66 68 be 2f 2c d0 bd b5 97 0f bd e4 b0 4c bc
       -0.22695196 -0.10164677 -0.03505679 -0.012493346
000040 ed 75 a7 3d bf 45 d2 bd f3 02 69 3e ca 92 25 3e
       0.081767894 -0.10267209 0.22755031 0.16169277
000050 75 27 81 3e 77 62 62 3e 78 25 9a 3e d7 27 81 bd
       0.25225416 0.22107874 0.3010671 -0.06306427
000060 8b 96 c7 be eb c9 da 3d 18 81 2f be 92 17 3a be
       -0.38982043 0.10683044 -0.17139089 -0.18173054
000070 50 f0 98 be 62 fa d0 bc 57 5f 27 3e a6 c0 7d bc
       -0.29870844 -0.025510017 0.16344963 -0.0154878255
000080 4f 25 f3 bd b9 7f fd 3d 7a e3 8e 3d b3 d4 a6 3d
       -0.118723504 0.12377877 0.069769815 0.08146038
000090 1e 85 0c 3e fb 52 9d 3e 9f fa b9 3d 1f 60 45 3d
       0.13722655 0.30727372 0.09081005 0.04818737
0000a0 17 a1 06 3e 3e f2 93 3e e5 ff 92 3d 5f f9 87 bd
       0.13147388 0.28895754 0.07177714 -0.06639361
0000b0 e1 97 b6 bd d8 66 8e be df 0f 6e be 71 e4 9f be
       -0.08915687 -0.2781284 -0.23248242 -0.31228974
0000c0 c4 73 7d be ef c4 9f be 35 82 80 3e 9b 5e aa 3e
       -0.24751192 -0.31204936 0.2509934 0.33275303
0000d0 6c 1d 52 be d0 2c 7c be a8 71 ce bd 92 d6 81 3e
       -0.20519036 -0.2462647 -0.10080272 0.25359017
0000e0 2b c9 82 3e d8 e9 29 3e 9b ed 49 3e f5 34 98 3d
       0.25544104 0.1659311 0.19719546 0.07431976
0000f0 ba 9a 86 bd 65 48 a1 bd e6 c6 a4 bd 43 a9 a1 ba
       -0.065724805 -0.07875136 -0.08045749 -0.0012333769
000100 95 69 4f be 43 a2 b0 bd 0e 2a b1 bd 20 af 64 bd
       -0.2025512 -0.08624699 -0.086505994 -0.055831075
000110 c3 a8 04 3d 63 8a a7 3e c9 50 55 3e fc dd 21 3e
       0.032387506 0.32722768 0.20831598 0.15807337
000120 5c 46 ae 3d 9e 65 74 3c 0a 7c f4 be 7c ef ad be
       0.08509514 0.014916806 -0.47750884 -0.33971775
000130 eb a6 a6 3e 1a 93 94 3d dd 69 e6 bd f7 55 3f be
       0.32549223 0.0725462 -0.112506606 -0.18685137
000140 c3 29 06 be ad 95 90 be 52 fb 13 be ef d4 12 be
       -0.13101868 -0.28239194 -0.1445134 -0.1433904
000150 d8 67 cf bd c2 ab ad bd ff 96 d2 bd aa 5b cd 3d
       -0.101272285 -0.08480026 -0.102827065 0.10027249
000160 e6 c4 37 bc 45 bc 1a be 18 e6 e8 bc 76 3c f5 3c
       -0.011216378 -0.15110882 -0.02843003 0.029936057
000170 cf ad 3d 3e 42 a4 50 3e 4f 3b 08 3e 64 d8 1f 3d
       0.18523334 0.2037516 0.13303874 0.039024726
000180 bc 18 e9 3c ca e8 2c be 64 c3 e4 bb 00 82 84 be
       0.028454177 -0.16885677 -0.0069813 -0.25880432
000190 5b 8f af be 8e 31 c1 be f1 14 0c 3f b5 e3 bc 3e
       -0.3428906 -0.3773312 0.54719454 0.36892477
0001a0 df e3 d0 bd 91 a5 1e bf 91 54 c1 bd a5 72 99 be
       -0.10199713 -0.61971384 -0.09439958 -0.2997028
0001b0 a0 50 e5 3e 7b fb 26 3e b6 11 0c 3e 67 9f 1c 3d
       0.44788074 0.1630687 0.13678631 0.038237955
0001c0 7f eb d3 3c 3f 1d 51 3d 59 41 e1 3b cf c5 3c be
       0.02586913 0.051053282 0.006874245 -0.18434833
0001d0 c0 c6 e6 3d e2 97 cf 3c fb 80 3b be 93 5c 19 be
       0.11268377 0.025340978 -0.18310921 -0.1497672
0001e0 31 18 2f be ac 6b a0 3d ef f7 b5 bd 5d 5d 2f bd
       -0.17099072 0.07833037 -0.0888518 -0.042813648
0001f0 5e ee b1 3d 40 90 ba 3e 6a 54 49 3d 3a 26 9e be
       0.08688043 0.3643818 0.04915277 -0.3088854
000200 01 78 f3 bb 10 55 dc bd 2f 4f bd 3d 99 33 1c 3e
       -0.007430077 -0.10758412 0.09243619 0.15254058
000210 fc 43 a0 bc 4b 77 47 bd 65 18 6d 3d 39 71 e2 bd
       -0.019563667 -0.04869775 0.057884593 -0.11056752
000220 98 0f c0 bd 4c f9 04 be 5e 5b 26 be 1d 19 3e be
       -0.09377974 -0.12985724 -0.16245791 -0.18564267
000230 4f cf 29 bd 49 44 9d bd 28 cd ad 3d 40 bf 50 3d
       -0.04145747 -0.0767904 0.08486396 0.05096364
000240 fb b0 b0 bd 6e 9f 4d bd b5 5f 86 3b a7 0b 9b 3e
       -0.08627506 -0.050200872 0.0041007646 0.30282328
000250 ce 47 86 3e ee ef 4a 3d 18 ff 49 3d c6 ed 10 3e
       0.26226658 0.04954522 0.049315542 0.14153203
000260 c8 8f 2a 3e d7 12 41 be 11 7c 2f bf e2 20 13 3e
       0.1665641 -0.18854843 -0.68548685 0.14368013
000270 19 3e a2 be 61 b4 c7 be 22 dd d7 3d 7f d2 02 3e
       -0.31688002 -0.39004806 0.105402246 0.1277561
000280 7e 9a 75 3d 9d d9 4b 3e f1 09 0b 3e 54 9c 18 bc
       0.05996179 0.19907232 0.13578011 -0.009314615
000290 b9 d1 d8 3d eb d9 12 bc 7f 54 27 be 91 09 f2 bc
       0.105868764 -0.0089630885 -0.16340826 -0.029545577
0002a0 af 60 15 be 3e 91 88 be f1 9f a0 be b8 c8 9d be
       -0.14587663 -0.2667331 -0.31372026 -0.308172
0002b0 ef be ae 3c aa 6a 05 3e b5 d3 92 3e 18 2b a5 3e
       0.021331279 0.1302897 0.28677145 0.3225944
0002c0 82 4e 29 3d 26 30 29 3e a5 5a 11 3e f1 20 50 be
       0.041334637 0.16522273 0.14194734 -0.20325066
0002d0 c3 d1 40 3e 28 2f 67 bf 0d 8f 88 be c8 5b 88 be
       0.18830018 -0.9030633 -0.2667164 -0.26632524
0002e0 bd 68 99 3d 03 2d 03 3e ef 8c 85 be aa 12 db bd
       0.0749068 0.1281014 -0.26084086 -0.10696919
0002f0 d2 f2 59 bd 1a 1b 0b bd e9 27 81 be 65 bc 03 be
       -0.053210087 -0.033961393 -0.25225762 -0.12864836
000300 e2 80 3a bd 24 6f fc 3b f6 74 d8 3b 3a cf 41 bd
       -0.04553307 0.0077036787 0.0066057397 -0.047316767
000310 15 c3 2c 3d b1 d3 84 3d c0 86 d0 3c 03 f7 52 be
       0.042178232 0.064856894 0.025454879 -0.2060204
000320 18 9f 4c be 2f 61 40 be 9f 9e 41 be 15 04 94 be
       -0.19982564 -0.18787073 -0.18908165 -0.28909364
000330 d2 2e c0 be 53 12 9b bd f9 84 c7 3e c1 19 f3 3e
       -0.3753572 -0.075718544 0.38968638 0.47480586
000340 75 29 80 bd 11 6d 8e be 4e 02 09 be 47 4f 99 be
       -0.06257907 -0.27817586 -0.13379785 -0.29943296
000350 88 80 ed be 2b 65 09 be 6a 61 1b be b8 36 ba be
       -0.46387124 -0.13417499 -0.1517388 -0.36369872
000360 e6 63 a4 bd 67 ff 2a 3e d2 55 ce 3c 0a eb 97 bd
       -0.080268666 0.16698991 0.025187407 -0.07417877
000370 15 cb 53 3d d1 3f 99 3d 97 bb 87 3a 86 3d 48 3d
       0.051707346 0.07482875 0.0010355589 0.0488868
000380 2e 5c cc bd 0e 16 8d bc b7 f1 3d 3e 33 cd a2 3e
       -0.099785194 -0.01722243 0.18549238 0.3179718
000390 84 4f 2a 3e 41 ed 7d bc 2e 17 1e be d2 58 50 be
       0.16631895 -0.01549846 -0.1543853 -0.20346382
0003a0 c1 97 fb 3e bf 1f d4 bd 82 3b 37 3d ab d2 fd 3d
       0.49139217 -0.103576176 0.044734485 0.12393697
0003b0 58 19 39 3d 17 ed f4 3d 45 67 61 3d 56 6d 04 3d
       0.045190185 0.11959284 0.055030126 0.032330833
0003c0 44 ce 5e be 02 e0 0b bd 47 a1 cb bd e3 40 3b bb
       -0.21758372 -0.034149177 -0.099428706 -0.002857261
0003d0 9a 4f fa bd 9a bb 5e be 57 9b 3f be 4e 44 0a be
       -0.12222214 -0.21751252 -0.18711601 -0.13502619
0003e0 80 0b 81 bd fe e0 5d be 3b 78 b9 bd e4 9e 16 be
       -0.063010216 -0.21667859 -0.09056135 -0.1470905
0003f0 2d 97 f9 bd 86 92 41 bd 8d 95 90 3e 50 93 99 3d
       -0.121870376 -0.047258876 0.28239098 0.07498801

feature_layer.0.bias f4 [64]
000000 e2 55 22 be 14 07 87 bd 00 96 5a bd 33 46 f7 3d
       -0.15853074 -0.06593147 -0.053365707 0.12073936
000010 f7 84 82 3d 85 fc b3 be bf 1d 2b 3d cf 2f 29 bd
       0.06373017 -0.35153595 0.041776415 -0.04130536
000020 c6 a5 12 3e ac 35 08 3e df 60 47 bd 30 62 5b be
       0.1432105 0.13301724 -0.048676368 -0.21424174
000030 09 50 d5 3d 5c 12 99 be b6 d8 19 3d 95 9d 33 3e
       0.10415656 -0.2989682 0.037560187 0.17540582
000040 a4 93 32 be 54 18 6d 3d 72 ba 34 3e d3 f8 cf bc
       -0.17439133 0.05788453 0.17649248 -0.025387203
000050 77 69 34 be 6c 27 46 be d7 85 82 3d 8f bf ad bc
       -0.17618357 -0.19350976 0.06373184 -0.021209506
000060 e8 10 a0 bd a5 f1 fe bd 2b 8d 76 bd 3c 16 de 3c
       -0.078157246 -0.12448434 -0.060193222 0.027110212
000070 89 00 d2 bd 93 ca 21 3e a7 92 46 be 3c e8 ab 3c
       -0.10254008 0.15799932 -0.19391881 0.020984761
000080 04 71 52 3e d5 c0 92 bd ef 29 de 3d 6c 8b f0 bd
       0.20550925 -0.07165686 0.10847842 -0.117453426
000090 44 57 4d 3e d6 ea 69 3e 3c 41 7f bd 88 c4 2e 3d
       0.2005282 0.22843489 -0.06231807 0.042667896
0000a0 60 ed 00 3e 63 67 8f 3e 4e dc 96 bd 10 7d 2e 3e
       0.12590551 0.28008565 -0.073662385 0.17039895
0000b0 6c da 17 be 73 78 92 3d ea 21 56 3e 33 79 b6 3e
       -0.14829415 0.0715188 0.20911375 0.35639343
0000c0 d5 48 7d 3e c6 a0 0c be 33 64 35 3e 7c 3d 9d bd
       0.24734814 -0.13733205 0.17714004 -0.07677743
0000d0 5c 9f 07 be 32 ba 4b be 2f 29 9f 3c 01 bb 38 be
       -0.13244385 -0.19895247 0.019428818 -0.18040086
0000e0 bd 8c cd bd 4b e7 be bb 8b c5 66 3e 66 f9 a2 3d
       -0.10036609 -0.005825912 0.22536294 0.07957725
0000f0 61 c4 80 bd ee a7 8b bd 10 79 22 bd 12 58 24 bd
       -0.06287456 -0.068191394 -0.039666235 -0.040123053

feature_layer.3.weight f4 [32, 64]
000000 75 e1 bd bd 18 ce e6 3e c7 39 c4 bb 46 3f 30 3f
       -0.09271518 0.45079112 -0.005988333 0.6884655
000010 32 72 8a be a6 72 31 3d 79 a4 32 3c 4e f7 f1 3e
       -0.2704025 0.043322228 0.010903471 0.4725899
000020 90 50 00 3e d3 17 8a 3e 88 2b 99 3e 77 73 c0 3e
       0.12530732 0.269713 0.29916024 0.37588093
000030 35 b9 71 be bf 20 c4 3d 09 79 90 bd 08 64 60 3e
       -0.23605807 0.09576558 -0.070543356 0.21913159
000040 4d ac 30 3e a9 6f a3 3e 8a c7 78 be 74 67 e5 be
       0.17253228 0.31921127 -0.24294868 -0.4480549
000050 28 c7 22 be 57 f8 c9 bd 22 78 e0 be dc c0 16 bd
       -0.15896285 -0.0986182 -0.43841654 -0.03680502
000060 75 c5 3f 3e 06 d9 09 bd af 8e 42 3d de 93 b3 bd
       0.18727668 -0.033654235 0.047499355 -0.08768438
000070 dd b2 b3 be 59 3e 06 3e e6 db 20 be 7d 55 1d 3e
       -0.350974 0.13109721 -0.15708885 0.15364642
000080 7c db 8c bd 2c 43 88 be a2 fb c6 be 80 50 13 3f
       -0.06877801 -0.26613748 -0.38863856 0.5754471
000090 1e 7a 2f be ff f4 8c 3e 5a ee 44 bc 47 23 84 3e
       -0.17136428 0.27530667 -0.012019718 0.25808164
0000a0 21 ee 86 ba 2c 2e 22 bd 99 77 7d 3e d8 88 f7 bd
       -0.0010294357 -0.039594814 0.24752654 -0.12086648
0000b0 a0 0f 56 3e 5a 29 21 3f e9 5a f1 bd 10 91 01 3e
       0.20904398 0.6295372 -0.11784918 0.12652993
0000c0 ea 13 6a 3e e4 b3 d1 bd 77 7e 2f 3e 4a 1e 3c bd
       0.22859159 -0.102393895 0.17138086 -0.045927323
0000d0 99 2e b1 3e b9 e0 43 3c 9d 66 3c bf 93 42 e6 3d
       0.34605864 0.0119554335 -0.73594075 0.11243167
0000e0 1c 99 26 3f 98 be fb 3e 0d dc 8f 3d 6b 38 75 3d
       0.65077376 0.4916885 0.07024393 0.059868257
0000f0 5d 87 1e 3e ae de 70 be 1e c6 77 3d 32 b3 94 be
       0.15481324 -0.23522446 0.060491674 -0.29042965
000100 a2 39 cc 3c 89 e0 a1 3c dc b6 80 3e 65 1b 52 3e
       0.024929825 0.019760387 0.2513951 0.20518263
000110 35 d3 87 3e c0 4b 02 3d 90 2b 64 be c2 04 d3 bd
       0.26528326 0.031810522 -0.22282243 -0.10303642
000120 d6 0d 46 3c d1 e1 90 3e 7b 5c 65 be 5e dd a7 3e
       0.01208826 0.28297284 -0.2239856 0.32786077
000130 6c ba 8e be 37 54 96 bd e9 14 99 bc f0 7b 77 bd
       -0.27876604 -0.073402815 -0.018686729 -0.06042093
000140 d5 56 d3 bd e8 98 3b 3e ad c0 19 3c 5b 66 45 3e
       -0.10319296 0.18320048 0.009384316 0.19277327
000150 85 b7 c4 be a3 6c 8d bd 20 3f 03 3e 1d 53 3a bc
       -0.38421264 -0.069054864 0.12817049 -0.011372355
000160 97 9e ae bd e5 2c 15 3d 62 e5 7b 3c d6 b5 7f 3d
       -0.08526342 0.036419768 0.015374513 0.06242927
000170 a7 54 75 be 58 13 2e be de aa 9b bb 76 02 f0 3e
       -0.23958074 -0.16999567 -0.0047505936 0.46876878
000180 ca 80 1d bd 9c eb 95 bd 06 83 5a bd 2c d7 cc 3e
       -0.0384529 -0.073203295 -0.05334761 0.40007913
000190 39 ef 57 3d 9f b3 82 3e 1d bf 56 3d e2 d6 40 be
       0.052718375 0.25527665 0.052428354 -0.18831971
0001a0 ac ad 24 be 6f 67 3b be a3 67 fa 3e fb f2 d0 3c
       -0.16081876 -0.18301176 0.48907194 0.025506487
0001b0 71 4e 75 3e 1d 86 e5 3c 7d 83 83 bd 60 81 76 bd
       0.23955704 0.028018052 -0.06421564 -0.060181975
0001c0 a8 f3 47 3d 75 8f 6f bc 6d e5 69 3e c4 eb f6 bd
       0.048816353 -0.014621605 0.22841425 -0.120566875
0001d0 03 b5 bb 3b c0 3b 83 3d d7 12 d1 be cb 7d 07 bd
       0.0057283654 0.06407881 -0.40834686 -0.03307895
0001e0 e1 ee 9c 3e 9b 86 aa 3d 10 b0 26 be b0 9b 89 3d
       0.30651 0.08326455 -0.162781 0.06719148
0001f0 86 f2 93 bd 51 f5 a1 3e 21 7c 03 bf 57 8e 3d 3e
       -0.07223992 0.31632474 -0.5136128 0.1851133
000200 f3 48 21 be be 2a 83 3d b9 b7 96 bd f9 28 6a 3e
       -0.15750484 0.06404637 -0.07359261 0.22867192
000210 12 ae 4d 3e 4e e6 10 3d 07 bc 71 be 50 46 f4 3e
       0.20085934 0.035375886 -0.23606883 0.47709894
000220 3a 02 bf 3d 0e b9 ab 3e 26 c1 01 3e e1 38 5b 3e
       0.093265966 0.33539623 0.12671337 0.21408416
000230 6e e1 41 be bf 94 c0 3a 6a d3 7b 3d 71 42 59 3c
       -0.18933651 0.0014692767 0.061480917 0.01326047
000240 06 a2 bd 3e cf fd a4 be cd 9d 51 be b5 e4 98 bb
       0.37037677 -0.3222489 -0.20470352 -0.004665936
000250 72 4b 36 be 31 e9 f2 3c f3 40 1b be 62 77 05 3e
       -0.17802218 0.02965221 -0.15161495 0.13033822
000260 1f df 04 be ff b2 6f 3d 80 d1 28 3d 49 ff 8c 3d
       -0.12975739 0.058520313 0.04121542 0.06884629
000270 26 cb 2b be 91 68 19 bd b7 46 fc 3a b9 03 e0 3d
       -0.16776714 -0.037453238 0.0019247149 0.1093821
000280 34 3d 3b 3e 24 09 8a 3e 85 0c 99 be c6 1a c4 3e
       0.18285066 0.269601 -0.29892364 0.38301677
000290 e5 c9 5f bc d6 b5 ae be af 11 e1 bd 44 a9 c9 3e
       -0.013658975 -0.34123105 -0.10989701 0.39386952
0002a0 9f 8c 5c 3e 5f 07 15 be f0 72 aa 3e b4 a0 82 bd
       0.21538018 -0.14553593 0.33290815 -0.06378308
0002b0 14 b9 8c 3e d0 4c e1 3e 6f 12 97 bd a9 d4 b3 3d
       0.27484953 0.44003916 -0.07376563 0.08780796
0002c0 6f 01 6c 3d 39 d9 11 bd d6 4f 7f bc f4 07 8b 3d
       0.057618555 -0.03560755 -0.015582999 0.06788626
0002d0 90 00 2c 3e 58 c7 95 bb 6a 4e 27 bf 11 3b 18 bc
       0.1679709 -0.004570883 -0.65354025 -0.009291426
0002e0 2b 34 ef 3e 3c 30 17 3e 9c 6a 42 3d 77 98 ab 3e
       0.46719489 0.14764494 0.047464952 0.3351476
0002f0 74 f9 67 3b a3 f5 81 3e 7f 64 31 bd ac fe 08 be
       0.0035396488 0.25382718 -0.04330873 -0.133784
000300 f3 d6 73 3e a8 a3 94 bd 96 99 12 3d aa 8b f1 3e
       0.23812465 -0.072577775 0.035791002 0.47176868
000310 03 8b 62 be 98 34 48 3d ff 43 ce 3e 59 fc 3b 3d
       -0.22123341 0.048878282 0.40286252 0.045894954
000320 51 4d a2 3e 58 8a 61 bd c3 a4 ce 3d 26 53 fb 3d
       0.31699613 -0.055063576 0.100900196 0.12271719
000330 e3 79 4a 3e 9d 57 6e be f4 81 82 3d 83 7d f7 bd
       0.19773059 -0.2327561 0.06372443 -0.12084486
000340 63 1e e2 bd ee ec a0 bd b7 d4 5e 3d e1 ec b5 bd
       -0.11040952 -0.07857691 0.05440208 -0.08883072
000350 c3 e7 66 be fc 58 3a bc c0 7e 35 be f1 6e 77 be
       -0.22549348 -0.011373755 -0.17724133 -0.24163415
000360 dc 8f 8a 3e 90 b2 26 3d f1 5f 8b be 3d be 5b 3d
       0.2706288 0.040697634 -0.27221635 0.053648222
000370 e8 d8 3e bd a8 fe 5d be 78 b2 07 bf 56 98 07 3e
       -0.046593577 -0.21679175 -0.53006697 0.13241705
000380 a4 6a e2 3b e2 5e 8c be c1 d1 3e bd 9f f2 5e 3e
       0.006909685 -0.2741614 -0.046586756 0.2177224
000390 08 f6 e0 3d 54 cf 19 be a7 2c 5d bd 01 0a bd be
       0.10984427 -0.15020496 -0.053997662 -0.36921695
0003a0 b4 b9 32 3e c3 42 ad 3e 7b e4 29 3e 2a 94 3e 3c
       0.17453653 0.33839998 0.16591065 0.011632005
0003b0 e7 07 02 3f ba 9b ee 3e 22 bb db bd f0 08 a2 bd
       0.5079331 0.46603185 -0.10729052 -0.07911861
0003c0 43 3c 08 be 36 07 9a bd 3e 42 cd 3e 9b 10 84 bd
       -0.13304238 -0.075209066 0.400896 -0.0644848
0003d0 98 06 1e 3d 83 dc 89 3d 62 7c 8d be f3 88 1b bc
       0.038580507 0.067315124 -0.2763396 -0.0094931
0003e0 34 03 d6 3e 57 d6 b1 3d 1c 59 1e be cc df 09 3e
       0.4179932 0.0868346 -0.1546368 0.13464278
0003f0 67 c5 89 be d5 b6 23 3e fb 19 e4 be dc b9 6c bd
       -0.2690842 0.15987714 -0.44551072 -0.057794437

feature_layer.3.bias f4 [32]
000000 06 ac 4a 3d 3f 2c 8e bd 65 3a a4 bd 21 12 28 3d
       0.04948046 -0.06942033 -0.080189504 0.041032914
000010 36 13 54 bd 9d 2e 0e 3d d2 e8 ab be d5 80 e3 3d
       -0.051776133 0.034712423 -0.33576065 0.11108557
000020 9b 6d c0 3d 25 6a a0 bd 16 8a b6 bd 6d 53 1b be
       0.093959056 -0.078327455 -0.089130566 -0.15168543
000030 0b a2 14 be 95 3d ac 3d 76 90 20 3e 0d 76 d8 bd
       -0.1451494 0.08410183 0.15680107 -0.105693914
000040 64 24 37 be 32 52 7a 3e 90 50 39 3e 12 fa 3d bd
       -0.17884976 0.24445418 0.18097138 -0.046381064
000050 1d 63 28 bd 78 32 2a 3d 8d 4c e8 3e 4c 43 3a bd
       -0.041110147 0.041552037 0.45370904 -0.045474336
000060 15 83 a6 3c da 31 1b 3e b3 e1 02 3e 06 15 bd be
       0.020326177 0.15155736 0.1278141 -0.36930102
000070 88 2e 69 be d0 51 c9 3d db 90 9e bd 70 2b 45 3e
       -0.22771657 0.098300576 -0.07742473 0.19254851

final_layer.weight_mu f4 [32, 64]
000000 90 de 76 bd c4 39 61 3d 90 9f a3 bd 90 3e a4 3d
       -0.060270846 0.05498673 -0.079894185 0.08019745
000010 b4 27 2a bd 78 e0 ba bd 48 2e f4 bc 00 df 4d 3b
       -0.04154177 -0.09124845 -0.029807225 0.0031413436
000020 f0 36 6a 3c 66 65 b2 bd ac be bd bd 70 ae 82 3d
       0.014295325 -0.087107465 -0.092648834 0.063809276
000030 06 7f ee bd 4a 23 a0 bd 24 26 e8 3d 1c 37 ad bd
       -0.116453215 -0.07819231 0.113354 -0.08457777
000040 00 80 29 bd 54 67 2a 3d 7c f5 5f 3d b0 06 fb bc
       -0.041381836 0.041602448 0.05467747 -0.030642837
000050 90 1a 9b bc d0 0c c4 3d cc 87 d6 bd 90 3d f1 3c
       -0.018933564 0.09572756 -0.1047512 0.0294483
000060 00 61 98 bb 68 01 25 bd 38 da b4 bd 90 aa 02 3c
       -0.004650235 -0.040284544 -0.088306844 0.007975236
000070 02 3b c0 bd 4c 56 09 bd 62 a5 c2 3d 3a 6e 8e 3d
       -0.09386255 -0.033529565 0.095042005 0.06954618
000080 80 4e c5 3a a8 9a b8 bd 00 61 99 3a e4 2d 81 3d
       0.0015053302 -0.09013873 0.0011701882 0.06307581
000090 66 93 eb 3d 60 c8 c9 3b 5e 59 9a 3d 12 dc d0 bd
       0.115027234 0.0061579198 0.07536577 -0.10198225
0000a0 0a 41 8a bd 9c 33 4a 3d 2e 33 d8 bd 92 14 81 3d
       -0.067506865 0.049365625 -0.10556637 0.063027516
0000b0 18 4b d4 3c 6c f7 83 bd a0 71 10 bc a8 8f 24 bd
       0.025914714 -0.06443676 -0.008816153 -0.040176064
0000c0 3c 20 a4 3d 58 e4 c0 3d 28 29 42 3d c8 db 65 3d
       0.08013961 0.09418553 0.04740253 0.056117803
0000d0 b4 fd 80 bd 74 a4 bf 3d b8 20 74 3d 96 c1 ea 3d
       -0.0629839 0.09357539 0.059601516 0.11462705
0000e0 08 b7 4b 3d 1c b3 dc bd a6 ef d7 3d 12 e6 9a 3d
       0.0497351 -0.1077635 0.10543756 0.07563414
0000f0 c8 19 43 bd 00 9a 77 3c 4c e7 5c 3d b0 cc ec bc
       -0.04763201 0.0151124 0.05393152 -0.028906196
000100 78 1d ad bd 34 92 1a 3d c0 37 06 bd 40 2d 44 3b
       -0.08452886 0.037737086 -0.03276801 0.0029934198
000110 6a 75 92 bd 80 46 03 bc f0 55 f5 3d f8 4f df bd
       -0.07151301 -0.008012414 0.11979282 -0.10903925
000120 b8 5c 2f 3d ec 75 32 3d e0 dd 3d 3d c4 16 2a bd
       0.042813033 0.04356949 0.046354175 -0.041525617
000130 28 c5 f5 3c 4c 02 a5 bd 7c ac 03 bd f8 4c f0 bd
       0.030001238 -0.08057079 -0.032146916 -0.117334306
000140 c6 8b e8 3d 90 d9 df bc f0 d7 ff bc 9a 6d 8e 3d
       0.11354785 -0.027325422 -0.031230897 0.069544986
000150 38 b0 28 bd 70 31 ec bc 28 16 df 3d 32 c5 dc 3d
       -0.04118368 -0.028832167 0.10892898 0.107797995
000160 00 20 4c b9 60 34 af bb c8 85 3c bd 50 1a 2a bd
       -0.00019466877 -0.0053468198 -0.04602602 -0.041529
000170 70 9f f4 3d 18 a0 a8 bd 6c 77 33 3d 38 58 d0 bd
       0.11944473 -0.082336605 0.04381506 -0.101730764
000180 56 a0 da 3d c8 7d c3 bc 0a 3d c1 bd 20 ae bb bb
       0.10675113 -0.023863688 -0.094354704 -0.0057275444
000190 b0 34 16 3c 14 c1 72 3d f8 cc 19 3d b6 e9 ed bd
       0.009167835 0.059266165 0.03754899 -0.116168424
0001a0 8c ce 60 3d 10 5e d0 bd 84 fb e6 bd d8 0d de bd
       0.05488448 -0.10174191 -0.112784415 -0.10842484
0001b0 f2 8a 82 bd b0 6c bb bc a0 2f f2 3b c8 82 ca 3c
       -0.06374158 -0.022878975 0.0073909312 0.024720564
0001c0 9c 7c 09 bd 00 54 9f bd 48 cc 72 3d d0 24 70 bc
       -0.033566102 -0.077796936 0.05927685 -0.014657214
0001d0 40 73 a8 3c f2 2f fa bd c0 7e 29 3d 24 55 86 bd
       0.020562768 -0.12216176 0.041380644 -0.06559208
0001e0 d2 a1 d9 bd d0 f5 b8 3c 20 de 4d bc 40 73 6e bb
       -0.10626568 0.02257815 -0.012565166 -0.0036384612
0001f0 c2 38 a6 3d 1c 45 6a 3d 38 7f b1 bc 74 18 fe 3d
       0.081162944 0.057194814 -0.021667108 0.12407008
000200 90 48 11 bc 34 ae a8 3d 2e 1e 9c bd c0 af f9 bb
       -0.008867398 0.082363516 -0.07622944 -0.007619828
000210 10 27 e0 bd 66 8e ce bd 00 a2 a1 3c e6 2c c7 bd
       -0.109449506 -0.10085754 0.019730568 -0.097253606
000220 00 3e d2 3c 74 eb 3d 3d 3c d2 45 bd 84 27 51 3d
       0.02566433 0.046367124 -0.0482962 0.051063076
000230 00 51 ba 3d a0 50 c1 3d 90 35 91 bc e8 81 14 bd
       0.09097481 0.09439206 -0.017725736 -0.0362567
000240 e2 55 c0 bd 78 6b cd 3d 28 2a dd bc 50 55 9d bc
       -0.09391381 0.10030264 -0.02699764 -0.01920572
000250 a8 5a 5b bd 94 c8 c6 3d 7a bd f7 3d b8 aa 8e 3c
       -0.053553253 0.09706226 0.12096687 0.01741539
000260 3a b3 89 3d dc 1f 81 3d c8 5b cf bd c0 f9 77 3b
       0.06723638 0.06304905 -0.10124928 0.0037838072
000270 d8 eb 71 3d e4 d4 bb 3d a0 4d a4 3d 80 0a fc 3c
       0.05906281 0.09171465 0.08022618 0.030766726
000280 b4 c8 8a bd 44 11 03 bd 78 f7 46 3d 78 25 f1 3d
       -0.06776562 -0.031998888 0.04857585 0.11774725
000290 50 f5 49 3c a0 65 bd bb 90 2b 16 bd 40 da 79 bb
       0.012326553 -0.005779937 -0.03666264 -0.0038124472
0002a0 4c ef 6f 3d 1a 84 88 bd 08 6b ba bc ac fe 05 3d
       0.05857782 -0.066658214 -0.022756115 0.032713577
0002b0 b0 66 1f bc 60 a6 4c bd e0 70 97 bc 80 d9 b8 ba
       -0.009729072 -0.049963355 -0.01848644 -0.0014102906
0002c0 88 a6 c7 bd d2 e6 d6 3d f6 89 a2 3d 5e 7c 86 3d
       -0.0974856 0.10493244 0.0793647 0.0656669
0002d0 d8 6c 9f bc 16 f6 87 bd 2a e2 c0 3d 44 8f 7e bd
       -0.01946108 -0.06638734 0.09418137 -0.062148347
0002e0 32 93 d0 3d d0 1e 29 3c 10 5c ff 3c 48 47 6a bd
       0.10184325 0.010322288 0.031171829 -0.057196885
0002f0 4c 56 93 3d be d7 81 bd ec de 70 bd c8 a9 50 bd
       0.07194194 -0.06339978 -0.058806345 -0.050943166
000300 2e 3f c9 3d 08 8a a1 3c 50 a7 80 bc c8 bf 6d 3d
       0.09826504 0.019719139 -0.01570478 0.058044225
000310 50 26 55 bd 6c ff 5f 3d 30 b9 56 3c 90 83 33 3d
       -0.05203849 0.05468695 0.013105676 0.04382664
000320 68 30 be bd 7c 62 38 bd 18 da c5 3d fa 9b 95 bd
       -0.092865765 -0.045015797 0.09660739 -0.07305141
000330 b6 9a e6 bd 58 35 9e 3c fa 12 87 bd e0 5a 50 bc
       -0.112599775 0.019312546 -0.06595416 -0.012716979
000340 b0 dc 1a bc 3c 1c 2b 3d 36 b4 8e bd 02 ab 89 3d
       -0.00945203 0.041774973 -0.06967966 0.0672207
000350 8e 08 db bd bc e7 17 bd 1c 91 d9 3d 28 44 22 bd
       -0.10694991 -0.037086233 0.106233805 -0.03961578
000360 7a bd 81 3d 68 16 e8 bc 40 24 b0 3d 9e 5c 9e 3d
       0.06334968 -0.028330997 0.08600664 0.07732509
000370 20 16 56 3c c0 e8 bc bc 50 71 c3 3d 88 67 02 bd
       0.013066798 -0.023060203 0.09543097 -0.031837016
000380 10 a7 f9 bc 4c a7 73 3d 68 da 85 3c 48 b5 fe bc
       -0.03047517 0.05948572 0.016339496 -0.031092301
000390 00 30 d8 3a 76 c1 80 bd 6e 5f 9d 3d 84 1d 54 bd
       0.0016493797 -0.062869 0.076842174 -0.05178596
0003a0 cc 4a d1 bd 88 93 b5 3d 10 d9 87 3d 66 81 ee bd
       -0.102193445 0.0886603 0.06633198 -0.116457745
0003b0 a0 37 54 bc a8 6b 2a bd 80 1b d0 3a 60 db 7f 3c
       -0.012952715 -0.041606575 0.0015877336 0.015616268
0003c0 48 c0 f7 3d 10 bb ba bd a0 1c cd bb bc 66 75 bd
       0.120972216 -0.091177106 -0.006259516 -0.05991243
0003d0 5c 72 7b 3d 74 61 d1 3d d8 15 8b 3c e0 ba b5 bc
       0.06138836 0.10223666 0.01697819 -0.022183836
0003e0 60 4a bd bc 18 ff b5 bd a4 9c 04 3d 9c 75 c8 3d
       -0.023106754 -0.08886546 0.032375947 0.09788057
0003f0 f4 98 3d bd 84 2e b1 3d e0 dd 6e bc 80 95 90 3a
       -0.046288446 0.0865145 -0.014579266 0.0011030883

final_layer.weight_sigma f4 [32, 64]
000000 9a 99 99 3d 9a 99 99 3d 9a 99 99 3d 9a 99 99 3d
       0.075 0.075 0.075 0.075
000010 9a 99 99 3d 9a 99 99 3d 9a 99 99 3d 9a 99 99 3d
       0.075 0.075 0.075 0.075
000020 9a 99 99 3d 9a 99 99 3d 9a 99 99 3d 9a 99 99 3d
       0.075 0.075 0.075 0.075
000030 9a 99 99 3d 9a 99 99 3d 9a 99 99 3d 9a 99 99 3d
       0.075 0.075 0.075 0.075
000040 9a 99 99 3d 9a 99 99 3d 9a 99 99 3d 9a 99 99 3d
       0.075 0.075 0.075 0.075
000050 9a 99 99 3d 9a 99 99 3d 9a 99 99 3d 9a 99 99 3d
       0.075 0.075 0.075 0.075
000060 9a 99 99 3d 9a 99 99 3d 9a 99 99 3d 9a 99 99 3d
       0.075 0.075 0.075 0.075
000070 9a 99 99 3d 9a 99 99 3d 9a 99 99 3d 9a 99 99 3d
       0.075 0.075 0.075 0.075
000080 9a 99 99 3d 9a 99 99 3d 9a 99 99 3d 9a 99 99 3d
       0.075 0.075 0.075 0.075
000090 9a 99 99 3d 9a 99 99 3d 9a 99 99 3d 9a 99 99 3d
       0.075 0.075 0.075 0.075
0000a0 9a 99 99 3d 9a 99 99 3d 9a 99 99 3d 9a 99 99 3d
       0.075 0.075 0.075 0.075
0000b0 9a 99 99 3d 9a 99 99 3d 9a 99 99 3d 9a 99 99 3d
       0.075 0.075 0.075 0.075
0000c0 9a 99 99 3d 9a 99 99 3d 9a 99 99 3d 9a 99 99 3d
       0.075 0.075 0.075 0.075
0000d0 9a 99 99 3d 9a 99 99 3d 9a 99 99 3d 9a 99 99 3d
       0.075 0.075 0.075 0.075
0000e0 9a 99 99 3d 9a 99 99 3d 9a 99 99 3d 9a 99 99 3d
       0.075 0.075 0.075 0.075
0000f0 9a 99 99 3d 9a 99 99 3d 9a 99 99 3d 9a 99 99 3d
       0.075 0.075 0.075 0.075
000100 9a 99 99 3d 9a 99 99 3d 9a 99 99 3d 9a 99 99 3d
       0.075 0.075 0.075 0.075
000110 9a 99 99 3d 9a 99 99 3d 9a 99 99 3d 9a 99 99 3d
       0.075 0.075 0.075 0.075
000120 9a 99 99 3d 9a 99 99 3d 9a 99 99 3d 9a 99 99 3d
       0.075 0.075 0.075 0.075
000130 9a 99 99 3d 9a 99 99 3d 9a 99 99 3d 9a 99 99 3d
       0.075 0.075 0.075 0.075
000140 9a 99 99 3d 9a 99 99 3d 9a 99 99 3d 9a 99 99 3d
       0.075 0.075 0.075 0.075
000150 9a 99 99 3d 9a 99 99 3d 9a 99 99 3d 9a 99 99 3d
       0.075 0.075 0.075 0.075
000160 9a 99 99 3d 9a 99 99 3d 9a 99 99 3d 9a 99 99 3d
       0.075 0.075 0.075 0.075
000170 9a 99 99 3d 9a 99 99 3d 9a 99 99 3d 9a 99 99 3d
       0.075 0.075 0.075 0.075
000180 9a 99 99 3d 9a 99 99 3d 9a 99 99 3d 9a 99 99 3d
       0.075 0.075 0.075 0.075
000190 9a 99 99 3d 9a 99 99 3d 9a 99 99 3d 9a 99 99 3d
       0.075 0.075 0.075 0.075
0001a0 9a 99 99 3d 9a 99 99 3d 9a 99 99 3d 9a 99 99 3d
       0.075 0.075 0.075 0.075
0001b0 9a 99 99 3d 9a 99 99 3d 9a 99 99 3d 9a 99 99 3d
       0.075 0.075 0.075 0.075
0001c0 9a 99 99 3d 9a 99 99 3d 9a 99 99 3d 9a 99 99 3d
       0.075 0.075 0.075 0.075
0001d0 9a 99 99 3d 9a 99 99 3d 9a 99 99 3d 9a 99 99 3d
       0.075 0.075 0.075 0.075
0001e0 9a 99 99 3d 9a 99 99 3d 9a 99 99 3d 9a 99 99 3d
       0.075 0.075 0.075 0.075
0001f0 9a 99 99 3d 9a 99 99 3d 9a 99 99 3d 9a 99 99 3d
       0.075 0.075 0.075 0.075
000200 9a 99 99 3d 9a 99 99 3d 9a 99 99 3d 9a 99 99 3d
       0.075 0.075 0.075 0.075
000210 9a 99 99 3d 9a 99 99 3d 9a 99 99 3d 9a 99 99 3d
       0.075 0.075 0.075 0.075
000220 9a 99 99 3d 9a 99 99 3d 9a 99 99 3d 9a 99 99 3d
       0.075 0.075 0.075 0.075
000230 9a 99 99 3d 9a 99 99 3d 9a 99 99 3d 9a 99 99 3d
       0.075 0.075 0.075 0.075
000240 9a 99 99 3d 9a 99 99 3d 9a 99 99 3d 9a 99 99 3d
       0.075 0.075 0.075 0.075
000250 9a 99 99 3d 9a 99 99 3d 9a 99 99 3d 9a 99 99 3d
       0.075 0.075 0.075 0.075
000260 9a 99 99 3d 9a 99 99 3d 9a 99 99 3d 9a 99 99 3d
       0.075 0.075 0.075 0.075
000270 9a 99 99 3d 9a 99 99 3d 9a 99 99 3d 9a 99 99 3d
       0.075 0.075 0.075 0.075
000280 9a 99 99 3d 9a 99 99 3d 9a 99 99 3d 9a 99 99 3d
       0.075 0.075 0.075 0.075
000290 9a 99 99 3d 9a 99 99 3d 9a 99 99 3d 9a 99 99 3d
       0.075 0.075 0.075 0.075
0002a0 9a 99 99 3d 9a 99 99 3d 9a 99 99 3d 9a 99 99 3d
       0.075 0.075 0.075 0.075
0002b0 9a 99 99 3d 9a 99 99 3d 9a 99 99 3d 9a 99 99 3d
       0.075 0.075 0.075 0.075
0002c0 9a 99 99 3d 9a 99 99 3d 9a 99 99 3d 9a 99 99 3d
       0.075 0.075 0.075 0.075
0002d0 9a 99 99 3d 9a 99 99 3d 9a 99 99 3d 9a 99 99 3d
       0.075 0.075 0.075 0.075
0002e0 9a 99 99 3d 9a 99 99 3d 9a 99 99 3d 9a 99 99 3d
       0.075 0.075 0.075 0.075
0002f0 9a 99 99 3d 9a 99 99 3d 9a 99 99 3d 9a 99 99 3d
       0.075 0.075 0.075 0.075
000300 9a 99 99 3d 9a 99 99 3d 9a 99 99 3d 9a 99 99 3d
       0.075 0.075 0.075 0.075
000310 9a 99 99 3d 9a 99 99 3d 9a 99 99 3d 9a 99 99 3d
       0.075 0.075 0.075 0.075
000320 9a 99 99 3d 9a 99 99 3d 9a 99 99 3d 9a 99 99 3d
       0.075 0.075 0.075 0.075
000330 9a 99 99 3d 9a 99 99 3d 9a 99 99 3d 9a 99 99 3d
       0.075 0.075 0.075 0.075
000340 9a 99 99 3d 9a 99 99 3d 9a 99 99 3d 9a 99 99 3d
       0.075 0.075 0.075 0.075
000350 9a 99 99 3d 9a 99 99 3d 9a 99 99 3d 9a 99 99 3d
       0.075 0.075 0.075 0.075
000360 9a 99 99 3d 9a 99 99 3d 9a 99 99 3d 9a 99 99 3d
       0.075 0.075 0.075 0.075
000370 9a 99 99 3d 9a 99 99 3d 9a 99 99 3d 9a 99 99 3d
       0.075 0.075 0.075 0.075
000380 9a 99 99 3d 9a 99 99 3d 9a 99 99 3d 9a 99 99 3d
       0.075 0.075 0.075 0.075
000390 9a 99 99 3d 9a 99 99 3d 9a 99 99 3d 9a 99 99 3d
       0.075 0.075 0.075 0.075
0003a0 9a 99 99 3d 9a 99 99 3d 9a 99 99 3d 9a 99 99 3d
       0.075 0.075 0.075 0.075
0003b0 9a 99 99 3d 9a 99 99 3d 9a 99 99 3d 9a 99 99 3d
       0.075 0.075 0.075 0.075
0003c0 9a 99 99 3d 9a 99 99 3d 9a 99 99 3d 9a 99 99 3d
       0.075 0.075 0.075 0.075
0003d0 9a 99 99 3d 9a 99 99 3d 9a 99 99 3d 9a 99 99 3d
       0.075 0.075 0.075 0.075
0003e0 9a 99 99 3d 9a 99 99 3d 9a 99 99 3d 9a 99 99 3d
       0.075 0.075 0.075 0.075
0003f0 9a 99 99 3d 9a 99 99 3d 9a 99 99 3d 9a 99 99 3d
       0.075 0.075 0.075 0.075

final_layer.bias_mu f4 [32]
000000 f8 46 43 3d 3e 79 8a bd 28 ca ec 3d 10 60 55 bc
       0.047675103 -0.06761406 0.11561996 -0.013023391
000010 84 09 c0 3d d4 d0 00 3d 50 6f ac 3c 00 60 45 bd
       0.09376815 0.031449154 0.021049172 -0.048187256
000020 38 14 f0 3d ba ce ac bd 74 2d ca 3d 70 e0 ba 3c
       0.117226064 -0.084378675 0.09871951 0.022812098
000030 c0 a9 2d 3c 72 30 e9 bd f4 3d 97 bd 72 89 bb bd
       0.010599554 -0.11386193 -0.073848635 -0.09157075
000040 d0 18 a7 3d ba 0f fb bd 74 b3 5c 3d c0 57 c8 3d
       0.081590295 -0.12258859 0.053882077 0.09782362
000050 08 38 02 3d 68 a3 61 bd 86 e7 f9 3d b0 35 d3 bd
       0.031791717 -0.055087477 0.12202363 -0.103129745
000060 24 22 ca 3d d2 b2 e6 3d 44 f6 4b bd 78 e8 b3 bd
       0.09869793 0.11264576 -0.049795404 -0.08784574
000070 a0 e8 cf 3b c6 21 9d bd 14 a0 e0 3d 28 0b 5f bd
       0.0063448697 -0.076724574 0.109680325 -0.054454

final_layer.bias_sigma f4 [32]
000000 24 39 d9 3d 24 39 d9 3d 24 39 d9 3d 24 39 d9 3d
       0.10606602 0.10606602 0.10606602 0.10606602
000010 24 39 d9 3d 24 39 d9 3d 24 39 d9 3d 24 39 d9 3d
       0.10606602 0.10606602 0.10606602 0.10606602
000020 24 39 d9 3d 24 39 d9 3d 24 39 d9 3d 24 39 d9 3d
       0.10606602 0.10606602 0.10606602 0.10606602
000030 24 39 d9 3d 24 39 d9 3d 24 39 d9 3d 24 39 d9 3d
       0.10606602 0.10606602 0.10606602 0.10606602
000040 24 39 d9 3d 24 39 d9 3d 24 39 d9 3d 24 39 d9 3d
       0.10606602 0.10606602 0.10606602 0.10606602
000050 24 39 d9 3d 24 39 d9 3d 24 39 d9 3d 24 39 d9 3d
       0.10606602 0.10606602 0.10606602 0.10606602
000060 24 39 d9 3d 24 39 d9 3d 24 39 d9 3d 24 39 d9 3d
       0.10606602 0.10606602 0.10606602 0.10606602
000070 24 39 d9 3d 24 39 d9 3d 24 39 d9 3d 24 39 d9 3d
       0.10606602 0.10606602 0.10606602 0.10606602

final_layer.weight_epsilon f4 [32, 64]
000000 f8 05 db 3e 60 9d 65 3f d1 c7 58 bf 91 b6 00 3f
       0.4277799 0.8969326 -0.84679896 0.50278574
000010 83 e5 0a 3f 4a f1 6e 3f 84 98 2a 3f e1 14 2b bf
       0.5425646 0.9333693 0.6663897 -0.66828734
000020 07 fb d4 be a5 94 02 bf bb e0 f1 be d7 df 1d 3f
       -0.4159777 -0.51008064 -0.47241768 0.6166968
000030 77 23 0c 3f 17 62 32 3f 9c e6 86 3f 15 0c ff be
       0.54741615 0.69680923 1.0539126 -0.49813905
000040 c4 23 8c 3f 5e 71 17 bf 8f 74 3d 3f df ef be be
       1.0948415 -0.5915736 0.7400598 -0.37292382
000050 27 a5 09 3f 7e 35 51 3f 5b 78 6f 3f 68 90 42 bf
       0.5376763 0.8172225 0.9354302 -0.76001596
000060 18 e3 21 bf 0b e8 86 bf ed eb 51 3f a6 cc 4a bf
       -0.6323714 -1.0539564 0.8200062 -0.7921852
000070 f5 1c c5 3e ac da da 3e 44 9a f5 3e 81 d4 51 bf
       0.38498655 0.42744958 0.47969258 -0.8196488
000080 3e 3c 60 3f 8a fa 7b bf fa 80 17 3f 15 0b 13 3f
       0.8759192 -0.9842917 0.5918118 0.57438785
000090 e6 e8 6e 3f 9b 7f 5d 3f 81 d4 f6 be e8 a5 be be
       0.93324125 0.86522835 -0.48209003 -0.3723595
0000a0 cc 40 26 bf f4 eb 40 3f a9 97 56 3f 38 0d 55 3e
       -0.6494262 0.75360036 0.83825165 0.20805824
0000b0 ab 54 11 bf 11 44 4f bf b9 4c 4b bf 8c 78 52 3f
       -0.5676982 -0.80963236 -0.79413944 0.8221519
0000c0 11 c8 a8 be c4 18 61 be 40 a2 0f bf a8 07 11 bf
       -0.3296514 -0.21982104 -0.5610695 -0.5665231
0000d0 d1 c6 59 bf c9 8d 9b be 79 82 8c be a9 3c 4b 3f
       -0.85068995 -0.3038161 -0.27443293 0.79389435
0000e0 81 fe 22 bf 0d d5 54 bf 59 fa 42 3f 46 0f 86 3f
       -0.6366959 -0.8313759 0.7616325 1.0473411
0000f0 74 e0 50 bf 0d 2d b9 be bc 65 8e 3e 43 5b f7 3e
       -0.8159249 -0.36167184 0.27811992 0.48311815
000100 6f 71 dd be cc 26 68 bf f0 2c 5b 3f 9b 22 02 bf
       -0.43250605 -0.906842 0.85615444 -0.50834054
000110 5b 6e 0c bf 17 95 71 bf 03 7b 2c bf c0 f8 2c 3f
       -0.5485589 -0.9436812 -0.673752 0.6756706
000120 67 55 d7 3e f8 05 04 3f d6 8c f4 3e 5b 9e 1f bf
       0.42057344 0.5157161 0.477637 -0.62351006
000130 d1 af 0d bf 9d 5a 34 bf 26 64 88 bf b8 ee 00 3f
       -0.553464 -0.70450765 -1.0655563 0.50364256
000140 1f b0 8d bf b2 1d 19 3f 66 8c 3f bf e6 0b c1 3e
       -1.1069373 0.59810936 -0.74823606 0.3770439
000150 74 2a 0b bf 33 85 53 bf a6 1d 72 bf b1 b6 44 3f
       -0.54361653 -0.8262512 -0.9457649 0.76841265
000160 f6 ac 23 3f 99 65 88 3f a6 3d 54 bf 3a 0a 4d 3f
       0.6393579 1.0656005 -0.8290657 0.8009373
000170 74 4a c7 be a9 45 dd be e8 50 f8 be f8 25 54 3f
       -0.3892399 -0.4321721 -0.48499227 0.82870436
000180 73 b6 62 bf 36 c3 7e 3f 79 2d 19 bf f7 aa 14 bf
       -0.88559645 0.9951662 -0.5983501 -0.5807337
000190 9c 8c 71 bf 12 f2 5f bf 9d 8e f9 3e 1e c1 c0 3e
       -0.9435518 -0.87478745 0.48741618 0.37647337
0001a0 03 17 28 3f 98 0d 43 bf 97 f6 58 bf cb 67 57 be
       0.65660113 -0.7619262 -0.84751266 -0.21035688
0001b0 b6 ef 12 3f 47 8e 51 3f b7 8b 4d 3f d2 cb 54 bf
       0.5739702 0.81857723 0.8029131 -0.83123505
0001c0 6e a5 aa 3e 68 95 63 3e 7e 38 11 3f d8 a1 12 3f
       0.33329338 0.22224963 0.56726825 0.57278204
0001d0 c1 2e 5c 3f bd 45 9d 3e e0 0f 8e 3e 7a 7b 4d bf
       0.8600884 0.3071727 0.27746487 -0.80266535
0001e0 81 cb 24 3f 01 2f 57 3f ce 21 45 bf 6f 8a 87 bf
       0.6437302 0.840561 -0.77004707 -1.0589122
0001f0 38 2f 53 3f c9 38 bb 3e 7a f8 8f be dc 16 fa be
       0.82493925 0.3656676 -0.2811926 -0.48845565
000200 27 bc fd 3e a3 00 85 3f 02 23 7b bf b3 1c 15 3f
       0.4955761 1.0390819 -0.9810029 0.58246917
000210 ce e8 20 3f d1 67 8a 3f e7 a1 45 3f fa 31 46 bf
       0.6285523 1.0812932 0.7720017 -0.7742001
000220 0c bc f6 be 8c 46 17 bf 15 1b 0c bf 19 e5 36 3f
       -0.48190343 -0.5909202 -0.54728824 0.71443325
000230 25 59 22 3f 6e a7 4e 3f c9 47 9c 3f e9 bb 13 bf
       0.63417274 0.8072423 1.2209407 -0.57708603
000240 7e 59 a2 3f b0 71 2f bf 1e 7b 5b 3f 8b 32 dd be
       1.2683561 -0.6853285 0.85734737 -0.43202624
000250 ac 75 1f 3f 7e 5d 72 3f 0d b6 8a 3f 3c 66 61 bf
       0.6228893 0.9467391 1.0836807 -0.8804662
000260 28 8b 3b bf 72 49 9c bf d6 30 73 3f 99 f0 6a bf
       -0.7325921 -1.2209914 0.9499639 -0.9177337
000270 35 5a e4 3e ff 89 fd 3e 69 43 0e 3f b4 15 73 bf
       0.44600073 0.49519345 0.5557161 -0.9495499
000280 f2 e2 81 3f e4 f4 91 bf c4 83 2f 3f e7 58 2a 3f
       1.0147383 -1.140286 0.68560433 0.66541904
000290 f5 62 8a 3f 1b 4d 80 3f 6e f9 0e bf da dc dc be
       1.0811449 1.0023531 -0.5584935 -0.43137246
0002a0 ff 99 40 bf 25 7f 5f 3f 13 9a 78 3f 1f d1 76 3e
       -0.7523498 0.8730338 0.971101 0.24103211
0002b0 02 5d 28 bf 3b 1d 70 bf f8 84 6b bf be d3 73 3f
       -0.6576692 -0.937946 -0.9199977 0.9524497
0002c0 d9 87 c3 be ae 62 82 be be 65 26 bf ca 03 28 bf
       -0.3818958 -0.25465912 -0.64998996 -0.6563078
0002d0 6c 4a 7c bf e5 34 b4 be 36 c7 a2 be 5d 72 6b 3f
       -0.9855106 -0.35196605 -0.3179261 0.9197138
0002e0 7b d3 3c bf 0d 90 76 bf f7 e0 61 3f 53 4e 9b 3f
       -0.73760194 -0.96313554 0.88233894 1.2133278
0002f0 f9 fa 71 bf fc 85 d6 be 10 f7 a4 3e 7d 47 0f 3f
       -0.9452358 -0.41899097 0.32219744 0.5596846
000300 5b b7 2e 3f 43 2a b7 3f 5a ed ac bf bd 59 4d 3f
       0.6824853 1.4309772 -1.3509934 0.80215055
000310 e4 98 5d 3f 1e 9b be 3f d5 15 88 3f 0a 79 88 bf
       0.8656142 1.4891088 1.0631663 -1.0661938
000320 5a e5 29 bf 78 54 50 bf 8c f2 40 bf ec df 7b 3f
       -0.6636559 -0.8137889 -0.753701 0.9838855
000330 27 94 5f 3f 1f 4c 8e 3f f0 38 d7 3f e5 73 4b bf
       0.8733544 1.111698 1.6814251 -0.79473716
000340 a2 94 df 3f 20 9d 71 bf 32 21 97 3f c6 4f 18 bf
       1.7467234 -0.9438038 1.1807005 -0.59496725
000350 c8 99 5b 3f 24 e3 a6 3f dc 06 bf 3f 78 34 9b bf
       0.85781527 1.3038068 1.4923968 -1.2125387
000360 69 23 81 bf 39 3b d7 bf ab 74 a7 3f 3a c6 a1 bf
       -1.0088931 -1.6814948 1.3082479 -1.2638619
000370 04 3d 1d 3f d2 94 2e 3f 30 eb 43 3f fc 61 a7 bf
       0.6142123 0.6819583 0.7653074 -1.3076777
000380 b7 df b2 3f 43 01 c9 bf 06 b6 71 3f 3b 98 6a 3f
       1.3974522 -1.570351 0.9441837 0.91638535
000390 6c 94 be 3f d0 b0 b0 3f db e5 44 bf c5 14 18 bf
       1.4889045 1.3803959 -0.7691323 -0.5940669
0003a0 02 9f 84 bf 12 e5 99 3f 83 2e ab 3f dd f3 a9 3e
       -1.0361025 1.2023032 1.3373569 0.33193865
0003b0 c9 dc 67 bf 57 56 a5 bf 64 2c a2 bf d7 e4 a7 3f
       -0.90571266 -1.2916974 -1.2669797 1.3116711
0003c0 57 a3 06 bf a1 8f b3 be b5 27 65 bf ea 61 67 bf
       -0.52592987 -0.35070518 -0.89513713 -0.9038378
0003d0 c4 b8 ad bf 29 2c f8 be bc 2b e0 be 95 1f a2 3f
       -1.3572011 -0.48471192 -0.43783367 1.2665888
0003e0 7d 05 82 bf 0f c7 a9 bf fb 88 9b 3f 63 e1 d5 3f
       -1.0157925 -1.3263873 1.2151178 1.6709408
0003f0 4e 9f a6 bf 4d b7 13 bf bc 2e e3 3e 5a 51 45 3f
       -1.3017366 -0.5770157 0.44371593 0.7707726

final_layer.bias_epsilon f4 [32]
000000 75 79 4f 3f 42 c4 51 bf 15 5b 70 3f ee 80 a5 3f
       0.81044704 -0.8194009 0.9388898 1.2929971
000010 20 ed 43 bf 77 63 5f bf 02 09 30 3f 03 69 78 3f
       -0.765337 -0.87261146 0.68763745 0.97035235
000020 57 3f 96 bf b2 84 3e bf 8f 8d af be a4 8d 81 3f
       -1.173808 -0.74421227 -0.34287688 1.012135
000030 6d 01 9b 3f c9 e5 94 bf a1 d2 90 3f 08 d8 7a be
       1.210981 -1.1632625 1.1314279 -0.24496472
000040 fb 4e 64 3f 28 b8 94 bf 89 77 78 bf 92 4f aa 3f
       0.89183015 -1.16187 -0.97057396 1.3305533
000050 6e 34 33 3f f4 16 9d 3f fb 74 84 bf 6d 7d 1a 3f
       0.70001876 1.227263 -1.03482 0.60347635
000060 ca f8 a5 bf 5d 13 ba 3e af 59 0f bf 57 be 12 bf
       -1.2966549 0.36342898 -0.5599622 -0.57321686
000070 d8 2e 5e bf bd a7 af 3f cf 8b 8a 3f b2 d6 30 be
       -0.8679023 1.3723065 1.0823916 -0.172694

out1.weight_mu f4 [51, 32]
000000 85 11 d7 3e c5 22 b2 3e 08 01 e3 3e e9 43 c6 3e
       0.42005554 0.34792152 0.44336724 0.38723686
000010 0f a2 63 3e 5d 78 22 bf bd bf d6 3e 6d c8 07 3e
       0.22229789 -0.6346491 0.4194316 0.1326005
000020 56 3b 19 bf ee 89 65 be b4 b2 cc 3e fe 23 6e 3e
       -0.59856164 -0.22415897 0.3998009 0.23255917
000030 60 4c 5a 3e 4f 8a bc be 46 f7 ef 3d 45 e1 0f 3e
       0.21318197 -0.3682427 0.117170855 0.14050777
000040 14 3a 1d bf d6 98 83 be 5c 0f aa 3d 64 92 5e 3e
       -0.61416745 -0.25702542 0.08303711 0.21735531
000050 47 83 ca be ed 24 c7 3e 27 02 02 be 37 83 5a be
       -0.39553282 0.3889536 -0.12696134 -0.21339117
000060 c3 2d 7b 3e 14 70 b7 3e ce 3e 1f 3f 60 d4 36 3f
       0.24529175 0.35827696 0.6220521 0.7141781
000070 cc 7a 10 3f 54 68 91 be 9c 13 24 3e ea 23 fb be
       0.56437373 -0.2839991 0.16023105 -0.49050838
000080 02 b1 be 3e df 1f b3 3e 23 ff 05 3f 01 c0 92 3e
       0.3724442 0.34985253 0.5234243 0.28662112
000090 63 cc 12 3e a1 e8 91 be dd e5 24 3f 7f 31 b9 3e
       0.1433578 -0.28497794 0.64413244 0.36170575
0000a0 09 86 07 3e 49 6d 76 3e 61 5a 06 3f cb 82 8e 3e
       0.13234724 0.24065126 0.5248166 0.27834162
0000b0 d9 7d bd bd 65 a5 c3 be 30 56 65 bd c9 d0 3c 3f
       -0.09252519 -0.38212124 -0.055990398 0.7375608
0000c0 d6 00 b9 be 41 db 41 be 12 d2 da 3e ba b0 35 3f
       -0.3613345 -0.18931295 0.42738396 0.7097279
0000d0 7b 12 d2 be d4 d2 fb 3e a3 16 64 3c 89 73 df 3d
       -0.41029724 0.49184287 0.013921413 0.109107085
0000e0 fd 51 1e 3f 6a 9f 1c 3f 31 b4 21 3f 5d 0a a9 3d
       0.61843854 0.61180747 0.63165575 0.0825393
0000f0 b0 90 b4 3e 71 5a 38 3e 29 1a 9b 3d eb f9 4f be
       0.35266638 0.1800325 0.07573349 -0.2031018
000100 79 d9 bc be 56 01 68 3e 31 44 f4 bd f7 95 b4 bd
       -0.36884668 0.2265676 -0.11927069 -0.08817666
000110 d3 35 33 be 56 a9 f1 be 28 e4 cd be 50 0e 2b bf
       -0.17501001 -0.47199506 -0.40213132 -0.66818714
000120 87 71 e6 bd 2f c3 d7 3e ff cf 79 3d 88 ec c0 3e
       -0.11252122 0.421411 0.060989376 0.3768046
000130 67 b1 2b 3e 6f b7 c7 be 04 c4 ad be 48 7f 4e 3e
       0.16766892 -0.39007136 -0.3393861 0.20165741
000140 4a c5 01 bf 79 5f 99 bb 15 db 8f 3d dd 76 43 3e
       -0.50691664 -0.0046805707 0.070242085 0.19088311
000150 7b 1b 8a be 05 0f bf 3e e3 d8 43 bf d2 ee 1c bf
       -0.2697409 0.37316146 -0.7650282 -0.6130191
000160 d8 2c 23 bd e7 75 80 3d 40 76 eb 3e 32 c6 03 3e
       -0.03983769 0.06272488 0.45988655 0.12868574
000170 05 b0 bc bd e6 25 80 3e 0e 05 fd bd 38 b7 d5 bc
       -0.092132606 0.25028914 -0.1235448 -0.026088342
000180 46 53 bd be a1 dd 4c 3d f2 3a 0d be 19 f3 b1 bd
       -0.36977595 0.05001605 -0.13792017 -0.08688945
000190 f5 c9 a7 bd bc 80 14 bf ae 47 8e bc 9f 34 0a bf
       -0.08192817 -0.58008933 -0.017368164 -0.53986543
0001a0 09 54 81 bd 30 0d a6 3e fc a9 27 3d 67 2f 33 3e
       -0.063148566 0.32431936 0.040933594 0.17498551
0001b0 fa 50 54 3e 47 a9 1c bf 18 21 74 be c9 27 95 3e
       0.20734015 -0.61195797 -0.2384075 0.29131916
0001c0 33 bb a0 be 40 2b 85 be 86 db 95 3e e0 49 c5 3e
       -0.31392822 -0.2600956 0.29269046 0.38532925
0001d0 89 5b 6c be 67 99 da 3e 61 14 13 bf d9 0d b7 be
       -0.23081793 0.42695162 -0.5745297 -0.35752752
0001e0 1a 45 f4 bd 50 20 ec 3d ff c2 2b 3f 30 cb 98 3d
       -0.119272426 0.115296006 0.67094415 0.0746063
0001f0 6d 64 2a 3e fe b2 cd 3e 41 d7 8a be 04 2a 60 3d
       0.16639872 0.40175623 -0.2711735 0.05472757
000200 98 a0 01 bf c5 8a b0 3d 64 2e b5 bc 6f 48 13 be
       -0.5063567 0.08620218 -0.022116847 -0.143831
000210 24 8c a9 3d 71 95 1f bf 97 99 52 be d9 85 bc be
       0.08278683 -0.62337404 -0.20566402 -0.36820868
000220 9b ba e9 bd e3 69 95 3e c5 51 33 3c df 45 4b 3e
       -0.11412545 0.29182348 0.010944788 0.19850872
000230 f1 f9 cf 3d dd 19 26 bf 15 5c 84 be 96 ee 82 3e
       0.101550944 -0.64883214 -0.25851503 0.25572652
000240 94 63 34 bf 30 64 97 be b7 cc a6 3e 15 a9 ae 3e
       -0.70464444 -0.29568624 0.3257806 0.34113374
000250 e5 2c 6b be b4 4f 8a 3e 7a 46 2d bf e2 05 1a bf
       -0.22966345 0.27013934 -0.67685664 -0.60165226
000260 6e ae 89 bd d5 a6 db 3d 80 f5 8c 3e 88 89 1c 3c
       -0.06722723 0.1072518 0.27531052 0.009554274
000270 77 52 9a 3e 98 c8 fb 3e 2a 4a 26 be 9a 1d 49 bc
       0.3014104 0.49176478 -0.16239229 -0.012275124
000280 6d 0b 04 bf 1a 9f 7a bd 84 cf 37 3e 1c 34 db be
       -0.51579934 -0.061186887 0.17950255 -0.42813194
000290 d6 76 a1 bd b6 68 34 bf 5f 44 03 3d ae d6 af be
       -0.07883994 -0.70472276 0.032047626 -0.34343475
0002a0 27 9c 00 3e 8f b5 0c 3f b4 7b 9d bd 95 63 ab 3e
       0.12559567 0.54964536 -0.0768961 0.33474413
0002b0 97 fd 31 bc e6 1c 0c bf 31 75 6c be c0 f1 32 bd
       -0.010863683 -0.54731596 -0.2309158 -0.043687582
0002c0 c0 07 ad bc ec 5a a5 be fb 3c a6 3e 42 b1 33 3d
       -0.02112186 -0.3229593 0.324684 0.043870218
0002d0 26 6c 9a be 7c 8b 91 3e a6 ab 63 bf 37 ce ab be
       -0.30160636 0.2842673 -0.8893379 -0.33555767
0002e0 51 60 0e 3d 6f fc 9e 3d c1 2d 2b 3f c2 6a 98 be
       0.034759823 0.07762992 0.6686669 -0.2976895
0002f0 d3 0b 72 bd 7d 98 f3 3e bc 61 c6 bc 93 5d a9 3c
       -0.059093308 0.47577277 -0.024216525 0.020674502
000300 cf 61 37 bf 0a ee 2e be 2f 1a c0 3d f6 cd 49 be
       -0.7163362 -0.17082992 0.09379994 -0.19707474
000310 dc 2e 91 bd 81 e8 09 bf 37 f5 3f be 41 dc d7 be
       -0.07089016 -0.538704 -0.18745886 -0.42160228
000320 87 34 4d 3e 4e 6c 2e 3f fb 2f de bd 92 df 32 3e
       0.20039569 0.6813401 -0.10848995 0.17468098
000330 36 d9 11 3e 4e b0 ed be 16 ad 23 be 2b 7e 23 3e
       0.14243016 -0.46423572 -0.15983996 0.15966098
000340 16 7a d0 3d c3 8b 02 bf 25 a3 8d 3e 9b 5e aa 3e
       0.10179536 -0.5099451 0.27663532 0.33275303
000350 72 9c 38 be bf a0 91 3e 41 4e 69 bf d0 7e 5b be
       -0.18028429 0.28442952 -0.9113503 -0.21435094
000360 6f 03 90 be 06 53 44 3d dd 6f c2 3e 55 55 4d be
       -0.2812762 0.04793074 0.3797597 -0.20052083
000370 97 18 d2 3d df 93 7b 3e e4 04 5d be 41 7d 54 3e
       0.102585964 0.24568127 -0.21583897 0.20750906
000380 93 44 2e bf 10 f9 8f bd c7 81 21 be 14 99 b3 be
       -0.68073386 -0.07029927 -0.15772162 -0.35077727
000390 48 d9 1a be 04 a4 04 bf 1a 5a b4 be dd c0 aa be
       -0.15121949 -0.5181277 -0.35224992 -0.33350268
0003a0 26 5b 11 3e 3e ff 29 3f a7 5c 45 be 1f b9 79 3e
       0.14194927 0.66405094 -0.19273625 0.24387024
0003b0 51 36 fb 3d e6 10 20 bf 07 f8 89 be c7 a5 84 3e
       0.122662194 -0.62525785 -0.26947042 0.25907728
0003c0 b5 c8 92 be 33 0a 08 be 8a 1e c1 3e 4c 14 85 3e
       -0.28668752 -0.1328514 0.37718612 0.25992048
0003d0 56 ba 81 be 7d 5c 57 3e ae ab 5d bf b0 aa 10 bf
       -0.25337476 0.21031375 -0.8659009 -0.5651045
0003e0 06 fd 8a bc 90 c6 b0 bd ac 97 ee 3e 64 d2 77 be
       -0.016966354 -0.08631623 0.4660009 -0.24201351
0003f0 1f 92 62 3e 7c 25 90 3e 9a 33 3c be a3 5f 65 3e
       0.22126053 0.28153598 -0.1837906 0.22399764
