turtlebot3_dqn/save_model/stage_1_260target.pth (torch_old, 164553 bytes, 22 tensors)

feature_layer.0.weight f4 [64, 26]
-0.05668939 -0.13629867 -0.8153159 -0.19749063 0.038676355 0.2596908 0.052858762 0.2869057
0.21322508 0.031416535 0.037867874 -0.16663848 -0.1953196 -0.08188192 -0.08335335 -0.09582274
0.052972097 -0.07232934 0.16667783 0.19760017 0.29778913 0.23042765 0.1480242 -0.17916062
-0.39784703 0.025897644 -0.18154724 -0.27558064 -0.23680462 0.109231494 0.109287076 -0.04254405
-0.156855 0.122247815 0.17872676 0.13951407 0.20161223 0.26829213 0.03981769 -0.07267104
0.22798079 0.1264377 0.09786726 0.041294567 0.02234828 -0.18753575 -0.2030712 -0.36597
-0.36064324 -0.32626787 0.6115531 0.20655413 -0.3531072 -0.4154991 -0.24808641 0.21097504
0.2463706 0.2065886 0.28428787 0.06981668 -0.05689342 -0.039111808 0.015718164 0.073047265
-0.1448804 -0.001870903 0.021801488 0.0041861446 0.09620778 0.25100017 0.12080221 -0.04472026
0.09056723 0.14237966 -0.645742 -0.47311375 0.7265427 0.06485897 -0.032491673 -0.11540262
-0.0043104957 -0.26395965 -0.5291929 -0.21591888 -0.10656408 -0.12464144 0.049279343 0.17767726
0.074645504 -0.09882091 0.0447643 -0.05969833 0.13119036 0.26436418 0.09852265 0.025845759
0.082666114 -0.020855522 0.033713996 -0.29883483 -0.30648622 -0.30135623 0.8214713 0.21356426
-0.27510622 -1.0168642 -0.060436487 -0.29986277 0.4896767 0.114796296 0.16582446 -0.010822823
0.056178883 -0.04998048 0.064396895 -0.049460642 0.035507564 -0.06804426 -0.13732177 -0.056135286
-0.06781995 0.15964201 0.011741099 -0.06377082 0.18941662 0.31077394 -0.039157964 -0.48149484
0.039910357 -0.13600987 0.10848088 -0.07606482 -0.090057746 -0.078513265 0.028753988 -0.11279349
-0.1093508 -0.14782621 -0.07824865 -0.07290861 -0.05806174 -0.09272795 0.0561379 0.081811875
-0.044104226 -0.12028481 -0.058387857 0.11257904 0.08453052 0.001917432 0.04857622 0.10216862
0.17088093 -0.16852237 -0.9881231 0.49289387 -0.12195597 -0.73042566 0.15887308 0.18226661
0.09746821 0.29726422 0.25661963 0.077273615 0.1082385 -0.06033333 -0.19765377 -0.14197497
-0.13641147 -0.22559215 -0.34691513 -0.22055398 0.056761846 -0.07448998 0.22668003 0.20720144
0.029632336 0.17864093 0.22411092 -0.008905739 0.7042302 -0.8042777 -0.27798426 -0.2783508
0.055677973 0.1100548 -0.27978364 -0.12581982 -0.070248 -0.04298548 -0.24181487 -0.14038907
-0.06043183 -0.0176714 0.0022359786 -0.06326493 0.030683327 0.049726292 0.011843377 -0.21820264
-0.21133406 -0.19895017 -0.19897598 -0.29819098 -0.38527954 -0.0871475 0.37532276 0.46424153
-0.0864099 -0.24829397 -0.18108265 -0.3766052 -0.51397943 -0.17811222 -0.2082612 -0.42928874
-0.11561124 0.14506596 0.020911021 -0.036802657 0.052223194 -0.0029595045 -0.0834668 -0.03641081
-0.16381688 -0.0006020106 0.08285344 0.24930178 0.075429976 -0.13565782 -0.1806229 -0.22739653
0.5179707 -0.07674584 0.050269637 0.09576619 0.14330049 0.062670425 0.12764354 0.1776987
-0.0852074 -0.15562646 -0.29494774 -0.22017406 -0.20979911 -0.30346993 -0.20657526 -0.19971837
-0.16314004 -0.26691157 -0.077885516 -0.16840075 -0.094486296 -0.055101894 0.3446674 0.20985013
00000000: 2233 68bd e191 0bbe 8bb8 50bf fc3a 4abe
00000010: 196b 1e3d 31f6 843e 6e82 583d 4ee5 923e
00000020: ad57 5a3e a0ae 003d 581b 1b3d 47a3 2abe
00000030: dc01 48be b5b1 a7bd 29b5 aabd b63e c4bd
00000040: 45f9 583d 6821 94bd 98ad 2a3e b357 4a3e
00000050: d177 983e 3af5 6b3e a893 173e e275 37be
00000060: 9bb2 cbbe 4c27 d43c 85e7 39be e818 8dbe
00000070: e97c 72be c3b4 df3d e7d1 df3d ab42 2ebd
00000080: 999e 20be 105d fa3d 2604 373e c7dc 0e3e
00000090: 7073 4e3e 965d 893e e017 233d 8ed4 94bd
000000a0: cc73 693e e278 013e a16e c83d 7e24 293d
000000b0: bd13 b73c 5f09 40be e6f1 4fbe 6b60 bbbe
000000c0: 3ba6 b8be 950c a7be be8e 1c3f ed82 533e
000000d0: 78ca b4be 4cbc d4be 5d0a 7ebe d709 583e
000000e0: 9348 7c3e f68b 533e 2e8e 913e 0cfc 8e3d
000000f0: 1309 69bd b433 20bd 61c3 803c ce99 953d
00000100: 875b 14be 1639 f5ba 0999 b23c ed2b 893b
00000110: 9608 c53d 1883 803e 2667 f73d 972c 37bd
00000120: 507b b93d f9cb 113e 594f 25bf f73b f2be
00000130: b4fe 393f c8d4 843d fd15 05bd 3558 ecbd
00000140: 0f3f 8dbb b825 87be 3079 07bf d719 5dbe
00000150: 453e dabd 0344 ffbd 23d9 493d 07f1 353e
00000160: bedf 983d 9e62 cabd c55a 373d 3c86 74bd
00000170: c456 063e be5a 873e 3ec6 c93d 7cba d33c
00000180: da4c a93d 33d9 aabc b017 0a3d e100 99be
00000190: c3eb 9cbe 5d4b 9abe f14b 523f 97b0 5a3e
000001a0: b9da 8cbe 9b28 82bf 408c 77bd 9d87 99be
000001b0: e8b6 fa3e 521a eb3d e3cd 293e 3652 31bc
000001c0: d41b 663d 55b8 4cbd 85e2 833d 3e97 4abd
000001d0: 6170 113d ca5a 8bbd 149e 0cbe 1dee 65bd
000001e0: 30e5 8abd 3279 233e bd5d 403c 479a 82bd
000001f0: 6ef6 413e c31d 9f3e 1a64 20bd 7e86 f6be
00000200: 0b79 233d 2c46 0bbe 392b de3d dfc7 9bbd
00000210: 3270 b8bd 90cb a0bd 7c8d eb3c 4600 e7bd
00000220: 50f3 dfbd c15f 17be d440 a0bd 1c51 95bd
00000230: 26d2 6dbd 27e8 bdbd dbf0 653d fc8c a73d
00000240: a2a6 34bd e257 f6bd 1b28 6fbd d78f e63d
00000250: 561e ad3d 5752 fb3a dcf7 463d c83d d13d
00000260: 69fb 2e3e 2191 2cbe a3f5 7cbf 965c fc3e
00000270: 0dc4 f9bd 2dfd 3abf a0af 223e 19a4 3a3e
00000280: 6a9d c73d 0433 983e a663 833e a141 9e3d
00000290: 26ac dd3d 1520 77bd c065 4abe e361 11be
000002a0: 73af 0bbe a101 67be dc9e b1be e7d8 61be
000002b0: 1c7f 683d 348e 98bd cf1e 683e 9d2c 543e
000002c0: 83bf f23c a6ed 363e 557d 653e 60e9 11bc
000002d0: 6e48 343f 25e5 4dbf f453 8ebe ff83 8ebe
000002e0: 960e 643d 6964 e13d cd3f 8fbe e9d6 00be
000002f0: 2fde 8fbd 8b11 30bd 519e 77be 27c2 0fbe
00000300: 5e87 77bd 9dc3 90bc 7f89 123b 0b91 81bd
00000310: 9a5b fb3c ccad 4b3d b90a 423c 8370 5fbe
00000320: f567 58be 98b9 4bbe 5cc0 4bbe 7dac 98be
00000330: 5c43 c5be 637a b2bd 4e2a c03e 11b1 ed3e
00000340: acf7 b0bd c640 7ebe bb6d 39be 66d2 c0be
00000350: 2894 03bf 0d63 36be 6d42 55be bccb dbbe
00000360: 96c5 ecbd 2c8c 143e 974d ab3c 62be 16bd
00000370: fde7 553d 3ff4 41bb a4f0 aabd 8023 15bd
00000380: 9dbf 27be 3fd0 1dba 10af a93d f748 7f3e
00000390: 087b 9a3d e2e9 0abe 36f5 38be a3da 68be
000003a0: ba99 043f ec2c 9dbd 89e7 4d3d 1021 c43d
000003b0: 5dbd 123e 5a59 803d fdb4 023e a6f6 353e
000003c0: 3881 aebd 8b5c 1fbe 6403 97be 4f75 61be
000003d0: 94d5 56be 6960 9bbe 7788 53be f982 4cbe
000003e0: 2f0e 27be a2a8 88be 7182 9fbd 3f71 2cbe
000003f0: 0882 c1bd 86b2 61bd 3f78 b03e f4e2 563e

feature_layer.0.bias f4 [64]
-0.17451642 -0.031024361 -0.045632116 0.1734016 0.08598571 -0.4198677 0.0875978 -0.05547208
0.106763095 0.2554463 0.007860015 -0.13335988 0.11246765 -0.3348721 0.037560187 0.22193578
-0.11698282 0.085741445 0.2031278 0.072269104 -0.27918708 -0.19350976 0.09341869 0.058995284
-0.026990302 -0.24310519 -0.017257566 0.022575077 -0.05428404 0.22309135 -0.16748339 0.10391761
0.28815874 -0.004676902 0.07994722 -0.1571102 0.20931067 0.3288763 -0.06231807 0.0726058
0.15929215 0.27832812 -0.026790062 0.16933902 -0.16417699 0.052751344 0.22908913 0.3902383
0.31517226 -0.10718357 0.24861945 -0.062289156 -0.06652581 -0.19895247 0.0035459083 -0.18040086
-0.13862602 -0.0070589143 0.22311318 0.15599293 -0.16431685 0.008859575 -0.10514467 -0.040123053
00000000: 6fb4 32be cd26 febc bee8 3abd 3090 313e
00000010: 4719 b03d e6f8 d6be 7a66 b33d b136 63bd
00000020: 9ca6 da3d dcc9 823e 4bc7 003c 7e8f 08be
00000030: 7055 e63d 5b74 abbe b6d8 193d 2243 633e
00000040: b094 efbd 3699 af3d bc00 503e d301 943d
00000050: 9cf1 8ebe 6c27 46be 4c52 bf3d 0aa5 713d
00000060: c41a ddbc 91f0 78be bd5f 8dbc 5eef b83c
00000070: f158 5ebd 0f72 643e c480 2bbe c2d2 d43d
00000080: 8b89 933e b340 99bb 5ebb a33d 7fe1 20be
00000090: 8955 563e 7962 a83e 3c41 7fbd 5ab2 943d
000000a0: 7b1d 233e 0681 8e3e d576 dbbc 3567 2d3e
000000b0: 031e 28be cb11 583d 5796 6a3e 51cd c73e
000000c0: 425e a13e 0f83 dbbd 1996 7e3e ea22 7fbd
000000d0: af3e 88bd 32ba 4bbe 7862 683b 01bb 38be
000000e0: fbf3 0dbe 774e e7bb c877 643e 9cbc 1f3e
000000f0: ad42 28be c027 113c 1756 d7bd 1258 24bd

feature_layer.3.weight f4 [32, 64]
-0.17566311 0.4012871 0.09001802 0.6170152 -0.39840147 0.02137786 0.18756476 0.43872836
-0.034808073 0.17947257 0.64409834 0.7081719 -0.17326748 0.084620476 -0.070543356 0.17659046
0.4492567 -0.0012303629 -0.18168136 -0.2579599 0.027675655 -0.0986182 -0.5626338 0.0051374044
0.11064096 0.055715725 -0.1906688 -0.10636171 -0.24623156 0.10006799 -0.54992026 0.23919028
-0.0651968 -0.2168385 -0.3533165 0.52764845 -0.21998982 0.47328073 -0.012019718 0.20046692
-0.14592107 -0.0066691814 0.38355502 -0.3713173 0.1931612 0.99965376 -0.29176626 0.2520896
0.31600446 -0.0851712 0.08791611 -0.0031910923 0.29257503 0.0119554335 -0.73594075 0.11243167
0.5887856 0.48635197 -0.031718336 0.20149934 0.037039824 -0.21957159 -0.10423638 -0.29042965
0.07240294 -0.14851028 0.2690247 -0.15090671 0.1633189 0.16495748 -0.24306381 -0.10179025
-0.11703486 0.19715829 -0.056382753 0.26011065 -0.24141404 0.015658138 -0.018686729 0.0047136126
-0.19360746 -0.21323676 0.032069016 0.31119636 -0.41820043 -0.069054864 0.28523138 0.017546555
-0.20210835 0.081594154 0.0140468115 0.07899175 -0.21007957 -0.013687667 -0.016807968 0.16638054
0.05620142 -0.121123485 -0.016563091 0.34546348 -0.1541096 -0.10471013 0.052428354 -0.103133425
-0.16517623 -0.41895354 0.5264563 0.12316636 0.23955704 -0.18175246 -0.047794856 0.1050717
-0.00078498723 0.22899531 0.43029135 -0.13566782 0.10153985 0.06407881 -0.39246413 -0.03307895
0.24076928 0.09913141 0.03424167 0.3395701 -0.0651227 0.5186161 -0.63057876 0.1851133
-0.31257337 0.08285298 -0.035337914 0.31665576 0.4597899 0.12940983 -0.0068484694 0.46699202
0.19542539 0.21315897 0.023416787 0.003896701 -0.41008574 -0.08169418 0.061480917 0.042061493
0.14274077 -0.16097423 -0.24284863 0.06462807 -0.23781171 0.02965221 -0.1819596 0.12952703
-0.07400764 0.13463658 -0.2986781 0.064068876 -0.18566878 -0.052060694 0.016135 0.014240851
0.18109676 0.27001545 -0.25673214 0.44742045 -0.2844279 0.19612747 -0.10989701 0.3927766
0.25526664 -0.34455055 0.13447878 0.046960235 0.27484953 -0.007970608 -0.0923323 0.09768413
-0.09172546 -0.035860777 0.21636818 0.12922034 0.2576353 -0.004570883 -0.65354025 -0.009291426
0.50395954 0.15006582 0.18619353 0.20545422 0.012872237 0.42998418 -0.17071141 -0.133784
0.24320284 -0.18721817 -0.15899627 0.56104803 -0.043461893 0.006245973 0.43193233 0.030062158
0.15500239 -0.0071794065 0.17256467 -0.03525812 0.2219014 -0.20685846 0.06372443 -0.12622397
0.12930319 -0.05274212 0.11483181 -0.06477086 -0.49039698 -0.011373755 -0.44082943 -0.23332283
0.06717999 0.05098838 -0.23854072 0.053648222 -0.29874867 -0.06870104 0.097906336 0.22618581
-0.16383128 0.00039485667 -0.01459419 0.09914059 0.09715739 -0.2077772 -0.053997662 -0.54577273
0.06688 0.18619698 -0.022143159 0.04336265 0.5079331 0.070561394 0.11259886 0.11195377
-0.26657134 -0.05092839 0.43644688 -0.23674393 0.15889192 0.067315124 -0.2763396 -0.0094931
0.46143115 0.06606447 -0.40332812 0.2803425 -0.47807747 0.3492067 -0.53420925 -0.057794437
00000000: 08e1 33be 8175 cd3e 5e5b b83d b5f4 1d3f
00000010: 47fb cbbe 9f20 af3c fa10 403e 01a1 e03e
00000020: e992 0ebd a8c7 373e a1e3 243f c14a 353f
00000030: 086d 31be 804d ad3d 0979 90bd 21d4 343e
00000040: f904 e63e 2144 a1ba ae0a 3abe 5213 84be
00000050: 0eb8 e23c 57f8 c9bd c508 10bf ac57 a83b
00000060: ba97 e23d 2c36 643d af3e 43be 2bd4 d9bd
00000070: 2024 7cbe 72f0 cc3d 93c7 0cbf 4cee 743e
00000080: e685 85bd e90a 5ebe e6e5 b4be f813 073f
00000090: 0345 61be da51 f23e 5aee 44bc 3347 4d3e
000000a0: 556c 15be 2689 dabb 5361 c43e 4d1d bebe
000000b0: 0dcc 453e 4fe9 7f3f 6362 95be e311 813e
000000c0: 56cb a13e 3d6e aebd 5d0d b43d a521 51bb
000000d0: 65cc 953e b9e0 433c 9d66 3cbf 9342 e63d
000000e0: a7ba 163f 2003 f93e 16eb 01bd d855 4e3e
000000f0: 12b7 173d 60d7 60be e279 d5bd 32b3 94be
00000100: fe47 943d 1413 18be 9bbd 893e 4a87 1abe
00000110: 123d 273e 9dea 283e b8e5 78be 6877 d0bd
00000120: f9af efbd dde3 493e 9af1 66bd 392d 853e
00000130: 3e35 77be 7f45 803c e914 99bc a674 9a3b
00000140: 0941 46be bd5a 5abe cd5a 033d 2155 9f3e
00000150: 5e1e d6be a36c 8dbd d909 923e cbbd 8f3c
00000160: 7ef5 4ebe d61a a73d 9924 663c 6dc6 a13d
00000170: 191f 57be 3d42 60bc ddb0 89bc a95f 2a3e
00000180: 7633 663d 970f f8bd 52af 87bc 97e0 b03e
00000190: e8ce 1dbe 4472 d6bd 1dbf 563d 9e37 d3bd
000001a0: f523 29be 1481 d6be d7c5 063f a53e fc3d
000001b0: 714e 753e 511d 3abe 8ac4 43bd d52f d73d
000001c0: 9ac7 4dba bf7d 6a3e 264f dc3e 81ec 0abe
000001d0: 20f4 cf3d c03b 833d 0ff1 c8be cb7d 07bd
000001e0: 398c 763e 6905 cb3d fe40 0c3d 22dc ad3e
000001f0: 0d5f 85bd 06c4 043f 9c6d 21bf 578e 3d3e
00000200: 9e09 a0be d3ae a93d 7dbe 10bd b420 a23e
00000210: 9569 eb3e 0384 043e 2069 e0bb 9419 ef3e
00000220: 981d 483e 5846 5a3e 90d4 bf3c cb5f 7f3b
00000230: c2f6 d1be 474f a7bd 6ad3 7b3d ac48 2c3d
00000240: a32a 123e 6ed6 24be 50ad 78be b95b 843d
00000250: ea84 73be 31e9 f23c 9e53 3abe bca2 043e
00000260: 5191 97bd 2cde 093e 56ec 98be 8b36 833d
00000270: f51f 3ebe 983d 55bd 8c2d 843c 7552 693c
00000280: 6e71 393e 773f 8a3e 6572 83be 4b14 e53e
00000290: 89a0 91be a4d5 483e af11 e1bd 041a c93e
000002a0: 4fb2 823e ee68 b0be ceb4 093e 6059 403d
000002b0: 14b9 8c3e 2797 02bc b818 bdbd 9e0e c83d
000002c0: 8fda bbbd c0e2 12bd 9f8f 5d3e 5652 043e
000002d0: c6e8 833e 58c7 95bb 6a4e 27bf 113b 18bc
000002e0: 7e03 013f dbaa 193e 84a9 3e3e 9762 523e
000002f0: 13e6 523c e326 dc3e f9ce 2ebe acfe 08be
00000300: 2a0a 793e 1fb6 3fbe ebcf 22be d8a0 0f3f
00000310: 1905 32bd 05ab cc3b 3c26 dd3e ea44 f63c
00000320: f2b8 1e3e 3a41 ebbb cbb4 303e d26a 10bd
00000330: 1f3a 633e b4d2 53be f481 823d db40 01be
00000340: 0e68 043e 1f08 58bd f12c eb3d 96a6 84bd
00000350: 5015 fbbe fc58 3abc 65b4 e1be 2eec 6ebe
00000360: aa95 893d 31d9 503d 0544 74be 3dbe 5b3d
00000370: 96f5 98be 22b3 8cbd 1e83 c83d 419d 673e
00000380: 63c3 27be c404 cf39 781c 6fbc 390a cb3d
00000390: 74fa c63d 8cc3 54be a72c 5dbd c3b7 0bbf
000003a0: 62f8 883d 6caa 3e3e 9265 b5bc 099d 313d
000003b0: e707 023f 7e82 903d 3b9a e63d 0548 e53d
000003c0: 0a7c 88be 4a9a 50bd f775 df3e 006d 72be
000003d0: 90b4 223e 83dc 893d 627c 8dbe f388 1bbc
000003e0: b440 ec3e cf4c 873d 0681 cebe 0d89 8f3e
000003f0: 92c6 f4be 38cb b23e f0c1 08bf dcb9 6cbd

feature_layer.3.bias f4 [32]
0.00653802 -0.21837066 -0.11598145 -0.022036303 -0.14372681 0.13809307 -0.37936744 0.18407436
0.078244664 -0.054993242 -0.14147268 -0.09759966 -0.051549193 0.052618723 0.17237185 -0.0682692
-0.11140464 0.40664575 0.17727341 -0.09648129 -0.03061921 -0.074076384 0.5647936 -0.12414591
-0.10722983 0.13100299 -0.0034585386 -0.41111884 -0.28870443 0.068158686 -0.0015474686 0.3069526
00000000: e33c d63b 8f9c 5fbe af87 edbd 7a85 b4bc
00000010: 1f2d 13be 4568 0d3e 733c c2be fd7d 3c3e
00000020: bd3e a03d 9840 61bd 37de 10be 55e2 c7bd
00000030: 3f25 53bd bb86 573d 3f82 303e b9d0 8bbd
00000040: 1e28 e4bd df33 d03e 2987 353e fc97 c5bd
00000050: 23d5 fabc 5cb5 97bd 5096 103f 3640 febd
00000060: 509b dbbd a625 063e a6a8 62bb 2b7e d2be
00000070: 11d1 93be c896 8b3d 6ed4 caba e428 9d3e

final_layer.weight_mu f4 [32, 64]
-0.060270846 0.05498673 -0.079894185 0.08019745 -0.04154177 -0.09124845 -0.029807225 0.0031413436
0.014295325 -0.087107465 -0.092648834 0.063809276 -0.116453215 -0.07819231 0.113354 -0.08457777
-0.041381836 0.041602448 0.05467747 -0.030642837 -0.018933564 0.09572756 -0.1047512 0.0294483
-0.004650235 -0.040284544 -0.088306844 0.007975236 -0.09386255 -0.033529565 0.095042005 0.06954618
0.0015053302 -0.09013873 0.0011701882 0.06307581 0.115027234 0.0061579198 0.07536577 -0.10198225
-0.067506865 0.049365625 -0.10556637 0.063027516 0.025914714 -0.06443676 -0.008816153 -0.040176064
0.08013961 0.09418553 0.04740253 0.056117803 -0.0629839 0.09357539 0.059601516 0.11462705
0.0497351 -0.1077635 0.10543756 0.07563414 -0.04763201 0.0151124 0.05393152 -0.028906196
-0.08452886 0.037737086 -0.03276801 0.0029934198 -0.07151301 -0.008012414 0.11979282 -0.10903925
0.042813033 0.04356949 0.046354175 -0.041525617 0.030001238 -0.08057079 -0.032146916 -0.117334306
0.11354785 -0.027325422 -0.031230897 0.069544986 -0.04118368 -0.028832167 0.10892898 0.107797995
-0.00019466877 -0.0053468198 -0.04602602 -0.041529 0.11944473 -0.082336605 0.04381506 -0.101730764
0.10675113 -0.023863688 -0.094354704 -0.0057275444 0.009167835 0.059266165 0.03754899 -0.116168424
0.05488448 -0.10174191 -0.112784415 -0.10842484 -0.06374158 -0.022878975 0.0073909312 0.024720564
-0.033566102 -0.077796936 0.05927685 -0.014657214 0.020562768 -0.12216176 0.041380644 -0.06559208
-0.10626568 0.02257815 -0.012565166 -0.0036384612 0.081162944 0.057194814 -0.021667108 0.12407008
-0.008867398 0.082363516 -0.07622944 -0.007619828 -0.109449506 -0.10085754 0.019730568 -0.097253606
0.02566433 0.046367124 -0.0482962 0.051063076 0.09097481 0.09439206 -0.017725736 -0.0362567
-0.09391381 0.10030264 -0.02699764 -0.01920572 -0.053553253 0.09706226 0.12096687 0.01741539
0.06723638 0.06304905 -0.10124928 0.0037838072 0.05906281 0.09171465 0.08022618 0.030766726
-0.06776562 -0.031998888 0.04857585 0.11774725 0.012326553 -0.005779937 -0.03666264 -0.0038124472
0.05857782 -0.066658214 -0.022756115 0.032713577 -0.009729072 -0.049963355 -0.01848644 -0.0014102906
-0.0974856 0.10493244 0.0793647 0.0656669 -0.01946108 -0.06638734 0.09418137 -0.062148347
0.10184325 0.010322288 0.031171829 -0.057196885 0.07194194 -0.06339978 -0.058806345 -0.050943166
0.09826504 0.019719139 -0.01570478 0.058044225 -0.05203849 0.05468695 0.013105676 0.04382664
-0.092865765 -0.045015797 0.09660739 -0.07305141 -0.112599775 0.019312546 -0.06595416 -0.012716979
-0.00945203 0.041774973 -0.06967966 0.0672207 -0.10694991 -0.037086233 0.106233805 -0.03961578
0.06334968 -0.028330997 0.08600664 0.07732509 0.013066798 -0.023060203 0.09543097 -0.031837016
-0.03047517 0.05948572 0.016339496 -0.031092301 0.0016493797 -0.062869 0.076842174 -0.05178596
-0.102193445 0.0886603 0.06633198 -0.116457745 -0.012952715 -0.041606575 0.0015877336 0.015616268
0.120972216 -0.091177106 -0.006259516 -0.05991243 0.06138836 0.10223666 0.01697819 -0.022183836
-0.023106754 -0.08886546 0.032375947 0.09788057 -0.046288446 0.0865145 -0.014579266 0.0011030883
00000000: 90de 76bd c439 613d 909f a3bd 903e a43d
00000010: b427 2abd 78e0 babd 482e f4bc 00df 4d3b
00000020: f036 6a3c 6665 b2bd acbe bdbd 70ae 823d
00000030: 067f eebd 4a23 a0bd 2426 e83d 1c37 adbd
00000040: 0080 29bd 5467 2a3d 7cf5 5f3d b006 fbbc
00000050: 901a 9bbc d00c c43d cc87 d6bd 903d f13c
00000060: 0061 98bb 6801 25bd 38da b4bd 90aa 023c
00000070: 023b c0bd 4c56 09bd 62a5 c23d 3a6e 8e3d
00000080: 804e c53a a89a b8bd 0061 993a e42d 813d
00000090: 6693 eb3d 60c8 c93b 5e59 9a3d 12dc d0bd
000000a0: 0a41 8abd 9c33 4a3d 2e33 d8bd 9214 813d
000000b0: 184b d43c 6cf7 83bd a071 10bc a88f 24bd
000000c0: 3c20 a43d 58e4 c03d 2829 423d c8db 653d
000000d0: b4fd 80bd 74a4 bf3d b820 743d 96c1 ea3d
000000e0: 08b7 4b3d 1cb3 dcbd a6ef d73d 12e6 9a3d
000000f0: c819 43bd 009a 773c 4ce7 5c3d b0cc ecbc
00000100: 781d adbd 3492 1a3d c037 06bd 402d 443b
00000110: 6a75 92bd 8046 03bc f055 f53d f84f dfbd
00000120: b85c 2f3d ec75 323d e0dd 3d3d c416 2abd
00000130: 28c5 f53c 4c02 a5bd 7cac 03bd f84c f0bd
00000140: c68b e83d 90d9 dfbc f0d7 ffbc 9a6d 8e3d
00000150: 38b0 28bd 7031 ecbc 2816 df3d 32c5 dc3d
00000160: 0020 4cb9 6034 afbb c885 3cbd 501a 2abd
00000170: 709f f43d 18a0 a8bd 6c77 333d 3858 d0bd
00000180: 56a0 da3d c87d c3bc 0a3d c1bd 20ae bbbb
00000190: b034 163c 14c1 723d f8cc 193d b6e9 edbd
000001a0: 8cce 603d 105e d0bd 84fb e6bd d80d debd
000001b0: f28a 82bd b06c bbbc a02f f23b c882 ca3c
000001c0: 9c7c 09bd 0054 9fbd 48cc 723d d024 70bc
000001d0: 4073 a83c f22f fabd c07e 293d 2455 86bd
000001e0: d2a1 d9bd d0f5 b83c 20de 4dbc 4073 6ebb
000001f0: c238 a63d 1c45 6a3d 387f b1bc 7418 fe3d
00000200: 9048 11bc 34ae a83d 2e1e 9cbd c0af f9bb
00000210: 1027 e0bd 668e cebd 00a2 a13c e62c c7bd
00000220: 003e d23c 74eb 3d3d 3cd2 45bd 8427 513d
00000230: 0051 ba3d a050 c13d 9035 91bc e881 14bd
00000240: e255 c0bd 786b cd3d 282a ddbc 5055 9dbc
00000250: a85a 5bbd 94c8 c63d 7abd f73d b8aa 8e3c
00000260: 3ab3 893d dc1f 813d c85b cfbd c0f9 773b
00000270: d8eb 713d e4d4 bb3d a04d a43d 800a fc3c
00000280: b4c8 8abd 4411 03bd 78f7 463d 7825 f13d
00000290: 50f5 493c a065 bdbb 902b 16bd 40da 79bb
000002a0: 4cef 6f3d 1a84 88bd 086b babc acfe 053d
000002b0: b066 1fbc 60a6 4cbd e070 97bc 80d9 b8ba
000002c0: 88a6 c7bd d2e6 d63d f689 a23d 5e7c 863d
000002d0: d86c 9fbc 16f6 87bd 2ae2 c03d 448f 7ebd
000002e0: 3293 d03d d01e 293c 105c ff3c 4847 6abd
000002f0: 4c56 933d bed7 81bd ecde 70bd c8a9 50bd
00000300: 2e3f c93d 088a a13c 50a7 80bc c8bf 6d3d
00000310: 5026 55bd 6cff 5f3d 30b9 563c 9083 333d
00000320: 6830 bebd 7c62 38bd 18da c53d fa9b 95bd
00000330: b69a e6bd 5835 9e3c fa12 87bd e05a 50bc
00000340: b0dc 1abc 3c1c 2b3d 36b4 8ebd 02ab 893d
00000350: 8e08 dbbd bce7 17bd 1c91 d93d 2844 22bd
00000360: 7abd 813d 6816 e8bc 4024 b03d 9e5c 9e3d
00000370: 2016 563c c0e8 bcbc 5071 c33d 8867 02bd
00000380: 10a7 f9bc 4ca7 733d 68da 853c 48b5 febc
00000390: 0030 d83a 76c1 80bd 6e5f 9d3d 841d 54bd
000003a0: cc4a d1bd 8893 b53d 10d9 873d 6681 eebd
000003b0: a037 54bc a86b 2abd 801b d03a 60db 7f3c
000003c0: 48c0 f73d 10bb babd a01c cdbb bc66 75bd
000003d0: 5c72 7b3d 7461 d13d d815 8b3c e0ba b5bc
000003e0: 604a bdbc 18ff b5bd a49c 043d 9c75 c83d
000003f0: f498 3dbd 842e b13d e0dd 6ebc 8095 903a

final_layer.weight_sigma f4 [32, 64]
0.075 0.075 0.075 0.075 0.075 0.075 0.075 0.075
0.075 0.075 0.075 0.075 0.075 0.075 0.075 0.075
0.075 0.075 0.075 0.075 0.075 0.075 0.075 0.075
0.075 0.075 0.075 0.075 0.075 0.075 0.075 0.075
0.075 0.075 0.075 0.075 0.075 0.075 0.075 0.075
0.075 0.075 0.075 0.075 0.075 0.075 0.075 0.075
0.075 0.075 0.075 0.075 0.075 0.075 0.075 0.075
0.075 0.075 0.075 0.075 0.075 0.075 0.075 0.075
0.075 0.075 0.075 0.075 0.075 0.075 0.075 0.075
0.075 0.075 0.075 0.075 0.075 0.075 0.075 0.075
0.075 0.075 0.075 0.075 0.075 0.075 0.075 0.075
0.075 0.075 0.075 0.075 0.075 0.075 0.075 0.075
0.075 0.075 0.075 0.075 0.075 0.075 0.075 0.075
0.075 0.075 0.075 0.075 0.075 0.075 0.075 0.075
0.075 0.075 0.075 0.075 0.075 0.075 0.075 0.075
0.075 0.075 0.075 0.075 0.075 0.075 0.075 0.075
0.075 0.075 0.075 0.075 0.075 0.075 0.075 0.075
0.075 0.075 0.075 0.075 0.075 0.075 0.075 0.075
0.075 0.075 0.075 0.075 0.075 0.075 0.075 0.075
0.075 0.075 0.075 0.075 0.075 0.075 0.075 0.075
0.075 0.075 0.075 0.075 0.075 0.075 0.075 0.075
0.075 0.075 0.075 0.075 0.075 0.075 0.075 0.075
0.075 0.075 0.075 0.075 0.075 0.075 0.075 0.075
0.075 0.075 0.075 0.075 0.075 0.075 0.075 0.075
0.075 0.075 0.075 0.075 0.075 0.075 0.075 0.075
0.075 0.075 0.075 0.075 0.075 0.075 0.075 0.075
0.075 0.075 0.075 0.075 0.075 0.075 0.075 0.075
0.075 0.075 0.075 0.075 0.075 0.075 0.075 0.075
0.075 0.075 0.075 0.075 0.075 0.075 0.075 0.075
0.075 0.075 0.075 0.075 0.075 0.075 0.075 0.075
0.075 0.075 0.075 0.075 0.075 0.075 0.075 0.075
0.075 0.075 0.075 0.075 0.075 0.075 0.075 0.075
00000000: 9a99 993d 9a99 993d 9a99 993d 9a99 993d
00000010: 9a99 993d 9a99 993d 9a99 993d 9a99 993d
00000020: 9a99 993d 9a99 993d 9a99 993d 9a99 993d
00000030: 9a99 993d 9a99 993d 9a99 993d 9a99 993d
00000040: 9a99 993d 9a99 993d 9a99 993d 9a99 993d
00000050: 9a99 993d 9a99 993d 9a99 993d 9a99 993d
00000060: 9a99 993d 9a99 993d 9a99 993d 9a99 993d
00000070: 9a99 993d 9a99 993d 9a99 993d 9a99 993d
00000080: 9a99 993d 9a99 993d 9a99 993d 9a99 993d
00000090: 9a99 993d 9a99 993d 9a99 993d 9a99 993d
000000a0: 9a99 993d 9a99 993d 9a99 993d 9a99 993d
000000b0: 9a99 993d 9a99 993d 9a99 993d 9a99 993d
000000c0: 9a99 993d 9a99 993d 9a99 993d 9a99 993d
000000d0: 9a99 993d 9a99 993d 9a99 993d 9a99 993d
000000e0: 9a99 993d 9a99 993d 9a99 993d 9a99 993d
000000f0: 9a99 993d 9a99 993d 9a99 993d 9a99 993d
00000100: 9a99 993d 9a99 993d 9a99 993d 9a99 993d
00000110: 9a99 993d 9a99 993d 9a99 993d 9a99 993d
00000120: 9a99 993d 9a99 993d 9a99 993d 9a99 993d
00000130: 9a99 993d 9a99 993d 9a99 993d 9a99 993d
00000140: 9a99 993d 9a99 993d 9a99 993d 9a99 993d
00000150: 9a99 993d 9a99 993d 9a99 993d 9a99 993d
00000160: 9a99 993d 9a99 993d 9a99 993d 9a99 993d
00000170: 9a99 993d 9a99 993d 9a99 993d 9a99 993d
00000180: 9a99 993d 9a99 993d 9a99 993d 9a99 993d
00000190: 9a99 993d 9a99 993d 9a99 993d 9a99 993d
000001a0: 9a99 993d 9a99 993d 9a99 993d 9a99 993d
000001b0: 9a99 993d 9a99 993d 9a99 993d 9a99 993d
000001c0: 9a99 993d 9a99 993d 9a99 993d 9a99 993d
000001d0: 9a99 993d 9a99 993d 9a99 993d 9a99 993d
000001e0: 9a99 993d 9a99 993d 9a99 993d 9a99 993d
000001f0: 9a99 993d 9a99 993d 9a99 993d 9a99 993d
00000200: 9a99 993d 9a99 993d 9a99 993d 9a99 993d
00000210: 9a99 993d 9a99 993d 9a99 993d 9a99 993d
00000220: 9a99 993d 9a99 993d 9a99 993d 9a99 993d
00000230: 9a99 993d 9a99 993d 9a99 993d 9a99 993d
00000240: 9a99 993d 9a99 993d 9a99 993d 9a99 993d
00000250: 9a99 993d 9a99 993d 9a99 993d 9a99 993d
00000260: 9a99 993d 9a99 993d 9a99 993d 9a99 993d
00000270: 9a99 993d 9a99 993d 9a99 993d 9a99 993d
00000280: 9a99 993d 9a99 993d 9a99 993d 9a99 993d
00000290: 9a99 993d 9a99 993d 9a99 993d 9a99 993d
000002a0: 9a99 993d 9a99 993d 9a99 993d 9a99 993d
000002b0: 9a99 993d 9a99 993d 9a99 993d 9a99 993d
000002c0: 9a99 993d 9a99 993d 9a99 993d 9a99 993d
000002d0: 9a99 993d 9a99 993d 9a99 993d 9a99 993d
000002e0: 9a99 993d 9a99 993d 9a99 993d 9a99 993d
000002f0: 9a99 993d 9a99 993d 9a99 993d 9a99 993d
00000300: 9a99 993d 9a99 993d 9a99 993d 9a99 993d
00000310: 9a99 993d 9a99 993d 9a99 993d 9a99 993d
00000320: 9a99 993d 9a99 993d 9a99 993d 9a99 993d
00000330: 9a99 993d 9a99 993d 9a99 993d 9a99 993d
00000340: 9a99 993d 9a99 993d 9a99 993d 9a99 993d
00000350: 9a99 993d 9a99 993d 9a99 993d 9a99 993d
00000360: 9a99 993d 9a99 993d 9a99 993d 9a99 993d
00000370: 9a99 993d 9a99 993d 9a99 993d 9a99 993d
00000380: 9a99 993d 9a99 993d 9a99 993d 9a99 993d
00000390: 9a99 993d 9a99 993d 9a99 993d 9a99 993d
000003a0: 9a99 993d 9a99 993d 9a99 993d 9a99 993d
000003b0: 9a99 993d 9a99 993d 9a99 993d 9a99 993d
000003c0: 9a99 993d 9a99 993d 9a99 993d 9a99 993d
000003d0: 9a99 993d 9a99 993d 9a99 993d 9a99 993d
000003e0: 9a99 993d 9a99 993d 9a99 993d 9a99 993d
000003f0: 9a99 993d 9a99 993d 9a99 993d 9a99 993d

final_layer.bias_mu f4 [32]
0.047675103 -0.06761406 0.11561996 -0.013023391 0.09376815 0.031449154 0.021049172 -0.048187256
0.117226064 -0.084378675 0.09871951 0.022812098 0.010599554 -0.11386193 -0.073848635 -0.09157075
0.081590295 -0.12258859 0.053882077 0.09782362 0.031791717 -0.055087477 0.12202363 -0.103129745
0.09869793 0.11264576 -0.049795404 -0.08784574 0.0063448697 -0.076724574 0.109680325 -0.054454
00000000: f846 433d 3e79 8abd 28ca ec3d 1060 55bc
00000010: 8409 c03d d4d0 003d 506f ac3c 0060 45bd
00000020: 3814 f03d bace acbd 742d ca3d 70e0 ba3c
00000030: c0a9 2d3c 7230 e9bd f43d 97bd 7289 bbbd
00000040: d018 a73d ba0f fbbd 74b3 5c3d c057 c83d
00000050: 0838 023d 68a3 61bd 86e7 f93d b035 d3bd
00000060: 2422 ca3d d2b2 e63d 44f6 4bbd 78e8 b3bd
00000070: a0e8 cf3b c621 9dbd 14a0 e03d 280b 5fbd

final_layer.bias_sigma f4 [32]
0.10606602 0.10606602 0.10606602 0.10606602 0.10606602 0.10606602 0.10606602 0.10606602
0.10606602 0.10606602 0.10606602 0.10606602 0.10606602 0.10606602 0.10606602 0.10606602
0.10606602 0.10606602 0.10606602 0.10606602 0.10606602 0.10606602 0.10606602 0.10606602
0.10606602 0.10606602 0.10606602 0.10606602 0.10606602 0.10606602 0.10606602 0.10606602
00000000: 2439 d93d 2439 d93d 2439 d93d 2439 d93d
00000010: 2439 d93d 2439 d93d 2439 d93d 2439 d93d
00000020: 2439 d93d 2439 d93d 2439 d93d 2439 d93d
00000030: 2439 d93d 2439 d93d 2439 d93d 2439 d93d
00000040: 2439 d93d 2439 d93d 2439 d93d 2439 d93d
00000050: 2439 d93d 2439 d93d 2439 d93d 2439 d93d
00000060: 2439 d93d 2439 d93d 2439 d93d 2439 d93d
00000070: 2439 d93d 2439 d93d 2439 d93d 2439 d93d

final_layer.weight_epsilon f4 [32, 64]
0.13601412 -0.4813341 -0.16087762 0.5646382 -0.44890577 0.46939915 -0.8009547 0.53442764
0.59135395 -0.42006767 0.5096779 0.5122262 0.37651375 -0.123696 -0.060305398 0.37053874
-0.66356415 -0.4296292 -0.656017 0.04824694 -0.42511895 0.3801549 0.38042927 0.3159334
-0.4861996 -0.34648287 0.4538858 -0.5149697 -0.42148927 -0.6325419 0.22817688 0.07161227
0.28181562 0.23760255 -0.673858 0.5496869 0.7756396 0.5384968 0.19267464 -0.562321
0.14464255 0.36023283 -0.5739609 -0.13077515 -0.26594758 -0.28477827 -0.49082053 -0.5281772
0.5151874 0.28578734 0.51123154 -0.45219997 -0.4411947 -0.6570213 0.2959889 -0.52399814
0.355632 -0.31327847 -0.41911745 -0.27534497 0.2588263 -0.2310972 -0.54063255 -0.1727417
-0.17558411 0.62136644 0.20768102 -0.72890586 0.5795039 -0.60595936 1.0339729 -0.6899063
-0.7633939 0.5422761 -0.6579562 -0.66124594 -0.48605123 0.15968232 0.07784978 -0.47833794
0.85661185 0.5546193 0.8468691 -0.062283203 0.5487969 -0.49075165 -0.49110585 -0.4078465
0.62764746 0.44728357 -0.5859328 0.6647876 0.54411125 0.81656444 -0.29455936 -0.09244611
-0.363803 -0.3067272 0.8699005 -0.7096049 -1.001293 -0.69515926 -0.24872862 0.72591454
-0.18672276 -0.46503377 0.74094075 0.16882098 0.34331855 0.36762756 0.63361275 0.68183744
-0.6650685 -0.3689302 -0.6599618 0.58375645 0.56954956 0.8481656 -0.3820996 0.67644256
-0.45909443 0.40441918 0.5410494 0.35544986 -0.33412546 0.2983293 0.6979163 0.22299667
-0.31891793 1.1286039 0.3772164 -1.3239305 1.052568 -1.1006196 1.8780316 -1.2530947
-1.386572 0.98495007 -1.1950628 -1.2010381 -0.8828274 0.29003513 0.14140056 -0.86881757
1.5558863 1.0073694 1.5381902 -0.11312659 0.996794 -0.89136493 -0.89200824 -0.74078214
1.1400123 0.8124127 -1.0642449 1.2074709 0.98828334 1.4831471 -0.53501576 -0.16791226
-0.6607848 -0.5571165 1.5800228 -1.2888737 -1.8186743 -1.2626357 -0.4517722 1.3184973
-0.33914936 -0.84465283 1.3457898 0.3066339 0.6235783 0.6677314 1.1508472 1.238439
-1.2079811 -0.6700975 -1.1987058 1.0602919 1.0344875 1.540545 -0.69401735 1.2286401
-0.83386505 0.734557 0.982722 0.6456127 -0.6068807 0.5418632 1.2676435 0.4050346
0.22155952 -0.78406674 -0.2620608 0.9197645 -0.7312428 0.7646254 -1.3047111 0.87055326
0.96328306 -0.68426716 0.8302372 0.8343884 0.6133202 -0.20149398 -0.09823418 0.60358727
-1.0809095 -0.69984233 -1.0686156 0.07859161 -0.6924954 0.61925143 0.61969835 0.5146381
-0.79199237 -0.5644015 0.739355 -0.83885735 -0.6865828 -1.030376 0.3716876 0.11665245
0.45906216 0.38704148 -1.0976776 0.89540976 1.2634742 0.87718165 0.3138564 -0.91599
0.23561475 0.58679944 -0.9349507 -0.21302553 -0.433214 -0.46388814 -0.79951966 -0.86037165
0.8392119 0.4655319 0.832768 -0.73660886 -0.71868193 -1.0702515 0.4821496 -0.85356414
0.57930493 -0.5103134 -0.68271923 -0.4485218 0.42161378 -0.37644464 -0.88066065 -0.28138673
00000000: 4947 0b3e 6c71 f6be 1abd 24be 218c 103f
00000010: fad6 e5be 1655 f03e 5e0b 4dbf 40d0 083f
00000020: f962 173f 1c13 d7be 407a 023f 4221 033f
00000030: 69c6 c03e 5454 fdbd cb02 77bd 41b7 bd3e
00000040: 57df 29bf 5cf8 dbbe bbf0 27bf 959e 453d
00000050: 31a9 d9be aaa3 c23e a0c7 c23e 06c2 a13e
00000060: 27ef f8be 3466 b1be b863 e83e 0ed5 03bf
00000070: 71cd d7be 44ee 21bf 33a7 693e 74a9 923d
00000080: 234a 903e 154e 733e f581 2cbf 48b8 0c3f
00000090: 5190 463f edda 093f 804c 453e 45f4 0fbf
000000a0: 2d1d 143e 7070 b83e 1aef 12bf ece9 05be
000000b0: 482a 88be 75ce 91be d44c fbbe 9f36 07bf
000000c0: 52e3 033f b852 923e 12e0 023f c186 e7be
000000d0: 46e4 e1be 8c32 28bf db8b 973e be24 06bf
000000e0: 6615 b63e 0966 a0be 9096 d6be 04fa 8cbe
000000f0: e184 843e bfa4 6cbe e566 0abf 33e3 30be
00000100: 52cc 33be df11 1f3f 55aa 543e 9399 3abf
00000110: 5e5a 143f 2720 1bbf 3959 843f b39d 30bf
00000120: c86d 43bf 9bd2 0a3f d16f 28bf 6a47 29bf
00000130: b5db f8be c383 233e b56f 9f3d b6e8 f4be
00000140: ea4a 5b3f 88fb 0d3f 6acc 583f ac1c 7fbd
00000150: f47d 0c3f cd43 fbbe 3a72 fbbe 42d1 d0be
00000160: 81ad 203f 5a02 e53e b1ff 15bf 852f 2a3f
00000170: e04a 0b3f 5e0a 513f 7cd0 96be 6354 bdbd
00000180: 6344 babe 590b 9dbe cdb1 5e3f aba8 35bf
00000190: 5e2a 80bf f5f5 31bf b7b2 7ebe 89d5 393f
000001a0: 4034 3fbe e818 eebe 4bae 3d3f 68df 2c3e
000001b0: 73c7 af3e ae39 bc3e 7234 223f e68c 2e3f
000001c0: ee41 2abf 6be4 bcbe 42f3 28bf 1071 153f
000001d0: 00ce 113f 6121 593f 8fa2 c3be 572b 2d3f
000001e0: 6d0e ebbe 0810 cf3e 3782 0a3f 86fd b53e
000001f0: 7e12 abbe 9ebe 983e a5aa 323f 3d59 643e
00000200: 3649 a3be 1876 903f 8222 c13e 8e76 a9bf
00000210: 8cba 863f 1ae1 8cbf 5763 f03f 6865 a0bf
00000220: 317b b1bf b025 7c3f d1f7 98bf 9ebb 99bf
00000230: fa00 62bf 7c7f 943e 4fcb 103e d46a 5ebf
00000240: 4827 c73f 7bf1 803f 6be3 c43f eaae e7bd
00000250: e42d 7f3f 7e30 64bf a75a 64bf e6a3 3dbf
00000260: eceb 913f 47fa 4f3f 2d39 88bf 688e 9a3f
00000270: 2300 7d3f c4d7 bd3f cbf6 08bf 31f1 2bbe
00000280: 3129 29bf 309f 0ebf 303e ca3f d0f9 a4bf
00000290: 52ca e8bf 0c9e a1bf b04e e7be 85c4 a83f
000002a0: fca4 adbe 2b3b 58bf d742 ac3f 1eff 9c3e
000002b0: d4a2 1f3f 72f0 2a3f f64e 933f 2b85 9e3f
000002c0: 209f 9abf 828b 2bbf 316f 99bf a5b7 873f
000002d0: 166a 843f 9430 c53f 1fab 31bf 1444 9d3f
000002e0: 2e78 55bf ed0b 3c3f ab93 7b3f e046 253f
000002f0: 895c 1bbf 8cb7 0a3f 2442 a23f b260 cf3e
00000300: 80e0 623e 99b8 48bf d52c 86be b075 6b3f
00000310: ba32 3bbf 7dbe 433f c600 a7bf 94dc 5e3f
00000320: b899 763f 222c 2fbf 6d8a 543f 7a9a 553f
00000330: 8d02 1d3f 7054 4ebe 002f c9bd b284 1a3f
00000340: 3e5b 8abf de28 33bf 65c8 88bf a3f4 a03d
00000350: 6147 31bf 4387 1e3f 8da4 1e3f 53bf 033f
00000360: 03c0 4abf 9e7c 10bf 5f46 3d3f 5bbf 56bf
00000370: e4c3 2fbf 5ce3 83bf d64d be3e 7be7 ee3d
00000380: 320a eb3e 4d2a c63e b380 8cbf 9339 653f
00000390: 86b9 a13f fa8e 603f c9b1 a03e 527e 6abf
000003a0: fe44 713e 7d38 163f ee58 6fbf 5d23 5abe
000003b0: 3ace ddbe bf82 edbe 52ad 4cbf 5141 5cbf
000003c0: 97d6 563f 325a ee3e 4930 553f 6692 3cbf
000003d0: 8afb 37bf 00fe 88bf 50dc f63e 2e83 5abf
000003e0: 544d 143f e6a3 02bf b0c6 2ebf a6a4 e5be
000003f0: c3dd d73e 5abd c0be fa72 61bf ec11 90be

final_layer.bias_epsilon f4 [32]
0.4663155 -0.6019786 -1.0933893 0.7596023 0.6163219 -0.5911204 -1.2761376 0.87156105
-1.0862904 0.6905717 -1.2663535 -0.8891419 1.1324825 1.2164643 1.1610409 -0.47736746
-0.7968793 -0.8382642 -0.8452378 1.3923398 0.6884208 1.1071913 -1.1033074 1.0908836
-0.76111996 -0.53093994 0.9614416 1.635912 1.1692116 0.66052604 -0.7882464 -0.86940795
00000000: e8c0 ee3e 451b 1abf 2ef4 8bbf 4c75 423f
00000010: 46c7 1d3f ab53 17bf 7a58 a3bf a01e 5f3f
00000020: 900b 8bbf 4fc9 303f df17 a2bf ce9e 63bf
00000030: 30f5 903f 1ab5 9b3f fd9c 943f 8269 f4be
00000040: 4800 4cbf 7c98 56bf 8161 58bf 3138 b23f
00000050: 583c 303f 72b8 8d3f 2d39 8dbf 13a2 8b3f
00000060: c2d8 42bf aeeb 07bf 0921 763f 9065 d13f
00000070: baa8 953f 3c18 293f 84ca 49bf 8591 5ebf

out1.weight_mu f4 [51, 32]
0.34352145 0.31366172 0.38424933 0.5453373 0.089751504 -0.71412325 0.39085686 0.027001439
-0.7944682 -0.48996475 0.30783293 0.34101215 -0.029883236 -0.18041831 -0.091026306 0.15967563
-0.6890975 -0.4670077 -0.22782221 0.30418664 -0.36521283 0.27688897 -0.084440455 -0.10326938
0.36292502 0.26489362 0.64633983 0.73575747 0.5301294 -0.26000378 0.135796 -0.513344
0.27356932 0.46758807 0.5996021 0.13728872 -0.008339764 -0.37609872 0.6492315 0.2771089
0.12366747 0.38289478 0.6264482 0.3977739 -0.122755714 -0.3092682 -0.06748752 0.8388201
-0.88533664 -0.19120651 0.5416678 0.75159395 -0.41471264 0.5192153 0.022415368 0.11449525
0.61916393 0.74299735 0.60095483 0.19492346 0.33567756 0.16914894 0.08194619 -0.2976322
-0.46485102 0.14060059 -0.21757472 0.13341667 -0.24277984 -0.85852915 -0.4310519 -0.7854274
-0.033992566 0.41113323 -0.0808536 0.6497364 0.17612709 -0.08432152 -0.16444062 0.65620595
-0.35667178 -0.20785737 0.23607093 -0.11447143 -0.5287537 0.44005674 -0.7259265 -0.9360153
-0.5124147 0.05635524 0.62054783 0.29451847 -0.25205404 0.107103646 -0.27299783 0.033582956
-0.34350052 0.027638402 -0.09614333 0.18841651 -0.15250953 -1.0113621 -0.028097183 -0.6567111
0.054338858 0.30123767 -0.10304859 0.41442212 0.27066833 -0.2629755 -0.068844646 0.6230049
-0.25392556 -0.53284407 0.38819322 0.21798496 -0.525259 0.522303 -0.63862133 -0.5977615
-0.64507306 0.060072526 0.7574319 0.2514752 0.09010747 0.30261254 -0.36080483 0.1252114
-0.5622423 0.025545198 0.017824717 0.05219849 -0.0049883737 -1.2213898 -0.08281622 -0.4331599
-0.013112344 0.22748221 -0.18472634 0.37908703 0.17038763 -0.38706294 -0.117323175 0.5528902
-0.60180306 -0.6126988 0.4306101 0.051014867 -0.47572398 0.4036896 -0.5977644 -0.9595212
-0.6061411 0.082413875 0.3936912 0.06455509 0.006795667 0.3955517 -0.20607173 -0.0015158773
-0.5785558 -0.03485208 0.21124567 -0.33703694 -0.058206927 -1.2249461 0.017991519 -0.3449389
0.23590991 0.5063833 -0.25680402 0.60840666 0.10010489 -0.20954852 -0.10955804 0.25006598
0.10725526 -0.58175164 0.49558324 -0.121319145 -0.5744269 0.6276866 -0.8364231 -0.7528143
-0.4451395 0.039793935 0.68390805 -0.19649298 -0.42584097 0.3699638 -0.15580079 0.0176028
-0.65766567 -0.1093007 0.17569599 -0.08736869 -0.07799927 -0.7453934 -0.1461437 -0.5752853
0.32116187 0.76314116 -0.21857783 0.5070051 0.21259744 -0.21585695 0.028476728 0.35074577
0.17423934 -0.7260335 0.34920278 0.18402259 -0.361742 0.46091187 -1.0047357 -0.3042862
-0.7394551 -0.031113978 0.42988676 -0.12757047 -0.041638266 0.15542732 -0.2756552 0.26529106
-0.83808863 -0.08897567 -0.20615152 -0.26029623 -0.2304428 -0.9641282 -0.3150009 -0.4725064
0.26536736 0.70424104 -0.36369842 0.44021702 0.09993473 -0.24534217 -0.31443956 0.59581935
-0.20785752 -0.3622732 0.48029992 -0.005634903 -0.45717734 0.47194573 -0.8332766 -0.98598826
-0.5692523 -0.07595721 0.5749127 -0.19530064 -0.15912788 0.1570522 -0.33541024 0.20092699
00000000: 0be2 af3e 4598 a03e 54bc c43e 3a9b 0b3f
00000010: a3cf b73d c8d0 36bf 641e c83e 1f32 dd3c
00000020: 4562 4bbf a9dc fabe 479c 9d3e 2599 ae3e
00000030: b0cd f4bc 94bf 38be 006c babd 0282 233e
00000040: b268 30bf a21b efbe 3a4a 69be 5abe 9b3e
00000050: 2dfd babe 64c4 8d3e 1eef acbd e67e d3bd
00000060: 4fd1 b93e 23a0 873e 8776 253f 9a5a 3c3f
00000070: 8fb6 073f 371f 85be 1b0e 0b3e 836a 03bf
00000080: 4711 8c3e b467 ef3e 867f 193f 6a95 0c3e
00000090: 81a3 08bc 0390 c0be 0934 263f 38e1 8d3e
000000a0: 5f45 fd3d c90a c43e e95e 203f 05a9 cb3e
000000b0: 5967 fbbd 6758 9ebe e636 8abd eabc 563f
000000c0: 6ca5 62bf a4cb 43be beaa 0a3f 7668 403f
000000d0: 3755 d4be 4beb 043f 6fa0 b73c 7c7c ea3d
000000e0: 8781 1e3f 1335 3e3f 2dd8 193f 049a 473e
000000f0: eedd ab3e 6135 2d3e 67d3 a73d 3f63 98be
00000100: f400 eebe 9af9 0f3e e8cb 5ebe 619e 083e
00000110: 479b 78be 91c8 5bbf d6b2 dcbe c511 49bf
00000120: ca3b 0bbd 0e80 d23e 9296 a5bd 2055 263f
00000130: a95a 343e c3b0 acbd 1f63 28be 1dfd 273f
00000140: af9d b6be 90d8 54be 94bc 713e ff6f eabd
00000150: 675c 07bf 1e4f e13e 52d6 39bf b39e 6fbf
00000160: 9c2d 03bf c1d4 663d 39dc 1e3f 20cb 963e
00000170: 3a0d 81be 2859 db3d 5fc6 8bbe 488e 093d
00000180: 4ddf afbe ee69 e23c cbe6 c4bd 42f0 403e
00000190: 752b 1cbe 5074 81bf 102c e6bc 381e 28bf
000001a0: 6c92 5e3d d33b 9a3e 240b d3bd 232f d43e
000001b0: 0a95 8a3e baa4 86be 6cfe 8cbd 407d 1f3f
000001c0: 8802 82be 7868 08bf 43c1 c63e 7337 5f3e
000001d0: 6077 06bf a6b5 053f b07c 23bf e606 19bf
000001e0: 8223 25bf 9c0e 763d 0fe7 413f 5bc1 803e
000001f0: 448a b83d 08f0 9a3e 69bb b8be 6b37 003e
00000200: 1def 0fbf 2a44 d13c 2405 923c 15ce 553d
00000210: 8375 a3bb 8056 9cbf 8d9b a9bd 22c7 ddbe
00000220: 28d5 56bc 19f1 683e e728 3dbe b217 c23e
00000230: 187a 2e3e 1d2d c6be 2247 f0bd 368a 0d3f
00000240: c40f 1abf d4d9 1cbf ed78 dc3e f7f4 503d
00000250: 1892 f3be 67b0 ce3e 1607 19bf 2ea3 75bf
00000260: 102c 1bbf 9bc8 a83d e591 c93e 7635 843d
00000270: 30ae de3b c185 ca3e 7804 53be 67b0 c6ba
00000280: 3c1c 14bf 0ec1 0ebd c950 583e 1b90 acbe
00000290: 636a 6ebd 09cb 9cbf f362 933c d59b b0be
000002a0: 5e92 713e 56a2 013f d17b 83be 8ac0 1b3f
000002b0: cb03 cd3d e393 56be f75f e0bd a608 803e
000002c0: a5a8 db3d aded 14bf 16bd fd3e 2c76 f8bd
000002d0: a40d 13bf 12b0 203f d31f 56bf 70b8 40bf
000002e0: 53e9 e3be f7fe 223d 9914 2f3f 7535 49be
000002f0: d407 dabe e56b bd3e 3e8a 1fbe bf33 903c
00000300: c75c 28bf 0cd9 dfbd a6e9 333e 5bee b2bd
00000310: 15be 9fbd 1ad2 3ebf b2a6 15be e645 13bf
00000320: 546f a43e 385d 433f ded2 5fbe 16cb 013f
00000330: 25b3 593e 9b09 5dbe 0748 e93c f394 b33e
00000340: cc6b 323e 55dd 39bf b5ca b23e 6b70 3c3e
00000350: 3f36 b9be a4fc eb3e 2e9b 80bf 67cb 9bbe
00000360: ee4c 3dbf bee2 febc 1e1a dc3e d5a1 02be
00000370: e38c 2abd 5728 1f3e ae22 8dbe 3bd4 873e
00000380: fa8c 56bf e038 b6bd 6219 53be 8c45 85be
00000390: 33f9 6bbe 1bd1 76bf cc47 a1be 5cec f1be
000003a0: 3bde 873e 2449 343f ae36 babe 2064 e13e
000003b0: 94aa cc3d fa3a 7bbe 39fe a0be 9e87 183f
000003c0: 9ad8 54be df7b b9be dfe9 f53e fea4 b8bb
000003d0: 2613 eabe dfa2 f13e 9e51 55bf ba69 7cbf
000003e0: 85ba 11bf 748f 9bbd 7b2d 133f e4fc 47be
000003f0: 6bf2 22be 4bd2 203e e4ba abbe cebf 4d3e

out1.weight_sigma f4 [51, 32]
0.050289787 0.05817638 -0.028347487 -0.021397715 -0.15104522 0.0656328 0.03812714 0.011923443
0.039623152 0.06473908 0.01673023 0.030549906 0.036714785 0.16940734 0.015714774 0.03645368
-0.12661496 0.06056408 -0.02509572 -0.040733673 0.32595664 -0.1456197 0.034182537 -0.014583866
0.03507728 0.006546145 0.12385654 0.01168249 0.036374044 -0.23691547 0.0033218195 0.056060486
-0.007947626 -0.017681563 0.060041193 0.032198403 -0.034598917 0.015617693 -0.0068873903 -0.0041546663
-0.03220362 0.02515361 -0.07129226 -0.05668072 0.03017068 0.009486014 -0.024215516 0.04265098
-0.010649764 0.041842837 0.093841545 -0.0021613475 -0.054952398 0.043327916 -0.014858156 -0.00856295
0.05106676 -0.030124338 -0.011494184 -0.03520795 0.03169757 -0.0219683 0.030841397 -0.044112757
-0.029294437 0.068045564 -0.01322586 -0.1523464 0.011244533 0.26637128 -0.046946388 0.21367061
0.09670869 -0.031279534 -0.036937978 -0.12493955 0.099632405 0.22972663 -0.265943 0.14499213
0.22636594 0.030563788 0.18584062 0.05968248 -0.19268152 0.038883153 -0.11450885 -0.00028071535
-0.07545993 -0.036280673 -0.07983099 0.10886972 0.22850932 -0.14094436 0.010609593 -0.10333745
-0.050785318 -0.1004399 -0.089553274 0.17088674 -0.070258535 -0.10157573 -0.13482808 -0.12214033
-0.067950256 0.08140686 0.073031634 -0.010217986 -0.19366695 -0.19416082 0.26223442 0.17411815
0.04888225 0.12705451 -0.013317014 0.071500584 0.10260435 0.035288356 0.05266864 -0.047089703
-0.095517814 -0.12735115 -0.16719589 -0.1762865 -0.11906205 -0.07361737 0.11425549 0.30139524
-0.044419352 -0.08338709 -0.017904408 0.024153002 -0.04294981 0.110858835 -0.0718029 0.0988994
0.09598894 0.18962964 0.06488968 0.14605072 0.057538528 0.325951 0.13578223 -0.05537375
0.0028097662 0.112325646 0.025836758 0.06264416 0.050884433 -0.010381928 0.075621 0.17009772
-0.0388136 -0.023211729 -0.026831802 0.020429121 -0.12505162 -0.18073809 -0.14248604 -0.0042402428
-0.13973041 -0.20943218 -0.15157597 -0.16923526 -0.030049562 0.122387774 -0.15072699 0.09179905
-0.1615682 0.14260127 0.14256549 0.23186186 -0.14714983 0.05642891 0.22244819 -0.20385273
0.20332913 -0.15809798 -0.11685393 -0.08033323 -0.13218021 0.1312015 -0.0942668 -0.01070526
-0.1981525 -0.19863017 0.12648252 -0.034304336 0.16633235 0.09241265 0.001639208 -0.16414228
-0.08097439 0.12976153 0.14606422 -0.094478875 0.14312655 0.2598628 0.19147584 0.051114786
-0.0452752 -0.0016822485 -0.07958281 -0.1453552 -0.017833421 -0.018177258 0.08176836 0.12946437
0.06402876 0.044496033 -0.10366417 0.15562217 0.043742485 0.20482635 -0.11894806 0.093297936
0.19425836 -0.024920648 0.13696703 -0.21835952 0.019062296 -0.04711124 -0.026370775 0.13253242
-0.045746543 0.116353355 -0.09370688 0.098651424 -0.090747684 0.2792454 0.05060487 -0.066107966
-0.02938002 0.13892405 0.14455181 0.057052333 0.001565468 -0.07511115 0.028868232 0.08480444
0.028901694 0.28666362 0.21839568 -0.13708542 0.27373585 0.055906113 -0.11504218 0.07596595
-0.050884794 0.15181652 0.34247857 -0.014290268 -0.043835737 -0.06147834 -0.071754806 0.09574505
00000000: aafc 4d3d 5b4a 6e3d fd38 e8bc 434a afbc
00000010: 99ab 1abe 7d6a 863d 342b 1c3d 8b5a 433c
00000020: e34b 223d ec95 843d d60d 893c cc43 fa3c
00000030: 3e62 163d 1e79 2d3e 45bc 803c 7450 153d
00000040: 5aa7 01be 0a12 783d 8a95 cdbc 5ad8 26bd
00000050: cae3 a63e 551d 15be fd02 0c3d 2bf1 6ebc
00000060: 32ad 0f3d 0b81 d63b 7fa8 fd3d ea67 3f3c
00000070: f3fc 143d f899 72be e2b2 593b ae9f 653d
00000080: c236 02bc edd8 90bc c1ed 753d 79e2 033d
00000090: 98b7 0dbd 5ae1 7f3c 9eaf e1bb de23 88bb
000000a0: f1e7 03bd f20e ce3c ad01 92bd 0b2a 68bd
000000b0: 8028 f73c 3a6b 1b3c 9e5f c6bc cbb2 2e3d
000000c0: 597c 2ebc 6563 2b3d ff2f c03d 65a5 0dbb
000000d0: c415 61bd 9d78 313d a06f 73bc 9e4b 0cbc
000000e0: 612b 513d 51c7 f6bc 1a52 3cbc 3636 10bd
000000f0: 50d5 013d ddf6 b3bc 19a7 fc3c 94af 34bd
00000100: e3fa efbc 795b 8b3d 47b1 58bc b200 1cbe
00000110: fd3a 383c d161 883e db4a 40bd 78cc 5a3e
00000120: 350f c63d f81e 00bd 474c 17bd 4fe0 ffbd
00000130: 130c cc3d 753d 6b3e ae29 88be d178 143e
00000140: 79cc 673e e960 fa3c 014d 3e3e 9e75 743d
00000150: 4e4e 45be f143 1f3d 9e83 eabd fa2c 93b9
00000160: bc8a 9abd 0b9b 14bd 6e7e a3bd 16f7 de3d
00000170: 59fe 693e b853 10be dcd3 2d3c 96a2 d3bd
00000180: 4404 50bd 6fb3 cdbd b567 b7bd effc 2e3e
00000190: b5e3 8fbd f006 d0bd 5f10 0abe b624 fabd
000001a0: 8129 8bbd a4b8 a63d 9c91 953d 5769 27bc
000001b0: a150 46be 18d2 46be 9743 863e 074c 323e
000001c0: c138 483d 941a 023e 9b2f 5abc e66e 923d
000001d0: 3b22 d23d 868a 103d 12bb 573d 22e1 40bd
000001e0: d89e c3bd 5768 02be 6635 2bbe 7384 34be
000001f0: ced6 f3bd b4c4 96bd c8fe e93d 7a50 9a3e
00000200: 11f1 35bd dac6 aabd 44ac 92bc 84dc c53c
00000210: 24ec 2fbd f509 e33d 660d 93bd c58b ca3d
00000220: d995 c43d 462e 423e e1e4 843d 528e 153e
00000230: 85ad 6b3d 0de3 a63e 7f0a 0b3e 96cf 62bd
00000240: 0e24 383b fd0a e63d 9ca7 d33c 954b 803d
00000250: 326c 503d f618 2abc 2fdf 9a3d 192e 2e3e
00000260: 02fb 1ebd 8626 bebc 5ece dbbc f95a a73c
00000270: 880d 00be 6813 39be dce7 11be bcf1 8abb
00000280: 7d15 0fbe 6475 56be bb36 1bbe 024c 2dbe
00000290: 802a f6bc 71a6 fa3d 2d58 1abe 2401 bc3d
000002a0: 2272 25be 1106 123e b0fc 113e 326d 6d3e
000002b0: 72ae 16be 0022 673d 75c9 633e c5be 50be
000002c0: 8335 503e 70e4 21be 1d51 efbd c085 a4bd
000002d0: 405a 07be b059 063e f40e c1bd 1d65 2fbc
000002e0: 7de8 4abe b565 4bbe a284 013e b482 0cbd
000002f0: 0753 2a3e d842 bd3d b2da d63a ea14 28be
00000300: e7d5 a5bd 35e0 043e dc91 153e 247e c1bd
00000310: c48f 123e bd0c 853e 3e12 443e bd5d 513d
00000320: 7d72 39bd e57e dcba 50fc a2bd fed7 14be
00000330: 6517 92bc 79e8 94bc 2c76 a73d 4f92 043e
00000340: 8321 833d 7941 363d e14d d4bd 6b5b 1f3e
00000350: 522b 333d 00be 513e 0a9b f3bd fd12 bf3d
00000360: aaeb 463e 6326 ccbc 1641 0c3e a399 5fbe
00000370: 8828 9c3c b7f7 40bd 8607 d8bc 94b6 073e
00000380: ba60 3bbd ab4a ee3d 65e9 bfbd c209 ca3d
00000390: ecd9 b9bd 41f9 8e3e 0d47 4f3d 9d63 87bd
000003a0: 5eae f0bc 1b42 0e3e 6405 143e b5af 693d
000003b0: 6430 cd3a e0d3 99bd 127d ec3c f3ad ad3d
000003c0: 3fc3 ec3c 93c5 923e 1ea3 5f3e 1f60 0cbe
000003d0: 1b27 8c3e cffd 643d 3c9b ebbd 0994 9b3d
000003e0: 936c 50bd ca75 1b3e 5a59 af3e ba21 6abc
000003f0: 1a8d 33bd b6d0 7bbd 2ff4 92bd fb15 c43d

out1.bias_mu f4 [51]
-0.13256885 -0.025342638 -0.23763238 -0.26012832 -0.40390515 -0.2344983 -0.29437655 -0.2834924
-0.15046631 -0.25459617 -0.43542406 -0.087313086 -0.17755046 -0.24507281 -0.46256045 -0.46144056
-0.34961346 -0.22302994 -0.46037045 -0.39474776 -0.42628083 -0.20943585 -0.47254506 -0.15851419
-0.43603012 -0.13747685 -0.35061952 -0.23678587 -0.23353368 -0.2759224 -0.18412596 -0.41634122
-0.42689317 -0.012710392 0.018802328 0.1510725 0.068227306 0.31150386 0.058042508 0.32196173
0.4214973 0.13803458 0.015082163 0.23281679 0.47143304 0.44836405 0.34210244 0.3301837
0.6483112 0.1469363 0.57854366
00000000: 21c0 07be 5d9b cfbc e755 73be 8a2f 85be
00000010: a8cc cebe 5320 70be 86b8 96be ea25 91be
00000020: d713 1abe 6e5a 82be e7ef debe 34d1 b2bd
00000030: cacf 35be 5ef4 7abe b9d4 ecbe f041 ecbe
00000040: 8900 b3be f661 64be adb5 ebbe 611c cabe
00000050: 7b41 dabe 5a76 56be 6df1 f1be 8b51 22be
00000060: 573f dfbe bbc6 0cbe 6784 b3be ff77 72be
00000070: 7423 6fbe b345 8dbe 848b 3cbe ad2a d5be
00000080: be91 dabe 3f3f 50bc 5707 9a3c c0b2 1a3e
00000090: c2ba 8b3d 6f7d 9f3e fbbd 6d3d 2bd8 a43e
000000a0: 7ece d73e f058 0d3e 2d1b 773c 8667 6e3e
000000b0: ac5f f13e f98f e53e 0d28 af3e d70d a93e
000000c0: b9f7 253f 7876 163e 701b 143f

out1.bias_sigma f4 [51]
0.02107985 -0.01740401 0.017317656 0.07298875 0.034152325 0.13304201 -0.025027543 0.045625873
-0.033998214 -0.14478946 0.10353988 -0.03635961 0.04116214 0.053780943 -0.07923881 -0.20383224
0.081888065 -0.024352873 -0.0069328863 -0.062133994 -0.035559066 0.007917895 -0.004505415 -0.08069413
0.0044391165 -0.04226706 -0.0047572674 -0.018499957 0.0027948553 -0.0875703 0.0733179 -0.005642788
-0.051668677 -0.024447713 -0.038852684 -0.0072933333 -0.023652535 -0.011857472 -0.04955424 -0.0050575687
-0.022759834 0.1105988 -0.014918496 -0.00868114 0.049484275 0.029832773 0.007817305 0.023696894
-0.009165476 -0.021519914 0.00043895727
00000000: a6af ac3c db92 8ebc c2dd 8d3c 207b 953d
00000010: 4fe3 0b3d 2a3c 083e 9006 cdbc 32e2 3a3d
00000020: b641 0bbd b043 14be b70c d43d d0ed 14bd
00000030: a299 283d 6849 5c3d f547 a2bd 66b9 50be
00000040: eeb4 a73d ad7f c7bc 442d e3bb 3780 7ebd
00000050: 62a6 11bd 0fba 013c 29a2 93bb f742 a5bd
00000060: 0276 913b 3a20 2dbd dae2 9bbb 398d 97bc
00000070: e429 373b 0f58 b3bd b227 963d 23e7 b8bb
00000080: 89a2 53bd 9246 c8bc fe23 1fbd eafc eebb
00000090: f6c2 c1bc d845 42bc 63f9 4abd f6b9 a5bb
000000a0: d572 babc a081 e23d b56c 74bc 573b 0ebc
000000b0: 06b0 4a3d dc63 f43c 2714 003c fd1f c23c
000000c0: cb2a 16bc 884a b0bc d923 e639
