turtlebot3_dqn/save_model/stage_1_440target.pth (torch_old, 164553 bytes, 22 tensors)

feature_layer.0.weight f4 [64, 26]
0	0xbd8d3468	-0.06894761
1	0xbdbcf0e6	-0.09225635
2	0xbf9a8ae3	-1.2073635
3	0xbd71fa8f	-0.059076842
4	0x3e19b3ae	0.15009949
5	0x3ea563e4	0.32302773
6	0xbca26030	-0.019821256
7	0x3e01a910	0.12662148
8	0x3da40270	0.080082774
9	0xbdf096c5	-0.11747507
10	0x3e3b52e4	0.18293339
11	0xbd64f4fa	-0.05589769
12	0xbe838a67	-0.2569153
13	0xbdfd5c8d	-0.12371168
14	0xbe44df81	-0.19225885
15	0xbda2b8bd	-0.07945392
16	0x3d8c8d4a	0.06862886
17	0x3c13e277	0.009026161
18	0x3e8f7611	0.28019765
19	0x3e371927	0.17880689
20	0x3e9be03c	0.30444515
21	0x3e591936	0.21201023
22	0x3d5d2f2a	0.054000057
23	0xbe414f1f	-0.18877839
24	0xbe9166f8	-0.2839887
25	0x3d5168d2	0.051125355
26	0xbe949fa5	-0.2902805
27	0xbea3adff	-0.31968686
28	0xbdc378d9	-0.09544534
29	0x3e7abeb8	0.24486816
30	0x3e01aa69	0.12662663
31	0xbd4c1815	-0.049827654
32	0xbd0f56b0	-0.03499478
33	0x3de93595	0.11387173
34	0x3e59572a	0.21224657
35	0x3dee4466	0.1163414
36	0x3d967597	0.07346647
37	0x3d839b3d	0.06426094
38	0x3e81d1ee	0.25355476
39	0x3d050eff	0.032485005
40	0x3e6b15a7	0.22957478
41	0x3e012087	0.12610064
42	0x3d1067a6	0.035255097
43	0xbe4faedd	-0.20281549
44	0xbdd99121	-0.10623384
45	0xbdbccf3c	-0.09219214
46	0xbdac277a	-0.08405967
47	0xbe990b3c	-0.29891384
48	0xbea22c81	-0.3167458
49	0xbee095e7	-0.43864366
50	0x3f7b413f	0.9814643
51	0xbce9f256	-0.028557938
52	0xbe947d17	-0.29001686
53	0xbe4b15d6	-0.19832548
54	0xbe8d79cc	-0.27631986
55	0x3e80ed84	0.2518121
56	0x3ea5e8ea	0.32404262
57	0x3e74ab2d	0.23893423
58	0x3e807f49	0.2509711
59	0xbc039cc4	-0.008032981
60	0xbe883a9f	-0.26607224
61	0x3d7d62c1	0.061861757
62	0xbcc20fa6	-0.023689102
63	0xbdad791c	-0.084703654
64	0xbeabe7d4	-0.33575308
65	0xbe00d442	-0.1258097
66	0x3dd5eb4d	0.10445271
67	0x3e47cff2	0.19512919
68	0x3ce9a93a	0.028523076
69	0x3d7b3a6f	0.061335023
70	0x3e2e3d8f	0.1701567
71	0xbda4f3e8	-0.08054334
72	0x3e9f6567	0.3113205
73	0x3e7b417b	0.24536698
74	0xbf140bc9	-0.5783048
75	0xbed3f0ed	-0.4139475
76	0x3f5e070c	0.867295
77	0x3d9845e7	0.07435208
78	0x3d0fb573	0.035085153
79	0xbdbb6ba2	-0.09151389
80	0x3e25f82c	0.16207951
81	0xbe4e9787	-0.2017499
82	0xbf3e6b7e	-0.7438277
83	0xbe937ee3	-0.28807744
84	0xbe85ded9	-0.26146582
85	0xbe2cc48b	-0.1687185
86	0x3c02044d	0.007935596
87	0x3d2d365a	0.04228816
88	0x3e00e627	0.12587796
89	0x3cac70e3	0.021049922
90	0xbdafd282	-0.08585073
91	0xbe48bb8d	-0.19602795
92	0xbd7731a5	-0.06035008
93	0xbd012d08	-0.031537086
94	0x3d9700e4	0.07373217
95	0x3b0a8bdf	0.0021140499
96	0x3e1fcbc7	0.15605079
97	0xbe0cd1f3	-0.13751964
98	0xbd0dae78	-0.034590214
99	0xbe60afee	-0.21942112
100	0xbea7a58c	-0.3274349
101	0xbe6a1969	-0.22861256
102	0x3f8aca27	1.0842942
103	0x3eed821b	0.46388325
104	0xbef15d4e	-0.47141498
105	0xbfeed405	-1.8658453
106	0xbd815070	-0.0631417
107	0xbec355c2	-0.38151366
108	0x3ec3e084	0.3825723
109	0x3d8b284b	0.06794795
110	0xbd14a99f	-0.036294576
111	0x3dae105b	0.08499213
112	0x3e2c4993	0.16824941
113	0xbd64421a	-0.0557271
114	0x3db4d574	0.088297755
115	0x3d99636e	0.07489668
116	0xbdd1f56f	-0.10251891
117	0xbb93726b	-0.0044997237
118	0x3da146a1	0.078747995
119	0x3d82c69e	0.063855395
120	0xbd301948	-0.04299286
121	0xbc50b1d0	-0.012737706
122	0x3dc01a2e	0.093799934
123	0xbd25fe6a	-0.04052583
124	0x3e937910	0.288033
125	0x3ece8052	0.40332276
126	0xbe5cc84c	-0.21560782
127	0xbf305a13	-0.6888744
128	0xbd489fe5	-0.048980612
129	0xbe494f95	-0.19659264
130	0x3df5d9a7	0.120044045
131	0x3c980118	0.018555209
132	0x3d9fdd8d	0.07805929
133	0xbd30f3a1	-0.043201093
134	0xbd623fa8	-0.05523649
135	0xbda2ac08	-0.079429686
136	0xbd395f6c	-0.045257017
137	0x3c9e5839	0.019329177
138	0xba75cae4	-0.00093762414
139	0xbd119a96	-0.035547815
140	0xbdf201a7	-0.118167214
141	0xbda1b740	-0.0789628
142	0xbdcb2a3d	-0.09920166
143	0xbde9e7f4	-0.11421195
144	0xbdd731f6	-0.10507576
145	0x3c889942	0.016674642
146	0xbd42679f	-0.047462102
147	0x3ce04666	0.027377319
148	0x3da86f36	0.08224337
149	0x3d1b35f7	0.03789326
150	0x3da101e8	0.07861692
151	0x3dc627b6	0.09675543
152	0xbd09eff3	-0.0336761
153	0xbe1eb6b8	-0.15499389
154	0xbf524c03	-0.82147235
155	0x3f5d834e	0.8652848
156	0xbe00f1f7	-0.12592302
157	0xbf86d179	-1.0532676
158	0x3d88781c	0.06663534
159	0x3e580e33	0.21099167
160	0xbdc253c6	-0.09488635
161	0x3e77bd05	0.24193199
162	0x3e3c87da	0.18411198
163	0x3ac427b3	0.0014965445
164	0x3dad9395	0.08475415
165	0xbd95fb0d	-0.07323275
166	0xbe91fe78	-0.28514457
167	0xbd8e4449	-0.06946618
168	0x3d8bb890	0.06822312
169	0xbe4d1095	-0.20025857
170	0xbe5d42b6	-0.2160748
171	0xbd145a1c	-0.036218747
172	0x3e3221d0	0.17395711
173	0xbe5e92f8	-0.21735752
174	0x3eae2cde	0.34018606
175	0x3e5b3361	0.21406318
176	0x3d04bf3f	0.03240895
177	0x3e1d4128	0.15356886
178	0x3da683e7	0.08130627
179	0xbc850a68	-0.016240314
180	0x3f604e23	0.8761923
181	0xbf5104c5	-0.816479
182	0xbe8e53f4	-0.27798426
183	0xbe8e83ff	-0.2783508
184	0x3d640e96	0.055677973
185	0x3de16469	0.1100548
186	0xbe8f3fcd	-0.27978364
187	0xbe00d6e9	-0.12581982
188	0xbd8fde2f	-0.070248
189	0xbd30118b	-0.04298548
190	0xbe779e51	-0.24181487
191	0xbe0fc227	-0.14038907
192	0xbd77875e	-0.06043183
193	0xbc90c39d	-0.0176714
194	0x3b12897f	0.0022359786
195	0xbd81910b	-0.06326493
196	0x3cfb5b9a	0.030683327
197	0x3d4badcc	0.049726292
198	0x3c420ab9	0.011843377
199	0xbe5f7083	-0.21820264
200	0xbe5867f5	-0.21133406
201	0xbe4bb998	-0.19895017
202	0xbe4bc05c	-0.19897598
203	0xbe98ac7d	-0.29819098
204	0xbec5435c	-0.38527954
205	0xbdb27a63	-0.0871475
206	0x3ec02a4e	0.37532276
207	0x3eedb111	0.46424153
208	0xbdc38f28	-0.09548789
209	0xbe8c95dd	-0.27458087
210	0xbe585ce2	-0.21129182
211	0xbed60a6f	-0.41804835
212	0xbf0ba2b8	-0.54545164
213	0xbe48f370	-0.19624114
214	0xbe5f87bc	-0.21829122
215	0xbee3da62	-0.4450255
216	0xbe07a0ad	-0.13244887
217	0x3e06639c	0.13123935
218	0x3ba7e4f5	0.0051237294
219	0xbd229b77	-0.039699044
220	0x3d5fffbf	0.054687258
221	0xbc934c4b	-0.017980715
222	0xbd844dcd	-0.06460152
223	0xbd889dcf	-0.066707246
224	0xbdbaf882	-0.0912943
225	0x3d54a98b	0.0519195
226	0x3e1cf2a3	0.15326934
227	0x3e6ec72f	0.2331817
228	0x3dfeb750	0.12437308
229	0xbda975eb	-0.08274444
230	0xbdfe7084	-0.124238044
231	0xbe6fad8d	-0.23406048
232	0x3f0cfd3f	0.5507392
233	0xbe1f0bfc	-0.15531915
234	0xbd141c9e	-0.036160104
235	0x3de4737c	0.111548394
236	0x3dd0cc73	0.101952456
237	0xbd70b6ed	-0.0587682
238	0x3e4ea08b	0.2017843
239	0x3d86d1d8	0.06582993
240	0xbe131758	-0.14364374
241	0xbe6ce0f8	-0.23132694
242	0xbe7e41fa	-0.24829856
243	0xbe9237f8	-0.28558326
244	0xbe93f3a2	-0.28896815
245	0xbe9e5169	-0.30921486
246	0xbe2670ce	-0.16253969
247	0xbe789285	-0.24274643
248	0xbe15e977	-0.14639841
249	0xbdfbea0b	-0.123004995
250	0xbdf8ff96	-0.12158124
251	0x3d727d28	0.05920139
252	0x3de0acd1	0.10970462
253	0x3e2cb223	0.16864829
254	0x3e9406d7	0.28911468
255	0x3d9e21b4	0.07721272

feature_layer.0.bias f4 [64]
0	0xbe3e2a61	-0.18570854
1	0xbd996d81	-0.07491589
2	0xbdf3badd	-0.11900876
3	0x3e514215	0.20435365
4	0x3dd07afc	0.101797074
5	0xbf2e0124	-0.6797049
6	0x3df029c6	0.11726718
7	0xbd6336b1	-0.05547208
8	0x3e0147c6	0.12625036
9	0x3e911128	0.28333402
10	0xbd97f8b1	-0.07420481
11	0xbe854a93	-0.26033458
12	0x3dee10bd	0.11624286
13	0xbf10b760	-0.5652981
14	0x3d19d8b6	0.037560187
15	0x3ea9f7e5	0.3319694
16	0xbc5a502c	-0.0133247785
17	0x3d89b2ad	0.06723533
18	0x3e8ac50b	0.27103457
19	0x3ef774be	0.48331255
20	0xbec977eb	-0.39349303
21	0xbe46276c	-0.19350976
22	0x3e8410f6	0.2579419
23	0x3e16da8e	0.1473181
24	0x3e8c7084	0.27429593
25	0xbf119a2f	-0.5687589
26	0xbc2d6cad	-0.010584992
27	0x3cb8ef5e	0.022575077
28	0x3bd62e8f	0.006536312
29	0x3e8640cc	0.2622131
30	0xbdf5ab82	-0.11995603
31	0x3e5751fe	0.21027371
32	0x3f0c0cfa	0.547073
33	0x3d4c9cdc	0.04995428
34	0x3da3bb5e	0.07994722
35	0xbe291a63	-0.16513972
36	0x3e785cc5	0.24254139
37	0x3ee65b87	0.44991705
38	0xbd7f413c	-0.06231807
39	0x3e237fe8	0.15966761
40	0x3e9379d6	0.2880389
41	0x3e8fd0ad	0.28088894
42	0x3d3e48ff	0.046456333
43	0x3d21a449	0.039463315
44	0xbe281e03	-0.16417699
45	0x3c9169ff	0.017750738
46	0x3e9f0792	0.31060463
47	0x3e997a33	0.29976043
48	0x3ec6822e	0.38771194
49	0xbd9b7bbe	-0.07591961
50	0x3f1b6d49	0.6071363
51	0x3c3eaa34	0.011637259
52	0xbd6505d1	-0.05591375
53	0xbe4bba32	-0.19895247
54	0x3b686278	0.0035459083
55	0xbe38bb01	-0.18040086
56	0xbe0df3fb	-0.13862602
57	0xbcbbeed4	-0.02294103
58	0x3e695b2c	0.22788686
59	0x3ed747a4	0.42046845
60	0xbedc7fc6	-0.43066233
61	0x3df08009	0.11743171
62	0xbe9543ea	-0.29153377
63	0xbd245812	-0.040123053

feature_layer.3.weight f4 [32, 64]
0	0xbe1892ff	-0.14899825
1	0x3f0680ff	0.5254058
2	0x3de60b07	0.11232572
3	0x3f1eb508	0.6199498
4	0xbf17cb46	-0.59294546
5	0xbccf1d62	-0.025282566
6	0x3e619066	0.2202774
7	0x3ee0a101	0.43872836
8	0xbe18ab14	-0.14909011
9	0x3e8034df	0.25040337
10	0x3f1efdfa	0.6210629
11	0x3f285076	0.65747774
12	0xbef0459b	-0.46928105
13	0x3d3cb09f	0.046066877
14	0xbd907909	-0.070543356
15	0xbda14ea8	-0.078763306
16	0x3eb581ee	0.3545069
17	0x3e0c3115	0.13690598
18	0xbe05bc32	-0.13060072
19	0xbe0c59da	-0.1370615
20	0xbe001030	-0.12506175
21	0xbdc9f857	-0.0986182
22	0xbf57ef9f	-0.8435001
23	0xbdb97139	-0.09054799
24	0x3d85d423	0.065346025
25	0x3e3badf5	0.18328078
26	0xbf1593a4	-0.58428407
27	0xbdd9d42b	-0.10636171
28	0x3d8e7518	0.069559276
29	0xbe313ec7	-0.17309104
30	0xbf3603a3	-0.710993
31	0x3de19fcf	0.11016809
32	0xbe1ef1a9	-0.15521874
33	0xbd5ceeb0	-0.053938568
34	0xbeb4e5e6	-0.3533165
35	0x3f0ad176	0.5422586
36	0xbcd541d9	-0.026032375
37	0x3f0985e7	0.53719944
38	0xbc44ee5a	-0.012019718
39	0xbdcce393	-0.10004344
40	0xbf28698d	-0.6578606
41	0xbe25aac3	-0.16178422
42	0xbf04e435	-0.51910716
43	0xbeb020f8	-0.34400153
44	0x3e45cc0d	0.1931612
45	0x3f1db463	0.61603373
46	0xbed791ca	-0.42103416
47	0x3efce1e1	0.49391082
48	0x3e8c0223	0.2734538
49	0x3d8ca250	0.06866896
50	0x3d3592d8	0.044329494
51	0xbea9af36	-0.33141488
52	0x3dc3b5fd	0.09556196
53	0x3c43e0b9	0.0119554335
54	0xbf3c669d	-0.73594075
55	0x3de64293	0.11243167
56	0x3f16baa7	0.5887856
57	0x3ef0e17e	0.47047037
58	0xbeb5d4fe	-0.35514063
59	0x3dd0811c	0.10180876
60	0x3e314361	0.1731086
61	0xbeb71904	-0.35761273
62	0xb97a501d	-0.00023871702
63	0xbe94b332	-0.29042965
64	0x3e2d7d7c	0.169424
65	0xbd18a6a8	-0.03726831
66	0x3e884416	0.26614445
67	0xbea61143	-0.32435045
68	0x3d7ec791	0.06220204
69	0x3e75f722	0.24020055
70	0xbe857027	-0.26062128
71	0xbdd07768	-0.10179025
72	0xbe12916d	-0.14313288
73	0x3cda2322	0.02662808
74	0x3d1c5349	0.038165364
75	0x3e7040a2	0.23462155
76	0xbeef96c7	-0.4679472
77	0xbec2aa1f	-0.38020417
78	0xbc9914e9	-0.018686729
79	0xbd3760cd	-0.04477005
80	0xbdfda8bd	-0.123857
81	0xbd8109a9	-0.06300671
82	0x3e7e1098	0.24811018
83	0x3e2c73be	0.16841027
84	0xbf10a153	-0.5649616
85	0xbd8d6ca3	-0.069054864
86	0x3ea11a44	0.31465352
87	0x3c0ebf91	0.008712665
88	0xbe8b0e2a	-0.27159244
89	0x3e19d3e7	0.1502224
90	0xbe9b9621	-0.30387977
91	0x3da1c66d	0.07899175
92	0xbe98c86e	-0.29840416
93	0xbd7b7015	-0.061386187
94	0xbe4d8c87	-0.20073138
95	0x3dcd29f8	0.100177705
96	0xbda65755	-0.08122126
97	0x3e2dccba	0.16972628
98	0xbc87af52	-0.016563091
99	0x3eb0e097	0.34546348
100	0x3dac8dfc	0.08425519
101	0xbe617852	-0.22018555
102	0x3d56bf1d	0.052428354
103	0x3d885a8c	0.066578954
104	0xbf34b99c	-0.7059572
105	0xbeaf4605	-0.34233108
106	0x3f3fb707	0.7488865
107	0x3e3a8ea4	0.18218476
108	0x3e754e71	0.23955704
109	0xbe797a5c	-0.24363083
110	0xbe02f90f	-0.12790321
111	0x3cba5ffc	0.022750847
112	0xbe3a086f	-0.1816728
113	0x3e641d40	0.22276783
114	0x3ed8e052	0.42358643
115	0xbee25666	-0.44206542
116	0xbe0e8efc	-0.13921732
117	0x3d833bc0	0.06407881
118	0xbec8f10f	-0.39246413
119	0xbd077dcb	-0.03307895
120	0x3e768c39	0.24076928
121	0x3dcb0569	0.09913141
122	0x3d0ff7b3	0.035148334
123	0x3c769822	0.01505092
124	0xbe6b3e19	-0.22972907
125	0x3f2f0736	0.6837038
126	0xbe9651c2	-0.2935925
127	0x3e3d8e57	0.1851133
128	0xbe8251cb	-0.25453028
129	0xbc59af42	-0.013286414
130	0xbd6315b6	-0.055440627
131	0xbb033c63	-0.0020025007
132	0x3f195484	0.59894586
133	0x3e3ecd71	0.18633057
134	0xbd964b36	-0.07338564
135	0x3eef1994	0.46699202
136	0x3e0fc867	0.14041291
137	0x3d188927	0.037240174
138	0x3d862cce	0.065515146
139	0xbc1af34b	-0.00945742
140	0xbf2da33c	-0.678272
141	0xbd5ef452	-0.05443222
142	0x3d7bd36a	0.061480917
143	0xbdd852ee	-0.105626926
144	0x3e4b8402	0.19874576
145	0xbec5d009	-0.3863528
146	0xbf2a6eb4	-0.6657517
147	0xbe32f015	-0.17474397
148	0xbde7b593	-0.113139294
149	0x3cf2e931	0.02965221
150	0xbd2f9adb	-0.04287229
151	0xbc5ed33e	-0.013600169
152	0xbdae79e0	-0.085193396
153	0x3dc36855	0.09541384
154	0xbf1c58c1	-0.6107293
155	0x3d83368b	0.064068876
156	0xbdac0bb0	-0.08400667
157	0xbe47546c	-0.19465798
158	0xbe3e6e61	-0.18596794
159	0xbe037b07	-0.128399
160	0x3e3831c6	0.17987737
161	0x3ee20762	0.44146258
162	0xbe837265	-0.25673214
163	0x3ee5038d	0.44729272
164	0xbe1c7c92	-0.15281895
165	0x3eaab41c	0.33340538
166	0xbde111af	-0.10989701
167	0x3e9235d3	0.2855669
168	0x3f0586f9	0.52159077
169	0xbf231f87	-0.6371998
170	0x3ea03e19	0.31297377
171	0x3dd2a22d	0.10284839
172	0x3e8cb914	0.27484953
173	0xbf442e10	-0.76632786
174	0xbef4bfa7	-0.4780247
175	0x3dcedb3f	0.101004116
176	0x3d64c4c4	0.055851713
177	0x3db2fe8b	0.087399565
178	0x3d7fd032	0.06245441
179	0x3ce7254e	0.02821603
180	0x3ebd0a5f	0.36921975
181	0xbb95c758	-0.004570883
182	0xbf274e6a	-0.65354025
183	0xbc183b11	-0.009291426
184	0x3f01037e	0.50395954
185	0x3e29eddd	0.16594644
186	0x3e69a798	0.22817838
187	0x3e64b56d	0.22334833
188	0x3e09b064	0.13446194
189	0x3f0fbbb2	0.56145775
190	0xbda05835	-0.07829324
191	0xbe08feac	-0.133784
192	0x3e865988	0.26240182
193	0x3d8353e7	0.064124875
194	0x3e2bb131	0.16766812
195	0x3ebfab6f	0.3743548
196	0x3e15603c	0.14587492
197	0xba4b4da6	-0.0007755406
198	0x3f065140	0.5246773
199	0x3cf644ea	0.030062158
200	0x3e4c59b7	0.19956098
201	0xbd8028ab	-0.06257757
202	0x3d803167	0.06259423
203	0xbdb4785d	-0.0881202
204	0x3ec2286b	0.3792146
205	0xbebac826	-0.36480826
206	0x3d8281f4	0.06372443
207	0xbe0933f7	-0.1339873
208	0x3ed69ae0	0.41915035
209	0xbb223cc8	-0.0024755467
210	0x3f060450	0.5235033
211	0xbda76601	-0.081737526
212	0xbf1406d3	-0.5782291
213	0xbc3a58fc	-0.011373755
214	0xbd876cc9	-0.06612546
215	0x3dd74208	0.10510641
216	0xbdd4e8c4	-0.10395959
217	0x3e75c732	0.24001768
218	0xbe015c98	-0.12632978
219	0x3d5bbe3d	0.053648222
220	0xbf0fb5ed	-0.5613697
221	0xbdea55c6	-0.11442141
222	0xbdd427f7	-0.10359185
223	0xbdfc63ee	-0.123237476
224	0xbea7b001	-0.32751468
225	0x3ec9261a	0.39286882
226	0xbc6f1c78	-0.01459419
227	0x3dc6c4f0	0.097055316
228	0x3e9b47a7	0.30328104
229	0xbee5d10f	-0.44886062
230	0xbd5d2ca7	-0.053997662
231	0xbe8867dd	-0.2664174
232	0x3efa5292	0.4889112
233	0x3e81686d	0.25274983
234	0xbe945b6d	-0.28976002
235	0x3d1eeb9d	0.038798917
236	0x3f0207e7	0.5079331
237	0x3d95b3c9	0.07309682
238	0x3e9a4a25	0.30134693
239	0x3e59a953	0.21255998
240	0xbf1f82bb	-0.62308854
241	0x3e8d20e0	0.27564144
242	0x3e99554d	0.29947892
243	0xbe522050	-0.20520139
244	0x3cbf70c5	0.023369202
245	0x3d89dc83	0.067315124
246	0xbe8d7c62	-0.2763396
247	0xbc1b88f3	-0.0094931
248	0x3eec40b4	0.46143115
249	0x3d874ccf	0.06606447
250	0xbed82233	-0.42213592
251	0x3e7cb2bb	0.24677555
252	0xbe8df75f	-0.27727792
253	0x3e355d75	0.17711432
254	0xbf537417	-0.82599014
255	0xbd6cb9dc	-0.057794437

feature_layer.3.bias f4 [32]
0	0x3dbcff7a	0.09228416
1	0xbec42429	-0.38308838
2	0xbe89b68b	-0.26897082
3	0x3cfe0c32	0.031011675
4	0xbe925a4c	-0.28584516
5	0xbd8ebb5b	-0.06969329
6	0xbf585638	-0.8450656
7	0x3e8f1059	0.2794216
8	0xbd0c2dc3	-0.03422333
9	0xbe1e5626	-0.1546255
10	0xbeaafec3	-0.33397493
11	0xbd9f1ab0	-0.07768762
12	0x3d3cb033	0.046066474
13	0x3e84f024	0.25964463
14	0x3d6bde69	0.057585154
15	0xbd912742	-0.07087566
16	0xbe5a049b	-0.2129082
17	0x3f00a2cc	0.5024841
18	0x3e9e7392	0.30947548
19	0xbe9263fb	-0.28591904
20	0xbd1c4c04	-0.03815843
21	0xbe83ffb2	-0.25781018
22	0x3f141d76	0.57857454
23	0xbeb0aafc	-0.3450545
24	0xbde42158	-0.11139172
25	0xbe0aed3f	-0.13567065
26	0xbd344f69	-0.044021044
27	0xbf0a3afe	-0.53996265
28	0xbf04c510	-0.51863194
29	0x3ed6f3f9	0.4198301
30	0x3e3f54c2	0.18684676
31	0x3f01e558	0.50740576

final_layer.weight_mu f4 [32, 64]
0	0xbd76de90	-0.060270846
1	0x3d6139c4	0.05498673
2	0xbda39f90	-0.079894185
3	0x3da43e90	0.08019745
4	0xbd2a27b4	-0.04154177
5	0xbdbae078	-0.09124845
6	0xbcf42e48	-0.029807225
7	0x3b4ddf00	0.0031413436
8	0x3c6a36f0	0.014295325
9	0xbdb26566	-0.087107465
10	0xbdbdbeac	-0.092648834
11	0x3d82ae70	0.063809276
12	0xbdee7f06	-0.116453215
13	0xbda0234a	-0.07819231
14	0x3de82624	0.113354
15	0xbdad371c	-0.08457777
16	0xbd298000	-0.041381836
17	0x3d2a6754	0.041602448
18	0x3d5ff57c	0.05467747
19	0xbcfb06b0	-0.030642837
20	0xbc9b1a90	-0.018933564
21	0x3dc40cd0	0.09572756
22	0xbdd687cc	-0.1047512
23	0x3cf13d90	0.0294483
24	0xbb986100	-0.004650235
25	0xbd250168	-0.040284544
26	0xbdb4da38	-0.088306844
27	0x3c02aa90	0.007975236
28	0xbdc03b02	-0.09386255
29	0xbd09564c	-0.033529565
30	0x3dc2a562	0.095042005
31	0x3d8e6e3a	0.06954618
32	0x3ac54e80	0.0015053302
33	0xbdb89aa8	-0.09013873
34	0x3a996100	0.0011701882
35	0x3d812de4	0.06307581
36	0x3deb9366	0.115027234
37	0x3bc9c860	0.0061579198
38	0x3d9a595e	0.07536577
39	0xbdd0dc12	-0.10198225
40	0xbd8a410a	-0.067506865
41	0x3d4a339c	0.049365625
42	0xbdd8332e	-0.10556637
43	0x3d811492	0.063027516
44	0x3cd44b18	0.025914714
45	0xbd83f76c	-0.06443676
46	0xbc1071a0	-0.008816153
47	0xbd248fa8	-0.040176064
48	0x3da4203c	0.08013961
49	0x3dc0e458	0.09418553
50	0x3d422928	0.04740253
51	0x3d65dbc8	0.056117803
52	0xbd80fdb4	-0.0629839
53	0x3dbfa474	0.09357539
54	0x3d7420b8	0.059601516
55	0x3deac196	0.11462705
56	0x3d4bb708	0.0497351
57	0xbddcb31c	-0.1077635
58	0x3dd7efa6	0.10543756
59	0x3d9ae612	0.07563414
60	0xbd4319c8	-0.04763201
61	0x3c779a00	0.0151124
62	0x3d5ce74c	0.05393152
63	0xbcecccb0	-0.028906196
64	0xbdad1d78	-0.08452886
65	0x3d1a9234	0.037737086
66	0xbd0637c0	-0.03276801
67	0x3b442d40	0.0029934198
68	0xbd92756a	-0.07151301
69	0xbc034680	-0.008012414
70	0x3df555f0	0.11979282
71	0xbddf4ff8	-0.10903925
72	0x3d2f5cb8	0.042813033
73	0x3d3275ec	0.04356949
74	0x3d3ddde0	0.046354175
75	0xbd2a16c4	-0.041525617
76	0x3cf5c528	0.030001238
77	0xbda5024c	-0.08057079
78	0xbd03ac7c	-0.032146916
79	0xbdf04cf8	-0.117334306
80	0x3de88bc6	0.11354785
81	0xbcdfd990	-0.027325422
82	0xbcffd7f0	-0.031230897
83	0x3d8e6d9a	0.069544986
84	0xbd28b038	-0.04118368
85	0xbcec3170	-0.028832167
86	0x3ddf1628	0.10892898
87	0x3ddcc532	0.107797995
88	0xb94c2000	-0.00019466877
89	0xbbaf3460	-0.0053468198
90	0xbd3c85c8	-0.04602602
91	0xbd2a1a50	-0.041529
92	0x3df49f70	0.11944473
93	0xbda8a018	-0.082336605
94	0x3d33776c	0.04381506
95	0xbdd05838	-0.101730764
96	0x3ddaa056	0.10675113
97	0xbcc37dc8	-0.023863688
98	0xbdc13d0a	-0.094354704
99	0xbbbbae20	-0.0057275444
100	0x3c1634b0	0.009167835
101	0x3d72c114	0.059266165
102	0x3d19ccf8	0.03754899
103	0xbdede9b6	-0.116168424
104	0x3d60ce8c	0.05488448
105	0xbdd05e10	-0.10174191
106	0xbde6fb84	-0.112784415
107	0xbdde0dd8	-0.10842484
108	0xbd828af2	-0.06374158
109	0xbcbb6cb0	-0.022878975
110	0x3bf22fa0	0.0073909312
111	0x3cca82c8	0.024720564
112	0xbd097c9c	-0.033566102
113	0xbd9f5400	-0.077796936
114	0x3d72cc48	0.05927685
115	0xbc7024d0	-0.014657214
116	0x3ca87340	0.020562768
117	0xbdfa2ff2	-0.12216176
118	0x3d297ec0	0.041380644
119	0xbd865524	-0.06559208
120	0xbdd9a1d2	-0.10626568
121	0x3cb8f5d0	0.02257815
122	0xbc4dde20	-0.012565166
123	0xbb6e7340	-0.0036384612
124	0x3da638c2	0.081162944
125	0x3d6a451c	0.057194814
126	0xbcb17f38	-0.021667108
127	0x3dfe1874	0.12407008
128	0xbc114890	-0.008867398
129	0x3da8ae34	0.082363516
130	0xbd9c1e2e	-0.07622944
131	0xbbf9afc0	-0.007619828
132	0xbde02710	-0.109449506
133	0xbdce8e66	-0.10085754
134	0x3ca1a200	0.019730568
135	0xbdc72ce6	-0.097253606
136	0x3cd23e00	0.02566433
137	0x3d3deb74	0.046367124
138	0xbd45d23c	-0.0482962
139	0x3d512784	0.051063076
140	0x3dba5100	0.09097481
141	0x3dc150a0	0.09439206
142	0xbc913590	-0.017725736
143	0xbd1481e8	-0.0362567
144	0xbdc055e2	-0.09391381
145	0x3dcd6b78	0.10030264
146	0xbcdd2a28	-0.02699764
147	0xbc9d5550	-0.01920572
148	0xbd5b5aa8	-0.053553253
149	0x3dc6c894	0.09706226
150	0x3df7bd7a	0.12096687
151	0x3c8eaab8	0.01741539
152	0x3d89b33a	0.06723638
153	0x3d811fdc	0.06304905
154	0xbdcf5bc8	-0.10124928
155	0x3b77f9c0	0.0037838072
156	0x3d71ebd8	0.05906281
157	0x3dbbd4e4	0.09171465
158	0x3da44da0	0.08022618
159	0x3cfc0a80	0.030766726
160	0xbd8ac8b4	-0.06776562
161	0xbd031144	-0.031998888
162	0x3d46f778	0.04857585
163	0x3df12578	0.11774725
164	0x3c49f550	0.012326553
165	0xbbbd65a0	-0.005779937
166	0xbd162b90	-0.03666264
167	0xbb79da40	-0.0038124472
168	0x3d6fef4c	0.05857782
169	0xbd88841a	-0.066658214
170	0xbcba6b08	-0.022756115
171	0x3d05feac	0.032713577
172	0xbc1f66b0	-0.009729072
173	0xbd4ca660	-0.049963355
174	0xbc9770e0	-0.01848644
175	0xbab8d980	-0.0014102906
176	0xbdc7a688	-0.0974856
177	0x3dd6e6d2	0.10493244
178	0x3da289f6	0.0793647
179	0x3d867c5e	0.0656669
180	0xbc9f6cd8	-0.01946108
181	0xbd87f616	-0.06638734
182	0x3dc0e22a	0.09418137
183	0xbd7e8f44	-0.062148347
184	0x3dd09332	0.10184325
185	0x3c291ed0	0.010322288
186	0x3cff5c10	0.031171829
187	0xbd6a4748	-0.057196885
188	0x3d93564c	0.07194194
189	0xbd81d7be	-0.06339978
190	0xbd70deec	-0.058806345
191	0xbd50a9c8	-0.050943166
192	0x3dc93f2e	0.09826504
193	0x3ca18a08	0.019719139
194	0xbc80a750	-0.01570478
195	0x3d6dbfc8	0.058044225
196	0xbd552650	-0.05203849
197	0x3d5fff6c	0.05468695
198	0x3c56b930	0.013105676
199	0x3d338390	0.04382664
200	0xbdbe3068	-0.092865765
201	0xbd38627c	-0.045015797
202	0x3dc5da18	0.09660739
203	0xbd959bfa	-0.07305141
204	0xbde69ab6	-0.112599775
205	0x3c9e3558	0.019312546
206	0xbd8712fa	-0.06595416
207	0xbc505ae0	-0.012716979
208	0xbc1adcb0	-0.00945203
209	0x3d2b1c3c	0.041774973
210	0xbd8eb436	-0.06967966
211	0x3d89ab02	0.0672207
212	0xbddb088e	-0.10694991
213	0xbd17e7bc	-0.037086233
214	0x3dd9911c	0.106233805
215	0xbd224428	-0.03961578
216	0x3d81bd7a	0.06334968
217	0xbce81668	-0.028330997
218	0x3db02440	0.08600664
219	0x3d9e5c9e	0.07732509
220	0x3c561620	0.013066798
221	0xbcbce8c0	-0.023060203
222	0x3dc37150	0.09543097
223	0xbd026788	-0.031837016
224	0xbcf9a710	-0.03047517
225	0x3d73a74c	0.05948572
226	0x3c85da68	0.016339496
227	0xbcfeb548	-0.031092301
228	0x3ad83000	0.0016493797
229	0xbd80c176	-0.062869
230	0x3d9d5f6e	0.076842174
231	0xbd541d84	-0.05178596
232	0xbdd14acc	-0.102193445
233	0x3db59388	0.0886603
234	0x3d87d910	0.06633198
235	0xbdee8166	-0.116457745
236	0xbc5437a0	-0.012952715
237	0xbd2a6ba8	-0.041606575
238	0x3ad01b80	0.0015877336
239	0x3c7fdb60	0.015616268
240	0x3df7c048	0.120972216
241	0xbdbabb10	-0.091177106
242	0xbbcd1ca0	-0.006259516
243	0xbd7566bc	-0.05991243
244	0x3d7b725c	0.06138836
245	0x3dd16174	0.10223666
246	0x3c8b15d8	0.01697819
247	0xbcb5bae0	-0.022183836
248	0xbcbd4a60	-0.023106754
249	0xbdb5ff18	-0.08886546
250	0x3d049ca4	0.032375947
251	0x3dc8759c	0.09788057
252	0xbd3d98f4	-0.046288446
253	0x3db12e84	0.0865145
254	0xbc6edde0	-0.014579266
255	0x3a909580	0.0011030883

final_layer.weight_sigma f4 [32, 64]
0	0x3d99999a	0.075
1	0x3d99999a	0.075
2	0x3d99999a	0.075
3	0x3d99999a	0.075
4	0x3d99999a	0.075
5	0x3d99999a	0.075
6	0x3d99999a	0.075
7	0x3d99999a	0.075
8	0x3d99999a	0.075
9	0x3d99999a	0.075
10	0x3d99999a	0.075
11	0x3d99999a	0.075
12	0x3d99999a	0.075
13	0x3d99999a	0.075
14	0x3d99999a	0.075
15	0x3d99999a	0.075
16	0x3d99999a	0.075
17	0x3d99999a	0.075
18	0x3d99999a	0.075
19	0x3d99999a	0.075
20	0x3d99999a	0.075
21	0x3d99999a	0.075
22	0x3d99999a	0.075
23	0x3d99999a	0.075
24	0x3d99999a	0.075
25	0x3d99999a	0.075
26	0x3d99999a	0.075
27	0x3d99999a	0.075
28	0x3d99999a	0.075
29	0x3d99999a	0.075
30	0x3d99999a	0.075
31	0x3d99999a	0.075
32	0x3d99999a	0.075
33	0x3d99999a	0.075
34	0x3d99999a	0.075
35	0x3d99999a	0.075
36	0x3d99999a	0.075
37	0x3d99999a	0.075
38	0x3d99999a	0.075
39	0x3d99999a	0.075
40	0x3d99999a	0.075
41	0x3d99999a	0.075
42	0x3d99999a	0.075
43	0x3d99999a	0.075
44	0x3d99999a	0.075
45	0x3d99999a	0.075
46	0x3d99999a	0.075
47	0x3d99999a	0.075
48	0x3d99999a	0.075
49	0x3d99999a	0.075
50	0x3d99999a	0.075
51	0x3d99999a	0.075
52	0x3d99999a	0.075
53	0x3d99999a	0.075
54	0x3d99999a	0.075
55	0x3d99999a	0.075
56	0x3d99999a	0.075
57	0x3d99999a	0.075
58	0x3d99999a	0.075
59	0x3d99999a	0.075
60	0x3d99999a	0.075
61	0x3d99999a	0.075
62	0x3d99999a	0.075
63	0x3d99999a	0.075
64	0x3d99999a	0.075
65	0x3d99999a	0.075
66	0x3d99999a	0.075
67	0x3d99999a	0.075
68	0x3d99999a	0.075
69	0x3d99999a	0.075
70	0x3d99999a	0.075
71	0x3d99999a	0.075
72	0x3d99999a	0.075
73	0x3d99999a	0.075
74	0x3d99999a	0.075
75	0x3d99999a	0.075
76	0x3d99999a	0.075
77	0x3d99999a	0.075
78	0x3d99999a	0.075
79	0x3d99999a	0.075
80	0x3d99999a	0.075
81	0x3d99999a	0.075
82	0x3d99999a	0.075
83	0x3d99999a	0.075
84	0x3d99999a	0.075
85	0x3d99999a	0.075
86	0x3d99999a	0.075
87	0x3d99999a	0.075
88	0x3d99999a	0.075
89	0x3d99999a	0.075
90	0x3d99999a	0.075
91	0x3d99999a	0.075
92	0x3d99999a	0.075
93	0x3d99999a	0.075
94	0x3d99999a	0.075
95	0x3d99999a	0.075
96	0x3d99999a	0.075
97	0x3d99999a	0.075
98	0x3d99999a	0.075
99	0x3d99999a	0.075
100	0x3d99999a	0.075
101	0x3d99999a	0.075
102	0x3d99999a	0.075
103	0x3d99999a	0.075
104	0x3d99999a	0.075
105	0x3d99999a	0.075
106	0x3d99999a	0.075
107	0x3d99999a	0.075
108	0x3d99999a	0.075
109	0x3d99999a	0.075
110	0x3d99999a	0.075
111	0x3d99999a	0.075
112	0x3d99999a	0.075
113	0x3d99999a	0.075
114	0x3d99999a	0.075
115	0x3d99999a	0.075
116	0x3d99999a	0.075
117	0x3d99999a	0.075
118	0x3d99999a	0.075
119	0x3d99999a	0.075
120	0x3d99999a	0.075
121	0x3d99999a	0.075
122	0x3d99999a	0.075
123	0x3d99999a	0.075
124	0x3d99999a	0.075
125	0x3d99999a	0.075
126	0x3d99999a	0.075
127	0x3d99999a	0.075
128	0x3d99999a	0.075
129	0x3d99999a	0.075
130	0x3d99999a	0.075
131	0x3d99999a	0.075
132	0x3d99999a	0.075
133	0x3d99999a	0.075
134	0x3d99999a	0.075
135	0x3d99999a	0.075
136	0x3d99999a	0.075
137	0x3d99999a	0.075
138	0x3d99999a	0.075
139	0x3d99999a	0.075
140	0x3d99999a	0.075
141	0x3d99999a	0.075
142	0x3d99999a	0.075
143	0x3d99999a	0.075
144	0x3d99999a	0.075
145	0x3d99999a	0.075
146	0x3d99999a	0.075
147	0x3d99999a	0.075
148	0x3d99999a	0.075
149	0x3d99999a	0.075
150	0x3d99999a	0.075
151	0x3d99999a	0.075
152	0x3d99999a	0.075
153	0x3d99999a	0.075
154	0x3d99999a	0.075
155	0x3d99999a	0.075
156	0x3d99999a	0.075
157	0x3d99999a	0.075
158	0x3d99999a	0.075
159	0x3d99999a	0.075
160	0x3d99999a	0.075
161	0x3d99999a	0.075
162	0x3d99999a	0.075
163	0x3d99999a	0.075
164	0x3d99999a	0.075
165	0x3d99999a	0.075
166	0x3d99999a	0.075
167	0x3d99999a	0.075
168	0x3d99999a	0.075
169	0x3d99999a	0.075
170	0x3d99999a	0.075
171	0x3d99999a	0.075
172	0x3d99999a	0.075
173	0x3d99999a	0.075
174	0x3d99999a	0.075
175	0x3d99999a	0.075
176	0x3d99999a	0.075
177	0x3d99999a	0.075
178	0x3d99999a	0.075
179	0x3d99999a	0.075
180	0x3d99999a	0.075
181	0x3d99999a	0.075
182	0x3d99999a	0.075
183	0x3d99999a	0.075
184	0x3d99999a	0.075
185	0x3d99999a	0.075
186	0x3d99999a	0.075
187	0x3d99999a	0.075
188	0x3d99999a	0.075
189	0x3d99999a	0.075
190	0x3d99999a	0.075
191	0x3d99999a	0.075
192	0x3d99999a	0.075
193	0x3d99999a	0.075
194	0x3d99999a	0.075
195	0x3d99999a	0.075
196	0x3d99999a	0.075
197	0x3d99999a	0.075
198	0x3d99999a	0.075
199	0x3d99999a	0.075
200	0x3d99999a	0.075
201	0x3d99999a	0.075
202	0x3d99999a	0.075
203	0x3d99999a	0.075
204	0x3d99999a	0.075
205	0x3d99999a	0.075
206	0x3d99999a	0.075
207	0x3d99999a	0.075
208	0x3d99999a	0.075
209	0x3d99999a	0.075
210	0x3d99999a	0.075
211	0x3d99999a	0.075
212	0x3d99999a	0.075
213	0x3d99999a	0.075
214	0x3d99999a	0.075
215	0x3d99999a	0.075
216	0x3d99999a	0.075
217	0x3d99999a	0.075
218	0x3d99999a	0.075
219	0x3d99999a	0.075
220	0x3d99999a	0.075
221	0x3d99999a	0.075
222	0x3d99999a	0.075
223	0x3d99999a	0.075
224	0x3d99999a	0.075
225	0x3d99999a	0.075
226	0x3d99999a	0.075
227	0x3d99999a	0.075
228	0x3d99999a	0.075
229	0x3d99999a	0.075
230	0x3d99999a	0.075
231	0x3d99999a	0.075
232	0x3d99999a	0.075
233	0x3d99999a	0.075
234	0x3d99999a	0.075
235	0x3d99999a	0.075
236	0x3d99999a	0.075
237	0x3d99999a	0.075
238	0x3d99999a	0.075
239	0x3d99999a	0.075
240	0x3d99999a	0.075
241	0x3d99999a	0.075
242	0x3d99999a	0.075
243	0x3d99999a	0.075
244	0x3d99999a	0.075
245	0x3d99999a	0.075
246	0x3d99999a	0.075
247	0x3d99999a	0.075
248	0x3d99999a	0.075
249	0x3d99999a	0.075
250	0x3d99999a	0.075
251	0x3d99999a	0.075
252	0x3d99999a	0.075
253	0x3d99999a	0.075
254	0x3d99999a	0.075
255	0x3d99999a	0.075

final_layer.bias_mu f4 [32]
0	0x3d4346f8	0.047675103
1	0xbd8a793e	-0.06761406
2	0x3decca28	0.11561996
3	0xbc556010	-0.013023391
4	0x3dc00984	0.09376815
5	0x3d00d0d4	0.031449154
6	0x3cac6f50	0.021049172
7	0xbd456000	-0.048187256
8	0x3df01438	0.117226064
9	0xbdacceba	-0.084378675
10	0x3dca2d74	0.09871951
11	0x3cbae070	0.022812098
12	0x3c2da9c0	0.010599554
13	0xbde93072	-0.11386193
14	0xbd973df4	-0.073848635
15	0xbdbb8972	-0.09157075
16	0x3da718d0	0.081590295
17	0xbdfb0fba	-0.12258859
18	0x3d5cb374	0.053882077
19	0x3dc857c0	0.09782362
20	0x3d023808	0.031791717
21	0xbd61a368	-0.055087477
22	0x3df9e786	0.12202363
23	0xbdd335b0	-0.103129745
24	0x3dca2224	0.09869793
25	0x3de6b2d2	0.11264576
26	0xbd4bf644	-0.049795404
27	0xbdb3e878	-0.08784574
28	0x3bcfe8a0	0.0063448697
29	0xbd9d21c6	-0.076724574
30	0x3de0a014	0.109680325
31	0xbd5f0b28	-0.054454

final_layer.bias_sigma f4 [32]
0	0x3dd93924	0.10606602
1	0x3dd93924	0.10606602
2	0x3dd93924	0.10606602
3	0x3dd93924	0.10606602
4	0x3dd93924	0.10606602
5	0x3dd93924	0.10606602
6	0x3dd93924	0.10606602
7	0x3dd93924	0.10606602
8	0x3dd93924	0.10606602
9	0x3dd93924	0.10606602
10	0x3dd93924	0.10606602
11	0x3dd93924	0.10606602
12	0x3dd93924	0.10606602
13	0x3dd93924	0.10606602
14	0x3dd93924	0.10606602
15	0x3dd93924	0.10606602
16	0x3dd93924	0.10606602
17	0x3dd93924	0.10606602
18	0x3dd93924	0.10606602
19	0x3dd93924	0.10606602
20	0x3dd93924	0.10606602
21	0x3dd93924	0.10606602
22	0x3dd93924	0.10606602
23	0x3dd93924	0.10606602
24	0x3dd93924	0.10606602
25	0x3dd93924	0.10606602
26	0x3dd93924	0.10606602
27	0x3dd93924	0.10606602
28	0x3dd93924	0.10606602
29	0x3dd93924	0.10606602
30	0x3dd93924	0.10606602
31	0x3dd93924	0.10606602

final_layer.weight_epsilon f4 [32, 64]
0	0xbeedc825	-0.4644176
1	0x3e780914	0.24222213
2	0x3f08619d	0.53273946
3	0x3eb7a30c	0.35866582
4	0x3e984bb2	0.2974525
5	0xbeb4a065	-0.3527862
6	0x3f086cff	0.53291315
7	0xbe6e7aea	-0.23289075
8	0xbf06a35f	-0.52593035
9	0xbe1a9831	-0.15097119
10	0xbee070bb	-0.43836007
11	0x3f062e4f	0.5241441
12	0xbed6bacb	-0.41939387
13	0x3ef66cdf	0.48129937
14	0xbedbdf4d	-0.42943802
15	0xbefedb5b	-0.4977673
16	0x3ea7c294	0.3276564
17	0xbee8912f	-0.45423266
18	0xbdac3d51	-0.08410133
19	0xbe131ac3	-0.14365678
20	0x3ed13b20	0.4086542
21	0x3f0d67f0	0.5523672
22	0xbf460585	-0.7735217
23	0x3f0d66b9	0.5523487
24	0xbe1b2a77	-0.15152918
25	0x3ee25997	0.44208977
26	0x3e9db497	0.30801842
27	0xbeae670a	-0.34062988
28	0x3e75b797	0.23995815
29	0xbe384243	-0.17994027
30	0x3e862fa6	0.26208228
31	0xbf13ee50	-0.5778551
32	0xbf4c25c1	-0.7974511
33	0x3f04b809	0.51843315
34	0x3e93d66d	0.2887453
35	0xbee91759	-0.45525625
36	0x3cc17f63	0.023620313
37	0x3e57cd78	0.21074474
38	0xbee898ce	-0.4542908
39	0x3ee68826	0.45025748
40	0xbf698ecd	-0.9123352
41	0x3f339ac6	0.7015804
42	0xbf1ef1ca	-0.6208769
43	0xbf0ec54a	-0.5576979
44	0x3edc2588	0.42997384
45	0x3f1ac66a	0.60459006
46	0x3f01309b	0.5046479
47	0xbeaaf57c	-0.33390415
48	0x3f6255f9	0.88412434
49	0x3f2c4d25	0.67305213
50	0x3ee389a5	0.44440952
51	0x3e3bacb9	0.18327607
52	0xbef6aeab	-0.48180136
53	0x3ea33f41	0.31884196
54	0x3f2b1d15	0.6684125
55	0x3e9ff6f7	0.31243107
56	0xbf119085	-0.56861144
57	0xbf0b6851	-0.5445605
58	0x3f0006b8	0.5001025
59	0xbe8d99bc	-0.27656353
60	0x3edaf63f	0.42765996
61	0x3ed3567f	0.4127693
62	0xbf0c756a	-0.5486666
63	0x3e997820	0.2997446
64	0xbf34736d	-0.70488626
65	0x3ebc3b78	0.3676412
66	0x3f4eff60	0.8085842
67	0x3f0b5c57	0.54437774
68	0x3ee726f4	0.45146906
69	0xbf09137f	-0.53545374
70	0x3f4f10a5	0.8088477
71	0xbeb4fb18	-0.3534782
72	0xbf4c5a13	-0.7982494
73	0xbe6aa42b	-0.22914188
74	0xbf2a537e	-0.6653365
75	0x3f4ba865	0.79553825
76	0xbf22f4ef	-0.6365499
77	0x3f3b02a6	0.73050916
78	0xbf26dc06	-0.6517948
79	0xbf4168b4	-0.7555039
80	0x3efe9fb0	0.49731207
81	0xbf307e55	-0.6894277
82	0xbe02b618	-0.12764776
83	0xbe5f45ea	-0.21804014
84	0x3f1ec8aa	0.6202494
85	0x3f569fbc	0.83837485
86	0xbf9646f1	-1.17404
87	0x3f569de4	0.8383467
88	0xbe6b822c	-0.22998875
89	0x3f2bc67c	0.6709974
90	0x3eef5ced	0.46750584
91	0xbf045a50	-0.51700306
92	0x3eba7913	0.36420497
93	0xbe8bd52a	-0.2731107
94	0x3ecbaa6e	0.39778465
95	0xbf608702	-0.87706006
96	0xbf9aed10	-1.2103596
97	0x3f497055	0.7868703
98	0x3ee062c0	0.4382534
99	0xbf30e426	-0.69098127
100	0x3d12d80b	0.035850566
101	0x3ea3c562	0.3198653
102	0xbf30841e	-0.68951595
103	0x3f2ef2ec	0.6833942
104	0xbfb13ecd	-1.384729
105	0x3f884cf5	1.0648485
106	0xbf713e5e	-0.9423579
107	0xbf58b1fa	-0.8464657
108	0x3f271152	0.65260804
109	0x3f6aea53	0.917638
110	0x3f44151e	0.7659472
111	0xbf01bd4f	-0.50679487
112	0x3fabc3bd	1.341911
113	0x3f82c21c	1.0215487
114	0x3f2cad3b	0.6745183
115	0x3e8e6cca	0.27817374
116	0xbf3b3495	-0.7312711
117	0x3ef7c628	0.4839337
118	0x3f81db5b	1.0145067
119	0x3ef2cac7	0.47420332
120	0xbf5cef8b	-0.86303014
121	0xbf539735	-0.826526
122	0x3f4250fe	0.75904834
123	0xbed6eb51	-0.41976407
124	0x3f262b28	0.649096
125	0x3f2061fd	0.6264952
126	0xbf552fa4	-0.8327582
127	0x3ee8eef2	0.454948
128	0x3f0bf421	0.54669386
129	0xbe91fd1c	-0.2851342
130	0xbf208ae9	-0.6271196
131	0xbed82b87	-0.4222071
132	0xbeb346c1	-0.35014918
133	0x3ed4a058	0.41528583
134	0xbf20984f	-0.62732404
135	0x3e8c5d59	0.2741497
136	0x3f1e7d9d	0.6191042
137	0x3e35fb83	0.17771725
138	0x3f0419e2	0.51601994
139	0xbf1df3cf	-0.6170015
140	0x3efcc56b	0.49369368
141	0xbf110a7e	-0.56656635
142	0x3f016995	0.5055173
143	0x3f1600ef	0.58595175
144	0xbec57aff	-0.385704
145	0x3f08e266	0.53470457
146	0x3dcac0e3	0.099000715
147	0x3e2d2a63	0.169107
148	0xbef64c5f	-0.48105142
149	0xbf26751e	-0.65022457
150	0x3f691a63	0.9105589
151	0xbf2673b0	-0.65020275
152	0x3e36a7b2	0.17837408
153	0xbf05399e	-0.5204104
154	0xbeb9a4ff	-0.36258695
155	0x3ecd4cb6	0.40097588
156	0xbe909fcc	-0.28246915
157	0x3e58e6f2	0.21181849
158	0xbe9df563	-0.30851278
159	0x3f2e236b	0.68022794
160	0x3f705073	0.93872756
161	0xbf1c3b3b	-0.6102788
162	0xbeae074c	-0.33989942
163	0x3f09315d	0.5359095
164	0xbce3c714	-0.027804889
165	0xbe7e08c2	-0.24808028
166	0x3f08e6e2	0.534773
167	0xbf07afb9	-0.53002506
168	0x3f8977ac	1.0739646
169	0xbf536c60	-0.8258724
170	0x3f3b1a65	0.7308715
171	0x3f28105c	0.6564996
172	0xbf0192eb	-0.50614804
173	0xbf3631ec	-0.71169925
174	0xbf1813c0	-0.59405136
175	0x3ec93efb	0.39305863
176	0xbf85377d	-1.0407559
177	0xbf4ad386	-0.7922901
178	0xbf05ec94	-0.52314115
179	0xbe5cec54	-0.21574527
180	0x3f113139	0.5671573
181	0xbec02afe	-0.375328
182	0xbf496d98	-0.7868285
183	0xbebc4dd7	-0.36778137
184	0x3f2b5a4d	0.66934663
185	0x3f241add	0.6410349
186	0xbf16b517	-0.5887007
187	0x3ea6afbd	0.32555953
188	0xbf00e068	-0.50342417
189	0xbef8c74b	-0.48589548
190	0x3f2557a2	0.6458684
191	0xbeb4a86a	-0.3528474
192	0x3f345609	0.7044378
193	0xbebc1ccf	-0.3674073
194	0xbf4edda9	-0.80806977
195	0xbf0b45a4	-0.5440314
196	0xbee7014e	-0.45118183
197	0x3f08fd2c	0.5351131
198	0xbf4eeeec	-0.80833316
199	0x3eb4dd9e	0.3532533
200	0x3f4c38ca	0.79774153
201	0x3e6a7df3	0.22899608
202	0x3f2a37c0	0.6649132
203	0xbf4b8739	-0.7950321
204	0x3f22da64	0.6361449
205	0xbf3ae430	-0.73004436
206	0x3f26c0d8	0.65138006
207	0x3f414934	0.75502324
208	0xbefe7637	-0.49699566
209	0x3f306196	0.68898904
210	0x3e02a0ce	0.12756655
211	0x3e5f218d	0.21790142
212	0xbf1eaecd	-0.61985475
213	0xbf567cc7	-0.83784145
214	0x3f962e77	1.173293
215	0xbf567aef	-0.8378133
216	0x3e6b5bd1	0.22984244
217	0xbf2baa82	-0.6705705
218	0xbeef35f0	-0.4672084
219	0x3f0444c1	0.5166741
220	0xbeba5ab4	-0.36397326
221	0x3e8bbe64	0.27293694
222	0xbecb8942	-0.39753157
223	0x3f606270	0.87650204
224	0x3f9ad3d4	1.2095895
225	0xbf494f86	-0.7863697
226	0xbee03e34	-0.43797457
227	0x3f30c757	0.6905417
228	0xbd12c020	-0.035827756
229	0xbea3aab5	-0.31966177
230	0x3f30675e	0.68907726
231	0xbf2ed66d	-0.6829594
232	0x3fb121ef	1.3838481
233	0xbf8836c1	-1.064171
234	0x3f711713	0.94175833
235	0x3f588eae	0.8459271
236	0xbf26f61c	-0.65219283
237	0xbf6ac410	-0.9170542
238	0xbf43f52e	-0.7654599
239	0x3f01a82d	0.5064724
240	0xbfaba7c3	-1.3410572
241	0xbf82acd0	-1.0208988
242	0xbf2c911b	-0.67408913
243	0xbe8e5597	-0.27799675
244	0x3f3b1617	0.7308058
245	0xbef79dcc	-0.48362577
246	0xbf81c635	-1.0138613
247	0xbef2a33c	-0.47390163
248	0x3f5ccb8e	0.862481
249	0x3f5374bf	0.82600015
250	0xbf423158	-0.7585654
251	0x3ed6c850	0.419497
252	0xbf261017	-0.648683
253	0xbf2047de	-0.6260966
254	0x3f550cea	0.8322283
255	0xbee8c901	-0.45465854

final_layer.bias_epsilon f4 [32]
0	0xbf0ba2a3	-0.5454504
1	0xbf53efb9	-0.8278766
2	0x3f245f83	0.6420824
3	0x3f53cd34	0.8273499
4	0x3f95f3f6	1.1715076
5	0xbeef78dc	-0.46771896
6	0xbf3f6ae9	-0.74772507
7	0xbf9494ec	-1.1607947
8	0xbfa23036	-1.2670963
9	0xbfb95ecb	-1.4482054
10	0x3f86669b	1.0500063
11	0xbf1c978b	-0.61168736
12	0xbf62462b	-0.8838832
13	0xbf4dda08	-0.80410814
14	0x3f10ae98	0.5651641
15	0xbf2d6e03	-0.6774599
16	0xbee039b2	-0.43794018
17	0x3f29610c	0.66163707
18	0xbf83781d	-1.0271031
19	0x3f0d8a5c	0.55289245
20	0xbf04a6ce	-0.51817024
21	0xbef27c06	-0.47360247
22	0x3f1bbe73	0.6083748
23	0xbf27803e	-0.6543006
24	0x3f8350db	1.025905
25	0xbf1151a5	-0.56765205
26	0x3f13743b	0.5759923
27	0xbe7d96c7	-0.24764548
28	0xbf220122	-0.6328298
29	0xbf65a5da	-0.89706194
30	0xbfc008a5	-1.5002638
31	0xbf5b0d6f	-0.85567373

out1.weight_mu f4 [51, 32]
0	0x3e8f5d41	0.28000835
1	0x3df66945	0.12031797
2	0x3bf9eef9	0.0076273647
3	0x3f1ef58b	0.6209342
4	0xbe7d8a1d	-0.24759717
5	0xbf7764c3	-0.96638125
6	0x3e2f115b	0.17096464
7	0x3d86153b	0.06547018
8	0xbf3f0ccb	-0.74628896
9	0xbef73ef2	-0.4829021
10	0x3e2ff56b	0.17183463
11	0x3e80abaf	0.25130984
12	0xbeac5be6	-0.33663863
13	0xbf5bf49f	-0.8592014
14	0xbd6351e1	-0.055498008
15	0x3e6409d5	0.22269376
16	0xbf6f305e	-0.9343318
17	0xbeaea1e7	-0.34107897
18	0xbefeffb6	-0.49804467
19	0x3eb08aeb	0.34480986
20	0xbefa06d2	-0.48833328
21	0x3ea828fd	0.32843772
22	0x3c49f16e	0.012325628
23	0xbd98bc8d	-0.07457838
24	0x3ed04153	0.40674838
25	0x3e8b1036	0.27160805
26	0x3f00b522	0.50276387
27	0x3f6b9f55	0.92039996
28	0x3f394ab4	0.7237961
29	0xbef383d8	-0.47561526
30	0x3e0982b5	0.13428767
31	0xbf548816	-0.8302015
32	0x3ebc3a07	0.3676302
33	0x3ee48c44	0.44638264
34	0x3f58b74c	0.8465469
35	0x3da4dc4d	0.080498315
36	0xbf02b2dd	-0.51054174
37	0xbeea96b4	-0.45818102
38	0x3f692afa	0.910812
39	0x3e950eb8	0.29112792
40	0x3e675aed	0.22593279
41	0x3e86f2b5	0.26357046
42	0x3f3b1264	0.73074937
43	0x3e9a8acd	0.30184022
44	0xbe4fbbea	-0.20286527
45	0xbf48546c	-0.7825382
46	0x3dd40f9c	0.1035454
47	0x3f6789e6	0.9044479
48	0xbf908a3e	-1.1292188
49	0xbef66c75	-0.4812962
50	0x3ea59ff6	0.32348603
51	0x3f5a58d7	0.8529181
52	0xbed8ab65	-0.42318264
53	0x3f17dada	0.59318316
54	0x3d95009a	0.07275505
55	0x3e3ea1ab	0.18616359
56	0x3f414731	0.75499254
57	0x3f6f3836	0.93445146
58	0x3f310139	0.6914249
59	0x3e451976	0.19247994
60	0x3ea03a64	0.3129455
61	0x3e1cb905	0.15304954
62	0x3ec02873	0.3753086
63	0xbf08fbb7	-0.53509086
64	0xbf3ad7aa	-0.7298533
65	0xbf255900	-0.6458893
66	0xbed375aa	-0.41300708
67	0x3e9abb46	0.30221003
68	0xbf00e5d0	-0.50350666
69	0xbf5cafab	-0.8620555
70	0xbf06228a	-0.5239645
71	0xbf428035	-0.7597688
72	0xbbbac3f4	-0.005699629
73	0x3ec3c5e1	0.38236907
74	0xbf27f37c	-0.656059
75	0x3f51f4f9	0.82014424
76	0xbea74f4d	-0.3267769
77	0x3e886f51	0.26647428
78	0xbd8cd30e	-0.06876193
79	0x3f689d64	0.9086516
80	0xbe763562	-0.24043801
81	0x3b4683fb	0.0030291069
82	0x3e6fa54c	0.234029
83	0xbe7af5fc	-0.24507898
84	0xbe2a9408	-0.16658032
85	0x3f3ed1f0	0.7453909
86	0xbe364101	-0.17798235
87	0xbfb84d65	-1.4398619
88	0xbf807828	-1.0036669
89	0x3e095eda	0.13415089
90	0x3f1f0c69	0.6212831
91	0x3e97fc4a	0.2968467
92	0xbe37e33d	-0.17957778
93	0xbdb719eb	-0.0894049
94	0xbf7c3701	-0.9852143
95	0x3d38a7a4	0.04508175
96	0xbefcde0f	-0.49388167
97	0xbf0177fe	-0.5057372
98	0x3ba71b12	0.0050996626
99	0x3e8b823d	0.272478
100	0xbea97046	-0.3309347
101	0xbf89c40d	-1.0762955
102	0x3e1e561b	0.15462534
103	0xbf6c3f4e	-0.92284095
104	0x3d280cb5	0.041027743
105	0x3ee7801a	0.4521492
106	0xbea5699e	-0.32307142
107	0x3f00c89f	0.50306123
108	0xbb44513f	-0.0029955653
109	0xbe9328b0	-0.2874198
110	0xbd6f2b45	-0.058390874
111	0x3f46b2c6	0.77616537
112	0xbe3c9288	-0.18415272
113	0xbf1756a9	-0.5911661
114	0xbcb022a9	-0.021500902
115	0x3dec6007	0.11541753
116	0xbe88f794	-0.26751387
117	0x3f355485	0.7083209
118	0xbf00065b	-0.500097
119	0xbf8d5034	-1.1040101
120	0xbf02f8cf	-0.511609
121	0x3e94f0a2	0.29089838
122	0x3f5e8125	0.8691581
123	0x3da0a212	0.078434125
124	0x3e2616bd	0.16219611
125	0x3e502bad	0.20329161
126	0xbf606aec	-0.8766315
127	0x3dc2d15b	0.09512588
128	0xbf19fd0d	-0.6015175
129	0xbf3f3883	-0.74695605
130	0x3e88196c	0.26581895
131	0x3e4d21f1	0.20032479
132	0xbd622dbf	-0.055219408
133	0xbf9d27e9	-1.2277805
134	0xbe3e473a	-0.18581858
135	0xbefee6f8	-0.4978559
136	0x3da71c3e	0.08159684
137	0x3e8dd4df	0.2770147
138	0xbec52caf	-0.38510653
139	0x3ef3299f	0.47492692
140	0xbbc62d22	-0.0060478607
141	0xbf2980bf	-0.66212076
142	0x3d1d3400	0.03837967
143	0x3f5a1aca	0.85197127
144	0xbeb579ec	-0.35444582
145	0xbf0f3a81	-0.55948645
146	0x3e89f1c7	0.26942274
147	0xbb4a91c6	-0.0030909642
148	0xbea86f1a	-0.32897264
149	0x3f2ef226	0.6833824
150	0xbdbe02a0	-0.092778444
151	0xbf7c7c4c	-0.9862716
152	0xbf6c79d6	-0.92373407
153	0x3ecab241	0.39589122
154	0x3edd30a2	0.43201166
155	0x3ca92459	0.020647215
156	0x3e0f44c0	0.1399107
157	0x3e9aa38d	0.30202904
158	0xbf8f6fa1	-1.1205941
159	0x3e13bf76	0.14428505
160	0xbefd51fd	-0.49476615
161	0xbeebd60e	-0.46061748
162	0x3f117766	0.5682281
163	0xbebccaad	-0.3687338
164	0xbe71f642	-0.23629096
165	0xbf8460c3	-1.0342029
166	0x3d38992e	0.04506796
167	0xbf110478	-0.56647444
168	0x3e857f4c	0.26073682
169	0x3f0ccb6b	0.5499789
170	0xbf3a105c	-0.7268121
171	0x3f544850	0.8292284
172	0xbd0d3b75	-0.03448053
173	0xbf2c90b5	-0.67408305
174	0xbd51f67a	-0.05126045
175	0x3e9ec4b9	0.31009462
176	0x3ec9b5a0	0.3939638
177	0xbeda101a	-0.4259041
178	0x3dcea5a5	0.10090188
179	0xbe90ec44	-0.28305256
180	0xbf02704e	-0.50952613
181	0x3f19e7b0	0.6011915
182	0xbec2f091	-0.38074163
183	0xbf4fdbbc	-0.81194663
184	0xbf142b19	-0.5787826
185	0x3ef31966	0.47480315
186	0x3f188c35	0.5958894
187	0xbe91d688	-0.28483987
188	0xbee1ffb4	-0.44140399
189	0x3eed2609	0.4631808
190	0xbfa9d9c3	-1.3269581
191	0x3e6e3863	0.23263697
192	0xbf362b70	-0.7116003
193	0xbf0db0db	-0.55347985
194	0x3f2d9c99	0.67817074
195	0xbe6e4b81	-0.2327099
196	0xbe1b5982	-0.15170863
197	0xbf76ec75	-0.96454555
198	0xbe30336b	-0.17207114
199	0xbf4bb196	-0.7956785
200	0x3f145438	0.5794101
201	0x3f7b6e9d	0.9821566
202	0xbeda66d4	-0.42656577
203	0x3f151784	0.58239007
204	0x3e2405ba	0.1601781
205	0xbf2a9d9e	-0.66646755
206	0xbc5e2d06	-0.013560539
207	0x3eb76b3a	0.35823995
208	0x3eab876f	0.33501765
209	0xbf54209d	-0.82862264
210	0x3c888f77	0.016669972
211	0x3cb1cee1	0.021705093
212	0xbedc648f	-0.4304547
213	0x3ed85c02	0.42257696
214	0xbf14dd1c	-0.58149886
215	0xbf0b4594	-0.5440304
216	0xbf539f19	-0.8266464
217	0x3e9a454b	0.3013099
218	0x3ebf9683	0.3741952
219	0xbeb833cd	-0.3597702
220	0x3c3b7448	0.011441298
221	0x3e8c1b86	0.2736475
222	0xbf600636	-0.8750948
223	0x3f15e57d	0.58553296
224	0xbf8e16e9	-1.1100742
225	0xbf0f81e4	-0.5605757
226	0xbe248e0c	-0.16069812
227	0xbebb751d	-0.36612788
228	0xbebcb534	-0.36856997
229	0xbf3c2e3b	-0.7350804
230	0xbe8fef55	-0.28112283
231	0xbf14d685	-0.5813983
232	0x3e884af6	0.2661969
233	0x3f41e59a	0.7574097
234	0xbf86eda7	-1.0541276
235	0x3f0cd39a	0.5501038
236	0xbe561428	-0.20906126
237	0xbedb9929	-0.4289029
238	0xbef73603	-0.48283395
239	0x3f0d836e	0.5527867
240	0xbc5cf7fc	-0.013486858
241	0xbe5202e4	-0.20508915
242	0x3e804674	0.2505375
243	0xbe8cce4d	-0.27501145
244	0xbea088ce	-0.31354374
245	0x3f0b35e2	0.54379094
246	0xbee92b15	-0.4554068
247	0xbfb2b5a0	-1.3961678
248	0xbfa2a954	-1.2707925
249	0x3e48a9e2	0.19596055
250	0x3f159d28	0.58442926
251	0xbea7e85f	-0.32794473
252	0xbe05119c	-0.12994999
253	0x3daf1493	0.08548846
254	0xbfae0bee	-1.3597391
255	0x3ec07b9d	0.3759431
