turtlebot3_dqn/save_model/stage_1_320target.pth (torch_old, 164553 bytes, 22 tensors)

feature_layer.0.weight f4 [64, 26]
00000000: 86b1 8abd 6cdc c3bd 0827 75bf fba1 0abe
00000010: b91d c43d 14b2 9e3e 53df da3d 80cb ee3d
00000020: 94dc ff3d 48d4 403b 7c7c 5f3d 78a9 63be
00000030: c7f5 9abe f6d1 2ebe 0f25 e0bd 2c38 05bd
00000040: 698b 8e3d 7946 72bd ca02 513e ce68 063e
00000050: 300e 863e 694c a33e 4d86 113e 7fb4 44be
00000060: 9a2e abbe af61 903d cb2d 7cbe dcd9 9dbe
00000070: 27da d7bd 535d 4f3e 649b 1c3e 1488 84bd
00000080: afd9 4ebe b372 ea3d cab7 283e bdea e43d
00000090: 7e5b 683e 6491 4f3e 1794 223e 02f7 033d
000000a0: 6710 8d3e 8e9b 323e e57a ba3d 0957 aabd
000000b0: b8d4 80bb e295 eabd 7738 69be 5790 d1be
000000c0: a14f bfbe 6dd8 c8be 33c9 3e3f c0a7 013d
000000d0: e977 aabe 0b12 b9be 86cb 94be 23de 9c3e
000000e0: 5738 6f3e 134c 293e 7afa 8a3e f648 afbb
000000f0: 2178 c7bd a836 93bc 7ae0 f23a fd85 43bc
00000100: a2e2 3fbe 4fdf 91bd 0736 543d dfa1 e73d
00000110: 3eac 783b 5512 903e 46a2 373e 36cd 37bc
00000120: 255b 853e 0763 873e 5893 15bf e6cc e5be
00000130: d0b8 3a3f 1c8a 4f3d 000c 21bd a8f0 e5bd
00000140: 8c5f cf3c 832b 80be 6a36 bebe 0c04 e7bd
00000150: b777 aabd 47a3 28be 4b89 eabd ad2d 303d
00000160: 6d9e 3f3d 96c8 eebd 9480 3fbc 97d7 7ebd
00000170: 0a88 623d db97 033e 09b2 153d 4ff4 e93d
00000180: aa5b 463e 38f8 40be a121 ecbc d04a d6be
00000190: 9611 9fbe b829 9ebe 1f0f 7d3f e4a7 9f3e
000001a0: 8987 d1be 2a9a a6bf 6fda 00bd 33df 9abe
000001b0: e98d cd3e 4151 fa3c 3aad 523d 32bc 38bd
000001c0: 7549 443e df92 75bd 1659 c33d f9e5 c1bd
000001d0: 3891 863d 90a4 a0bd 6a05 1abd 17d3 99bb
000001e0: 35a5 4f3c 26b1 e93d 9cb9 dd3d 44fe 1e3c
000001f0: 353e 3d3e 0bc0 ba3e f5d9 fbbd fa2b 1bbf
00000200: 1473 b33d 93ed 88be e6e6 103e 0b48 d3bd
00000210: 636a 74bd 15b0 52bd 10eb e6bc 8a96 91bd
00000220: 885f f3bd 151c e8bd 03a1 00bd b306 6cbd
00000230: e8ce d6bc 8f85 d4ba 1f40 6f3c b1d2 7e3d
00000240: de0c 393d 37b6 3a3d e0d5 c3bc 6f2f 093b
00000250: bf3c e7bc df2c c4bd 4298 af3c ade4 c13d
00000260: 64ee 443e 5940 08be bb51 84bf 6b8c 293f
00000270: 386e e9bd 5a16 52bf d1c8 f53d 5983 5b3e
00000280: e381 173d c780 863e 948f 433e c6d7 db3d
00000290: 90bc c23d d428 84bd f021 0abe ae9b 18be
000002a0: 42c7 7ebd 0d1a 8ebe d142 9cbe d6a8 e3bd
000002b0: fae7 1c3e 33f3 72bb 3a90 ad3e e315 8a3e
000002c0: e47e 663d 663a 093e dd16 423e 38d9 283a
000002d0: c705 683f b2a9 47bf f453 8ebe ff83 8ebe
000002e0: 960e 643d 6964 e13d cd3f 8fbe e9d6 00be
000002f0: 2fde 8fbd 8b11 30bd 519e 77be 27c2 0fbe
00000300: 5e87 77bd 9dc3 90bc 7f89 123b 0b91 81bd
00000310: 9a5b fb3c ccad 4b3d b90a 423c 8370 5fbe
00000320: f567 58be 98b9 4bbe 5cc0 4bbe 7dac 98be
00000330: 5c43 c5be 637a b2bd 4e2a c03e 11b1 ed3e
00000340: acf7 b0bd c640 7ebe bb6d 39be 66d2 c0be
00000350: 2894 03bf 0d63 36be 6d42 55be bccb dbbe
00000360: 96c5 ecbd 2c8c 143e 974d ab3c 62be 16bd
00000370: fde7 553d 3ff4 41bb a4f0 aabd 8023 15bd
00000380: 9dbf 27be 3fd0 1dba 10af a93d f748 7f3e
00000390: 087b 9a3d e2e9 0abe 36f5 38be a3da 68be
000003a0: ba99 043f ec2c 9dbd a9cd 1f3d 203e 1f3e
000003b0: 0e1d 283e d353 183d 9cab 223e 0cc1 ba3d
000003c0: 6fc2 0ebe 6252 54be 3585 81be 4514 66be
000003d0: 446e 8ebe 8431 bcbe 8a5b 59be c498 69be
000003e0: 7125 31be 544d 39be 9056 133c aa56 2dbd
000003f0: 5493 2dbb dbbc 423d 99e7 883e efd2 643e
-0.06772141 -0.095635265 -0.9576268 -0.13538353 0.09575982 0.30995238 0.10687127 0.11659908
0.12493244 0.0029423404 0.054562077 -0.22232616 -0.30265638 -0.17072281 -0.10944568 -0.032524273
0.06960184 -0.05914924 0.2041122 0.13125917 0.261827 0.31894234 0.14211388 -0.19209479
-0.33433992 0.07049882 -0.24626844 -0.30830276 -0.10539656 0.20250444 0.15293652 -0.06471267
-0.20200227 0.114476584 0.1647636 0.11177585 0.22691151 0.20270306 0.15876804 0.032217987
0.27551576 0.17442152 0.091054715 -0.08317382 -0.003931608 -0.11454369 -0.22775446 -0.40930435
-0.3736544 -0.3922762 0.74525756 0.03165412 -0.3329461 -0.36146578 -0.29061526 0.30638227
0.23361336 0.16532926 0.27144223 -0.005349274 -0.0973971 -0.017970398 0.0018530034 -0.011933801
-0.18738797 -0.07122671 0.051809337 0.11310171 0.0037944461 0.28138986 0.17932996 -0.01121836
0.260461 0.2644274 -0.58427954 -0.44882888 0.7293825 0.05066882 -0.039318085 -0.11227542
0.025314115 -0.25033197 -0.3715089 -0.11280069 -0.08323615 -0.16468535 -0.11451968 0.04301231
0.046781946 -0.116593525 -0.01168837 -0.06221732 0.05530552 0.12850897 0.03654674 0.11423551
0.19370905 -0.18844688 -0.02882463 -0.41853952 -0.31068105 -0.30891204 0.988512 0.31182778
-0.40923718 -1.3015797 -0.031458315 -0.30248412 0.4014733 0.030556323 0.051434733 -0.045101352
0.19168647 -0.05995452 0.09538476 -0.09467692 0.06570667 -0.07843888 -0.03760282 -0.0046943533
0.012673666 0.114107415 0.10826418 0.009704176 0.18480761 0.36474642 -0.122974314 -0.6061398
0.08762184 -0.26743755 0.14150581 -0.103164755 -0.05967177 -0.051437456 -0.028188258 -0.07108791
-0.118834555 -0.11333481 -0.031403553 -0.057623576 -0.026221707 -0.001621412 0.01460269 0.06221265
0.045178287 0.04558393 -0.023905694 0.0020932814 -0.028227208 -0.09578871 0.021434907 0.094674446
0.19231564 -0.13305797 -1.0337442 0.66229886 -0.11397976 -0.82065356 0.12001193 0.21436824
0.036989104 0.26270124 0.1909774 0.10734515 0.09508622 -0.064531 -0.13489509 -0.14903137
-0.062201746 -0.2775425 -0.30519727 -0.11116187 0.15322867 -0.0037071228 0.338991 0.26969823
0.056273356 0.13401183 0.18954034 0.00064410595 0.90633816 -0.7799331 -0.27798426 -0.2783508
0.055677973 0.1100548 -0.27978364 -0.12581982 -0.070248 -0.04298548 -0.24181487 -0.14038907
-0.06043183 -0.0176714 0.0022359786 -0.06326493 0.030683327 0.049726292 0.011843377 -0.21820264
-0.21133406 -0.19895017 -0.19897598 -0.29819098 -0.38527954 -0.0871475 0.37532276 0.46424153
-0.0864099 -0.24829397 -0.18108265 -0.3766052 -0.51397943 -0.17811222 -0.2082612 -0.42928874
-0.11561124 0.14506596 0.020911021 -0.036802657 0.052223194 -0.0029595045 -0.0834668 -0.03641081
-0.16381688 -0.0006020106 0.08285344 0.24930178 0.075429976 -0.13565782 -0.1806229 -0.22739653
0.5179707 -0.07674584 0.039014492 0.15551043 0.16417333 0.037189316 0.15885776 0.09118852
-0.13941358 -0.20734552 -0.2529694 -0.2246867 -0.278185 -0.36756527 -0.21226326 -0.22812182
-0.17299439 -0.18095905 0.008992806 -0.042318977 -0.002648552 0.047543388 0.26739195 0.2234609

feature_layer.0.bias f4 [64]
00000000: 258b 38be 45fa 35bc 08eb 43bd beda 1e3e
00000010: f59f bf3d c0c7 f4be d9a5 ed3d b136 63bd
00000020: 9ca6 da3d 8984 923e 955e e6ba 4d6d 2bbe
00000030: d176 df3d 2e64 cbbe b6d8 193d 4627 823e
00000040: a54f 9dbd 15cc ce3d c25c 5c3e f357 483e
00000050: c8c0 a3be 6c27 46be e651 2b3e c00c db3d
00000060: a104 2c3d bb4d b0be ac49 d3bc 5eef b83c
00000070: a266 7ebc 9fc3 593e 98a5 3cbe 7121 343e
00000080: 670f be3e 697a bcbc 5ebb a33d 7fe1 20be
00000090: 8e7b 6d3e 1cb7 b93e 3c41 7fbd 4381 af3d
000000a0: fa1b 5b3e 0255 993e 873c ccbb e6c0 d83d
000000b0: 031e 28be 9a24 833d 739b 8a3e 329b b53e
000000c0: e5b1 ac3e bac1 d4bd 686a ae3e c369 26bd
000000d0: 5130 b2bd 32ba 4bbe 7862 683b 01bb 38be
000000e0: fbf3 0dbe d4ee bbbc 3341 523e 47b5 843e
000000f0: 1118 71be 1c2c 123d 1938 24be 1258 24bd
-0.1802183 -0.011107032 -0.047831565 0.15513131 0.09356681 -0.47808647 0.116038986 -0.05547208
0.106763095 0.2861674 -0.0017575795 -0.16740914 0.10911334 -0.3972487 0.037560187 0.25420588
-0.076812066 0.10097519 0.2151976 0.195648 -0.31983018 -0.19350976 0.1673046 0.10695791
0.041996602 -0.34434304 -0.025791965 0.022575077 -0.015527399 0.2126603 -0.18422544 0.17590882
0.37121126 -0.023007588 0.07994722 -0.1571102 0.23191664 0.36272514 -0.06231807 0.085695766
0.21397391 0.29947668 -0.0062328014 0.105836675 -0.16417699 0.064034656 0.27071723 0.35469967
0.33729473 -0.10388513 0.34065557 -0.040628206 -0.08700622 -0.19895247 0.0035459083 -0.18040086
-0.13862602 -0.02294103 0.20532684 0.25919554 -0.23544337 0.035686597 -0.16037025 -0.040123053

feature_layer.3.weight f4 [32, 64]
00000000: 0d7b aabd a23b e63e 46ba d73d d2db 1b3f
00000010: 55ba cfbe e3bf 053e b692 293e 01a1 e03e
00000020: e992 0ebd abce 1e3e ed7d 7c3f 58a6 643f
00000030: 23ac b7bd b624 bb3d 0979 90bd fbf3 a93d
00000040: 0875 033f 932e 273e 7d72 06be 8d4a 9cbe
00000050: 7db6 5e3d 57f8 c9bd fb89 3abf 12f8 c8bd
00000060: b48f 533d 17d7 593e ba2f d3be 2bd4 d9bd
00000070: 8514 28be 68b5 273e 6b2e 23bf 96a6 003e
00000080: 7e9f 3cbe e976 46be e6e5 b4be f813 073f
00000090: 5aef 7fbd 8631 e43e 5aee 44bc 869d 163e
000000a0: 80af 69be 23f7 04be f0aa 573e f3f6 80be
000000b0: 0dcc 453e b1df 4e3f f146 57be f5f2 943e
000000c0: 4e52 353e 0d3d 363d 9586 93bb 9a42 ecbd
000000d0: 5a03 d63e b9e0 433c 9d66 3cbf 9342 e63d
000000e0: a7ba 163f 7ee1 f03e e8eb debd 0964 923c
000000f0: 115d 403e aa9b c0be ee62 94bd 32b3 94be
00000100: e135 643d 6aec a4bd ef75 b93e da7b 5d3c
00000110: ffca b03d c43b 6b3e f524 87bd 6877 d0bd
00000120: f9af efbd 4448 503e 3797 283d a36b 893e
00000130: a691 f1be 9dd2 85bd e914 99bc c30e 66bd
00000140: ee92 43be ca2d 12bd 6ac1 173e 7d16 233e
00000150: eea8 04bf a36c 8dbd 7bec c93e 0b5a 7a3d
00000160: 22c1 89be 8b1a 043e 7178 4cbe 6dc6 a13d
00000170: afc6 08bf 1f65 58bd 14b0 26be e1a9 1c3e
00000180: 6620 183d ef37 bcbd 52af 87bc 97e0 b03e
00000190: 7b98 d9bd c941 6abe 1dbf 563d 9adb 483d
000001a0: 5666 d9be f572 18bf 1552 1b3f 89f1 e33d
000001b0: 714e 753e 18a9 26be 268c b7bd ddef 823c
000001c0: 3ced a6bd 5808 5d3e 0ee0 c03e 107f 9ebe
000001d0: d326 123e c03b 833d 0ff1 c8be cb7d 07bd
000001e0: 398c 763e 6905 cb3d 02f2 7f3d faa1 653e
000001f0: d431 09bd 3c29 fc3e 0d9f d4be 578e 3d3e
00000200: a22d 5dbe c229 e43d b741 db3d ff69 8b3e
00000210: 8b2a 103f 4816 ec3d 2f9d 293d 9419 ef3e
00000220: 981d 483e 53a9 423d 23a7 59bd a47a c6bd
00000230: fb54 fabe a8f8 e9bd 6ad3 7b3d 801c 80bd
00000240: 813e a73d 4d6a 54be 03b8 01bf 89a9 12be
00000250: 76f5 95be 31e9 f23c 959a e6bd 206f 373d
00000260: ec06 dfbd 3a9d f03d 18b7 65be 8b36 833d
00000270: e754 31be 9d6f 08be 2ee3 25bd d96a c03c
00000280: 76c3 583e d5fe af3e 6572 83be 4b14 e53e
00000290: 01f9 c8bd 25cd 523e af11 e1bd e838 f83e
000002a0: 65dc 593e 5e55 02bf 2c8b 103e 1fb9 793d
000002b0: 14b9 8c3e 29db febe 61b5 52be 69ca 013e
000002c0: 34a0 b1bd 5d5c 06bd edb4 533e b411 403e
000002d0: 55bf ac3e 58c7 95bb 6a4e 27bf 113b 18bc
000002e0: 7e03 013f dded 293e ecd4 4f3e bced 013e
000002f0: 42d9 bd3a dbb4 e03e 4ac7 06be acfe 08be
00000300: 5b96 943e d88b 1abe 15d1 3c3d fde1 103f
00000310: 9648 dabc ff5b c2bc 6e8f 163f ea44 f63c
00000320: f2b8 1e3e 068f 763d 8503 16be 63c8 70be
00000330: 144c 773e 1bdf 93be f481 823d 41de 50be
00000340: 524b 3c3e dc83 fcbd 0215 a23e 78c3 18be
00000350: ecb5 d0be fc58 3abc 1ef1 06bf 4566 debc
00000360: c440 13bd e1c1 283e c14f 02be 3dbe 5b3d
00000370: d7dc 06bf 98b2 0cbe b4b1 6d3e 1c87 843e
00000380: 53bb 97be 2a89 1b3e 781c 6fbc 390a cb3d
00000390: 5dcc 603e dda8 d9be a72c 5dbd 693e 01bf
000003a0: 73e6 143e 6c90 5c3c 35de a1be 71fb 863d
000003b0: e707 023f 88d7 5d3e 521b 1a3e 9f99 413e
000003c0: 13fa b1be 7256 d73d 0cdd cf3e 4c26 9fbe
000003d0: a9fa 013e 83dc 893d 627c 8dbe f388 1bbc
000003e0: b440 ec3e cf4c 873d 477e 8bbe e5b0 943e
000003f0: df4d 75be c63e 6a3e 7506 b8be dcb9 6cbd
-0.08324251 0.4496737 0.10533576 0.60882294 -0.40571848 0.1306148 0.16559872 0.43872836
-0.034808073 0.15508525 0.9862965 0.8931632 -0.08968379 0.091378614 -0.070543356 0.08298489
0.5135045 0.1632636 -0.13129611 -0.30525628 0.054373253 -0.0986182 -0.7286679 -0.09812941
0.051650718 0.21273457 -0.4124735 -0.10636171 -0.16414078 0.16377795 -0.63742703 0.12563547
-0.18420216 -0.19381298 -0.3533165 0.52764845 -0.062484123 0.44569033 -0.012019718 0.14708528
-0.22820854 -0.129849 0.21061301 -0.25188407 0.1931612 0.80810076 -0.21023156 0.29091612
0.17707178 0.044491816 -0.0045021274 -0.11536141 0.41799432 0.0119554335 -0.73594075 0.11243167
0.5887856 0.47047037 -0.10884839 0.017869966 0.18785502 -0.37618762 -0.07245432 -0.29042965
0.055715445 -0.08052905 0.3622279 0.013518298 0.086324684 0.22972018 -0.06598846 -0.10179025
-0.11703486 0.20340067 0.041159835 0.26839933 -0.47181433 -0.06534312 -0.018686729 -0.05616642
-0.19099018 -0.0356882 0.14819875 0.15926547 -0.51820266 -0.069054864 0.39438233 0.061121028
-0.2690516 0.1290075 -0.1996782 0.07899175 -0.5342817 -0.05283081 -0.16278106 0.15299179
0.037140273 -0.09190356 -0.016563091 0.34546348 -0.106247865 -0.22876658 0.052428354 0.049037553
-0.4246089 -0.5955041 0.6067212 0.111300536 0.23955704 -0.16275442 -0.08962278 0.015983516
-0.081507176 0.21585214 0.3767094 -0.30956316 0.14272623 0.06407881 -0.39246413 -0.03307895
0.24076928 0.09913141 0.062486656 0.2242507 -0.033494785 0.4925021 -0.41527596 0.1851133
-0.21599439 0.11140777 0.107058935 0.27229306 0.56314915 0.11527687 0.041409668 0.46699202
0.19542539 0.04752476 -0.05313791 -0.096913606 -0.4889296 -0.114243805 0.061480917 -0.06255436
0.081662185 -0.20743676 -0.50671405 -0.14322485 -0.29288834 0.02965221 -0.11259953 0.04478371
-0.10889992 0.117487386 -0.22433126 0.064068876 -0.17317544 -0.13323827 -0.04049986 0.023488449
0.21168312 0.3437411 -0.25673214 0.44742045 -0.09813119 0.20586069 -0.10989701 0.48480916
0.2127548 -0.5091151 0.1411559 0.06096756 0.27484953 -0.4977658 -0.20577003 0.1267487
-0.086731344 -0.03280293 0.20674486 0.18756753 0.33739725 -0.004570883 -0.65354025 -0.009291426
0.50395954 0.16594644 0.20296067 0.12688345 0.0014484304 0.43887982 -0.1316196 -0.133784
0.29020962 -0.15092409 0.046097834 0.5659483 -0.02664594 -0.023725508 0.58812606 0.030062158
0.15500239 0.06019499 -0.1464978 -0.23513941 0.24150115 -0.28881153 0.06372443 -0.20397283
0.18388107 -0.12329838 0.31656653 -0.14918315 -0.40763795 -0.011373755 -0.52711666 -0.027148375
-0.035950437 0.16480209 -0.12725736 0.053648222 -0.52680725 -0.13740003 0.2321232 0.2588433
-0.29635105 0.15189043 -0.01459419 0.09914059 0.21952958 -0.42511645 -0.053997662 -0.50485855
0.14541034 0.013462167 -0.31614843 0.065909274 0.5079331 0.2166425 0.15049484 0.18906258
-0.34761104 0.10514535 0.40598333 -0.31083906 0.12693276 0.067315124 -0.2763396 -0.0094931
0.46143115 0.06606447 -0.2724478 0.2904121 -0.23955487 0.22875509 -0.35942426 -0.057794437

feature_layer.3.bias f4 [32]
00000000: f8e9 443c d86d 97be f81c 54be 9737 61bd
00000010: 2a5c a3be c549 b03d fa4a 09bf 12e9 843e
00000020: 2b21 7f3d 0e1b bebd 6f0e 2fbe 0d4d 07be
00000030: de7a 7bbd 4ff7 363e 1994 203e ec51 7b3b
00000040: 943b 11be 5dea e43e c18d 9c3e 087c 10be
00000050: cab3 f5bd ec9c 02be baa4 333f 5f2c 4bbe
00000060: 4404 03be 9c1a 943d c552 78bc 7ce0 9abe
00000070: 164b ccbe 1b9a 473e 9cb8 11bd 5693 c43e
0.012018673 -0.29575992 -0.20714176 -0.054984655 -0.31906253 0.086078204 -0.5363003 0.2595907
0.06228749 -0.09282504 -0.1709535 -0.13212986 -0.061396472 0.17867778 0.15681495 0.003834839
-0.14182884 0.44710055 0.305769 -0.14109814 -0.11997183 -0.12755173 0.7017323 -0.19841145
-0.12794596 0.07231638 -0.015156453 -0.30249393 -0.39901036 0.1949238 -0.035576448 0.38393658

final_layer.weight_mu f4 [32, 64]
00000000: 90de 76bd c439 613d 909f a3bd 903e a43d
00000010: b427 2abd 78e0 babd 482e f4bc 00df 4d3b
00000020: f036 6a3c 6665 b2bd acbe bdbd 70ae 823d
00000030: 067f eebd 4a23 a0bd 2426 e83d 1c37 adbd
00000040: 0080 29bd 5467 2a3d 7cf5 5f3d b006 fbbc
00000050: 901a 9bbc d00c c43d cc87 d6bd 903d f13c
00000060: 0061 98bb 6801 25bd 38da b4bd 90aa 023c
00000070: 023b c0bd 4c56 09bd 62a5 c23d 3a6e 8e3d
00000080: 804e c53a a89a b8bd 0061 993a e42d 813d
00000090: 6693 eb3d 60c8 c93b 5e59 9a3d 12dc d0bd
000000a0: 0a41 8abd 9c33 4a3d 2e33 d8bd 9214 813d
000000b0: 184b d43c 6cf7 83bd a071 10bc a88f 24bd
000000c0: 3c20 a43d 58e4 c03d 2829 423d c8db 653d
000000d0: b4fd 80bd 74a4 bf3d b820 743d 96c1 ea3d
000000e0: 08b7 4b3d 1cb3 dcbd a6ef d73d 12e6 9a3d
000000f0: c819 43bd 009a 773c 4ce7 5c3d b0cc ecbc
00000100: 781d adbd 3492 1a3d c037 06bd 402d 443b
00000110: 6a75 92bd 8046 03bc f055 f53d f84f dfbd
00000120: b85c 2f3d ec75 323d e0dd 3d3d c416 2abd
00000130: 28c5 f53c 4c02 a5bd 7cac 03bd f84c f0bd
00000140: c68b e83d 90d9 dfbc f0d7 ffbc 9a6d 8e3d
00000150: 38b0 28bd 7031 ecbc 2816 df3d 32c5 dc3d
00000160: 0020 4cb9 6034 afbb c885 3cbd 501a 2abd
00000170: 709f f43d 18a0 a8bd 6c77 333d 3858 d0bd
00000180: 56a0 da3d c87d c3bc 0a3d c1bd 20ae bbbb
00000190: b034 163c 14c1 723d f8cc 193d b6e9 edbd
000001a0: 8cce 603d 105e d0bd 84fb e6bd d80d debd
000001b0: f28a 82bd b06c bbbc a02f f23b c882 ca3c
000001c0: 9c7c 09bd 0054 9fbd 48cc 723d d024 70bc
000001d0: 4073 a83c f22f fabd c07e 293d 2455 86bd
000001e0: d2a1 d9bd d0f5 b83c 20de 4dbc 4073 6ebb
000001f0: c238 a63d 1c45 6a3d 387f b1bc 7418 fe3d
00000200: 9048 11bc 34ae a83d 2e1e 9cbd c0af f9bb
00000210: 1027 e0bd 668e cebd 00a2 a13c e62c c7bd
00000220: 003e d23c 74eb 3d3d 3cd2 45bd 8427 513d
00000230: 0051 ba3d a050 c13d 9035 91bc e881 14bd
00000240: e255 c0bd 786b cd3d 282a ddbc 5055 9dbc
00000250: a85a 5bbd 94c8 c63d 7abd f73d b8aa 8e3c
00000260: 3ab3 893d dc1f 813d c85b cfbd c0f9 773b
00000270: d8eb 713d e4d4 bb3d a04d a43d 800a fc3c
00000280: b4c8 8abd 4411 03bd 78f7 463d 7825 f13d
00000290: 50f5 493c a065 bdbb 902b 16bd 40da 79bb
000002a0: 4cef 6f3d 1a84 88bd 086b babc acfe 053d
000002b0: b066 1fbc 60a6 4cbd e070 97bc 80d9 b8ba
000002c0: 88a6 c7bd d2e6 d63d f689 a23d 5e7c 863d
000002d0: d86c 9fbc 16f6 87bd 2ae2 c03d 448f 7ebd
000002e0: 3293 d03d d01e 293c 105c ff3c 4847 6abd
000002f0: 4c56 933d bed7 81bd ecde 70bd c8a9 50bd
00000300: 2e3f c93d 088a a13c 50a7 80bc c8bf 6d3d
00000310: 5026 55bd 6cff 5f3d 30b9 563c 9083 333d
00000320: 6830 bebd 7c62 38bd 18da c53d fa9b 95bd
00000330: b69a e6bd 5835 9e3c fa12 87bd e05a 50bc
00000340: b0dc 1abc 3c1c 2b3d 36b4 8ebd 02ab 893d
00000350: 8e08 dbbd bce7 17bd 1c91 d93d 2844 22bd
00000360: 7abd 813d 6816 e8bc 4024 b03d 9e5c 9e3d
00000370: 2016 563c c0e8 bcbc 5071 c33d 8867 02bd
00000380: 10a7 f9bc 4ca7 733d 68da 853c 48b5 febc
00000390: 0030 d83a 76c1 80bd 6e5f 9d3d 841d 54bd
000003a0: cc4a d1bd 8893 b53d 10d9 873d 6681 eebd
000003b0: a037 54bc a86b 2abd 801b d03a 60db 7f3c
000003c0: 48c0 f73d 10bb babd a01c cdbb bc66 75bd
000003d0: 5c72 7b3d 7461 d13d d815 8b3c e0ba b5bc
000003e0: 604a bdbc 18ff b5bd a49c 043d 9c75 c83d
000003f0: f498 3dbd 842e b13d e0dd 6ebc 8095 903a
-0.060270846 0.05498673 -0.079894185 0.08019745 -0.04154177 -0.09124845 -0.029807225 0.0031413436
0.014295325 -0.087107465 -0.092648834 0.063809276 -0.116453215 -0.07819231 0.113354 -0.08457777
-0.041381836 0.041602448 0.05467747 -0.030642837 -0.018933564 0.09572756 -0.1047512 0.0294483
-0.004650235 -0.040284544 -0.088306844 0.007975236 -0.09386255 -0.033529565 0.095042005 0.06954618
0.0015053302 -0.09013873 0.0011701882 0.06307581 0.115027234 0.0061579198 0.07536577 -0.10198225
-0.067506865 0.049365625 -0.10556637 0.063027516 0.025914714 -0.06443676 -0.008816153 -0.040176064
0.08013961 0.09418553 0.04740253 0.056117803 -0.0629839 0.09357539 0.059601516 0.11462705
0.0497351 -0.1077635 0.10543756 0.07563414 -0.04763201 0.0151124 0.05393152 -0.028906196
-0.08452886 0.037737086 -0.03276801 0.0029934198 -0.07151301 -0.008012414 0.11979282 -0.10903925
0.042813033 0.04356949 0.046354175 -0.041525617 0.030001238 -0.08057079 -0.032146916 -0.117334306
0.11354785 -0.027325422 -0.031230897 0.069544986 -0.04118368 -0.028832167 0.10892898 0.107797995
-0.00019466877 -0.0053468198 -0.04602602 -0.041529 0.11944473 -0.082336605 0.04381506 -0.101730764
0.10675113 -0.023863688 -0.094354704 -0.0057275444 0.009167835 0.059266165 0.03754899 -0.116168424
0.05488448 -0.10174191 -0.112784415 -0.10842484 -0.06374158 -0.022878975 0.0073909312 0.024720564
-0.033566102 -0.077796936 0.05927685 -0.014657214 0.020562768 -0.12216176 0.041380644 -0.06559208
-0.10626568 0.02257815 -0.012565166 -0.0036384612 0.081162944 0.057194814 -0.021667108 0.12407008
-0.008867398 0.082363516 -0.07622944 -0.007619828 -0.109449506 -0.10085754 0.019730568 -0.097253606
0.02566433 0.046367124 -0.0482962 0.051063076 0.09097481 0.09439206 -0.017725736 -0.0362567
-0.09391381 0.10030264 -0.02699764 -0.01920572 -0.053553253 0.09706226 0.12096687 0.01741539
0.06723638 0.06304905 -0.10124928 0.0037838072 0.05906281 0.09171465 0.08022618 0.030766726
-0.06776562 -0.031998888 0.04857585 0.11774725 0.012326553 -0.005779937 -0.03666264 -0.0038124472
0.05857782 -0.066658214 -0.022756115 0.032713577 -0.009729072 -0.049963355 -0.01848644 -0.0014102906
-0.0974856 0.10493244 0.0793647 0.0656669 -0.01946108 -0.06638734 0.09418137 -0.062148347
0.10184325 0.010322288 0.031171829 -0.057196885 0.07194194 -0.06339978 -0.058806345 -0.050943166
0.09826504 0.019719139 -0.01570478 0.058044225 -0.05203849 0.05468695 0.013105676 0.04382664
-0.092865765 -0.045015797 0.09660739 -0.07305141 -0.112599775 0.019312546 -0.06595416 -0.012716979
-0.00945203 0.041774973 -0.06967966 0.0672207 -0.10694991 -0.037086233 0.106233805 -0.03961578
0.06334968 -0.028330997 0.08600664 0.07732509 0.013066798 -0.023060203 0.09543097 -0.031837016
-0.03047517 0.05948572 0.016339496 -0.031092301 0.0016493797 -0.062869 0.076842174 -0.05178596
-0.102193445 0.0886603 0.06633198 -0.116457745 -0.012952715 -0.041606575 0.0015877336 0.015616268
0.120972216 -0.091177106 -0.006259516 -0.05991243 0.06138836 0.10223666 0.01697819 -0.022183836
-0.023106754 -0.08886546 0.032375947 0.09788057 -0.046288446 0.0865145 -0.014579266 0.0011030883

final_layer.weight_sigma f4 [32, 64]
00000000: 9a99 993d 9a99 993d 9a99 993d 9a99 993d
00000010: 9a99 993d 9a99 993d 9a99 993d 9a99 993d
00000020: 9a99 993d 9a99 993d 9a99 993d 9a99 993d
00000030: 9a99 993d 9a99 993d 9a99 993d 9a99 993d
00000040: 9a99 993d 9a99 993d 9a99 993d 9a99 993d
00000050: 9a99 993d 9a99 993d 9a99 993d 9a99 993d
00000060: 9a99 993d 9a99 993d 9a99 993d 9a99 993d
00000070: 9a99 993d 9a99 993d 9a99 993d 9a99 993d
00000080: 9a99 993d 9a99 993d 9a99 993d 9a99 993d
00000090: 9a99 993d 9a99 993d 9a99 993d 9a99 993d
000000a0: 9a99 993d 9a99 993d 9a99 993d 9a99 993d
000000b0: 9a99 993d 9a99 993d 9a99 993d 9a99 993d
000000c0: 9a99 993d 9a99 993d 9a99 993d 9a99 993d
000000d0: 9a99 993d 9a99 993d 9a99 993d 9a99 993d
000000e0: 9a99 993d 9a99 993d 9a99 993d 9a99 993d
000000f0: 9a99 993d 9a99 993d 9a99 993d 9a99 993d
00000100: 9a99 993d 9a99 993d 9a99 993d 9a99 993d
00000110: 9a99 993d 9a99 993d 9a99 993d 9a99 993d
00000120: 9a99 993d 9a99 993d 9a99 993d 9a99 993d
00000130: 9a99 993d 9a99 993d 9a99 993d 9a99 993d
00000140: 9a99 993d 9a99 993d 9a99 993d 9a99 993d
00000150: 9a99 993d 9a99 993d 9a99 993d 9a99 993d
00000160: 9a99 993d 9a99 993d 9a99 993d 9a99 993d
00000170: 9a99 993d 9a99 993d 9a99 993d 9a99 993d
00000180: 9a99 993d 9a99 993d 9a99 993d 9a99 993d
00000190: 9a99 993d 9a99 993d 9a99 993d 9a99 993d
000001a0: 9a99 993d 9a99 993d 9a99 993d 9a99 993d
000001b0: 9a99 993d 9a99 993d 9a99 993d 9a99 993d
000001c0: 9a99 993d 9a99 993d 9a99 993d 9a99 993d
000001d0: 9a99 993d 9a99 993d 9a99 993d 9a99 993d
000001e0: 9a99 993d 9a99 993d 9a99 993d 9a99 993d
000001f0: 9a99 993d 9a99 993d 9a99 993d 9a99 993d
00000200: 9a99 993d 9a99 993d 9a99 993d 9a99 993d
00000210: 9a99 993d 9a99 993d 9a99 993d 9a99 993d
00000220: 9a99 993d 9a99 993d 9a99 993d 9a99 993d
00000230: 9a99 993d 9a99 993d 9a99 993d 9a99 993d
00000240: 9a99 993d 9a99 993d 9a99 993d 9a99 993d
00000250: 9a99 993d 9a99 993d 9a99 993d 9a99 993d
00000260: 9a99 993d 9a99 993d 9a99 993d 9a99 993d
00000270: 9a99 993d 9a99 993d 9a99 993d 9a99 993d
00000280: 9a99 993d 9a99 993d 9a99 993d 9a99 993d
00000290: 9a99 993d 9a99 993d 9a99 993d 9a99 993d
000002a0: 9a99 993d 9a99 993d 9a99 993d 9a99 993d
000002b0: 9a99 993d 9a99 993d 9a99 993d 9a99 993d
000002c0: 9a99 993d 9a99 993d 9a99 993d 9a99 993d
000002d0: 9a99 993d 9a99 993d 9a99 993d 9a99 993d
000002e0: 9a99 993d 9a99 993d 9a99 993d 9a99 993d
000002f0: 9a99 993d 9a99 993d 9a99 993d 9a99 993d
00000300: 9a99 993d 9a99 993d 9a99 993d 9a99 993d
00000310: 9a99 993d 9a99 993d 9a99 993d 9a99 993d
00000320: 9a99 993d 9a99 993d 9a99 993d 9a99 993d
00000330: 9a99 993d 9a99 993d 9a99 993d 9a99 993d
00000340: 9a99 993d 9a99 993d 9a99 993d 9a99 993d
00000350: 9a99 993d 9a99 993d 9a99 993d 9a99 993d
00000360: 9a99 993d 9a99 993d 9a99 993d 9a99 993d
00000370: 9a99 993d 9a99 993d 9a99 993d 9a99 993d
00000380: 9a99 993d 9a99 993d 9a99 993d 9a99 993d
00000390: 9a99 993d 9a99 993d 9a99 993d 9a99 993d
000003a0: 9a99 993d 9a99 993d 9a99 993d 9a99 993d
000003b0: 9a99 993d 9a99 993d 9a99 993d 9a99 993d
000003c0: 9a99 993d 9a99 993d 9a99 993d 9a99 993d
000003d0: 9a99 993d 9a99 993d 9a99 993d 9a99 993d
000003e0: 9a99 993d 9a99 993d 9a99 993d 9a99 993d
000003f0: 9a99 993d 9a99 993d 9a99 993d 9a99 993d
0.075 0.075 0.075 0.075 0.075 0.075 0.075 0.075
0.075 0.075 0.075 0.075 0.075 0.075 0.075 0.075
0.075 0.075 0.075 0.075 0.075 0.075 0.075 0.075
0.075 0.075 0.075 0.075 0.075 0.075 0.075 0.075
0.075 0.075 0.075 0.075 0.075 0.075 0.075 0.075
0.075 0.075 0.075 0.075 0.075 0.075 0.075 0.075
0.075 0.075 0.075 0.075 0.075 0.075 0.075 0.075
0.075 0.075 0.075 0.075 0.075 0.075 0.075 0.075
0.075 0.075 0.075 0.075 0.075 0.075 0.075 0.075
0.075 0.075 0.075 0.075 0.075 0.075 0.075 0.075
0.075 0.075 0.075 0.075 0.075 0.075 0.075 0.075
0.075 0.075 0.075 0.075 0.075 0.075 0.075 0.075
0.075 0.075 0.075 0.075 0.075 0.075 0.075 0.075
0.075 0.075 0.075 0.075 0.075 0.075 0.075 0.075
0.075 0.075 0.075 0.075 0.075 0.075 0.075 0.075
0.075 0.075 0.075 0.075 0.075 0.075 0.075 0.075
0.075 0.075 0.075 0.075 0.075 0.075 0.075 0.075
0.075 0.075 0.075 0.075 0.075 0.075 0.075 0.075
0.075 0.075 0.075 0.075 0.075 0.075 0.075 0.075
0.075 0.075 0.075 0.075 0.075 0.075 0.075 0.075
0.075 0.075 0.075 0.075 0.075 0.075 0.075 0.075
0.075 0.075 0.075 0.075 0.075 0.075 0.075 0.075
0.075 0.075 0.075 0.075 0.075 0.075 0.075 0.075
0.075 0.075 0.075 0.075 0.075 0.075 0.075 0.075
0.075 0.075 0.075 0.075 0.075 0.075 0.075 0.075
0.075 0.075 0.075 0.075 0.075 0.075 0.075 0.075
0.075 0.075 0.075 0.075 0.075 0.075 0.075 0.075
0.075 0.075 0.075 0.075 0.075 0.075 0.075 0.075
0.075 0.075 0.075 0.075 0.075 0.075 0.075 0.075
0.075 0.075 0.075 0.075 0.075 0.075 0.075 0.075
0.075 0.075 0.075 0.075 0.075 0.075 0.075 0.075
0.075 0.075 0.075 0.075 0.075 0.075 0.075 0.075

final_layer.bias_mu f4 [32]
00000000: f846 433d 3e79 8abd 28ca ec3d 1060 55bc
00000010: 8409 c03d d4d0 003d 506f ac3c 0060 45bd
00000020: 3814 f03d bace acbd 742d ca3d 70e0 ba3c
00000030: c0a9 2d3c 7230 e9bd f43d 97bd 7289 bbbd
00000040: d018 a73d ba0f fbbd 74b3 5c3d c057 c83d
00000050: 0838 023d 68a3 61bd 86e7 f93d b035 d3bd
00000060: 2422 ca3d d2b2 e63d 44f6 4bbd 78e8 b3bd
00000070: a0e8 cf3b c621 9dbd 14a0 e03d 280b 5fbd
0.047675103 -0.06761406 0.11561996 -0.013023391 0.09376815 0.031449154 0.021049172 -0.048187256
0.117226064 -0.084378675 0.09871951 0.022812098 0.010599554 -0.11386193 -0.073848635 -0.09157075
0.081590295 -0.12258859 0.053882077 0.09782362 0.031791717 -0.055087477 0.12202363 -0.103129745
0.09869793 0.11264576 -0.049795404 -0.08784574 0.0063448697 -0.076724574 0.109680325 -0.054454

final_layer.bias_sigma f4 [32]
00000000: 2439 d93d 2439 d93d 2439 d93d 2439 d93d
00000010: 2439 d93d 2439 d93d 2439 d93d 2439 d93d
00000020: 2439 d93d 2439 d93d 2439 d93d 2439 d93d
00000030: 2439 d93d 2439 d93d 2439 d93d 2439 d93d
00000040: 2439 d93d 2439 d93d 2439 d93d 2439 d93d
00000050: 2439 d93d 2439 d93d 2439 d93d 2439 d93d
00000060: 2439 d93d 2439 d93d 2439 d93d 2439 d93d
00000070: 2439 d93d 2439 d93d 2439 d93d 2439 d93d
0.10606602 0.10606602 0.10606602 0.10606602 0.10606602 0.10606602 0.10606602 0.10606602
0.10606602 0.10606602 0.10606602 0.10606602 0.10606602 0.10606602 0.10606602 0.10606602
0.10606602 0.10606602 0.10606602 0.10606602 0.10606602 0.10606602 0.10606602 0.10606602
0.10606602 0.10606602 0.10606602 0.10606602 0.10606602 0.10606602 0.10606602 0.10606602

final_layer.weight_epsilon f4 [32, 64]
00000000: c248 5d3e c583 9abf d5ae 94bf 8bf0 a73f
00000010: fdfc b83f 407d 05c0 806e dabf d2dc cc3e
00000020: e63b e03e 31e3 223f 75cc a1bf 7fd4 b63f
00000030: e2fe d63e 6de1 03bf fe83 f0bf 2c8a a33f
00000040: 2975 a1bf 2da1 8c3f fbe9 6fbf bb94 e23e
00000050: d560 3cbf 6cfc cb3f d142 af3f 051a c43f
00000060: 7899 873f 3cc2 613f 4f53 5cbf 132f 463f
00000070: 947d 123f 4032 c7bf e76d 90bf df51 c1bf
00000080: 3674 8c3e 0890 c93f 471c d3be 2b74 b63f
00000090: fdfd c6bf dc11 bb3f a8cf 62bf f7b9 e8be
000000a0: 0ca5 d4bf 6253 8a3f 5688 363f e2e0 803d
000000b0: f729 9f3f c84a 733f 3a6f 293f ff65 7dbf
000000c0: 25eb c4bf d602 aa3f ef32 2e3f c921 69bf
000000d0: bcd8 d1bf adbf 26be f316 7bbe d3c5 a9bf
000000e0: 3448 733f 3156 0dbf c2ab 223f c47f 59be
000000f0: ce8e 5d3f 90d2 d1bf 6f88 15bf ff40 653f
00000100: 2a7b 03be f09d 373f d0af 303f 0492 47bf
00000110: 7dd4 5bbf a5a1 9e3f 43c9 813f 9872 73be
00000120: d83b 85be 1191 c1be d545 403f f043 59bf
00000130: 3d7d 7fbe 41b8 9c3e 6ae8 8e3f 8057 42bf
00000140: 18de 3f3f da1d 27bf e88c 0e3f d8a0 86be
00000150: c9db df3e ed67 72bf 4d45 50bf 5e09 69bf
00000160: 9d23 21bf c623 06bf 53e9 023f d382 ebbe
00000170: da14 aebe d0b6 6c3f caa1 2b3f 17bb 653f
00000180: 6be8 26be b186 6fbf 4ddf 7a3e 77d1 58bf
00000190: b578 6c3f b94d 5ebf dbc3 063f 9e47 8a3e
000001a0: 0cb2 7c3f f960 24bf 6ee9 d8be f626 19bd
000001b0: 4e24 3dbf bf8e 10bf c758 c9be 0090 163f
000001c0: e101 6a3f 3008 4abf 3502 cfbe 4e85 0a3f
000001d0: d25e 793f bb27 c63d d130 153e afbf 493f
000001e0: 378d 10bf f6f4 a73e 314f c1be 6a3b 013e
000001f0: c8a4 03bf 7d57 793f 67b2 b13e 6b37 08bf
00000200: 3ccd 583e 7e62 97bf cdab 91bf a689 a43f
00000210: af3d b53f 02c9 02c0 c401 d6bf 75b6 c83e
00000220: 13b1 db3e 8096 1f3f 6985 9ebf 6320 b33f
00000230: f8a3 d23e 8735 01bf bda4 ebbf 193a a03f
00000240: e12f 9ebf e8c7 893f d80d 6bbf bdfd dd3e
00000250: f38f 38bf 99da c73f f5b5 ab3f 1521 c03f
00000260: 49da 843f 812f 5d3f c2dc 57bf 582b 423f
00000270: eb85 0f3f 4429 c3bf ed80 8dbf 5d67 bdbf
00000280: da9b 893e c77a c53f 83d5 cebe 02c2 b23f
00000290: 10f6 c2bf c347 b73f 7837 5ebf 1b03 e4be
000002a0: 5356 d0bf 0f86 873f c5d5 323f 1a89 7c3d
000002b0: 95f0 9b3f 215d 6e3f 9500 263f ef43 78bf
000002c0: f9ed c0bf 3391 a63f 94ab 2a3f d268 64bf
000002d0: 8698 cdbf f65e 23be dc00 76be 6d55 a6bf
000002e0: 9a5a 6e3f 4179 0abf 3060 1f3f de17 55be
000002f0: dc11 593f 7a92 cdbf ff80 12bf 259c 603f
00000300: 4730 16bd 12be 513e 84d3 493e 3df7 63be
00000310: a81b 7bbe b133 b53e a440 943e 020b 8bbd
00000320: cd30 98bd 9c1b ddbd 3fa1 5b3e b12d 78be
00000330: a2eb 91bd ac04 b33d be3d a33e 47fe 5dbe
00000340: bf2a 5b3e f8e4 3ebe 36d5 223e 98c8 99bd
00000350: b0b5 ff3d b472 8abe 6ee7 6dbe ca18 85be
00000360: 0011 38be ba39 19be b089 153e 9582 06be
00000370: a8d9 c6bd 7c32 873e 600d 443e 7235 833e
00000380: efa7 3ebd a4cd 88be 9548 8f3d eeaa 77be
00000390: 040f 873e feee 7dbe 96f0 193e 5ff4 9d3d
000003a0: 2953 903e 5ec4 3bbe 4ec6 f7bd 6ef1 2ebc
000003b0: ad0d 58be 2a20 25be b5fe e5bd 24fc 2b3e
000003c0: b9a6 853e 13c7 66be 5e76 ecbd d53a 1e3e
000003d0: fd6c 8e3e 6859 e23c fe6a 2a3d 4174 663e
000003e0: 6a1e 25be afda bf3d 5dd0 dcbd 9c9e 133d
000003f0: d15f 16be cd68 8e3e e6fa ca3d 0499 1bbe
0.21609786 -1.2071463 -1.1615855 1.3120283 1.4452206 -2.0857697 -1.7064972 0.40012223
0.437957 0.63627917 -1.264052 1.4283599 0.41991335 -0.5151585 -1.8790281 1.2776542
-1.261388 1.0986687 -0.937164 0.44254097 -0.73585254 1.5936408 1.3692266 1.532044
1.059371 0.88187003 -0.8606462 0.7741558 0.57222867 -1.556221 -1.128354 -1.510311
0.27432412 1.574708 -0.4123251 1.4254202 -1.5546261 1.4614825 -0.8859811 -0.4545438
-1.6612868 1.0806696 0.7130178 0.06292893 1.2434682 0.9503598 0.66185343 -0.9898376
-1.538426 1.3282115 0.6804647 -0.9106718 -1.6394267 -0.16284056 -0.24520473 -1.3263496
0.9503205 -0.5520964 0.6354333 -0.21240145 0.8654603 -1.6392384 -0.58411306 0.895523
-0.12839952 0.7172537 0.6901827 -0.7795718 -0.85871106 1.239308 1.0139545 -0.23774183
-0.2602222 -0.3780599 0.75106555 -0.8486929 -0.24950118 0.30609325 1.1164677 -0.75914764
0.74948263 -0.65279925 0.55683756 -0.2629459 0.4372237 -0.9468983 -0.81355745 -0.9102992
-0.62944967 -0.52398336 0.51137275 -0.45998248 -0.34000283 0.9246645 0.67043746 0.897386
-0.16299598 -0.935649 0.24499245 -0.8469462 0.92371684 -0.86837345 0.526426 0.27007765
0.9870918 -0.6421047 -0.42365593 -0.03739067 -0.7388352 -0.56467813 -0.39325544 0.58813477
0.91409117 -0.78918743 -0.4043137 0.54109657 0.9741031 0.09675547 0.14569403 0.7880811
-0.56465477 0.32804078 -0.3775573 0.12620321 -0.5142331 0.9739912 0.34706423 -0.5320956
0.2117204 -1.1826932 -1.1380554 1.2854507 1.4159449 -2.0435185 -1.6719289 0.39201704
0.42908534 0.6233902 -1.2384464 1.3994259 0.41140723 -0.504723 -1.8409649 1.251773
-1.2358361 1.0764132 -0.91818 0.4335765 -0.7209465 1.5613586 1.3414904 1.5010096
1.0379115 0.8640061 -0.84321225 0.7584739 0.5606372 -1.5246968 -1.105497 -1.4797169
0.26876718 1.5428094 -0.40397272 1.3965456 -1.5231342 1.4318775 -0.8680339 -0.4453362
-1.6276344 1.0587786 0.69857436 0.061654188 1.2182795 0.93110853 0.6484464 -0.9697866
-1.5072623 1.3013061 0.6666806 -0.89222443 -1.6062171 -0.15954193 -0.24023765 -1.299482
0.93106997 -0.5409127 0.62256145 -0.20809886 0.84792876 -1.6060326 -0.5722808 0.8773826
-0.036667135 0.20482662 0.19709593 -0.22262283 -0.24522269 0.35391 0.28955567 -0.06789209
-0.07431183 -0.10796282 0.21448229 -0.2423618 -0.071250215 0.087411255 0.31883043 -0.2167903
0.21403025 -0.18642032 0.15901646 -0.07508963 0.12485826 -0.27040637 -0.23232815 -0.25995475
-0.17975235 -0.14963427 0.14603305 -0.1313575 -0.097094834 0.26405704 0.19145727 0.25626713
-0.046546873 -0.2671939 0.06996266 -0.24186298 0.26378644 -0.247982 0.15033183 0.07712626
0.28188446 -0.18336627 -0.120983705 -0.0106776785 -0.21098967 -0.16125551 -0.11230222 0.16795403
0.26103762 -0.22536878 -0.11546014 0.1545213 0.27817526 0.027630523 0.041605942 0.22505285
-0.16124883 0.093678825 -0.1078193 0.036039934 -0.14684989 0.27814332 0.09911136 -0.1519509

final_layer.bias_epsilon f4 [32]
00000000: 9977 9fbf 8f80 3d3f a43c 9cbf 0e77 583e
00000010: d7f6 9abe a57a 1cbf 4a8e 403f 10f2 883f
00000020: 1080 9a3f 9130 123f 76a2 703f f4ed 593f
00000030: fca5 a3bf 889a d0be 586c 16bf 73b8 13bf
00000040: a26d eabf 0752 423f 80d2 89bf 3aac f6bf
00000050: 38ea 09bf 46fa 29bf ea5b 6c3f 44e9 233e
00000060: ed85 283f 6e4f eabe d38d a93f 8a40 29bf
00000070: 99aa b93e 3aee 5b3f 908c ebbe 5155 883f
-1.2458373 0.7402429 -1.2206006 0.21139166 -0.3026645 -0.6112464 0.75217116 1.0698872
1.2070332 0.57105356 0.93997896 0.8512871 -1.278503 -0.40742898 -0.5875907 -0.5770332
-1.8314707 0.75906414 -1.0767365 -1.9271309 -0.53873014 -0.6639751 0.9232775 0.16006953
0.65829355 -0.45763725 1.3246406 -0.66114104 0.36262968 0.8591038 -0.46005678 1.0651037

out1.weight_mu f4 [51, 32]
00000000: c257 9a3e 5575 193e cede 283e 1275 273f
00000010: 6168 fabb 2967 40bf 0f47 7f3e 271a 3e3d
00000020: b9cc 82bf 3f79 1fbf b1ef 6c3e 6552 cc3e
00000030: 6590 8dbe 94d7 11bf 79cc b8bd 3bc0 3b3e
00000040: be6c 22bf 6f67 00bf 046d a5be 1bac d13e
00000050: cdd2 d6be 84df 9f3e 5fe7 8d3d c42e e4bd
00000060: 662d d33e 9161 7a3e 8a09 193f cfa1 5a3f
00000070: e9f7 283f 5098 f7be c42c 943d 7e86 40bf
00000080: fff6 893e 6399 f23e a716 313f a5c4 643e
00000090: df1a cfbd f5b3 03bf 7a0f 293f 7b3a 923e
000000a0: b7c9 133e 69ba b23e c3e8 203f d03c 043f
000000b0: 743e 27be db7b 00bf a2c8 4c3d d3f2 593f
000000c0: df76 5cbf 3754 a7be 4d89 083f 2ed9 4a3f
000000d0: 2e4c 76be 1884 133f 5349 423d 2034 263e
000000e0: 04f1 1a3f c1c8 593f 016c 2c3f 3731 de3d
000000f0: 006e dc3e 5a19 5b3e 3a5b 573d 2f04 a8be
00000100: 82d6 12bf ba38 92bd 4d3d 4cbe 5bce 793e
00000110: 0f23 7fbe d234 67bf 98a8 b0be 3174 33bf
00000120: 772e d2bc 647b b43e 28f7 c5be b3c6 373f
00000130: aa8d f33d 3dab 2bbe c324 89be bcfa 2a3f
00000140: bbce bbbe 1406 67be 1f3e 403e a945 63be
00000150: 1499 a2be 6b04 ff3e 7796 13bf a931 9dbf
00000160: edb1 2abf d3fd 323e 750e 303f f6b7 c13e
00000170: 59d6 cebe 7671 79bd 1443 18bf 83c5 fa3d
00000180: c0e9 e1be e70f d1bd a17c 193c ff7e b73e
00000190: 0d1c 4ebe 6890 85bf b3d5 8a3e 4610 0abf
000001a0: 7248 df3d e3d1 c33e 1ffa 1dbe 4ac9 ef3e
000001b0: c626 5a3e ffb7 fcbe 3a39 8dbd 5828 263f
000001c0: 7c3c 96be d211 f3be c301 703e 6f62 503e
000001d0: 3f6f 3fbe 4bf8 043f 80c6 eebe 3cb2 4fbf
000001e0: 1395 08bf 84db 4e3e 0b05 593f 3d11 b93e
000001f0: b271 173c 7db3 403e d514 0ebf b03e 573e
00000200: 3529 31bf 0956 15be 0a3c a93d 76e0 0d3e
00000210: ebb6 183d 52cd 9cbf 3642 ff3d 5e94 b2be
00000220: a445 0f3d d3dc 183e 77bb a1be afde f33e
00000230: 71a3 1a3e 86a8 4dbf 9c49 42be 0311 053f
00000240: 9db3 2bbf 803f 1dbf 68a1 c73e 373c 4f3d
00000250: 8be8 76be 5680 043f 074f f3be d981 86bf
00000260: e9fd 33bf c2fe 6b3e c9bd 063f 714e 8d3d
00000270: 2faf 0dbe 050c 7a3e ba89 15bf 5113 b83d
00000280: e64b 2abf 343f 34be 8645 ae3e c56c 8fbe
00000290: 0e34 3bbd a65a 9abf c77d 233e adc1 94be
000002a0: 45c6 903e 9228 f43e f75a adbe 6039 463f
000002b0: dced 483e 72d7 1dbf 2731 11be 48bd db3d
000002c0: 92b2 c43c d386 18bf 39be ec3e 8df4 d0bd
000002d0: ed83 d2be 936e 403f b55f 37bf 99b1 5cbf
000002e0: c46d 16bf bed8 373e 2322 3f3f c201 aebd
000002f0: 66c0 14bf f92e a33e f843 e0be 36c8 453d
00000300: a7a5 3abf ee2a 9abe c98f cd3e 659d d5bd
00000310: e611 3abd 65f9 6fbf 9704 d1bd f2b3 07bf
00000320: 5886 ec3e e6af 5c3f ed78 76be 2821 0f3f
00000330: 96c6 463e 5457 dabe 0e5e 15be 06be 433e
00000340: 5056 723e 09ad 4ebf 15b7 a93e 8c19 2e3e
00000350: be07 84be 00bc 1c3f 234e 7cbf d7a9 d5be
00000360: e487 4bbf 6fcd 5e3d c237 fa3e 06c5 1abe
00000370: 2bd5 92be 18c3 193e b119 ebbe c79e e13e
00000380: 9046 72bf d198 94be 319a 02be 2ff8 2cbe
00000390: 5b18 0bbe 181b 64bf daa8 73be 88fe cebe
000003a0: 524d a23e d3ac 243f 0ac1 15bf 4036 153f
000003b0: 640c 1b3e 657d fbbe 220f c4be b60e ec3e
000003c0: 4cee 51be 6376 b5be 7806 dc3e bda4 f7bc
000003d0: 183f 85be b940 133f 3bab 2ebf ddc9 a2bf
000003e0: f045 6cbf ebe3 b93d de96 293f db65 95bd
000003f0: f6ea c8be b0e6 49bc 6de7 30bf 507b 963e
0.3014508 0.14986165 0.16491243 0.6541301 -0.0076418375 -0.7515741 0.2492945 0.04641166
-1.0218726 -0.6229438 0.2313831 0.39906612 -0.27649227 -0.5696957 -0.09023375 0.18335049
-0.6344718 -0.5015783 -0.32309735 0.4095162 -0.41957703 0.31225216 0.06928896 -0.11141732
0.41245574 0.24451281 0.5978018 0.8540315 0.6600328 -0.48358393 0.07235101 -0.7520522
0.26946256 0.4738265 0.6917519 0.22340639 -0.10112547 -0.5144647 0.6603924 0.28560242
0.14432417 0.34907845 0.62855166 0.5165529 -0.16332418 -0.5018899 0.049996026 0.85136145
-0.8611888 -0.32681438 0.53334504 0.7923764 -0.24052498 0.57623434 0.04743321 0.16230822
0.6052401 0.8507195 0.673523 0.10849231 0.43052673 0.2139639 0.052577235 -0.32815692
-0.5735856 -0.07139726 -0.1994526 0.24395125 -0.24915718 -0.9031497 -0.34503627 -0.7009917
-0.025656922 0.3525039 -0.38665128 0.71787566 0.11892255 -0.16764541 -0.2678586 0.6678884
-0.3668116 -0.22560912 0.18773697 -0.22194542 -0.31757414 0.49808058 -0.57651466 -1.228078
-0.66677743 0.17479639 0.6877206 0.37835664 -0.4039791 -0.06089922 -0.59477353 0.122447036
-0.4412365 -0.10208111 0.009368093 0.35839078 -0.20127888 -1.0434694 0.27116165 -0.5393108
0.1090249 0.38246068 -0.15427445 0.4683326 0.21303853 -0.49359128 -0.06895681 0.6490531
-0.2934302 -0.47474533 0.23438172 0.2035005 -0.18694781 0.51941365 -0.46635818 -0.8113134
-0.5335247 0.20200926 0.8477332 0.36145964 0.009243416 0.1881847 -0.5550054 0.21020007
-0.692035 -0.14583601 0.08263405 0.13855156 0.03728382 -1.2250159 0.124638006 -0.3487882
0.034978524 0.14927988 -0.31588337 0.47630832 0.1510141 -0.8033527 -0.18973392 0.5197908
-0.67070943 -0.6142502 0.3899033 0.050594535 -0.24112146 0.51758325 -0.4752123 -1.0508376
-0.7030931 0.23046401 0.5263334 0.06899727 -0.13836358 0.24418648 -0.5841328 0.08988059
-0.6652206 -0.17602235 0.34037417 -0.28012672 -0.04570394 -1.2058914 0.15965949 -0.29054013
0.28276268 0.47687203 -0.33858463 0.774313 0.19621986 -0.6165687 -0.14178906 0.10729462
0.02401093 -0.59580725 0.46238878 -0.10202894 -0.41116276 0.7516872 -0.7163041 -0.8620849
-0.5876124 0.17953774 0.74661463 -0.08496429 -0.58106077 0.31871775 -0.43801856 0.04828664
-0.72909015 -0.30110878 0.40148762 -0.10430411 -0.045427226 -0.9373992 -0.102059536 -0.5300895
0.46196246 0.862059 -0.24069567 0.5590997 0.19411692 -0.4264475 -0.1458666 0.19115457
0.23665738 -0.8073278 0.33147493 0.17001933 -0.25787157 0.61224365 -0.9855673 -0.4173114
-0.7950423 0.054395135 0.48870665 -0.15114221 -0.2867826 0.15015829 -0.45918038 0.4406645
-0.9463892 -0.2902284 -0.12754132 -0.1689155 -0.1358351 -0.8910384 -0.2379488 -0.40428567
0.31699616 0.6432621 -0.5849768 0.58285904 0.15141445 -0.49119106 -0.38292795 0.46104974
-0.2050106 -0.35441884 0.42973685 -0.03022992 -0.260247 0.57520634 -0.68230027 -1.2717854
-0.92294216 0.09076675 0.6624583 -0.07294818 -0.3924176 -0.012323067 -0.6910313 0.29390955

out1.weight_sigma f4 [51, 32]
00000000: b4dc 843d 2dd0 8b3d e3b4 98bd 4c51 70bd
00000010: b770 94bd 48c4 24bd b961 083e ba00 a13b
00000020: ec0c 783d 001c ed3d ba0a 443d 623d 86bd
00000030: e097 04bc 4836 463e a07d d03b 5863 c83d
00000040: 4930 ebbd e3b3 d93d 7235 a2bd 1466 35bd
00000050: 778b 6e3e 43cf 74be 1687 0bbd 89e0 c23d
00000060: 766c 09bd 8434 c73d 5e3b 043e f0d9 653c
00000070: 5002 4e3d 5cfa 7abd af79 99bd a482 abbc
00000080: 17b7 033c 7c3f b0bd 34ce f13d a322 133d
00000090: 7fa8 a73d 4c49 8cbc 7f12 d3bd 7b4d 833b
000000a0: 5bc3 d5bd d550 973d a87a 273d 98a2 28bd
000000b0: 13e8 4b3b 9f06 613c b4ab a13a e638 e43d
000000c0: 1f61 58bd 83b2 85bd d605 8fbd a3a0 af3b
000000d0: c95e 463b de78 2c3d daa4 77bc d4eb 663c
000000e0: a026 443b 0e46 8abd c592 2bbd 2406 233c
000000f0: c121 90bd d264 72bc e0ba 2b3c 52ea d23c
00000100: d8bd e5bd 733b 283d 3992 f23d def8 20be
00000110: 1a9b c83d c499 743e 5e3b 82bc 869c 9e3d
00000120: ed44 9f3d e283 443d 8ba1 c3bc 4a6b 9cbd
00000130: 77c5 4b3d aed1 8c3e 0dc0 83bd 9d3e 04bd
00000140: 69e4 eb3d cda2 5b3d 3e67 233e 0fe2 8cbc
00000150: 451c 14be 575f 903d 29af 773b dcc0 193d
00000160: 9f7c aabd e1d0 503d 1aba 81bd 41d6 8ebb
00000170: 50c5 3e3e 81dc 28be 3e5b e3bd 092f 4dbe
00000180: 37a2 41bd 4e93 20bb 9dfa 44be 1545 663e
00000190: a7f8 32be d8f2 a1bd 2957 b5be 2204 20bd
000001a0: c76e 603d 3a61 633e b197 013e c705 a3bd
000001b0: 1f04 f6bd 7507 16be 3077 5d3e e097 a53e
000001c0: 7c5a d63d 74e2 423d 053c b03c cdbf 073e
000001d0: 9c58 eb3d 5b93 63bd 81e8 efbd 9411 bcbd
000001e0: 4e4d d1bd 64fd f3bd 533a 3cbe e7c6 85be
000001f0: 8dd6 10bd 078f c2bd 7b7d 213d c6c3 aa3e
00000200: 18d5 c93c b746 4ebd f06b 843d 0615 023c
00000210: c362 7dbc de17 c93d 0150 55bd a019 283e
00000220: 04d2 e23d 9a04 313e f20e 7b3d 055c 2b3e
00000230: f17d b43c ff8a b13e fda9 003d 009a 28be
00000240: fd96 5c3d eff8 e73d 07ad 153a 86ec c33d
00000250: 75c7 04bd dd42 dcbd 757f ca3d c283 4e3e
00000260: 6f2d b13c 531d 73bc 2940 bdbd c939 6dbd
00000270: 3964 27be 6c7c 1dbe fa38 66be 4a20 2fbe
00000280: 7b74 e43a a870 37be edc4 44bd 2226 4b3d
00000290: 129b 39be d283 e63d 2245 60be 0faa 493d
000002a0: 2f02 66be fa7d 4e3e 8256 b5bc 4e70 4a3e
000002b0: 6e60 7c3c ffa9 353d 0edd 193e 61bd 6bbe
000002c0: 527f 5e3e 48d1 14be 56cb 193b d263 adbd
000002d0: df67 31be 2c37 323e c639 35be 72ed c1bd
000002e0: e15c 09be ddeb 48be a926 ef3d 84f4 24be
000002f0: ba56 843e 1c54 543e 2142 f5bc e144 aa3c
00000300: 44d9 d2bd 435b e2bc a9eb 423e 0997 d2bd
00000310: 10c8 cb3d 7f76 813e 64af 133e 5488 293e
00000320: 4a1c 26be bf65 f53c ea08 0a3b f04a 49be
00000330: f5cf 9a3d 27da 70bd d23f e53d c397 f8bd
00000340: b94c bfbd 2052 e93c 5f6b a6bd 2e59 fb3d
00000350: a5f8 21bd 7f0f 903d 2466 b6be 7648 d13d
00000360: ace0 e43d 3f4a c9bd 8c5d 933d c0c8 a9be
00000370: e1cb 97bc da02 1b3c c93a dabc cb34 003e
00000380: bcb6 ee3c 60ea 7a3e 37bf 90bd 9d8b b1bb
00000390: e4ce 0abd 1063 963e c161 8ebc 7e2f 44bd
000003a0: f38c a8bd bc34 1f3e 725d 4f3e 7dc9 d53d
000003b0: 7462 183d acad aebd dcf2 a83d 7028 273e
000003c0: bc62 453d c96a 523d dbdd 6a3e ad2d 0fbe
000003d0: 039b 3f3e 8de2 a33d 1956 e6bd 70b7 1bbd
000003e0: 6e39 673d 871d 453e 23e1 983e 8302 eabd
000003f0: 1f6d 34bc da64 66bd 1074 35bc 787a b43b
0.06487408 0.06826816 -0.074563764 -0.05867128 -0.07248061 -0.04022625 0.13318528 0.0049134167
0.0605592 0.11577606 0.047861792 -0.065546766 -0.00809285 0.19356644 0.006362632 0.09784573
-0.11483819 0.10630014 -0.0792035 -0.044286802 0.23295389 -0.23907189 -0.034064375 0.09515483
-0.033550702 0.097268134 0.12913272 0.014029011 0.050295174 -0.061273918 -0.074939124 -0.020936318
0.0080392575 -0.08605859 0.11806908 0.035921704 0.08186435 -0.017124794 -0.10306262 0.004007039
-0.10437652 0.07388464 0.04088846 -0.041170686 0.0031113669 0.013734489 0.0012334497 0.11143665
-0.052826997 -0.06528189 -0.06983535 0.0053597256 0.0030268899 0.042107455 -0.015114987 0.014094312
0.002993025 -0.06751643 -0.041888017 0.0099501945 -0.07037688 -0.014794545 0.010481566 0.025746498
-0.112178504 0.04107232 0.11844296 -0.15719935 0.09795208 0.23886782 -0.01589745 0.07744698
0.077768184 0.047977336 -0.02388074 -0.07637651 0.049748864 0.27503723 -0.06433115 -0.032286275
0.11518175 0.053622056 0.15957353 -0.017197637 -0.14463909 0.07049435 0.0037793613 0.03753744
-0.08324551 0.050980452 -0.06334324 -0.004359037 0.18629956 -0.16490366 -0.111013874 -0.20037474
-0.04727384 -0.0024501863 -0.19236226 0.2248729 -0.17477666 -0.07907647 -0.3541806 -0.03906644
0.054793146 0.22205058 0.12655522 -0.07960086 -0.12012505 -0.14651282 0.21627498 0.32342434
0.10466477 0.047579244 0.021512995 0.1325676 0.1149151 -0.05556045 -0.117142685 -0.0918304
-0.10219823 -0.11913565 -0.18381624 -0.26128313 -0.03536086 -0.094999366 0.039426308 0.33352488
0.024637744 -0.050360408 0.064659 0.007939583 -0.015465441 0.098190054 -0.05207825 0.16416025
0.110752136 0.17286912 0.06129355 0.16734321 0.02203271 0.34676358 0.031412113 -0.16464996
0.05385493 0.11326777 0.0005709682 0.09566598 -0.03241678 -0.10754941 0.09887592 0.20167449
0.02162811 -0.014838534 -0.09240753 -0.057916436 -0.16346826 -0.15379494 -0.22482672 -0.17102161
0.0017429733 -0.17914069 -0.048039366 0.049596913 -0.18125561 0.112556115 -0.21901372 0.049234446
-0.2246177 0.20165244 -0.022135977 0.19769403 0.01540385 0.044351574 0.15025732 -0.23021461
0.21728256 -0.1453296 0.0023467145 -0.08466305 -0.1732478 0.17403859 -0.1769782 -0.09469117
-0.13414337 -0.19621225 0.11677296 -0.161089 0.25847417 0.2073521 -0.02993876 0.020784797
-0.102953464 -0.027631408 0.1903521 -0.10282714 0.09950268 0.25285718 0.14422375 0.16555911
-0.16221729 0.029955743 0.0021062442 -0.19657493 0.07559196 -0.058801796 0.111938134 -0.12138321
-0.093408056 0.028481543 -0.08125948 0.12272869 -0.039543767 0.07034206 -0.35624802 0.10218899
0.11175665 -0.098286144 0.07195577 -0.33160973 -0.018529834 0.009461129 -0.02663936 0.12520139
0.029139869 0.2450347 -0.07067721 -0.0054182545 -0.033888713 0.29372454 -0.017380597 -0.047896855
-0.08230009 0.1554746 0.2025049 0.104388215 0.037203267 -0.08529219 0.08249447 0.1632402
0.048189864 0.05137137 0.22936194 -0.13982268 0.18711476 0.080021955 -0.112468906 -0.038016737
0.056451254 0.19249545 0.29859266 -0.1142626 -0.011012345 -0.056248523 -0.011075035 0.0055077635

out1.bias_mu f4 [51]
00000000: 95cc 1bbe 5974 e1bd 88e9 7abe aa61 62be
00000010: 36f3 d9be 54bc 86be 2d6a cabe 55b5 97be
00000020: 7e17 43be c1ae 71be 2650 eabe c1b5 a2bd
00000030: fc40 bfbe 429f 93be e5f2 c2be e6ab e3be
00000040: c3e5 03bf 86f1 b7be 3fdf 0bbf 3aa3 edbe
00000050: c711 05bf 266d 7abe e102 0fbf d44b 8fbe
00000060: 836f fcbe 21ce 87be 0720 c4be e0cb 66be
00000070: 19b7 a0be 72bd a6be 03e7 6dbe 6474 f4be
00000080: 8604 babe 256f a0bd 89d8 3f3e dde9 e83d
00000090: d575 b23d aefd d53e 2b0a 7d3e aaa2 a53e
000000a0: af03 d03e 90ca 803e 7a4e 1fbe 8ae6 6a3e
000000b0: d7b1 0d3f 5e13 b23e b4bf c13e eec2 e53e
000000c0: fd5d 503f b2f4 763e dee9 4b3f
-0.1521476 -0.1100852 -0.24503148 -0.22107568 -0.42568368 -0.26315558 -0.3953413 -0.29630533
-0.1905193 -0.2360182 -0.45764273 -0.07944823 -0.37354267 -0.28832442 -0.3807594 -0.44467086
-0.51522464 -0.35926455 -0.5463752 -0.46413594 -0.5198025 -0.244557 -0.5586377 -0.2798754
-0.49303827 -0.2652445 -0.38305685 -0.2253871 -0.31389692 -0.3256641 -0.23232655 -0.4774505
-0.36331576 -0.07833699 0.18734945 0.11372731 0.08713881 0.41795105 0.2471091 0.32350665
0.4062781 0.25154543 -0.1555728 0.22939506 0.5534949 0.347804 0.3784157 0.44875282
0.81393415 0.24116781 0.7965373

out1.bias_sigma f4 [51]
00000000: df4d 133d 5084 fd3b a98d fa3c 2cd0 b63d
00000010: 0033 a63b 04c2 383d 34b4 1ebe 430b a63c
00000020: 4865 93bc aa6f eabd 26bf 433d f553 9abd
00000030: 4d9f 8abc 9338 47bd ba8c 0dbe f019 c4bd
00000040: c4c7 433d 78c5 143c 1ceb 9cbc e329 17bd
00000050: 1313 163e 518c 3dbe e3d6 adbd 3f39 6fbd
00000060: 568d df3c 829b 93bd 1e7d 1abc 4958 623c
00000070: cfc3 c03b 883d 0cbd 848e 5ebd e5c0 0abd
00000080: 7c0a 323d 1d59 c0bc f46a 47bd b7d7 66bc
00000090: 61f6 0ebd 1d2a cabc 6116 423d fbad 493d
000000a0: a854 a63c c335 143e d56a 8cbd ca75 d5bc
000000b0: f215 89bd c799 8f3d 3457 e73c 47ab 063c
000000c0: 350d 90bc e475 d5bc 0990 a9bc
0.035962936 0.00773672 0.030585127 0.089264244 0.0050719976 0.045106903 -0.1549843 0.020269042
-0.01799263 -0.114470795 0.047789715 -0.07535545 -0.016921664 -0.048637938 -0.13823214 -0.0957526
0.047797933 0.009080283 -0.019155078 -0.03690518 0.14655714 -0.18510558 -0.08488252 -0.058404204
0.027289074 -0.07207395 -0.009429244 0.013814994 0.005882717 -0.03423837 -0.054335132 -0.033875365
0.04346703 -0.023479993 -0.048685983 -0.014089516 -0.034902934 -0.024678284 0.047384623 0.049238186
0.02030404 0.14473633 -0.06856314 -0.026057143 -0.06693639 0.070117526 0.028239824 0.008219547
-0.017584423 -0.026057191 -0.020698564
