turtlebot3_dqn/save_model/stage_1_480.pth (torch_old, 164553 bytes, 22 tensors)

feature_layer.0.weight f4 [64, 26]
-0.06179323 -0.048642866 -1.365219 -0.07734819 0.27508822 0.38159165 -0.024236375 0.11658832
0.015078401 -0.09922311 0.17029466 -0.031377546 -0.28613973 -0.1186739 -0.14496247 -0.04763037
0.017848667 0.020098181 0.256286 0.11832309 0.32386652 0.1826492 0.012305331 -0.18219222
-0.17455776 0.04175172 -0.20755032 -0.30908203 -0.19481358 0.24070466 0.075818084 -0.042653956
0.03897435 0.18551843 0.15808511 0.08267709 0.0190781 0.09738986 0.2622822 0.04434905
0.20017946 0.12714688 0.013255768 -0.24946848 -0.18151338 -0.19241434 -0.17975147 -0.27483565
-0.25651032 -0.35434723 0.93063504 -2.5134155e-05 -0.3726737 -0.15841253 -0.16631964 0.26614878
0.3043852 0.2754306 0.21584402 -0.10796606 -0.34791628 0.0038997424 -0.08809036 -0.15926738
-0.24770983 -0.088455394 0.15330043 0.25085816 0.0029555648 0.10021003 0.19382566 -0.09647037
0.30089065 0.19415943 -0.5510279 -0.4919318 0.8921272 0.14191228 0.057027675 -0.09687929
0.17949052 -0.18160196 -0.8513471 -0.43973863 -0.32369113 -0.2123261 0.032236382 0.009555489
0.1175247 0.0038248522 -0.10977556 -0.08676082 -0.080681026 -0.022933614 0.06437158 -0.009638745
0.13756035 -0.08524479 0.028944483 -0.14151749 -0.31419247 -0.20638567 1.1185557 0.40749583
-0.53461397 -1.9780037 -0.05738288 -0.35128382 0.35298228 0.03541033 0.018695492 0.12063095
0.22330554 0.032271385 0.07097448 0.056921776 -0.09864426 0.0445588 0.05243315 0.07813126
-0.005750201 0.024964254 0.046560977 -0.06914304 0.2876664 0.34741965 -0.18499187 -0.75878316
0.10804249 -0.18666036 0.10084714 0.042838126 0.08982414 -0.0065487903 0.004119206 -0.115047865
-0.064337246 0.026785344 -0.03310403 -0.060522553 -0.118476324 -0.099265896 -0.108462475 -0.09521028
-0.10296772 0.03508905 0.033783775 0.050225265 0.083987005 0.0475436 0.0067571215 0.06486089
-0.0063032443 -0.17901939 -0.92259884 0.8706623 -0.109963045 -1.1294683 0.07851811 0.32280484
-0.065196805 0.21124208 0.20231211 0.06463588 0.03280544 -0.15283056 -0.26398006 -0.17589697
0.10466253 -0.19685894 -0.20968987 -0.10869157 0.16959314 -0.11030002 0.27207872 0.1735031
0.068945564 0.2037748 0.20689045 -0.0022167882 0.8656134 -0.7824033 -0.27798426 -0.2783508
0.055677973 0.1100548 -0.27978364 -0.12581982 -0.070248 -0.04298548 -0.24181487 -0.14038907
-0.06043183 -0.0176714 0.0022359786 -0.06326493 0.030683327 0.049726292 0.011843377 -0.21820264
-0.21133406 -0.19895017 -0.19897598 -0.29819098 -0.38527954 -0.0871475 0.37532276 0.46424153
-0.09548789 -0.27458087 -0.21129182 -0.41804835 -0.54545164 -0.19624114 -0.21829122 -0.4450255
-0.13244887 0.13123935 0.0051237294 -0.039699044 0.054687258 -0.017980715 -0.06460152 -0.066707246
-0.0912943 0.0519195 0.15326934 0.2331817 0.12437308 -0.08274444 -0.124238044 -0.23406048
0.5507392 -0.15531915 0.0113757 0.0529083 -0.04017327 0.0026152171 0.29347143 0.122344
-0.05421737 -0.18268383 -0.24411662 -0.3087431 -0.2919192 -0.30338788 -0.16238634 -0.25948587
-0.14672899 -0.12880541 -0.15481207 0.01499191 0.09381125 0.2297331 0.28203937 0.10945383
00000000: e61a 7dbd be3d 47bd 7fbf aebf ba68 9ebd
00000010: 5dd8 8c3e fb5f c33e 5d8b c6bc dbc5 ee3d
00000020: 660b 773c 7c35 cbbd b961 2e3e be85 00bd
00000030: e880 92be 4d0b f3bd 0b71 14be 1018 43bd
00000040: 5e37 923c f1a4 a43c eb37 833e 6053 f23d
00000050: d5d1 a53e 6408 3b3e 4d9c 493c 9990 3abe
00000060: 45bf 32be da03 2b3d 1288 54be 0040 9ebe
00000070: 367d 47be 487b 763e 8346 9b3d eab5 2ebd
00000080: 91a3 1f3d 8bf8 3d3e 10e1 213e 9b52 a93d
00000090: ad49 9c3c 5674 c73d da49 863e 59a7 353d
000000a0: d8fb 4c3e cb32 023e b92e 593c aa74 7fbe
000000b0: a5de 39be 4408 45be c510 38be 42b7 8cbe
000000c0: 5255 83be 006d b5be 193e 6e3f 30d7 d2b7
000000d0: 16cf bebe e536 22be b24f 2abe a744 883e
000000e0: 60d8 9b3e 3d05 8d3e 3706 5d3e 4f1d ddbd
000000f0: 1522 b2be d292 7f3b b868 b4bd fd16 23be
00000100: a5a7 7dbe 1a28 b5bd cafa 1c3e 7b70 803e
00000110: 26b2 413b eb3a cd3d 3c7a 463e 4292 c5bd
00000120: 570e 9a3e bbd1 463e 2a10 0dbf 7cde fbbe
00000130: 7362 643f 7451 113e da95 693d a668 c6bd
00000140: 5dcc 373e ddf5 39be e2f1 59bf 6c25 e1be
00000150: d8ba a5be 036c 59be 4c0a 043d a08e 1c3c
00000160: cab0 f03d 5faa 7a3b 02d2 e0bd a8af b1bd
00000170: 183c a5bd 46df bbbc 3fd5 833d d4eb 1dbc
00000180: 9fdc 0c3e d294 aebd fb1c ed3c f6e9 10be
00000190: d6dd a0be c456 53be d52c 8f3f 4ba3 d03e
000001a0: 76dc 08bf 3a2f fdbf 500a 6bbd 79db b3be
000001b0: 18ba b43e 6c0a 113d 4a27 993c 5c0d f73d
000001c0: 35aa 643e 002f 043d 115b 913d cf26 693d
000001d0: 0006 cabd 4a83 363d 25c4 563d 4803 a03d
000001e0: 2f6c bcbb d681 cc3c b9b6 3e3d de9a 8dbd
000001f0: 0349 933e fde0 b13e 826e 3dbe 9d3f 42bf
00000200: 6245 dd3d e523 3fbe f288 ce3d 0877 2f3d
00000210: b8f5 b73d 3c97 d6bb 68fa 863b 379e ebbd
00000220: 3fc3 83bd f06c db3c 1798 07bd 7fe6 77bd
00000230: b7a3 f2bd eb4b cbbd 9321 debd 9bfd c2bd
00000240: bde0 d2bd 89b9 0f3d db60 0a3d 02b9 4d3d
00000250: 6101 ac3d 14bd 423d d86a dd3b c9d5 843d
00000260: 728b cebb dc50 37be 702f 6cbf b9e3 5e3f
00000270: 4e34 e1bd 6b92 90bf 1ace a03d ad46 a53e
00000280: e785 85bd d84f 583e e82a 4f3e d15f 843d
00000290: ff5e 063d 9d7f 1cbe 6528 87be 561e 34be
000002a0: 4f59 d63d 6495 49be f1b8 56be b099 debd
000002b0: d3a9 2d3e fae4 e1bd e74d 8b3e ccaa 313e
000002c0: 5533 8d3d 57aa 503e 17db 533e 8947 11bb
000002d0: d798 5d3f 954b 48bf f453 8ebe ff83 8ebe
000002e0: 960e 643d 6964 e13d cd3f 8fbe e9d6 00be
000002f0: 2fde 8fbd 8b11 30bd 519e 77be 27c2 0fbe
00000300: 5e87 77bd 9dc3 90bc 7f89 123b 0b91 81bd
00000310: 9a5b fb3c ccad 4b3d b90a 423c 8370 5fbe
00000320: f567 58be 98b9 4bbe 5cc0 4bbe 7dac 98be
00000330: 5c43 c5be 637a b2bd 4e2a c03e 11b1 ed3e
00000340: 288f c3bd dd95 8cbe e25c 58be 6f0a d6be
00000350: b8a2 0bbf 70f3 48be bc87 5fbe 62da e3be
00000360: ada0 07be 9c63 063e f5e4 a73b 779b 22bd
00000370: bfff 5f3d 4b4c 93bc cd4d 84bd cf9d 88bd
00000380: 82f8 babd 8ba9 543d a3f2 1c3e 2fc7 6e3e
00000390: 50b7 fe3d eb75 a9bd 8470 febd 8dad 6fbe
000003a0: 3ffd 0c3f fc0b 1fbe 2561 3a3c 60b6 583d
000003b0: ba8c 24bd 1064 2b3b e341 963e 7e8f fa3d
000003c0: 0813 5ebd 7811 3bbe b5f9 79be 9313 9ebe
000003d0: 6f76 95be a855 9bbe 9b48 26be 55db 84be
000003e0: 2040 16be 91e5 03be 0e87 1ebe a1a0 753c
000003f0: 1d20 c03d 273f 6b3e 7767 903e 5429 e03d

feature_layer.0.bias f4 [64]
-0.18323442 -0.09452369 -0.13727422 0.2020704 0.11177404 -0.69813454 0.13009112 -0.05547208
0.12625036 0.29583576 -0.07609395 -0.2817467 0.10193259 -0.59193236 0.037560187 0.3317977
-0.005277369 0.07478 0.23896551 0.5282299 -0.4297279 -0.19350976 0.28535718 0.12298909
0.27100435 -0.6048449 -0.009769516 0.022575077 0.005843921 0.26128742 -0.09899249 0.22810513
0.5724094 0.06532406 0.07994722 -0.16513972 0.23996721 0.46878758 -0.06231807 0.15207687
0.31334913 0.30784002 0.01048448 0.019311206 -0.16417699 0.018393429 0.34103304 0.31333297
0.4101631 -0.08834585 0.6404549 0.012632596 -0.0717489 -0.19895247 0.0035459083 -0.18040086
-0.13862602 -0.02294103 0.20635726 0.44405305 -0.48606426 0.13283892 -0.33158952 -0.040123053
00000000: cea1 3bbe a395 c1bd 9d91 0cbe 8beb 4e3e
00000010: cae9 e43d f2b8 32bf 9b36 053e b136 63bd
00000020: c647 013e c977 973e 25d7 9bbd 1a41 90be
00000030: 09c2 d03d e188 17bf b6d8 193d 63e1 a93e
00000040: c8ed acbb 4226 993d 60b3 743e 133a 073f
00000050: 4c05 dcbe 6c27 46be 561a 923e b4e1 fb3d
00000060: 15c1 8a3e 1ed7 1abf 5210 20bc 5eef b83c
00000070: 5d7e bf3b 77c7 853e 93bc cabd 6494 693e
00000080: 6c89 123f 9fc8 853d 5ebb a33d 631a 29be
00000090: f7b9 753e ed04 f03e 3c41 7fbd 0aba 1b3e
000000a0: 4c6f a03e 359d 9d3e 19c7 2b3c 8932 9e3c
000000b0: 031e 28be d1ad 963c e29b ae3e 2e6d a03e
000000c0: e600 d23e abee b4bd daf4 233f f3f8 4e3c
000000d0: 16f1 92bd 32ba 4bbe 7862 683b 01bb 38be
000000e0: fbf3 0dbe d4ee bbbc 514f 533e ec5a e33e
000000f0: 6add f8be ed06 083e 1ac6 a9be 1258 24bd

feature_layer.3.weight f4 [32, 64]
-0.24922535 0.45958048 0.16144536 0.5572246 -0.63255507 -0.0029962463 0.1869272 0.43872836
-0.14909011 0.16420342 0.63135177 0.71600807 -0.52797693 0.032885667 -0.070543356 -0.11526763
0.47169694 0.16892545 -0.29276848 -0.158068 -0.15092632 -0.0986182 -0.8414002 -0.10834903
0.12701198 0.1786501 -0.6129709 -0.10636171 0.16286449 -0.20973592 -0.6273656 0.1392023
-0.16104251 -0.004977415 -0.3533165 0.5422586 -0.035342664 0.44497094 -0.012019718 -0.063848644
-0.7341115 -0.04092346 -0.54327786 -0.2503678 0.1931612 0.7204626 -0.4119477 0.4873935
0.1898077 0.17230104 -0.004999536 -0.1698675 0.09837598 0.0119554335 -0.73594075 0.11243167
0.5887856 0.47047037 -0.44664282 0.07352881 0.22975811 -0.36640793 0.01368146 -0.29042965
0.12355 0.04727532 0.23735501 -0.59573686 0.29528254 0.30097625 -0.23267941 -0.10179025
-0.14313288 0.066216424 0.032846432 0.22771305 -0.3731442 -0.35585278 -0.018686729 -0.08319626
-0.31649315 -0.03515314 0.20908988 0.2037114 -0.5692118 -0.069054864 0.09136647 -0.033121385
-0.18634404 0.16505896 -0.23433062 0.07899175 -0.23095725 -0.034920484 -0.26828474 0.16996343
-0.10742911 0.27382788 -0.016563091 0.34546348 0.19978915 -0.15592885 0.052428354 -0.062525064
-0.8727198 -0.21378937 0.7062655 0.11654483 0.23955704 -0.34330916 -0.24586754 -0.014300852
-0.16367163 0.22014295 0.46698305 -0.5362476 -0.1626868 0.06407881 -0.39246413 -0.03307895
0.24076928 0.09913141 0.03020477 0.051478293 -0.27575052 0.71445954 -0.1756033 0.1851133
-0.2677949 -0.04238135 0.01623574 -0.055251397 0.4442598 0.16013089 0.010158365 0.46699202
0.14041291 0.08573956 -0.009471265 -0.035581727 -0.616079 -0.089343876 0.061480917 -0.18917134
0.1873507 -0.5439481 -0.62338775 -0.19859295 -0.03358647 0.02965221 -0.0091423355 -0.20255765
0.014400644 0.104310244 -0.6930781 0.064068876 -0.098674186 -0.29354548 -0.078878894 -0.06866771
0.09975359 0.50095886 -0.25673214 0.44729272 -0.21668972 0.2189535 -0.10989701 0.06438431
0.39155194 -0.6599214 0.33680946 0.066774875 0.27484953 -0.78022295 -0.6635442 0.05525597
-0.18836237 -0.03936696 -0.051215816 -0.19824661 0.4122889 -0.004570883 -0.65354025 -0.009291426
0.50395954 0.16594644 0.16522391 0.18427551 0.14135383 0.68198097 -0.026185978 -0.133784
0.08751157 0.08444954 0.1512142 0.2615107 0.22281341 0.052726217 0.39995846 0.030062158
0.19956098 -0.00087483076 0.08022687 -0.1654277 0.3480993 -0.3651523 0.06372443 -0.22029313
0.3090104 -0.040543213 0.75280386 -0.057660326 -0.627558 -0.011373755 -0.04112259 0.051302522
-0.114620514 0.19322635 0.022593021 0.053648222 -0.3892824 -0.1225319 -0.015523118 0.011553995
-0.18061574 0.39838403 -0.01459419 0.097055316 0.31381723 -0.34190768 -0.053997662 -0.2705144
0.8070873 0.19341654 -0.17277619 0.18833508 0.5079331 -0.050938755 0.42064887 0.17635249
-0.6194859 0.23519568 0.28882122 -0.11699419 0.098497786 0.067315124 -0.2763396 -0.0094931
0.46143115 0.06606447 -0.43688187 0.35094967 -0.32988328 0.067722216 -0.9736595 -0.057794437
00000000: ee34 7fbe 224e eb3e ef51 253e 45a6 0e3f
00000010: 21ef 21bf ac5c 44bb d869 3f3e 01a1 e03e
00000020: 14ab 18be f124 283e 45a0 213f 4e4c 373f
00000030: 7f29 07bf 1fb3 063d 0979 90bd 6f11 ecbd
00000040: 4382 f13e cbfa 2c3e c0e5 95be 94dc 21be
00000050: 6e8c 1abe 57f8 c9bd 0166 57bf 19e6 ddbd
00000060: 6e0f 023e 0df0 363e a9eb 1cbf 2bd4 d9bd
00000070: f3c5 263e 03c5 56be 089b 20bf 0c8b 0e3e
00000080: 54e8 24be 9519 a3bb e6e5 b4be 76d1 0a3f
00000090: 78c3 10bd 3bd3 e33e 5aee 44bc 14c3 82bd
000000a0: bbee 3bbf 5c9f 27bd 4214 0bbf 3530 80be
000000b0: 0dcc 453e 3d70 383f cfea d2be a48b f93e
000000c0: f35c 423e af6f 303e 26d3 a3bb bff1 2dbe
000000d0: 5979 c93d b9e0 433c 9d66 3cbf 9342 e63d
000000e0: a7ba 163f 7ee1 f03e 5eae e4be 4696 963d
000000f0: b645 6b3e d299 bbbe 3428 603c 32b3 94be
00000100: c807 fd3d c4a3 413d 310d 733e 3682 18bf
00000110: 462f 973e 8f19 9a3e 8343 6ebe 6877 d0bd
00000120: 6d91 12be 7a9c 873d fb89 063d 9c2d 693e
00000130: c20c bfbe 5632 b6be e914 99bc cd62 aabd
00000140: 640b a2be bdfc 0fbd a81b 563e b999 503e
00000150: ddb7 11bf a36c 8dbd 581e bb3d 4aaa 07bd
00000160: f9d0 3ebe 3705 293e 5ef4 6fbe 6dc6 a13d
00000170: 0f80 6cbe c808 0fbd 9e5c 89be e50a 2e3e
00000180: cb03 dcbd 2b33 8c3e 52af 87bc 97e0 b03e
00000190: 8795 4c3e d0ab 1fbe 1dbf 563d 240d 80bd
000001a0: 916a 5fbf 9aeb 5abe d1cd 343f 0eaf ee3d
000001b0: 714e 753e 38c6 afbe b3c4 7bbe 1f4e 6abc
000001c0: 8999 27be 276d 613e 6718 ef3e 8647 09bf
000001d0: 5e97 26be c03b 833d 0ff1 c8be cb7d 07bd
000001e0: 398c 763e 6905 cb3d fe6f f73c e7da 523d
000001f0: 2c2f 8dbe d2e6 363f 5ad1 33be 578e 3d3e
00000200: 6a1c 89be 1198 2dbd d100 853c 4a4f 62bd
00000210: 0576 e33e 5af9 233e 456f 263c 9419 ef3e
00000220: 67c8 0f3e 3998 af3d 5d2d 1bbc 25be 11bd
00000230: 5ab7 1dbf ecf9 b6bd 6ad3 7b3d 22b6 41be
00000240: ddd8 3f3e 2f40 0bbf 5796 1fbf f35b 4bbe
00000250: f791 09bd 31e9 f23c bcc9 15bc 466b 4fbe
00000260: aef0 6b3c 9ca0 d53d 916d 31bf 8b36 833d
00000270: b115 cabd 984b 96be 428b a1bd a8a1 8cbd
00000280: 9c4b cc3d d73e 003f 6572 83be 8d03 e53e
00000290: e9e3 5dbe 5935 603e af11 e1bd ecdb 833d
000002a0: 7f79 c83e 9cf0 28bf 4a72 ac3e 44c1 883d
000002b0: 14b9 8c3e b1bc 47bf 08de 29bf 1654 623d
000002c0: 11e2 40be 403f 21bd adc7 51bd 2901 4bbe
000002d0: 8817 d33e 58c7 95bb 6a4e 27bf 113b 18bc
000002e0: 7e03 013f dded 293e 7530 293e b8b2 3c3e
000002f0: 0fbf 103e 4e96 2e3f fa83 d6bc acfe 08be
00000300: 4439 b33d e1f3 ac3d e5d7 1a3e bbe4 853e
00000310: 3329 643e 72f7 573d 5bc7 cc3e ea44 f63c
00000320: b759 4c3e e654 65ba fc4d a43d e165 29be
00000330: 123a b23e 3ef5 babe f481 823d 8694 61be
00000340: 9c36 9e3e a410 26bd c1b7 403f 3c2d 6cbd
00000350: a4a7 20bf fc58 3abc 2970 28bd 9822 523d
00000360: 29be eabd 21dd 453e 0015 b93c 3dbe 5b3d
00000370: 0650 c7be 01f2 fabd ad54 7ebc f84c 3d3c
00000380: 55f3 38be fef8 cb3e 781c 6fbc f0c4 c63d
00000390: a7ac a03e 860e afbe a72c 5dbd dd80 8abe
000003a0: 469d 4e3f fc0e 463e 3eec 30be e9da 403e
000003b0: e707 023f 28a5 50bd 4a5f d73e bf95 343e
000003c0: a196 1ebf 23d7 703e 60e0 933e a69a efbd
000003d0: 35b9 c93d 83dc 893d 627c 8dbe f388 1bbc
000003e0: b440 ec3e cf4c 873d fbae dfbe adaf b33e
000003f0: 76e6 a8be f2b1 8a3d c041 79bf dcb9 6cbd

feature_layer.3.bias f4 [32]
0.10717459 -0.38629493 -0.35422108 0.0070294077 -0.22082062 -0.14650664 -0.83508193 0.3304361
-0.068262495 -0.15900645 -0.35453236 -0.0112969065 0.02617474 0.287554 0.06247969 -0.08680902
-0.22061847 0.48400384 0.30292898 -0.19502428 -0.0862891 -0.39711952 0.60479003 -0.3923112
-0.111427434 -0.1558502 -0.06284012 -0.5108284 -0.489502 0.3297074 0.13592221 0.5305938
00000000: 5a7e db3d 73c8 c5be 775c b5be f256 e63b
00000010: cd1e 62be d605 16be eec7 55bf ec2e a93e
00000020: 35cd 8bbd 96d2 22be 4485 b5be a916 39bc
00000030: 696c d63c 473a 933e b4ea 7f3d edc8 b1bd
00000040: cfe9 61be 5acf f73e 8219 9b3e 72b4 47be
00000050: 57b8 b0bd 4053 cbbe 85d3 1a3f 03dd c8be
00000060: 1134 e4bd 3297 1fbe 52b2 80bd a6c5 02bf
00000070: 02a0 fabe 69cf a83e 312f 0b3e ffd4 073f

final_layer.weight_mu f4 [32, 64]
-0.060270846 0.05498673 -0.079894185 0.08019745 -0.04154177 -0.09124845 -0.029807225 0.0031413436
0.014295325 -0.087107465 -0.092648834 0.063809276 -0.116453215 -0.07819231 0.113354 -0.08457777
-0.041381836 0.041602448 0.05467747 -0.030642837 -0.018933564 0.09572756 -0.1047512 0.0294483
-0.004650235 -0.040284544 -0.088306844 0.007975236 -0.09386255 -0.033529565 0.095042005 0.06954618
0.0015053302 -0.09013873 0.0011701882 0.06307581 0.115027234 0.0061579198 0.07536577 -0.10198225
-0.067506865 0.049365625 -0.10556637 0.063027516 0.025914714 -0.06443676 -0.008816153 -0.040176064
0.08013961 0.09418553 0.04740253 0.056117803 -0.0629839 0.09357539 0.059601516 0.11462705
0.0497351 -0.1077635 0.10543756 0.07563414 -0.04763201 0.0151124 0.05393152 -0.028906196
-0.08452886 0.037737086 -0.03276801 0.0029934198 -0.07151301 -0.008012414 0.11979282 -0.10903925
0.042813033 0.04356949 0.046354175 -0.041525617 0.030001238 -0.08057079 -0.032146916 -0.117334306
0.11354785 -0.027325422 -0.031230897 0.069544986 -0.04118368 -0.028832167 0.10892898 0.107797995
-0.00019466877 -0.0053468198 -0.04602602 -0.041529 0.11944473 -0.082336605 0.04381506 -0.101730764
0.10675113 -0.023863688 -0.094354704 -0.0057275444 0.009167835 0.059266165 0.03754899 -0.116168424
0.05488448 -0.10174191 -0.112784415 -0.10842484 -0.06374158 -0.022878975 0.0073909312 0.024720564
-0.033566102 -0.077796936 0.05927685 -0.014657214 0.020562768 -0.12216176 0.041380644 -0.06559208
-0.10626568 0.02257815 -0.012565166 -0.0036384612 0.081162944 0.057194814 -0.021667108 0.12407008
-0.008867398 0.082363516 -0.07622944 -0.007619828 -0.109449506 -0.10085754 0.019730568 -0.097253606
0.02566433 0.046367124 -0.0482962 0.051063076 0.09097481 0.09439206 -0.017725736 -0.0362567
-0.09391381 0.10030264 -0.02699764 -0.01920572 -0.053553253 0.09706226 0.12096687 0.01741539
0.06723638 0.06304905 -0.10124928 0.0037838072 0.05906281 0.09171465 0.08022618 0.030766726
-0.06776562 -0.031998888 0.04857585 0.11774725 0.012326553 -0.005779937 -0.03666264 -0.0038124472
0.05857782 -0.066658214 -0.022756115 0.032713577 -0.009729072 -0.049963355 -0.01848644 -0.0014102906
-0.0974856 0.10493244 0.0793647 0.0656669 -0.01946108 -0.06638734 0.09418137 -0.062148347
0.10184325 0.010322288 0.031171829 -0.057196885 0.07194194 -0.06339978 -0.058806345 -0.050943166
0.09826504 0.019719139 -0.01570478 0.058044225 -0.05203849 0.05468695 0.013105676 0.04382664
-0.092865765 -0.045015797 0.09660739 -0.07305141 -0.112599775 0.019312546 -0.06595416 -0.012716979
-0.00945203 0.041774973 -0.06967966 0.0672207 -0.10694991 -0.037086233 0.106233805 -0.03961578
0.06334968 -0.028330997 0.08600664 0.07732509 0.013066798 -0.023060203 0.09543097 -0.031837016
-0.03047517 0.05948572 0.016339496 -0.031092301 0.0016493797 -0.062869 0.076842174 -0.05178596
-0.102193445 0.0886603 0.06633198 -0.116457745 -0.012952715 -0.041606575 0.0015877336 0.015616268
0.120972216 -0.091177106 -0.006259516 -0.05991243 0.06138836 0.10223666 0.01697819 -0.022183836
-0.023106754 -0.08886546 0.032375947 0.09788057 -0.046288446 0.0865145 -0.014579266 0.0011030883
00000000: 90de 76bd c439 613d 909f a3bd 903e a43d
00000010: b427 2abd 78e0 babd 482e f4bc 00df 4d3b
00000020: f036 6a3c 6665 b2bd acbe bdbd 70ae 823d
00000030: 067f eebd 4a23 a0bd 2426 e83d 1c37 adbd
00000040: 0080 29bd 5467 2a3d 7cf5 5f3d b006 fbbc
00000050: 901a 9bbc d00c c43d cc87 d6bd 903d f13c
00000060: 0061 98bb 6801 25bd 38da b4bd 90aa 023c
00000070: 023b c0bd 4c56 09bd 62a5 c23d 3a6e 8e3d
00000080: 804e c53a a89a b8bd 0061 993a e42d 813d
00000090: 6693 eb3d 60c8 c93b 5e59 9a3d 12dc d0bd
000000a0: 0a41 8abd 9c33 4a3d 2e33 d8bd 9214 813d
000000b0: 184b d43c 6cf7 83bd a071 10bc a88f 24bd
000000c0: 3c20 a43d 58e4 c03d 2829 423d c8db 653d
000000d0: b4fd 80bd 74a4 bf3d b820 743d 96c1 ea3d
000000e0: 08b7 4b3d 1cb3 dcbd a6ef d73d 12e6 9a3d
000000f0: c819 43bd 009a 773c 4ce7 5c3d b0cc ecbc
00000100: 781d adbd 3492 1a3d c037 06bd 402d 443b
00000110: 6a75 92bd 8046 03bc f055 f53d f84f dfbd
00000120: b85c 2f3d ec75 323d e0dd 3d3d c416 2abd
00000130: 28c5 f53c 4c02 a5bd 7cac 03bd f84c f0bd
00000140: c68b e83d 90d9 dfbc f0d7 ffbc 9a6d 8e3d
00000150: 38b0 28bd 7031 ecbc 2816 df3d 32c5 dc3d
00000160: 0020 4cb9 6034 afbb c885 3cbd 501a 2abd
00000170: 709f f43d 18a0 a8bd 6c77 333d 3858 d0bd
00000180: 56a0 da3d c87d c3bc 0a3d c1bd 20ae bbbb
00000190: b034 163c 14c1 723d f8cc 193d b6e9 edbd
000001a0: 8cce 603d 105e d0bd 84fb e6bd d80d debd
000001b0: f28a 82bd b06c bbbc a02f f23b c882 ca3c
000001c0: 9c7c 09bd 0054 9fbd 48cc 723d d024 70bc
000001d0: 4073 a83c f22f fabd c07e 293d 2455 86bd
000001e0: d2a1 d9bd d0f5 b83c 20de 4dbc 4073 6ebb
000001f0: c238 a63d 1c45 6a3d 387f b1bc 7418 fe3d
00000200: 9048 11bc 34ae a83d 2e1e 9cbd c0af f9bb
00000210: 1027 e0bd 668e cebd 00a2 a13c e62c c7bd
00000220: 003e d23c 74eb 3d3d 3cd2 45bd 8427 513d
00000230: 0051 ba3d a050 c13d 9035 91bc e881 14bd
00000240: e255 c0bd 786b cd3d 282a ddbc 5055 9dbc
00000250: a85a 5bbd 94c8 c63d 7abd f73d b8aa 8e3c
00000260: 3ab3 893d dc1f 813d c85b cfbd c0f9 773b
00000270: d8eb 713d e4d4 bb3d a04d a43d 800a fc3c
00000280: b4c8 8abd 4411 03bd 78f7 463d 7825 f13d
00000290: 50f5 493c a065 bdbb 902b 16bd 40da 79bb
000002a0: 4cef 6f3d 1a84 88bd 086b babc acfe 053d
000002b0: b066 1fbc 60a6 4cbd e070 97bc 80d9 b8ba
000002c0: 88a6 c7bd d2e6 d63d f689 a23d 5e7c 863d
000002d0: d86c 9fbc 16f6 87bd 2ae2 c03d 448f 7ebd
000002e0: 3293 d03d d01e 293c 105c ff3c 4847 6abd
000002f0: 4c56 933d bed7 81bd ecde 70bd c8a9 50bd
00000300: 2e3f c93d 088a a13c 50a7 80bc c8bf 6d3d
00000310: 5026 55bd 6cff 5f3d 30b9 563c 9083 333d
00000320: 6830 bebd 7c62 38bd 18da c53d fa9b 95bd
00000330: b69a e6bd 5835 9e3c fa12 87bd e05a 50bc
00000340: b0dc 1abc 3c1c 2b3d 36b4 8ebd 02ab 893d
00000350: 8e08 dbbd bce7 17bd 1c91 d93d 2844 22bd
00000360: 7abd 813d 6816 e8bc 4024 b03d 9e5c 9e3d
00000370: 2016 563c c0e8 bcbc 5071 c33d 8867 02bd
00000380: 10a7 f9bc 4ca7 733d 68da 853c 48b5 febc
00000390: 0030 d83a 76c1 80bd 6e5f 9d3d 841d 54bd
000003a0: cc4a d1bd 8893 b53d 10d9 873d 6681 eebd
000003b0: a037 54bc a86b 2abd 801b d03a 60db 7f3c
000003c0: 48c0 f73d 10bb babd a01c cdbb bc66 75bd
000003d0: 5c72 7b3d 7461 d13d d815 8b3c e0ba b5bc
000003e0: 604a bdbc 18ff b5bd a49c 043d 9c75 c83d
000003f0: f498 3dbd 842e b13d e0dd 6ebc 8095 903a

final_layer.weight_sigma f4 [32, 64]
0.075 0.075 0.075 0.075 0.075 0.075 0.075 0.075
0.075 0.075 0.075 0.075 0.075 0.075 0.075 0.075
0.075 0.075 0.075 0.075 0.075 0.075 0.075 0.075
0.075 0.075 0.075 0.075 0.075 0.075 0.075 0.075
0.075 0.075 0.075 0.075 0.075 0.075 0.075 0.075
0.075 0.075 0.075 0.075 0.075 0.075 0.075 0.075
0.075 0.075 0.075 0.075 0.075 0.075 0.075 0.075
0.075 0.075 0.075 0.075 0.075 0.075 0.075 0.075
0.075 0.075 0.075 0.075 0.075 0.075 0.075 0.075
0.075 0.075 0.075 0.075 0.075 0.075 0.075 0.075
0.075 0.075 0.075 0.075 0.075 0.075 0.075 0.075
0.075 0.075 0.075 0.075 0.075 0.075 0.075 0.075
0.075 0.075 0.075 0.075 0.075 0.075 0.075 0.075
0.075 0.075 0.075 0.075 0.075 0.075 0.075 0.075
0.075 0.075 0.075 0.075 0.075 0.075 0.075 0.075
0.075 0.075 0.075 0.075 0.075 0.075 0.075 0.075
0.075 0.075 0.075 0.075 0.075 0.075 0.075 0.075
0.075 0.075 0.075 0.075 0.075 0.075 0.075 0.075
0.075 0.075 0.075 0.075 0.075 0.075 0.075 0.075
0.075 0.075 0.075 0.075 0.075 0.075 0.075 0.075
0.075 0.075 0.075 0.075 0.075 0.075 0.075 0.075
0.075 0.075 0.075 0.075 0.075 0.075 0.075 0.075
0.075 0.075 0.075 0.075 0.075 0.075 0.075 0.075
0.075 0.075 0.075 0.075 0.075 0.075 0.075 0.075
0.075 0.075 0.075 0.075 0.075 0.075 0.075 0.075
0.075 0.075 0.075 0.075 0.075 0.075 0.075 0.075
0.075 0.075 0.075 0.075 0.075 0.075 0.075 0.075
0.075 0.075 0.075 0.075 0.075 0.075 0.075 0.075
0.075 0.075 0.075 0.075 0.075 0.075 0.075 0.075
0.075 0.075 0.075 0.075 0.075 0.075 0.075 0.075
0.075 0.075 0.075 0.075 0.075 0.075 0.075 0.075
0.075 0.075 0.075 0.075 0.075 0.075 0.075 0.075
00000000: 9a99 993d 9a99 993d 9a99 993d 9a99 993d
00000010: 9a99 993d 9a99 993d 9a99 993d 9a99 993d
00000020: 9a99 993d 9a99 993d 9a99 993d 9a99 993d
00000030: 9a99 993d 9a99 993d 9a99 993d 9a99 993d
00000040: 9a99 993d 9a99 993d 9a99 993d 9a99 993d
00000050: 9a99 993d 9a99 993d 9a99 993d 9a99 993d
00000060: 9a99 993d 9a99 993d 9a99 993d 9a99 993d
00000070: 9a99 993d 9a99 993d 9a99 993d 9a99 993d
00000080: 9a99 993d 9a99 993d 9a99 993d 9a99 993d
00000090: 9a99 993d 9a99 993d 9a99 993d 9a99 993d
000000a0: 9a99 993d 9a99 993d 9a99 993d 9a99 993d
000000b0: 9a99 993d 9a99 993d 9a99 993d 9a99 993d
000000c0: 9a99 993d 9a99 993d 9a99 993d 9a99 993d
000000d0: 9a99 993d 9a99 993d 9a99 993d 9a99 993d
000000e0: 9a99 993d 9a99 993d 9a99 993d 9a99 993d
000000f0: 9a99 993d 9a99 993d 9a99 993d 9a99 993d
00000100: 9a99 993d 9a99 993d 9a99 993d 9a99 993d
00000110: 9a99 993d 9a99 993d 9a99 993d 9a99 993d
00000120: 9a99 993d 9a99 993d 9a99 993d 9a99 993d
00000130: 9a99 993d 9a99 993d 9a99 993d 9a99 993d
00000140: 9a99 993d 9a99 993d 9a99 993d 9a99 993d
00000150: 9a99 993d 9a99 993d 9a99 993d 9a99 993d
00000160: 9a99 993d 9a99 993d 9a99 993d 9a99 993d
00000170: 9a99 993d 9a99 993d 9a99 993d 9a99 993d
00000180: 9a99 993d 9a99 993d 9a99 993d 9a99 993d
00000190: 9a99 993d 9a99 993d 9a99 993d 9a99 993d
000001a0: 9a99 993d 9a99 993d 9a99 993d 9a99 993d
000001b0: 9a99 993d 9a99 993d 9a99 993d 9a99 993d
000001c0: 9a99 993d 9a99 993d 9a99 993d 9a99 993d
000001d0: 9a99 993d 9a99 993d 9a99 993d 9a99 993d
000001e0: 9a99 993d 9a99 993d 9a99 993d 9a99 993d
000001f0: 9a99 993d 9a99 993d 9a99 993d 9a99 993d
00000200: 9a99 993d 9a99 993d 9a99 993d 9a99 993d
00000210: 9a99 993d 9a99 993d 9a99 993d 9a99 993d
00000220: 9a99 993d 9a99 993d 9a99 993d 9a99 993d
00000230: 9a99 993d 9a99 993d 9a99 993d 9a99 993d
00000240: 9a99 993d 9a99 993d 9a99 993d 9a99 993d
00000250: 9a99 993d 9a99 993d 9a99 993d 9a99 993d
00000260: 9a99 993d 9a99 993d 9a99 993d 9a99 993d
00000270: 9a99 993d 9a99 993d 9a99 993d 9a99 993d
00000280: 9a99 993d 9a99 993d 9a99 993d 9a99 993d
00000290: 9a99 993d 9a99 993d 9a99 993d 9a99 993d
000002a0: 9a99 993d 9a99 993d 9a99 993d 9a99 993d
000002b0: 9a99 993d 9a99 993d 9a99 993d 9a99 993d
000002c0: 9a99 993d 9a99 993d 9a99 993d 9a99 993d
000002d0: 9a99 993d 9a99 993d 9a99 993d 9a99 993d
000002e0: 9a99 993d 9a99 993d 9a99 993d 9a99 993d
000002f0: 9a99 993d 9a99 993d 9a99 993d 9a99 993d
00000300: 9a99 993d 9a99 993d 9a99 993d 9a99 993d
00000310: 9a99 993d 9a99 993d 9a99 993d 9a99 993d
00000320: 9a99 993d 9a99 993d 9a99 993d 9a99 993d
00000330: 9a99 993d 9a99 993d 9a99 993d 9a99 993d
00000340: 9a99 993d 9a99 993d 9a99 993d 9a99 993d
00000350: 9a99 993d 9a99 993d 9a99 993d 9a99 993d
00000360: 9a99 993d 9a99 993d 9a99 993d 9a99 993d
00000370: 9a99 993d 9a99 993d 9a99 993d 9a99 993d
00000380: 9a99 993d 9a99 993d 9a99 993d 9a99 993d
00000390: 9a99 993d 9a99 993d 9a99 993d 9a99 993d
000003a0: 9a99 993d 9a99 993d 9a99 993d 9a99 993d
000003b0: 9a99 993d 9a99 993d 9a99 993d 9a99 993d
000003c0: 9a99 993d 9a99 993d 9a99 993d 9a99 993d
000003d0: 9a99 993d 9a99 993d 9a99 993d 9a99 993d
000003e0: 9a99 993d 9a99 993d 9a99 993d 9a99 993d
000003f0: 9a99 993d 9a99 993d 9a99 993d 9a99 993d

final_layer.bias_mu f4 [32]
0.047675103 -0.06761406 0.11561996 -0.013023391 0.09376815 0.031449154 0.021049172 -0.048187256
0.117226064 -0.084378675 0.09871951 0.022812098 0.010599554 -0.11386193 -0.073848635 -0.09157075
0.081590295 -0.12258859 0.053882077 0.09782362 0.031791717 -0.055087477 0.12202363 -0.103129745
0.09869793 0.11264576 -0.049795404 -0.08784574 0.0063448697 -0.076724574 0.109680325 -0.054454
00000000: f846 433d 3e79 8abd 28ca ec3d 1060 55bc
00000010: 8409 c03d d4d0 003d 506f ac3c 0060 45bd
00000020: 3814 f03d bace acbd 742d ca3d 70e0 ba3c
00000030: c0a9 2d3c 7230 e9bd f43d 97bd 7289 bbbd
00000040: d018 a73d ba0f fbbd 74b3 5c3d c057 c83d
00000050: 0838 023d 68a3 61bd 86e7 f93d b035 d3bd
00000060: 2422 ca3d d2b2 e63d 44f6 4bbd 78e8 b3bd
00000070: a0e8 cf3b c621 9dbd 14a0 e03d 280b 5fbd

final_layer.bias_sigma f4 [32]
0.10606602 0.10606602 0.10606602 0.10606602 0.10606602 0.10606602 0.10606602 0.10606602
0.10606602 0.10606602 0.10606602 0.10606602 0.10606602 0.10606602 0.10606602 0.10606602
0.10606602 0.10606602 0.10606602 0.10606602 0.10606602 0.10606602 0.10606602 0.10606602
0.10606602 0.10606602 0.10606602 0.10606602 0.10606602 0.10606602 0.10606602 0.10606602
00000000: 2439 d93d 2439 d93d 2439 d93d 2439 d93d
00000010: 2439 d93d 2439 d93d 2439 d93d 2439 d93d
00000020: 2439 d93d 2439 d93d 2439 d93d 2439 d93d
00000030: 2439 d93d 2439 d93d 2439 d93d 2439 d93d
00000040: 2439 d93d 2439 d93d 2439 d93d 2439 d93d
00000050: 2439 d93d 2439 d93d 2439 d93d 2439 d93d
00000060: 2439 d93d 2439 d93d 2439 d93d 2439 d93d
00000070: 2439 d93d 2439 d93d 2439 d93d 2439 d93d

final_layer.weight_epsilon f4 [32, 64]
0.26895973 0.43197113 0.17172915 -0.24013002 -0.5960759 0.19634338 -0.2957348 -0.2422389
-0.32314718 0.2935417 0.18940179 0.11083269 0.5881776 -0.27170795 0.33919334 -0.43072394
0.11338908 -0.2595228 0.31207696 -0.48191878 0.13200614 0.33375412 0.35543552 -0.35044444
-0.30463022 -0.5630705 0.11781459 -0.29628527 -0.2670348 0.32268068 -0.33864167 -0.21906
0.30628598 -0.32891545 0.061546028 -0.3467757 0.4373316 -0.16104874 -0.41862845 0.3860392
0.37801394 0.42477694 0.32896578 -0.27604684 -0.3663153 -0.21777326 0.18799464 0.5537433
0.4347324 0.41062808 -0.24485648 0.32656783 0.3452343 -0.1939268 -0.52699655 -0.17891553
0.3985486 0.24071342 0.2828579 -0.22305349 0.08387787 -0.295925 0.2717051 -0.29111156
-0.44077682 -0.7079233 -0.2814333 0.3935301 0.97686166 -0.32177162 0.48465636 0.39698616
0.52958035 -0.48106226 -0.31039563 -0.18163493 -0.96391773 0.44528064 -0.55587715 0.7058794
-0.1858244 0.42531136 -0.51143825 0.7897786 -0.21633442 -0.5469632 -0.58249515 0.57431567
0.49923438 0.92277163 -0.19307701 0.4855585 0.43762222 -0.5288158 0.55497307 0.35900012
-0.5019478 0.5390335 -0.10086291 0.5683033 -0.7167081 0.26393005 0.6860571 -0.6326491
-0.6194971 -0.6961333 -0.539116 0.45239133 0.60032517 0.35689136 -0.30808955 -0.907486
-0.71244854 -0.67294586 0.40127593 -0.5351862 -0.5657772 0.31781128 0.863653 0.2932105
-0.6531498 -0.3944862 -0.4635534 0.3655447 -0.13746081 0.48496804 -0.44527596 0.47707972
-0.84266937 -1.3533952 -0.5380392 0.7523439 1.8675468 -0.6151573 0.9265575 0.7589511
1.0124424 -0.9196864 -0.5934089 -0.34724644 -1.8428009 0.8512797 -1.0627161 1.3494878
-0.35525578 0.8131028 -0.9777586 1.5098847 -0.4135843 -1.0456746 -1.113604 1.0979666
0.9544275 1.7641386 -0.36912122 0.9282822 0.83663845 -1.0109807 1.0609877 0.6863301
-0.959615 1.0305147 -0.19282794 1.0864722 -1.3701899 0.5045768 1.3115917 -1.2094874
-1.1843437 -1.3308554 -1.0306724 0.86487377 1.1476911 0.6822986 -0.58900017 -1.7349159
-1.3620465 -1.286526 0.7671522 -1.0231595 -1.0816429 0.607586 1.6511165 0.5605547
-1.2486802 -0.7541717 -0.88621324 0.6988419 -0.26279515 0.92715335 -0.85127074 0.9120726
-0.7643708 -1.2276415 -0.48804608 0.68243814 1.6940194 -0.5579986 0.8404643 0.68843144
0.91836894 -0.83423156 -0.5382709 -0.31498125 -1.6715728 0.7721811 -0.96397144 1.224097
-0.32224637 0.73755145 -0.8869079 1.3695903 -0.37515518 -0.9485133 -1.0101309 0.99594647
0.86574465 1.6002195 -0.3348235 0.8420287 0.7589002 -0.91704315 0.9624036 0.6225582
-0.8704502 0.93476206 -0.17491089 0.98552006 -1.2428756 0.4576929 1.1897222 -1.0971051
-1.0742977 -1.2071959 -0.9349052 0.784512 1.0410508 0.6189013 -0.5342719 -1.5737121
-1.2354889 -1.1669855 0.6958705 -0.9280903 -0.98113954 0.5511308 1.4976993 0.50846946
-1.1326562 -0.6840961 -0.8038687 0.63390744 -0.23837693 0.8410048 -0.772173 0.8273253
00000000: 17b5 893e 522b dd3e c4d9 2f3e a5e4 75be
00000010: 6e98 18bf 3d0e 493e 8d6a 97be 790d 78be
00000020: 8c73 a5be 194b 963e 8bf2 413e 40fc e23d
00000030: cf92 163f 4e1d 8bbe c0aa ad3e d987 dcbe
00000040: 8938 e83d 2ce0 84be 8dc8 9f3e 0fbe f6be
00000050: 9e2c 073e d2e1 aa3e a5fb b53e 746d b3be
00000060: 7ef8 9bbe 6325 10bf c748 f13d b4b2 97be
00000070: c9b8 88be 6736 a53e 7162 adbe 4451 60be
00000080: 84d1 9c3e 9b67 a8be b017 7c3d 968c b1be
00000090: ede9 df3e f6e9 24be 7856 d6be eea6 c53e
000000a0: 0b8b c13e 5d7c d93e 346e a83e 0356 8dbe
000000b0: ae8d bbbe f4ff 5ebe ab81 403e 1fc2 0d3f
000000c0: 3f95 de3e d83d d23e a8bb 7abe e633 a73e
000000d0: 8dc2 b03e bf94 46be 3fe9 06bf a235 37be
000000e0: 900e cc3e 947d 763e c0d2 903e 2268 64be
000000f0: 29c8 ab3d 7b83 97be ee1c 8b3e 930c 95be
00000100: 80ad e1be 763a 35bf 0718 90be c77c c93e
00000110: 9b13 7a3f 40bf a4be e124 f83e c541 cb3e
00000120: 9492 073f cb4d f6be 2dec 9ebe 82fe 39be
00000130: 50c3 76bf d3fb e33e f74d 0ebf 83b4 343f
00000140: c048 3ebe 69c2 d93e 9eed 02bf ee2e 4a3f
00000150: c586 5dbe c805 0cbf 671e 15bf 5a06 133f
00000160: a69b ff3e c33a 6c3f fbb5 45be 209b f83e
00000170: 0510 e03e 7960 07bf b712 0e3f ddce b73e
00000180: a77f 00bf 19fe 093f 3791 cebd 537c 113f
00000190: 2f7a 37bf d721 873e 70a1 2f3f 4bf5 21bf
000001a0: 5d97 1ebf cb35 32bf 8203 0abf d69f e73e
000001b0: e9ae 193f 77ba b63e eabd 9dbe 0151 68bf
000001c0: 0763 36bf 2e46 2cbf 0a74 cd3e f601 09bf
000001d0: c6d6 10bf 29b8 a23e 5d18 5d3f b01f 963e
000001e0: d334 27bf 18fa c9be df56 edbe ad28 bb3e
000001f0: 87c2 0cbe bb4d f83e 36fb e3be cb43 f43e
00000200: 2eb9 57bf 0e3c adbf f0bc 09bf 9c99 403f
00000210: c60b ef3f f37a 1dbf df32 6d3f 9f4a 423f
00000220: b697 813f 9170 6bbf a5e9 17bf 49ca b1be
00000230: e6e0 ebbf 77ed 593f 1507 88bf 04bc ac3f
00000240: 16e4 b5be 8127 503f 634e 7abf e743 c13f
00000250: 52c1 d3be aad8 85bf 938a 8ebf 2b8a 8c3f
00000260: 5c55 743f 4bcf e13f 75fd bcbe e7a3 6d3f
00000270: f02d 563f d167 81bf 72ce 873f 54b3 2f3f
00000280: 54a9 75bf e8e7 833f b074 45be 8511 8b3f
00000290: 6262 afbf f22b 013f 3de2 a73f 7cd0 9abf
000002a0: 9398 97bf 7859 aabf 13ed 83bf 5e68 5d3f
000002b0: 8be7 923f 1fab 2e3f b7c8 16bf b911 debf
000002c0: 8a57 aebf e2ac a4bf 1664 443f e4f6 82bf
000002d0: 4673 8abf c28a 1b3f c957 d33f 8380 0f3f
000002e0: c1d4 9fbf 6611 41bf dfde 62bf 4ee7 323f
000002f0: 168d 86be ec59 6d3f e1ec 59bf 977d 693f
00000300: cead 43bf 5b23 9dbf 2de1 f9be 44b4 2e3f
00000310: a1d5 d83f ffd8 0ebf ab28 573f 0b3d 303f
00000320: 3a1a 6b3f 3390 55bf 1fcc 09bf 3945 a1be
00000330: 19f6 d5bf a9ad 453f d5c6 76bf 36af 9c3f
00000340: 7afd a4be 2cd0 3c3f 650c 63bf bc4e af3f
00000350: 5714 c0be c5d1 72bf f84b 81bf 59f6 7e3f
00000360: 71a1 5d3f fed3 cc3f fc6d abbe 318f 573f
00000370: 4947 423f 57c3 6abf 1560 763f f95f 1f3f
00000380: d3d5 5ebf 914c 6f3f d71b 33be 0b4b 7c3f
00000390: 8c16 9fbf b956 ea3e d148 983f f16d 8cbf
000003a0: 9682 89bf 6585 9abf f255 6fbf c7d5 483f
000003b0: 2741 853f 5170 1e3f 0bc6 08bf 666f c9bf
000003c0: 8024 9ebf c85f 95bf 9224 323f 5397 6dbf
000003d0: f62b 7bbf e816 0d3f 9cb4 bf3f 0e2b 023f
000003e0: e1fa 90bf ec20 2fbf 57ca 4dbf c247 223f
000003f0: 1519 74be 174c 573f 21ad 45bf 97cb 533f

final_layer.bias_epsilon f4 [32]
-0.37746528 0.618598 1.1826247 1.0727384 -0.24074504 1.1429408 -0.89695466 -0.31153834
-1.2991229 0.340917 1.5997385 0.48937592 -0.36271605 -0.93837035 -0.56771106 -0.05874369
0.80190164 -1.4762187 -0.4280509 0.74731463 1.0195118 -0.5340186 -0.791112 1.1923596
-0.86749643 0.59272707 -0.8039493 1.3357259 0.6499487 0.98752767 -1.118707 0.36629286
00000000: 2143 c1be 705c 1e3f 3f60 973f 7e4f 893f
00000010: de85 76be e24b 923f d29e 65bf f481 9fbe
00000020: a949 a6bf ac8c ae3e 3bc4 cc3f 7b8f fa3e
00000030: ebb5 b9be 0a39 70bf 8355 11bf 399d 70bd
00000040: 6d49 4d3f bcf4 bcbf 7d29 dbbe 0350 3f3f
00000050: 5d7f 823f 71b5 08bf 5186 4abf 3d9f 983f
00000060: 3f14 5ebf f6bc 173f 9fcf 4dbf 11f9 aa3f
00000070: 0a63 263f 9dce 7c3f ca31 8fbf bd8a bb3e

out1.weight_mu f4 [51, 32]
0.3409612 0.14960061 -0.0044742436 0.59495246 -0.26740512 -1.0083606 0.16200489 0.068612084
-0.5591665 -0.38433316 0.14941822 0.2385026 -0.39610323 -0.8868373 -0.11396688 0.12117802
-0.8148318 -0.40936646 -0.48277718 0.31035686 -0.44677144 0.038983695 0.003932697 -0.04313593
0.45795548 0.23120265 0.4978125 1.0422204 0.7709187 -0.5092693 0.10287546 -0.77444655
0.35541445 0.4514877 0.8102772 0.18299896 -0.51696104 -0.46972016 0.9192089 0.33538145
0.23193498 0.26586226 0.7576958 0.30123398 -0.2001884 -0.9619531 0.1076688 0.8185319
-1.0833014 -0.52654624 0.37830263 0.89976513 -0.38995126 0.4511163 0.08867738 0.26769036
0.8048547 0.928668 0.74163926 0.27289674 0.41471845 0.14618157 0.48202232 -0.54582393
-0.5791523 -0.9499277 -0.5140261 0.29338828 -0.48656434 -0.9692213 -0.82101727 -0.73202634
-0.12507734 0.36483237 -0.69068617 0.81899416 -0.32534385 0.44478393 -0.20261586 0.68902254
-0.16811925 -0.109423384 0.2265601 -0.26353723 -0.36440167 0.64663184 -0.07523189 -1.4819984
-0.99356145 0.016717885 0.64037085 0.4566141 -0.027515134 -0.21145354 -0.9989123 0.08263087
-0.51257825 -0.75434184 -0.24927706 0.21370102 -0.38757455 -1.1064538 0.1212739 -0.8617043
0.038028505 0.5572829 -0.21156183 0.5445661 0.023808919 -0.09759135 -0.24419743 0.6451513
-0.16566789 -0.6530921 0.087450035 0.1294305 -0.31579158 0.52345264 -0.297061 -1.1301391
-0.4028143 0.3170799 0.9061216 0.15418637 0.26026288 0.18977721 -0.92225647 0.18598287
-0.5369697 -1.0120751 0.36882213 0.18902104 -0.14901069 -1.351206 -0.18439777 -0.42460442
0.105843484 0.22334312 -0.37444308 0.5348502 0.08058635 -0.5106447 0.025227115 0.7128725
-0.12079963 -0.62819827 0.2735621 0.020120269 -0.44054195 0.54138756 0.0034089915 -1.0972068
-0.85379744 0.42722046 0.4269902 0.12039558 0.24303903 0.16850206 -1.0843518 0.24823195
-0.47779965 -0.68831766 0.6060623 -0.45695254 -0.2521582 -1.0235565 0.037912272 -0.55439097
0.23980941 0.49276242 -0.8369092 0.86249024 -0.094872504 -0.578384 -0.07794218 0.15228248
0.5556009 -0.5705364 -0.05003979 -0.40933695 -0.42209956 0.4889946 -0.25919104 -1.0199939
-0.6093007 0.4540959 0.54921436 -0.21657355 -0.44307584 0.32781377 -1.4523376 0.2980294
-0.75271964 -0.73696876 0.7113055 -0.22051406 -0.1530693 -0.9169526 -0.12360156 -0.7039528
0.579745 0.9161219 -0.2747644 0.59385127 0.23227642 -0.7107546 0.034605972 0.2362725
0.4432498 -0.95063245 -0.021364866 0.07963001 -0.35478804 0.26237288 -0.49462026 -0.60716236
-0.87820435 0.35776818 0.24934 -0.2907196 0.1767845 0.19425347 -0.81434816 0.6848852
-0.9380362 -0.8957886 -0.3377936 -0.49774262 -0.3495211 -0.69562054 -0.53845066 -0.41999194
0.20113696 0.6056677 -1.2168195 0.5262962 -0.20774816 -0.18943906 -0.48027647 0.45055863
0.11774498 -0.17936343 0.272772 -0.30439302 -0.23698875 0.39972776 -0.344654 -1.4604965
-1.3276318 0.0038658406 0.55473113 -0.19837174 -0.013342635 -0.116815865 -1.4364412 0.41734204
00000000: 7792 ae3e e730 193e ad9c 92bb ce4e 183f
00000010: 53e9 88be f611 81bf 9ce4 253e 7e84 8c3d
00000020: 8925 0fbf 51c7 c4be 1701 193e 073a 743e
00000030: 0bce cabe c507 63bf 7867 e9bd 2f2c f83d
00000040: d198 50bf 7b98 d1be 922e f7be 18e7 9e3e
00000050: 3abf e4be 5ead 1f3d dbdd 803b 4daf 30bd
00000060: 2479 ea3e 63c0 6c3e 48e1 fe3e 7a67 853f
00000070: ee5a 453f 795f 02bf 5fb0 d23d 2142 46bf
00000080: e2f8 b53e 6529 e73e 546e 4f3f 1464 3b3e
00000090: 8f57 04bf 297f f0be 4651 6b3f 1eb7 ab3e
000000a0: 5d80 6d3e 191f 883e 5af8 413f 573b 9a3e
000000b0: 30fe 4cbe 8f42 76bf 7681 dc3d 4e8b 513f
000000c0: 9fa9 8abf bccb 06bf e2b0 c13e 0257 663f
000000d0: b1a7 c7be b7f8 e63e 7c9c b53d b60e 893e
000000e0: f50a 4e3f 30bd 6d3f 12dc 3d3f 1fb9 8b3e
000000f0: fa55 d43e 9fb0 153e a1cb f63e 1ebb 0bbf
00000100: 5343 14bf 762e 73bf 3797 03bf fd36 963e
00000110: f61e f9be e31e 78bf 302e 52bf 1466 3bbf
00000120: 4614 00be 4fcb ba3e cfd0 30bf 9aa9 513f
00000130: 7893 a6be b8ba e33e 887a 4fbe c863 303f
00000140: 7427 2cbe 5e19 e0bd 5fff 673e 5aee 86be
00000150: db92 babe aa89 253f 2d13 9abd 20b2 bdbf
00000160: 0b5a 7ebf f2f3 883c 58ef 233f 53c9 e93e
00000170: 6b67 e1bc 4787 58be b7b8 7fbf 603a a93d
00000180: 5438 03bf 8c1c 41bf 7c42 7fbe 71d4 5a3e
00000190: 2c70 c6be 47a0 8dbf 735e f83d a798 5cbf
000001a0: c7c3 1b3d 18aa 0e3f aaa3 58be af68 0b3f
000001b0: ec0a c33c f9dd c7bd e40e 7abe a328 253f
000001c0: d8a4 29be 0b31 27bf 0119 b33d 6e89 043e
000001d0: 6faf a1be fe00 063f 6118 98be 66a8 90bf
000001e0: ad3d cebe 4c58 a23e 96f7 673f 08e3 1d3e
000001f0: 2d41 853e f554 423e 0019 6cbf 4b72 3e3e
00000200: d976 09bf ad8b 81bf 41d6 bc3e bb8e 413e
00000210: 4296 18be 51f4 acbf c5d2 3cbe c065 d9be
00000220: 78c4 d83d 0fb4 643e 01b7 bfbe f1eb 083f
00000230: 750a a53d 9cb9 02bf 18a9 ce3c d07e 363f
00000240: cc65 f7bd 9ad1 20bf 5510 8c3e 43d3 a43c
00000250: b78e e1be 6098 0a3f 6369 5f3b 4671 8cbf
00000260: 7892 5abf a4bc da3e 769e da3e f591 f63d
00000270: 39df 783e ce8b 2c3e 0acc 8abf 8430 7e3e
00000280: 28a2 f4be 9635 30bf e626 1b3f aff5 e9be
00000290: e11a 81be e603 83bf e649 1b3d 91ec 0dbf
000002a0: 9990 753e 5b4b fc3e ae3f 56bf 29cc 5c3f
000002b0: 844c c2bd f910 14bf 26a0 9fbd f0ef 1b3e
000002c0: dc3b 0e3f ac0e 12bf 86f6 4cbd 9d94 d1be
000002d0: 6f1d d8be 805d fa3e b0b4 84be 298f 82bf
000002e0: 21fb 1bbf 427f e83e 5099 0c3f 75c5 5dbe
000002f0: d6da e2be 35d7 a73e 33e6 b9bf 4f97 983e
00000300: 3cb2 40bf fca9 3cbf 1e18 363f 70ce 61be
00000310: 33be 1cbe 68bd 6abf d122 fdbd 4036 34bf
00000320: 2b6a 143f f786 6a3f ebad 8cbe a306 183f
00000330: dfd9 6d3e 03f4 35bf febe 0d3d 6bf1 713e
00000340: a3f1 e23e a65c 73bf 5f05 afbc 0f15 a33d
00000350: c7a6 b5be bd55 863e de3e fdbe fe6e 1bbf
00000360: 00d2 60bf 642d b73e fc52 7f3e 33d9 94be
00000370: ff06 353e 62ea 463e 1f79 50bf a354 2f3f
00000380: 2423 70bf 6752 65bf 48f3 acbe 1fd8 febe
00000390: 6ef4 b2be 3014 32bf e7d7 09bf 2f09 d7be
000003a0: d9f6 4d3e 0a0d 1b3f bec0 9bbf 59bb 063f
000003b0: efbb 54be 50fc 41be cce6 f5be 9faf e63e
000003c0: 4824 f13d 0cab 37be c6a8 8b3e 67d9 9bbe
000003d0: 2ead 72be 1ea9 cc3e 7d76 b0be 8df1 babf
000003e0: d7ef a9bf 0b5a 7d3b dc02 0e3f f621 4bbe
000003f0: 119b 5abc 283d efbd 4edd b7bf dbad d53e

out1.weight_sigma f4 [51, 32]
0.029299956 -0.101255715 -0.21053557 0.041385088 -0.0413888 -0.082877554 0.09671826 -0.033875834
0.15250365 -0.030023197 0.079632245 -0.04795292 0.127712 0.023370426 -0.009296084 0.11796251
0.02592902 -0.017821213 0.053011406 0.06169156 0.19973598 -0.19268547 0.07514653 0.059089128
-0.08682809 0.018634865 0.005536373 0.018164482 -0.020136388 0.048523046 -0.22770917 -0.057353232
0.013127474 0.11832936 -0.06761246 -0.033003625 0.07530296 -0.10363361 -0.0046757585 0.0031333794
-0.07211132 0.035402723 -0.07334921 -0.09144254 -0.04574977 -0.1793499 -0.100642614 -0.11060049
0.087663084 -0.014766844 -0.062415455 -0.002336852 0.026132835 -0.13599515 -0.00487648 0.005740276
0.007930145 -0.03555415 -0.10869404 -0.090711966 -0.050398175 -0.0111143375 0.054227103 0.010678457
-0.082303666 0.067719206 0.06060414 -0.21003318 -0.0044703805 0.1528042 0.19429503 -0.026223723
0.02328617 0.062750526 0.23758727 -0.21834078 0.02313289 0.17676565 -0.044160955 0.08599885
0.098342046 0.15080033 0.07553378 0.058311347 -0.09902049 0.028260076 -0.03460626 0.005657808
-0.041541006 -0.10060645 -0.14816198 -0.11382342 0.07388466 -0.19817032 -0.19207884 -0.2699214
-0.15184298 0.0302624 -0.20049489 0.09230509 -0.014445806 0.030731503 -0.4223152 -0.002540252
0.19989407 0.27590302 -0.10292854 0.07969164 -0.089320816 -0.42335087 0.1640967 0.16549231
0.06912127 -0.02406122 -0.02521384 0.009022978 0.19476919 -0.0013759846 -0.011307487 -0.2906259
-0.33336914 -0.1386866 -0.20819235 -0.071902804 0.06478015 -0.08144667 0.08014126 0.105771445
-0.15452006 0.077173956 0.19920054 0.01861922 0.07997457 0.06713793 -0.009195024 -0.017157134
0.037174817 0.3700186 0.061385352 -0.004883121 0.009440119 0.18633993 -0.009958867 -0.26084313
0.0038366902 -0.018680632 -0.20179023 0.07791631 0.12728155 -0.27347946 -0.13892365 0.17906357
-0.12129409 -0.025687028 -0.1331067 -0.019958945 -0.05783595 0.036268577 -0.2591152 -0.064813696
-0.19611548 -0.28010255 -0.024261814 -0.02132825 -0.036232382 -0.00088472135 -0.17457886 -0.044292383
0.023248434 0.20247649 -0.06951036 0.35939467 -0.03169224 -0.08311723 -0.0026497603 -0.26409113
0.21979369 -0.26600233 0.05184803 -0.12091418 -0.123146646 0.18524003 -0.165952 -0.05282733
-0.16234568 0.044975 0.1630043 0.023195155 0.50639176 0.2123205 0.08295819 -0.006880726
0.0008766043 0.07342528 0.17677952 -0.12966561 -0.016309945 0.054316644 -0.13321042 0.10656977
-0.1399159 0.037666798 -0.06558756 -0.21009952 -0.106787115 -0.10994631 -0.06950298 -0.021162316
-0.121613726 0.07165334 -0.12219381 0.15664679 -0.06453867 -0.06938013 -0.09618196 -0.033656187
-0.1775859 0.027237274 0.07624523 -0.075416364 -0.21149331 0.1881993 -0.058521457 -0.038896102
0.14207795 0.13916798 -0.044714678 -0.0031824987 -0.049520455 0.24090245 0.2631243 -0.15476865
-0.23602732 0.17088546 0.28252885 0.103929766 -0.11402306 -0.22966258 0.23011483 0.2572563
0.065427944 0.14661805 0.13062085 -0.1554773 0.10485759 0.067491286 -0.12690301 0.09778284
0.07823826 0.21158728 0.18417001 0.02389824 0.23448913 0.13690646 -0.074634984 0.0042522443
00000000: 7606 f03c 285f cfbd a396 57be 6983 293d
00000010: 4d87 29bd b5bb a9bd 3914 c63d 63c1 0abd
00000020: eb29 1c3e 35f3 f5bc 3b16 a33d 486a 44bd
00000030: efc6 023e 5673 bf3c 9a4e 18bc 5496 f13d
00000040: 1969 d43c cbfd 91bc 7d22 593d 4ab0 7c3d
00000050: 9787 4c3e 574f 45be 6de6 993d 7107 723d
00000060: edd2 b1bd 25a8 983c 766a b53b aecd 943c
00000070: 11f5 a4bc 1ac0 463d 982c 69be 39eb 6abd
00000080: 9e14 573c aa56 f23d 6778 8abd cf2e 07bd
00000090: 7038 9a3d dc3d d4bd 1b37 99bb 6259 4d3b
000000a0: 1aaf 93bd 7202 113d 1c38 96bd 3a46 bbbd
000000b0: 1c64 3bbd 80a7 37be b71d cebd 8282 e2bd
000000c0: b488 b33d a2f0 71bc 59a7 7fbd df25 19bb
000000d0: 8714 d63c 5042 0bbe e1ca 9fbb ed18 bc3b
000000e0: 70ed 013c 3aa1 11bd fb9a debd 32c7 b9bd
000000f0: 516e 4ebd e918 36bc 3d1d 5e3d b2f4 2e3c
00000100: d38e a8bd 5eb0 8a3d 0c3c 783d f012 57be
00000110: 457c 92bb b478 1c3e 47f5 463e 22d3 d6bc
00000120: a3c2 be3c 5983 803d 144a 733e ba94 5fbe
00000130: 3081 bd3c 0e02 353e 1ee2 34bd 2a20 b03d
00000140: 8e67 c93d 676b 1a3e 74b1 9a3d e1d7 6e3d
00000150: 41cb cabd ad81 e73c 4bbf 0dbd 2265 b93b
00000160: e726 2abd c10a cebd c6b7 17be 411c e9bd
00000170: d750 973d 29ed 4abe 51b0 44be 2333 8abe
00000180: ba7c 1bbe dae8 f73c 884e 4dbe 730a bd3d
00000190: 1aae 6cbc a2c0 fb3c b339 d8be 5b7a 26bb
000001a0: 08b1 4c3e 2943 8d3e 33cc d2bd 5f35 a33d
000001b0: d5ed b6bd 72c1 d8be f708 283e d176 293e
000001c0: 748f 8d3d 091c c5bc 418d cebc 1dd5 133c
000001d0: 9371 473e 625a b4ba 0a43 39bc ebcc 94be
000001e0: 5caf aabe dc03 0ebe 6030 55be c741 93bd
000001f0: 75ab 843d 83cd a6bd 1a21 a43d b39e d83d
00000200: 823a 1ebe 610d 9e3d 3afb 4b3e 5687 983c
00000210: b5c9 a33d 9c7f 893d baa6 16bc 1e8d 8cbc
00000220: 9f44 183d 1473 bd3e 356f 7b3d 9602 a0bb
00000230: bbaa 1a3c e5cf 3e3e 842a 23bc 3b8d 85be
00000240: fb70 7b3b 2008 99bc 19a2 4ebe 9692 9f3d
00000250: 1856 023e 8005 8cbe 0042 0ebe 715c 373e
00000260: 0969 f8bd 9a6d d2bc 1f4d 08be f180 a3bc
00000270: 64e5 6cbd 5c8e 143d bfaa 84be 0bbd 84bd
00000280: 7fd2 48be 9a69 8fbe b6c0 c6bc 95b8 aebc
00000290: 6868 14bd a5ec 67ba cdc4 32be ee6b 35bd
000002a0: 8073 be3c ff55 4f3e 735b 8ebd 9402 b83e
000002b0: b9cf 01bd 5e39 aabd 9aa7 2dbb f436 87be
000002c0: 9911 613e 7531 88be 9a5e 543d dba1 f7bd
000002d0: 4f34 fcbd 90af 3d3e 52ef 29be 7861 58bd
000002e0: f23d 26be b537 383d 99ea 263e c403 be3c
000002f0: e4a2 013f 8c6a 593e fce5 a93d b777 e1bb
00000300: ebcb 653a fe5f 963d b105 353e 10c7 04be
00000310: 6f9c 85bc 217b 5e3d 5068 08be 4041 da3d
00000320: 1d46 0fbe 8048 1a3d c552 86bd 5424 57be
00000330: 34b3 dabd 882b e1bd 9457 8ebd 985c adbc
00000340: 9e10 f9bd fcbe 923d c040 fabd 0468 203e
00000350: da2c 84bd 2b17 8ebd 0cfb c4bd 12db 09bd
00000360: 14d9 35be b420 df3c 7626 9c3d e573 9abd
00000370: b491 58be 51b7 403e 32b4 6fbd 8551 1fbd
00000380: e27c 113e 0d82 0e3e bd26 37bd 7891 50bb
00000390: f6d5 4abd 22af 763e 3ab8 863e ac7b 1ebe
000003a0: 25b1 71be 99fc 2e3e 9fa7 903e 21d9 d43d
000003b0: ec84 e9bd ab2c 6bbe 39a3 6b3e 19b7 833e
000003c0: 16ff 853d 0b23 163e 79c1 053e 7135 1fbe
000003d0: 93bf d63d df38 8a3d ddf2 01be 5f42 c83d
000003e0: 613b a03d 56aa 583e 1097 3c3e 3ec6 c33c
000003f0: eb1d 703e 3531 0c3e 3ada 98bd 6956 8b3b

out1.bias_mu f4 [51]
-0.3053409 -0.27476218 -0.16061702 -0.1886273 -0.3136311 -0.17325523 -0.24480458 -0.1755646
-0.32789135 -0.32368317 -0.13069928 -0.095629245 -0.32648367 -0.37927926 -0.29146263 -0.46211174
-0.38178355 -0.46773636 -0.48393822 -0.36554635 -0.5918474 -0.036524955 -0.65237373 0.03763528
-0.7578737 0.025645033 -0.61667174 -0.3047892 -0.42469293 -0.29370427 -0.35410225 -0.30945036
-0.32376024 -0.009530927 0.20819148 0.14113228 0.32240576 0.6193118 0.36939558 0.69841325
0.5845867 0.4918485 0.22463533 0.54299533 0.71182686 0.4918689 0.60415816 0.6061483
0.8751122 0.25810632 0.79060453
00000000: a455 9cbe a1ad 8cbe ca78 24be 8427 41be
00000010: 4194 a0be d269 31be 0dae 7abe 35c7 33be
00000020: 60e1 a7be cdb9 a5be 08d6 05be 44d9 c3bd
00000030: de28 a7be e430 c2be 973a 95be e999 ecbe
00000040: 2279 c3be 247b efbe c0c6 f7be e428 bbbe
00000050: 5083 17bf 319b 15bd f701 27bf 7427 1a3d
00000060: 0304 42bf 8815 d23c 33de 1dbf 540d 9cbe
00000070: 5a71 d9be 6860 96be e44c b5be 4770 9ebe
00000080: e7c3 a5be 9b27 1cbc 2630 553e fb84 103e
00000090: 5e12 a53e 388b 1e3f 6b21 bd3e 36cb 323f
000000a0: 79a7 153f 91d3 fb3e ce06 663e be01 0b3f
000000b0: 493a 363f 3ed6 fb3e 1caa 1a3f 892c 1b3f
000000c0: 5a07 603f 8326 843e 0f65 4a3f

out1.bias_sigma f4 [51]
0.010338803 0.058222495 -0.16117008 0.037621666 0.047068868 0.0660342 0.034792162 0.047865056
-0.08084407 -0.101035796 0.05839313 0.011844937 0.024726443 0.17147721 -0.06763957 -0.015850144
0.030163353 0.027834332 0.0177221 0.019833004 0.28645244 -0.021986056 0.030057307 -0.0059190737
0.06606667 0.027800584 -0.028893204 -0.03195563 0.015515404 -0.082084 -0.0861959 0.023253785
0.005522506 -0.03399256 0.008952706 0.03895204 -0.044116553 0.01480912 0.09330477 0.08824806
-0.03218414 0.055604164 -0.056316804 0.038604174 0.033231117 -0.01667554 -0.044952404 0.039969925
-0.042697173 -0.025196152 -0.007265952
00000000: 1564 293c b67a 6e3d c509 25be 2d19 1a3d
00000010: 49cb 403d f03c 873d 3a82 0e3d 260e 443d
00000020: 9391 a5bd dbeb cebd a22d 6f3d 4411 423c
00000030: 1c8f ca3c b997 2f3e 9d86 8abd 29d8 81bc
00000040: 2319 f73c d304 e43c f02d 913c d378 a23c
00000050: e5a9 923e 1a1c b4bc be3a f63c caf4 c1bb
00000060: f64d 873d 0dbe e33c 71b1 ecbc e8e3 02bd
00000070: 5234 7e3c a81b a8bd 7a87 b0bd b97e be3c
00000080: 23f6 b43b c83b 0bbd 5fae 123c 2d8c 1f3d
00000090: 8fb3 34bd f4a1 723c 9216 bf3d 66bb b43d
000000a0: 84d3 03bd 31c1 633d 73ac 66bd 691f 1e3d
000000b0: 5a1d 083d 249b 88bc 0320 38bd 81b7 233d
000000c0: 3be3 2ebd 2968 cebc 3917 eebb
