turtlebot3_machine_learning/turtlebot3_td3/models1229/TD3_stage2_critic_2_target.pth (torch_old, 48615 bytes, 5 tensors)

l1.weight f4 [128, 27]
-0.16913125 0.18707256 -0.13027395 0.24339393 0.13099831 0.05636323 0.1224447 0.06183348
0.344551 -0.20840937 0.14357506 0.011893562 0.23866424 0.1939335 0.18768266 -0.038819965
0.025766676 0.23122004 0.10113863 -0.29962227 0.032790884 -0.59817374 -0.13042077 -0.33530205
-0.4825709 -0.16095874 0.0672221 0.20103377 0.13647734 0.0029257955 -0.089002304 -0.34582895
-0.5363669 -0.16974762 -0.19640201 -0.25188166 -0.0776254 -0.12722762 0.22837536 0.24011222
0.1831241 -0.003670835 0.19910769 0.07766975 -0.013877544 0.27490392 -0.06826276 0.07443409
0.029198822 0.13210467 0.22614072 1.0782068 0.5246382 -0.24603689 -0.25594345 -0.31979126
0.014156384 0.05882981 0.0658804 -0.078904055 0.09576103 -0.034666218 -0.04549107 0.1701015
-0.023184724 -0.03723934 0.24712333 0.2229743 0.12446161 0.18195885 0.11077256 -0.06721322
0.23175849 -0.17400867 -0.113201775 0.051489264 -0.15527326 -0.060938835 -0.7381837 0.10380563
0.0928655 -0.19217987 -0.31319 -0.106663816 -0.17474999 0.33049017 0.43301022 0.11026881
0.13721947 0.17571019 0.04661329 -0.20058832 -0.00212591 -0.019202584 -0.39471215 -0.07030391
0.12997402 -0.028586859 0.093508594 0.14769007 0.16065718 0.22042562 -0.11308594 -0.03281186
-0.21962863 0.6412244 -0.06342175 0.47343838 -0.24726914 -0.27639726 -0.4445213 -0.27524996
-0.06704206 0.060605064 0.09274061 -0.34215105 -0.2345839 0.06879988 0.3128007 -0.14630432
0.046251614 0.04188602 -0.18724442 0.08774519 -0.104665644 -0.06538494 0.09856903 -0.32437623
-0.010679187 -0.30237272 -0.1202242 -0.2542733 -0.64841735 0.027300727 -0.122645915 -0.037648264
0.2892594 0.23165028 0.07879813 0.20033768 0.07365963 -0.01130724 -0.0019025896 -0.05469337
-0.15084593 -0.0570893 -0.089976415 0.14500919 0.16156825 -0.047304966 0.11383803 0.14256456
-0.01658578 0.29628345 -0.045778714 0.028071579 -0.24255556 -2.800718 -0.1410342 0.091653645
-0.100108325 -0.2684871 -0.12324443 -0.01967974 0.17254137 -0.0005774051 0.09077795 -0.046685398
-0.0012400456 -0.015284866 -0.12066047 0.10505597 -0.17532648 -0.08805925 -0.116087586 0.11008687
-0.025095016 -0.15131228 -0.038259685 -0.060686693 -0.10691044 -0.021023944 -0.16880658 0.04371035
-0.121917084 -0.03053382 0.044587925 -0.12319442 -0.07615458 -1.9177377 0.1701244 0.07285662
-0.017596772 0.10031984 0.16613533 0.1304547 -0.027677428 -0.111835726 0.16981561 -0.029038671
-0.00020052647 -0.09865056 0.0942351 0.015714189 -0.034452256 0.0058528404 0.21953544 -0.08160589
0.10549677 0.05156236 0.17664185 0.11568976 -1.9154147 0.17689331 -0.053321034 -0.057070374
-0.25737348 -0.08474913 -0.09433104 -0.030143889 0.05811112 -0.04075669 0.11699224 -0.23515534
-0.16289268 -0.1196225 0.21960947 0.16763748 0.26465723 0.23814513 0.008379019 0.11984458
0.019623334 0.06563765 0.38157353 -0.17351276 0.042476337 -0.09638334 -0.10081222 -0.20717992
-0.47141817 -0.1454548 -0.16969442 -0.040630642 0.078844786 0.0950294 0.099318735 -0.2236341
-0.09453561 0.18403275 -0.26467943 0.35425183 0.31912965 -0.11007891 -0.07936866 -0.11761404
00000000: be30 2dbe f38f 3f3e 8966 05be 423c 793e
00000010: 6c24 063e 21dd 663d 49c4 fa3d 1a45 7d3d
00000020: fd68 b03e 4469 55be 5705 133e 37dd 423c
00000030: 6664 743e 8196 463e e22f 403e af01 1fbd
00000040: a314 d33c f2c4 6c3e c521 cf3d 1768 99be
00000050: bc4f 063d ea21 19bf 068d 05be b6ac abbe
00000060: 8813 f7be 5ed2 24be beab 893d ccdb 4d3e
00000070: b7c0 0b3e b4be 3f3b d746 b6bd 7e10 b1be
00000080: 574f 09bf 52d2 2dbe 9c1d 49be a2f6 80be
00000090: 11fa 9ebd f547 02be 3bdb 693e fadf 753e
000000a0: e284 3b3e 6492 70bb e3e2 4b3e 5111 9f3d
000000b0: a35e 63bc 35c0 8c3e 59cd 8bbd e670 983d
000000c0: 5e32 ef3c 7246 073e 6f91 673e ae02 8a3f
000000d0: b04e 063f 18f1 7bbe 050b 83be aebb a3be
000000e0: 2ef0 673c 87f7 703d 4eec 863d 7398 a1bd
000000f0: 5c1e c43d 2afe 0dbd d854 3abd 162f 2e3e
00000100: e4ed bdbc 4788 18bd e60d 7d3e 6053 643e
00000110: bbe5 fe3d 6c53 3a3e b9dc e23d 16a7 89bd
00000120: 1952 6d3e 542f 32be 55d6 e7bd 68e6 523d
00000130: f4ff 1ebe 009b 79bd 9bf9 3cbf 0c98 d43d
00000140: 4430 be3d cdca 44be 715a a0be 8f72 dabd
00000150: a9f1 32be 0236 a93e 84b3 dd3e 9dd4 e13d
00000160: 4383 0c3e 5fed 333e 94ed 3e3d 0667 4dbe
00000170: da52 0bbb bd4e 9dbc b617 cabe 7ffb 8fbd
00000180: e917 053e fd2e eabc 6f81 bf3d 113c 173e
00000190: 5183 243e 41b7 613e 9a99 e7bd bb65 06bd
000001a0: 54e6 60be 4827 243f 43e3 81bd 8466 f23e
000001b0: 1f34 7dbe f183 8dbe 4c98 e3be 90ed 8cbe
000001c0: 594d 89bd 043d 783d caee bd3d 6c2e afbe
000001d0: c336 70be f4e6 8c3d 6a27 a03e cdd0 15be
000001e0: 5572 3d3d ad90 2b3d 00bd 3fbe c0b3 b33d
000001f0: f15a d6bd 8ae8 85bd 8fde c93d a414 a6be
00000200: c2f7 2ebc 99d0 9abe 1b38 f6bd 1c30 82be
00000210: aefe 25bf c6a5 df3c c82d fbbd 1135 1abd
00000220: cf19 943e bb35 6d3e ea60 a13d 5225 4d3e
00000230: dcda 963d 0142 39bc 5060 f9ba 2806 60bd
00000240: 5b77 1abe 78d6 69bd 8e45 b8bd 4a7d 143e
00000250: 2672 253e dac2 41bd ea23 e93d 72fc 113e
00000260: e7de 87bc 77b2 973e 7682 3bbd 5ef6 e53c
00000270: 7c60 78be f73e 33c0 456b 10be e8b4 bb3d
00000280: 9805 cdbd 2477 89be 9367 fcbd 6837 a1bc
00000290: afae 303e 005d 17ba cae9 b93d 3039 3fbd
000002a0: 0789 a2ba 606d 7abc d61c f7bd 9627 d73d
000002b0: c988 33be 6858 b4bd 54bf edbd 3a75 e13d
000002c0: 1094 cdbc 9bf1 1abe 30b6 1cbd 9c92 78bd
000002d0: dcf3 dabd 683a acbc a2db 2cbe a009 333d
000002e0: aaaf f9bd 1022 fabc d4a1 363d 5b4d fcbd
000002f0: eff6 9bbd 6e78 f5bf 1735 2e3e da35 953d
00000300: 1b27 90bc 7d74 cd3d 611f 2a3e eb95 053e
00000310: c6bb e2bc 210a e5bd 25e4 2d3e 82e2 edbc
00000320: 6a44 52b9 4e09 cabd 55fe c03d 0bbb 803c
00000330: cf1d 0dbd 2fc9 bf3b e6cd 603e fd20 a7bd
00000340: b10e d83d 0e33 533d 9ae1 343e c1ee ec3d
00000350: 4f2c f5bf 8523 353e 2867 5abd a0c2 69bd
00000360: 75c6 83be f490 adbd a230 c1bd 51f0 f6bc
00000370: ed05 6e3d 7df0 26bd a199 ef3d 90cc 70be
00000380: 57cd 26be a4fc f4bd 4ee1 603e 29a9 2b3e
00000390: 2781 873e 51dc 733e 2748 093c 1371 f53d
000003a0: 1dc1 a03c 086d 863d 9b5d c33e 54ad 31be
000003b0: abfb 2d3d a164 c5bd a376 cebd f926 54be
000003c0: b95d f1be 1af2 14be 60c4 2dbe 516c 26bd
000003d0: 6079 a13d c69e c23d 9f67 cb3d 5600 65be
000003e0: e39b c1bd 1573 3c3e 1084 87be 7f60 b53e
000003f0: f664 a33e 0d71 e1bd 098c a2bd a1df f0bd

l1.bias f4 [128]
0.38653696 1.455875 -0.28350192 0.1358803 0.21588047 -0.12369326 0.044530526 0.12899785
0.10691068 0.56504375 0.80954725 -0.17526795 1.0677681 1.5985373 0.9569288 0.14483014
1.1605089 0.83666235 -0.015814766 1.5318894 1.2851216 -0.06871239 1.2859678 -0.19585957
0.3830145 1.173056 0.6314648 0.11199713 0.3037955 -0.026982663 0.17386557 0.19695911
-0.17056684 0.11288048 1.6331812 0.053726524 -0.032752912 0.30015713 1.0864849 0.3767731
0.5496683 0.29110914 -0.13074516 0.112456545 0.39542118 0.45771182 -0.1403952 1.0887821
0.3657367 0.80376256 0.08656614 0.71052915 0.22188774 -0.3032066 -0.1378365 1.3021523
-0.3573324 0.18801047 0.21476693 0.32304472 0.19911388 -0.097051494 0.38108492 -0.023507096
-0.38375664 0.043350995 1.1125677 0.02812264 -0.10300282 -0.045208074 -0.14012463 0.021014556
-0.16487755 -0.028811144 1.2272942 1.1376712 -0.24178323 -0.07532273 -0.28449446 -0.3022296
-0.17307462 0.22010158 -0.2630652 -0.21666291 0.39249033 -0.4386536 -0.5032354 0.091150284
-0.008916398 0.007066205 0.7520828 0.9534075 0.03387636 1.3582762 0.2255405 -0.10819866
-0.09137785 1.1726406 1.0838118 1.1414384 -0.01199747 0.6328403 0.275233 0.05440956
0.73631895 0.5673717 1.1394944 0.048597902 -0.1408253 -0.231585 -0.02817271 0.28569764
-0.047176983 0.29723117 -0.24398492 0.6685287 -0.15320252 -0.021762379 0.07273487 -0.16211018
-0.11911688 0.50859547 1.1389441 0.25970173 -0.040427778 0.05463026 1.2698842 0.84899867
00000000: 2ce8 c53e 1d5a ba3f 2a27 91be 3524 0b3e
00000010: c50f 5d3e e452 fdbd a465 363d 0318 043e
00000020: fdf3 da3d b5a6 103f 7d3e 4f3f 7179 33be
00000030: a0ac 883f df9c cc3f 49f9 743f 5a4e 143e
00000040: 8e8b 943f 812f 563f f88d 81bc f414 c43f
00000050: dd7e a43f 15b9 8cbd 989a a43f 698f 48be
00000060: 7a1a c43e b326 963f ada7 213f c05e e53d
00000070: 158b 9b3e bf0a ddbc d109 323e a6af 493e
00000080: 13a9 2ebe e22d e73d 150c d13f 5810 5c3d
00000090: eb27 06bd 32ae 993e f011 8b3f 67e8 c03e
000000a0: 10b7 0c3f 420c 953e 0fe2 05be 9e4f e63d
000000b0: a574 ca3e 3459 ea3e c2c3 0fbe 365d 8b3f
000000c0: d741 bb3e 62c3 4d3f 9749 b13d 3de5 353f
000000d0: 8a36 633e e53d 9bbe 0325 0dbe edac a63f
000000e0: 46f4 b6be d185 403e ddeb 5b3e 1e66 a53e
000000f0: 82e4 4b3e efc2 c6bd 901d c33e f491 c0bc
00000100: c07b c4be d090 313d 9e68 8e3f 7361 e63c
00000110: 24f3 d2bd 1a2c 39bd d57c 0fbe b826 ac3c
00000120: a9d5 28be 5905 ecbc fa17 9d3f 369f 913f
00000130: 0696 77be ce42 9abd 42a9 91be d7bd 9abe
00000140: 793a 31be 4f62 613e 7bb0 86be e2dc 5dbe
00000150: 7ef4 c83e 3497 e0be 09d4 00bf 00ad ba3d
00000160: 1516 12bc a08b e73b 8088 403f 8412 743f
00000170: f0c1 0a3d ffdb ad3f 17f4 663e 4297 ddbd
00000180: 4f24 bbbd 1619 963f 58ba 8a3f a71a 923f
00000190: 0991 44bc d201 223f 57eb 8c3e 8fdc 5e3d
000001a0: 667f 3c3f 463f 113f f4da 913f 980e 473d
000001b0: 8234 10be 9e24 6dbe 75ca e6bc f646 923e
000001c0: a73c 41bd af2e 983e 2fd7 79be b224 2b3f
000001d0: 1fe1 1cbe 0447 b2bc 05f6 943d 3600 26be
000001e0: 8df3 f3bd 5033 023f ecc8 913f a0f7 843e
000001f0: 9997 25bd fbc3 5f3d 918b a23f fa57 593f

l2.weight f4 [64, 128]
-0.19384855 0.08580203 0.13710512 0.9190766 -0.17594863 1.6926228 0.034079254 1.6566573
-0.98467875 0.025516529 -0.007592642 0.44348624 0.13368572 0.112889886 0.07959881 -0.0050478266
-0.03198313 -0.04567012 -1.0496248 0.04787187 0.11612647 0.7173017 0.08810637 0.062431082
0.78173894 0.009123144 -0.0034760411 -0.49908113 2.0017612 -0.6262111 -0.05371464 2.4047494
1.2904032 0.767664 0.017362023 0.9473842 0.3120786 1.5273043 -0.010894623 -1.0991325
-0.04098183 -0.72502005 0.08573544 -0.027486943 -0.7216766 -0.09419735 0.46768296 0.09921514
-0.31515297 0.0631826 0.0038845267 -0.05335758 -0.14581448 0.43698972 0.5338266 -0.029043758
0.60204303 2.66917 -0.35191086 -0.05315814 0.5278094 0.60654485 -0.43947193 -0.5592485
-1.194064 -0.9735407 -0.052470114 -0.8171435 0.90161824 0.14494912 0.38883162 0.8974872
-0.18165517 1.3571084 0.00374752 -0.075192854 0.37345126 -1.336011 0.13774015 0.6787649
0.4675966 0.051891834 0.43117636 0.18703376 -0.95403737 0.104758225 0.11144219 1.2729673
-1.113557 0.015272982 -0.017092038 -0.12426075 0.4355558 0.03535599 -0.52101505 1.6470915
0.5196587 0.022706065 0.08181919 0.0015279807 0.99683833 -0.16319714 -0.17302687 0.89240503
0.0884734 -0.034814186 0.052573845 -0.725794 1.2451509 0.482439 -0.32128945 -0.024728535
-1.128604 -0.9823597 -0.09870826 -0.21526699 -1.1759619 -0.7893245 -0.08676091 0.079733305
-1.5473136 0.5555118 0.07801154 -0.42287895 -1.3613249 -0.07484739 0.046424184 -0.16678114
0.20012315 0.35508963 -0.42639634 -0.38125512 -0.7626138 -1.1226908 -0.076465055 -1.4468611
0.35838327 0.30788818 0.2557321 -0.3309339 0.24329254 0.4539986 0.35332656 0.15393128
0.39044303 0.3843314 0.1463538 0.42081866 0.40379193 -0.31038576 0.28630355 -0.011722849
-0.59855336 0.24022688 0.2533592 0.5567098 -1.293322 0.36222795 -0.03285532 -2.5139065
-0.7562495 0.04942003 0.33505222 0.043681342 -0.25216523 -0.93143106 0.2692881 0.620125
0.18965296 0.32195956 -0.22317556 0.07866605 0.5447561 0.17747277 -0.6020921 0.32259986
0.4768778 0.30068102 -0.06888291 0.35919547 0.1550045 -0.3023641 -0.3024262 0.2952078
-0.717933 -2.6731732 0.061473865 0.29675367 -0.3147594 -0.16836376 0.32321972 -0.12252037
1.4944527 0.5151849 0.32446954 0.20481482 -0.26583934 -0.18516685 -0.37634903 -0.55419624
-0.3490498 -0.2938048 0.23266794 0.2600464 -0.31417605 0.5872625 -0.09605728 -0.28431875
-0.68488634 0.10336475 -0.7539208 -0.3658803 0.4605572 -0.22953752 -0.67002404 -0.36674917
-0.046649884 -0.06640496 0.33591172 0.34525222 -0.24774842 0.1953005 0.456282 -1.2384939
-0.7749587 0.31140175 0.29652867 0.18679678 -0.048770677 0.5098361 0.24036267 -0.000603249
0.25074887 0.27138478 0.23481569 0.10114429 -0.18116906 -0.9105706 0.33971462 0.15397161
0.21868159 0.47374174 0.13872662 0.3995749 -0.06243926 0.29014325 0.06446025 -0.0261349
0.2494597 0.5423032 0.20010957 0.116253845 0.18768166 0.049843676 0.16287777 0.36649278
00000000: 3c80 46be fab8 af3d 4965 0c3e 9b48 6b3f
00000010: e12b 34be dda7 d83f b096 0b3d 590d d43f
00000020: e813 7cbf 0a08 d13c b3cb f8bb a110 e33e
00000030: e9e4 083e d032 e73d b304 a33d 3d68 a5bb
00000040: be00 03bd 9710 3bbd 1b5a 86bf 4b15 443d
00000050: b7d3 ed3d 16a1 373f 1d71 b43d bcb7 7f3d
00000060: 0b20 483f 3d79 153c 4bce 63bb 9087 ffbe
00000070: db1c 0040 5f4f 20bf e203 5cbd 6ae7 1940
00000080: ef2b a53f a185 443f cd3a 8e3c c587 723f
00000090: c4c8 9f3e b57e c33f 5c7f 32bc 60b0 8cbf
000000a0: 90dc 27bd ea9a 39bf 1096 af3d 4c2c e1bc
000000b0: ccbf 38bf 8aea c0bd 2474 ef3e 4f31 cb3d
000000c0: bb5b a1be e165 813d 8b93 7e3b 7a8d 5abd
000000d0: 6450 15be 1ebd df3e dca8 083f 2ded edbc
000000e0: 7e1f 1a3f aed3 2a40 a92d b4be 5abc 59bd
000000f0: 841e 073f 8646 1b3f 7702 e1be e92a 0fbf
00000100: 17d7 98bf f739 79bf e7ea 56bd 5130 51bf
00000110: 74d0 663f 8b6d 143e f014 c73e b9c1 653f
00000120: d003 3abe bab5 ad3f f498 753b b6fe 99bd
00000130: 0135 bf3e 6902 abbf c10b 0d3e 89c3 2d3f
00000140: d268 ef3e 888c 543d 26c3 dc3e c785 3f3e
00000150: cb3b 74bf 7b8b d63d ce3b e43d 98f0 a23f
00000160: 0989 8ebf 883b 7a3c 9a04 8cbc 6c7c febd
00000170: 2b01 df3e 71d1 103d 3e61 05bf e5d3 d23f
00000180: 5a08 053f 1202 ba3c d290 a73d 8646 c83a
00000190: cc30 7f3f 271d 27be f52d 31be a874 643f
000001a0: 8b31 b53d 5299 0ebd ac57 573d a3cd 39bf
000001b0: 1b61 9f3f 3f02 f73e 0d80 a4be 7f93 cabc
000001c0: 1976 90bf ed7b 7bbf 8e27 cabd f36e 5cbe
000001d0: eb85 96bf 2c11 4abf b4af b1bd 374b a33d
000001e0: 5f0e c6bf 0536 0e3f 84c4 9f3d 9783 d8be
000001f0: e53f aebf 9749 99bd 4927 3e3d adc8 2abe
00000200: 15ed 4c3e 4fce b53e 9f50 dabe df33 c3be
00000210: a83a 43bf 55b4 8fbf b699 9cbd bf32 b9bf
00000220: 037e b73e 85a3 9d3e 51ef 823e 2b70 a9be
00000230: ae21 793e 8172 e83e 38e7 b43e 29a0 1d3e
00000240: 26e8 c73e 16c7 c43e c5dd 153e 8b75 d73e
00000250: d1bd ce3e e2ea 9ebe 6196 923e 3111 40bc
00000260: cb3a 19bf 09fe 753e 4cb8 813e 8984 0e3f
00000270: 938b a5bf f175 b93e 4d93 06bd d8e3 20c0
00000280: 9199 41bf a86c 4a3d f78b ab3e 35eb 323d
00000290: cd1b 81be 4472 6ebf 21e0 893e 83c0 1e3f
000002a0: 6334 423e e2d7 a43e 2288 64be ab1b a13d
000002b0: 2375 0b3f 6cbb 353e b522 1abf cf2b a53e
000002c0: 5429 f43e ddf2 993e 7c12 8dbd 78e8 b73e
000002d0: 80b9 1e3e 78cf 9abe 9bd7 9abe 7a25 973e
000002e0: 75ca 37bf 4515 2bc0 05cc 7b3d 19f0 973e
000002f0: 2528 a1be 8d67 2cbe 0e7d a53e f6eb fabd
00000300: 3a4a bf3f 28e3 033f df20 a63e faba 513e
00000310: 181c 88be 619c 3dbe d2b0 c0be cedf 0dbf
00000320: a8b6 b2be 956d 96be 8140 6e3e cd24 853e
00000330: afdb a0be d656 163f aeb9 c4bd 3a92 91be
00000340: b654 2fbf e6b0 d33d f400 41bf aa54 bbbe
00000350: 27ce eb3e e20b 6bbe b286 2bbf 8cc6 bbbe
00000360: f313 3fbd 53ff 87bd 9ffc ab3e e6c4 b03e
00000370: c3b1 7dbe dbfc 473e cb9d e93e f886 9ebf
00000380: b263 46bf 0d70 9f3e 9bd2 973e a847 3f3e
00000390: c3c3 47bd 9e84 023f a221 763e 5b23 1eba
000003a0: 2862 803e f2f2 8a3e 8673 703e bd24 cf3d
000003b0: 6284 39be 281b 69bf 13ef ad3e bcaa 1d3e
000003c0: 11ee 5f3e 478e f23e 5a0e 0e3e 1595 cc3e
000003d0: 4fc0 7fbd a88d 943e bc03 843d dc18 d6bc
000003e0: 5d72 7f3e 62d4 0a3f 86e9 4c3e 7f16 ee3d
000003f0: 9f2f 403e e228 4c3d 6ec9 263e f1a4 bb3e

l2.bias f4 [64]
-0.03851908 1.0506914 -0.7760474 -0.71173704 0.116098545 0.047709465 -0.8310813 0.21861885
-0.7288686 -0.07886376 -0.20355694 -0.013285423 0.05205015 -0.054444116 -0.05540965 0.73949987
0.9309096 -0.11143823 -0.5298394 0.9816444 -0.063829936 -0.009201942 0.10331001 -0.35507438
0.24457023 -0.09076232 -0.63248104 -0.055298638 0.024676159 -0.12647523 -0.016810697 0.04038203
-0.052925624 0.28314036 -0.15529566 -0.020117892 1.0023646 1.0693113 0.9816912 -0.011453075
0.07426242 -0.040677704 -0.6350394 -0.22980826 -0.36543578 0.10026539 0.981117 0.23683459
-0.067826 0.029864376 1.0369935 0.03777932 -0.07755093 -0.029043322 1.0377588 0.00960481
0.2508872 0.061502736 -0.042043995 -0.02075529 -0.050434146 0.23486236 -0.06849527 1.1180735
00000000: 2fc6 1dbd 0e7d 863f 0bab 46bf 6634 36bf
00000010: 13c5 ed3d 006b 433d bec1 54bf 9fdd 5f3e
00000020: 2297 3abf 5383 a1bd 3b71 50be 1aab 59bc
00000030: 8a32 553d cb00 5fbd 3bf5 62bd dd4f 3d3f
00000040: 1750 6e3f ba39 e4bd 8ea3 07bf 0c4d 7b3f
00000050: 45b9 82bd bec3 16bc 3394 d33d 4fcc b5be
00000060: 9e70 7a3e 98e1 b9bd 47ea 21bf d380 62bd
00000070: a825 ca3c b982 01be 96b6 89bc a167 253d
00000080: 8ac8 58bd c6f7 903e d305 1fbe 47ce a4bc
00000090: 7c4d 803f 31df 883f 1d50 7b3f aea5 3bbc
000000a0: e516 983d aa9d 26bd f191 22bf db52 6bbe
000000b0: 661a bbbe f157 cd3d 7c2a 7b3f c484 723e
000000c0: 5ce8 8abd 23a6 f43c 34bc 843f 7dbe 1a3d
000000d0: 06d3 9ebd 43ec edbc 48d5 843f 7e5d 1d3c
000000e0: 4974 803e 4bea 7b3d 5336 2cbd ff06 aabc
000000f0: 0994 4ebd c27f 703e 4047 8cbd 081d 8f3f

l3.weight f4 [1, 64]
-3.8920958 0.8432377 -0.80933297 -1.0121206 -2.6894841 0.06637505 -1.4715707 -3.916184
-0.98117983 -2.2843099 -1.465691 0.10595257 0.28011885 -0.028811287 -0.015364322 2.632919
0.73733836 -1.9891406 -2.3070102 0.71124 0.081569776 0.08330278 -4.214054 2.6092741
-4.1110706 0.08522354 -1.8922987 0.108087905 -0.013805473 -1.6551011 -1.9786867 -2.8373137
0.059060436 -4.232103 -1.5695965 -0.023965374 0.72556406 1.0002699 0.83236724 -3.3564465
-3.5376933 0.07283881 3.0410376 -1.7521195 -1.3682743 2.2998972 0.77806455 -4.4576087
-1.863798 0.03965389 0.77493894 0.021335315 -0.037032027 0.042621456 0.7299838 0.06686175
-3.1726427 0.078860745 -1.2141027 0.00010911692 -0.048518598 -4.361498 -0.07698421 0.6983049
00000000: 1918 79c0 6dde 573f 7230 4fbf 2b8d 81bf
00000010: 8220 2cc0 a4ef 873d 6e5c bcbf c2a2 7ac0
00000020: 9a2e 7bbf 2232 12c0 c39b bbbf a9fd d83d
00000030: bd6b 8f3e a605 ecbc a3ba 7bbc bf81 2840
00000040: 35c2 3c3f 299c febf 0ea6 13c0 d313 363f
00000050: 0e0e a73d a69a aa3d 88d9 86c0 59fe 2640
00000060: e48d 83c0 ae89 ae3d d836 f2bf 315d dd3d
00000070: 5a30 62bc 5ada d3bf 9b45 fdbf 8c96 35c0
00000080: 5be9 713d 636d 87c0 8ae8 c8bf 0853 c4bc
00000090: 91be 393f d808 803f 0516 553f 05d0 56c0
000000a0: 9169 62c0 842c 953d 5ca0 4240 7445 e0bf
000000b0: 9d23 afbf 8431 1340 3d2f 473f bba4 8ec0
000000c0: ef90 eebf 1e6c 223d 6662 463f 66c7 ae3c
000000d0: e5ae 17bd d693 2e3d 38e0 3a3f d0ee 883d
000000e0: 940c 4bc0 be81 a13d b867 9bbf b3d5 e438
000000f0: 70bb 46bd 6491 8bc0 e6a9 9dbd 1cc4 323f
