turtlebot3_machine_learning/turtlebot3_td3/steer&spd/models13/TD3_stage2_crtic_1.pth (torch_old, 50151 bytes, 5 tensors)

l1.weight f4 [128, 30]
00000000: b59f d9bc 8a1b 973d 7e3f 553d 1f07 2fbe
00000010: ed04 af3d c920 a9bc 256f a9bd c2f8 3bbe
00000020: daee 0fbe a887 74bd 66d6 073d 8bfa 00bd
00000030: dcc2 af3d b3a5 05bd b883 353d b403 15bd
00000040: 02dd b53d 5761 93bd 0f25 e33d 2d7b e2bd
00000050: c1e9 333d 06ef 013e b04d 5ebd ad0c 21bd
00000060: a297 5fbf 9e8b 29bf 42df 11be 98d7 113e
00000070: 0d21 e83c d598 b53d 6fb6 9e3d b016 39be
00000080: 1696 b4bd f294 c3bd 46c3 95bd cda1 bebb
00000090: e9e5 0abd 708e 36be 99da 2abe 3fdc 16bd
000000a0: ee87 3f3d 12c4 97bd c008 af3d 8d1f 393c
000000b0: 939c 0bbb 2f50 e73c 177e 4e3d c478 a33d
000000c0: 13ae 36be 8aa5 99bc 4b5f 82be 78af 823c
000000d0: e78e 22bd c6d9 d9bd ecec df3e 08cb 613e
000000e0: e4d0 9a3d c767 c93d 2bc2 97be 5db2 5a3e
000000f0: ec76 a2bb 0367 643c 6455 15be 50e7 81be
00000100: eef1 4fbe becd 22bd f193 9bbe 4a30 02be
00000110: 9ad8 6bbe 4ad2 1bbe 354a 3fbe 3dca 053e
00000120: ef88 2c3e c2d3 9c3a 2da9 153d 60ad 2b3e
00000130: ae1d 673e f20e 173e 07f4 513e 52ed 77bd
00000140: b966 293d cebb 66bd 07ed 2abd bdbf aa3b
00000150: 8bb9 f73e ede7 bc3e 4df9 003e 382f 613d
00000160: fe88 34be 1364 193d 538c b03d c3e1 9c3d
00000170: e3cd 2dbd e34d 363d 4813 033d 83e9 1e3e
00000180: 0561 d53d 0001 b93d 6e30 c4bd 4e71 df3d
00000190: d2a7 91bc dfe3 ba3c 46e6 78bd c5e5 193e
000001a0: eb9b 36be 29b2 7bbc 81de 273e 0280 693e
000001b0: efc9 79bc 176c 98bd 14e4 333d f8eb 613e
000001c0: 5435 413e cb85 483e eb53 253f 0698 823f
000001d0: 9c22 ac3e 1586 e73d 68a5 1e3c a058 d33e
000001e0: 2ef5 573e d1f8 acbd 8be3 c9bd a6db ce3d
000001f0: 9d0f 51bd 6cab 4f3d 8fc9 f6bd ce40 ae3d
00000200: efbf 363d c8ec 40bd b4bb 5fbe b633 53be
00000210: 3261 b7bd 9599 89bd 3fd8 9bbc 61cb 95bd
00000220: ee94 593e b327 71bc d9b6 0b3e 3cc3 773e
00000230: 3c97 d33c 6a3e 40bd d08e a83d e362 34bd
00000240: 2377 1c3e c0c7 93be 0946 0f3d 6155 263d
00000250: 32c8 8a3e 537f 98bd fe28 e53d 5211 5d3e
00000260: 23e3 6f3d 6ee5 e83d f0f2 a4bd 57fb ed3d
00000270: f11b 393e 51a6 40bd 7d92 1ebc 502e b53d
00000280: c096 743e 2dcc 963e 0931 943e f143 833e
00000290: 0391 2c3e 146f 323e 2fda 5f3d 804a 263e
000002a0: 27a1 d3bc 472c 413e 198b 00be bcfe 2cbd
000002b0: 90b9 e8bd dc61 813d d01d 693d b207 e1bd
000002c0: 1a07 0abe 80b4 573e 36f0 22be c3e5 053e
000002d0: 1446 dabe 10de 21bf c9ed 1fbf 4e4d f6be
000002e0: 1bbe bdbd 9f16 53be 6004 31be a6d9 bfba
000002f0: fc18 263e 4950 22bd d640 223e a1e7 923d
00000300: 2be8 2b3e 90af a73e bbc1 2d3e 23b5 423e
00000310: 6a00 883e ccf8 c4bc 0d47 54ba be9b 43be
00000320: ed98 63be 893b 9fbe 26c0 f1be 25ac 13bf
00000330: 76d3 0bbe 2f4d cb3e 02b7 01bf c8b4 7c3b
00000340: 59c4 14be 6fcf 823e cd42 f3bd 33ed 493e
00000350: 2667 173c f2c9 13bc 30ac f03d 4618 883e
00000360: ec76 983e 3e0b a33d cf58 f23d 8e6f 553e
00000370: 3bed f43d 2def 213d 8a73 123c a968 f73c
00000380: 14af 1a3e a54e 993d b562 7d3d 9c8f 26bc
00000390: eac0 a8bd d896 38be a757 b13d 7105 1fbd
000003a0: aaa0 0b3e 926c 253e 3934 6dbd f7f0 85be
000003b0: 0e31 b9bd 0270 433e ca48 a93e 450c 7dbe
000003c0: 8b10 0f3e 518d 0dbe 4d62 c6bd ae50 183e
000003d0: 736e d5bd 5eb9 0d3d 018a 463d a6c9 d93a
000003e0: 405b fdbc 231a 11be b4b6 813d b5d1 99bd
000003f0: d200 043e e46e 4dbd 2e1a fcbc f89f 1fbc
-0.026565412 0.073782995 0.052062504 -0.1709256 0.085458614 -0.020645516 -0.08273152 -0.18356612
-0.14055958 -0.059699684 0.03316345 -0.031488936 0.08582088 -0.032628726 0.04431507 -0.036380485
0.088800445 -0.071963005 0.11091053 -0.1105865 0.043924097 0.12688836 -0.054273307 -0.03931873
-0.8734075 -0.66228664 -0.14245322 0.14242399 0.028336072 0.08867041 0.0774964 -0.18075061
-0.08817689 -0.095498934 -0.07312636 -0.005817628 -0.033910666 -0.17827773 -0.16684951 -0.036831137
0.046760492 -0.07410444 0.08546591 0.011299026 -0.0021303042 0.028236477 0.050413217 0.079820186
-0.17839842 -0.018755693 -0.25463328 0.01595281 -0.039687064 -0.1063724 0.43735445 0.22050107
0.07559374 0.09834247 -0.29640326 0.21357103 -0.0049580242 0.0139405755 -0.14583355 -0.2537179
-0.20307133 -0.039746992 -0.30386308 -0.12713733 -0.23031846 -0.15216938 -0.18680651 0.13065429
0.16849111 0.0011964964 0.03653829 0.16765356 0.22569916 0.14751795 0.20503245 -0.06052906
0.04135773 -0.05633145 -0.041729953 0.0052108453 0.48383746 0.36895695 0.125951 0.054976672
-0.17630383 0.037448954 0.08620515 0.07660248 -0.042432677 0.044507872 0.03200081 0.15518765
0.10418896 0.09033394 -0.0957955 0.10910283 -0.017780218 0.022813736 -0.06076648 0.15029056
-0.17832915 -0.015362301 0.16393472 0.22802737 -0.015245899 -0.074424915 0.043918684 0.22062671
0.18868 0.19582288 0.64581174 1.0202644 0.33620155 0.11304871 0.009682991 0.41278553
0.21089622 -0.084458955 -0.098578535 0.10100488 -0.05104028 0.05070059 -0.12050163 0.08508454
0.044616636 -0.047100812 -0.21848947 -0.20625195 -0.089540854 -0.067187466 -0.019024013 -0.07314182
0.21248218 -0.014718938 0.1364397 0.2419557 0.02582895 -0.046934523 0.08230364 -0.04403962
0.15279822 -0.28863335 0.0349789 0.040608767 0.27105862 -0.0744616 0.11189459 0.21588638
0.058566224 0.11371885 -0.08054149 0.11620205 0.18077065 -0.04703361 -0.00967848 0.08846724
0.23885632 0.2945265 0.2894366 0.25637773 0.16852193 0.17425185 0.054651435 0.16239357
-0.02583368 0.18864547 -0.12553062 -0.04223512 -0.11363518 0.06317493 0.056913197 -0.10987796
-0.13479272 0.21064949 -0.15911946 0.13075928 -0.4263159 -0.63229465 -0.62472206 -0.48105854
-0.09264775 -0.20614098 -0.17286825 -0.0014637008 0.16220468 -0.039627347 0.15845045 0.07173086
0.16787784 0.3275113 0.16968434 0.1901441 0.26562816 -0.024044417 -0.00080977456 -0.1910238
-0.22226305 -0.3110011 -0.4721691 -0.57684547 -0.13654885 0.39707324 -0.5066987 0.0038559902
-0.14528026 0.25548884 -0.118779756 0.1971939 0.009240901 -0.0090203155 0.11751592 0.2658102
0.2977823 0.07961129 0.11833345 0.20843336 0.119593106 0.039534736 0.0089386795 0.030201273
0.1510585 0.074857034 0.061861712 -0.010166075 -0.082399204 -0.18026292 0.086592965 -0.03882355
0.13635507 0.16154698 -0.05791113 -0.26160404 -0.090425596 0.19085696 0.33063346 -0.24711712
0.13971154 -0.13823439 -0.09686718 0.14874527 -0.10421457 0.034600608 0.048471455 0.0016615882
-0.0309273 -0.14170127 0.06333676 -0.075107016 0.12890938 -0.05015458 -0.030774202 -0.009742729

l1.bias f4 [128]
00000000: 3334 46bd f6d3 6abe 8799 34be 41c1 49bd
00000010: 7ac8 06be 94e5 df3a b9ab b8bc b45b 433e
00000020: ae3c 123e 233c 24bd 2d7b 5b3e c7fa fd3c
00000030: ec4a 50bd fac5 88bd 7d96 203e 9a55 0abd
00000040: aede 3d3d 9a63 253e c0f5 5a3c 46b4 d4bd
00000050: b9a7 3b3d 8429 f63d f540 e13d fde5 3f3b
00000060: d005 673e 95a8 a03d d6d0 ce3d 74df c2bd
00000070: 81c3 0e3e bcc1 17be feb2 743e a201 77bd
00000080: bcec 243d e27e fe3d f484 28bd f8a5 2f3e
00000090: c0e6 06bd c92c 213e af06 f4bd 3083 503e
000000a0: b816 a5bc 8c83 c9bc c429 a63d a4bc 563e
000000b0: 5dd1 c6bd 63b6 a7bd 4ba4 e23c c66f 46be
000000c0: bada 673e 127b 2c3e d58a e5bd b853 e73d
000000d0: f87f b5bd 56d6 de3c 459d 3e3d bea1 8fbd
000000e0: dbed b3bc d607 2abe f025 3b3e 75ad c73d
000000f0: 26db 2b3e 6989 c23d 4c2f 21bd 05a5 e53c
00000100: 5c4d 16be d1df e03d 0dc8 d8bc 8c76 50bd
00000110: be1d 6dbd 6a4d 0b3e 77e2 623e 5690 c0bd
00000120: 43a9 81bd 38e1 26bd 4807 c4bd ceb6 27be
00000130: cb26 943d 230d 123e b06e 8fbd 4ee4 b7b9
00000140: d4d4 bdbd 745e e9bd ad23 da3d bdc0 3dbc
00000150: 4484 673e efe0 bc3d a8c6 93bc efc7 ef3d
00000160: 90a7 fa3c 6c3c f63d 7867 f33d 00f5 243e
00000170: 50e8 2ebd fe41 c9bc 3094 2f3d d662 edbd
00000180: 92d9 0e3d 2d66 ce3c a006 283e a31a de3d
00000190: eb76 cc3d 77ad 07be b489 773e 8a5d 193e
000001a0: 86af 86bc 7efb a43c 44b1 cabd ea8c 36bd
000001b0: aca1 19be 49b9 ef3d 68b7 89bc 121d 813d
000001c0: 477c 35be 8c85 db3c 214a 10bd e9b5 99bd
000001d0: 21ee ec3d 2636 c33d fc44 fabd 8fab 5f3e
000001e0: c630 13bd 51b6 433e 08fd 36bd aa47 4ebc
000001f0: 954b 913a 8b55 fb3d 7783 ffbd c1b0 bbbc
-0.048389625 -0.22932419 -0.17636691 -0.049256567 -0.13162413 0.0017081969 -0.022542821 0.1907795
0.1428096 -0.040096413 0.21433707 0.031003369 -0.0508527 -0.06678386 0.15682407 -0.033773042
0.046354942 0.16151276 0.013364255 -0.10385947 0.04581425 0.12019637 0.10998718 0.002928137
0.22560811 0.078446545 0.10098426 -0.095152766 0.13941766 -0.14819998 0.23896405 -0.06030429
0.04026483 0.12426545 -0.04114242 0.17153156 -0.032934904 0.1573974 -0.11915337 0.20362544
-0.020152435 -0.02459886 0.08113435 0.20970398 -0.097079016 -0.081890844 0.027666232 -0.19378576
0.22642031 0.16843823 -0.11208121 0.11295265 -0.08862299 0.027201813 0.046536703 -0.07013272
-0.021964004 -0.16604552 0.18276191 0.09749881 0.16782817 0.09498865 -0.039351746 0.028032789
-0.14677948 0.109801896 -0.02646258 -0.050894305 -0.057889692 0.1360375 0.22156702 -0.0940253
-0.06331112 -0.04074213 -0.09571701 -0.16378328 0.07233962 0.14262824 -0.07003534 -0.0003507458
-0.09269109 -0.11394969 0.10651336 -0.011581597 0.22609049 0.0922259 -0.018039063 0.11708056
0.030597478 0.12023243 0.118849695 0.16109085 -0.04270202 -0.0245676 0.042865932 -0.11591117
0.03487546 0.025195206 0.16408777 0.10844924 0.09983619 -0.13249765 0.24173623 0.14977089
-0.016441118 0.020139452 -0.09897092 -0.04456798 -0.15003079 0.11705262 -0.016811088 0.06304373
-0.1772319 0.026797079 -0.035226945 -0.075054 0.11568857 0.09531812 -0.12220189 0.21842788
-0.035935186 0.19112517 -0.044674903 -0.012590328 0.0011085147 0.122721754 -0.12476247 -0.022911431

l2.weight f4 [64, 128]
00000000: ae9a 583e ced3 62be f864 18be 2ed2 673d
00000010: 0a3b 853e 93de 2c3e 9a2b 55bf e98b 613d
00000020: 6e7b eebb e08c f2bd cf8c 153f 5baa 693e
00000030: f1de 5c3e b06e 8ebe 8001 5b3e dd74 913e
00000040: 8a82 083d bb85 8cbe e960 acbe a1a6 803d
00000050: 8e55 f53d 5dbd 7ebd 8127 8bbe 20bf 1f3e
00000060: 1a25 80bf 0180 42be a417 253d 8a4d e3bd
00000070: 5360 4cbe e3b5 e0be 26d4 243e 8828 e73d
00000080: be83 2d3d 032d 983d a637 743d aacb b73d
00000090: a3d9 303d 95fc 2ebe d921 113e 41fa 7a3e
000000a0: 42a1 30bf ed61 2fbe 940f acbe b2dd 203e
000000b0: 482c 873d 5f5e 17bf 44de 58bf a442 d3be
000000c0: 56a9 acbd 3c39 44ba 62d3 4e3e f5b1 ae3e
000000d0: 9f36 63be 6871 063d 94ea a3bd 4d88 143d
000000e0: 190d 8cbe 4760 51be 7765 25be f4b5 5f3e
000000f0: 0618 2b3e 777e 5e3d aa0e 943e d150 02bd
00000100: 4470 b0be 73b4 97be edd8 a5bc 47ee 30bd
00000110: 248b d23d f9fe 08bd 7b99 bd3c 9474 dbbe
00000120: fc46 85be 143b d73e 588f 58bc 3432 81be
00000130: 6bf1 853d 5765 8dbc 42a0 763d 7150 923e
00000140: 69b4 0bbe ef9c a83b 408c 1f3e d692 0f3c
00000150: 26f8 bdbd 4889 1dbe 8ccc ffbb e8d6 433d
00000160: 94d6 18bd a3f9 aabd f6f0 90bc 7267 c13d
00000170: 6d93 d9bd 3c95 463e 52ba 3f3d 4f77 0e3e
00000180: a624 8dbc 60bf d3bc 5f9f b43d 2778 01bf
00000190: d563 1ebc 3a24 76be 31e1 3e3e b6c0 fe3d
000001a0: 2e9b d6be acde 293e 588e 363e d8b4 1cbe
000001b0: b8cc 193d dff5 f3bd ccd8 61bd 20dd 243e
000001c0: affd 843b 383f 8c3d e8ff 863e ff48 a2bd
000001d0: 1f0f 55bf 7b7d 473e ab97 54bf 959b fdbc
000001e0: 12b7 e9be db13 c33d 62cf dabd fb28 f3bd
000001f0: 0ee6 4d3e 1e3d eebe a1f2 e63d fed7 953e
00000200: 7550 f6bd 04d9 803e 7d8e 993e 27b8 0a3e
00000210: 4a9d b5be de46 8dbb aebe 413f 9ed3 3a3d
00000220: 96cc 93bd db42 603e 38bd 0bbf 84a0 82bd
00000230: a85a a9bd 487a a33e f234 0dbe a16c 00bf
00000240: 97b0 bd3d f616 3d3e 6540 943e 04f3 0bbe
00000250: f025 a1bd eb15 8c3d ff85 a53e de6c c33c
00000260: 742e 543f b056 7c3e ad2b 903d 3f51 c93c
00000270: aee0 633e 043b f83e b279 e2bd b875 13be
00000280: 46cc 8fbd aca8 6c3c e16d ad3d 22c5 ddba
00000290: 19fc eebd 5ce5 a63e 16fa bbbd 6bd6 853b
000002a0: 8e47 083f 33e9 833e 95f3 e63e 66a2 30be
000002b0: 41f9 f63c bfb6 093f 86ec 3f3f 1e61 d13e
000002c0: e871 813e 1d3c 413e b079 05be 570e bfbe
000002d0: 8714 963e 5db7 9d3d d785 9f3d b6c7 35bd
000002e0: 37f2 dc3e 85bb 883e 4f0f 783e 3da8 9b3c
000002f0: 29d4 7a3c cde3 153e 7aa8 c5bd 2b4e 3d3d
00000300: 905e a13e 3039 bd3e a244 ca3d 681d 66bc
00000310: da8d 8abc 82f2 f63d da64 b1bd a704 f93e
00000320: b2fe 173e 5f29 97bd 9849 d03c 757f 923e
00000330: 3c2f c0bc 2828 b4bc 6ebb c33d 26a3 8bbe
00000340: 0eb1 7a3e 723e e73d 7e28 4fbe dbf3 a33d
00000350: a290 9d3e 3fc7 6c3e 06cd d73d 29b4 973d
00000360: c03c 083e 2d35 833d 67d4 293e db42 383d
00000370: 64e8 a23d 3a13 6abd 40cc faba ba4b 0fbd
00000380: 07be 21bd 3aab 513e b35d 44bd 5689 0f3f
00000390: 7ce4 293e ac1e a73e e4dc 713d fecf bc3c
000003a0: e724 dc3e b6fd 07be 1b37 adbd 39c1 983e
000003b0: d9b4 1b3e 29be 2b3e 53ed 1f3d f804 4bbd
000003c0: a818 f73d 7f14 d9bd 5d34 92bd 3a3b 583e
000003d0: 6065 243f 3cfe 59bd 8f19 573f 13bb 9e3d
000003e0: 4c94 053f e7e0 c9ba 9fcc 0e3e 28b3 e63d
000003f0: 7891 21be 4c4e d53e 0bd2 d5bd ef42 f2be
0.21152756 -0.2215111 -0.14882267 0.056596927 0.26021606 0.1688178 -0.83269656 0.05506507
-0.0072778976 -0.11843276 0.5841798 0.22818892 0.2156942 -0.27818823 0.21387291 0.28409472
0.033327617 -0.27445778 -0.33667687 0.06281782 0.11979209 -0.06219231 -0.27178577 0.15600252
-1.0011322 -0.18994142 0.04030575 -0.11098774 -0.1995862 -0.4388877 0.16096553 0.112870276
0.042361967 0.0743046 0.059623383 0.08974393 0.043176305 -0.1708854 0.14173068 0.24509527
-0.6899606 -0.171272 -0.33605635 0.1570957 0.06600243 -0.59128374 -0.8471415 -0.4126178
-0.08430736 -0.0007485335 0.20197824 0.34120145 -0.22188805 0.032822996 -0.080037266 0.0362628
-0.27353743 -0.20446883 -0.16151987 0.21846753 0.16708383 0.054319825 0.28917438 -0.031815354
-0.34460652 -0.2962986 -0.02024504 -0.04319599 0.10280445 -0.033446286 0.023144474 -0.4286238
-0.2603072 0.4203726 -0.01321777 -0.25233614 0.065401874 -0.017260237 0.060211428 0.28576997
-0.1364304 0.005145661 0.15580845 0.008763036 -0.09275846 -0.153844 -0.0078063663 0.047812372
-0.037314013 -0.08348396 -0.017693024 0.09443559 -0.10623822 0.19392866 0.04680855 0.139127
-0.01722939 -0.02584809 0.0881946 -0.5057396 -0.0096673565 -0.24037257 0.18640591 0.124391004
-0.41915268 0.16588849 0.17827737 -0.15303361 0.03754875 -0.119121306 -0.055138394 0.16099977
0.0040585618 0.068479955 0.26367116 -0.07924079 -0.832262 0.19481461 -0.83043927 -0.030957976
-0.45647484 0.095252715 -0.106840864 -0.11873051 0.2010729 -0.46531004 0.112767465 0.2926635
-0.12027065 0.2516557 0.29991522 0.13546811 -0.35471565 -0.0043114265 0.7568158 0.04561197
-0.07216756 0.21900503 -0.545856 -0.06378272 -0.082692444 0.3192923 -0.13789728 -0.50165755
0.092621975 0.1846579 0.2895538 -0.13666922 -0.07868564 0.06840118 0.32328793 0.023855623
0.8288338 0.24642444 0.070395805 0.024574874 0.22253677 0.48482525 -0.11058368 -0.14400375
-0.07021384 0.014444511 0.08468223 -0.0016919712 -0.116691776 0.32596862 -0.091785595 0.0040843985
0.53234184 0.25763854 0.45107713 -0.1724945 0.03014815 0.53794473 0.7497028 0.40894407
0.25282216 0.18870588 -0.13034701 -0.37315628 0.29312536 0.077009894 0.077892 -0.044379912
0.43153545 0.26705566 0.2422459 0.01900112 0.015309372 0.1463768 -0.09651275 0.046217125
0.31517458 0.36957693 0.09876372 -0.014045097 -0.016913343 0.120579734 -0.08661814 0.48636362
0.14843252 -0.07380938 0.025425717 0.28612867 -0.023460023 -0.021991804 0.09557234 -0.2727291
0.24481604 0.112912074 -0.2023029 0.08005496 0.3077441 0.23122881 0.10537152 0.0740741
0.13304424 0.06406627 0.16584931 0.044985633 0.07954481 -0.057147242 -0.0019134358 -0.034984328
-0.039487865 0.20475474 -0.04794092 0.56068933 0.16591066 0.32640588 0.05904855 0.023048397
0.42996904 -0.13280377 -0.08457776 0.29834917 0.15205707 0.16771759 0.03904469 -0.049565285
0.1206525 -0.105996124 -0.07138894 0.21116343 0.64217186 -0.053220972 0.84023374 0.07750525
0.5217941 -0.0015402109 0.13945244 0.1126464 -0.15778148 0.41661298 -0.10440453 -0.4731669

l2.bias f4 [64]
00000000: 6dc8 313e 3c1d 8ebc 5057 41bd d1af 603d
00000010: 1095 0e3d c05b b0bd 8188 05bd 7de4 083c
00000020: 8e46 bb3d 29cb 233d b19e 70bd ed5b a3bd
00000030: 1392 da3c cea6 0e3c d8f8 f53c c91c 99bd
00000040: e571 c4bc e4d8 3cbc 6cdb 173c 1f18 033a
00000050: b187 5ebc d358 b23d 9fea ca3d 5e43 923d
00000060: 891c 7fbd d909 a13d 74dd d33d 47ff 8a3d
00000070: a43f c7bc 96f1 2bbc 356d c73d a4d3 7fbd
00000080: e9a9 5f3d 9b5b 083e f0f3 273e bd8e a53d
00000090: 35e8 a73d 488f e13d c8db 8fbd 6f72 243d
000000a0: a7b2 1f3c 8cf7 aebb 2f21 973d c079 89ba
000000b0: 69db 813c 3cec 91bd 44af 053c c649 543d
000000c0: 8c1a 543c 99a0 d53b b3b0 713d d297 293e
000000d0: 5743 3b3e 77a9 7b3d 490a a9bd e269 053d
000000e0: 21cd 393d 88da fe3c 2ba7 833d 3cdb a43d
000000f0: 6d56 9c3c 411e ed3c 5879 19bd b655 123e
0.17361613 -0.017347924 -0.04720241 0.05485517 0.034810126 -0.0861125 -0.032600883 0.008355257
0.091443166 0.03998867 -0.05874509 -0.07976518 0.026680982 0.0087067615 0.030025885 -0.074761935
-0.02398009 -0.01152632 0.009268623 0.0005000848 -0.013582156 0.08708348 0.09908032 0.071417555
-0.062283073 0.078632064 0.10344973 0.067869715 -0.024322338 -0.01049461 0.097376265 -0.062457696
0.0546054 0.13316195 0.16401649 0.08083866 0.08198587 0.11013657 -0.07024342 0.040148195
0.009747184 -0.0053395685 0.07379376 -0.0010488555 0.015851693 -0.07125136 0.008159462 0.05182817
0.012945782 0.006519389 0.059006404 0.16561821 0.18287407 0.06144091 -0.08253915 0.03257168
0.04536164 0.031110063 0.06428369 0.08049628 0.01908418 0.02894509 -0.037469238 0.14290509

l3.weight f4 [1, 64]
00000000: f8f2 e63e 86e7 bebe 90a2 febe 4adc aabc
00000010: a476 70bd 57cb aa3d 0c0c 483d e80b cfbe
00000020: 5483 05bf 8a21 ed3e 7155 693f 96cd 09bf
00000030: a3d8 b73a ac7f bdbe b2c2 84bf 5b45 f5be
00000040: 5041 eebe aca7 ecbe 918c e7be 62b6 6a3f
00000050: 2862 bc3b c1db adbe ff4a 573f 62e8 d9be
00000060: 8a98 16bf 40a3 633b 03f0 dabe 0f75 6fbd
00000070: c0cd 95bb eb8c b0be 865b 403f 6503 d83d
00000080: 98a1 fcbe b3d0 d13e 5b0c e73e a87b d23d
00000090: 3209 c93e b53d 9abf 82be dcbe 3b96 ab3e
000000a0: 74bd 773f 721a 27bf 4577 683f 0c78 453d
000000b0: 1474 ca3e 146d e13d 6ac6 debe 8606 ccbe
000000c0: 178e e93b 593e 25bf f923 af3e 73fb a73e
000000d0: e983 b53e 138c 7e3d 79fb cc3c 1e64 20bf
000000e0: 1dd7 eabe 0206 05bf f8c7 fabe 2b0b cabe
000000f0: b303 d8be aced cf3e 0895 d7be 2675 4a3f
0.45107245 -0.37286013 -0.497334 -0.020856995 -0.058706895 0.08339565 0.048839614 -0.4043877
-0.52153516 0.4631465 0.91146 -0.53829324 0.0014026355 -0.37011468 -1.0371916 -0.47904477
-0.46534204 -0.46221673 -0.4522443 0.91684544 0.005749006 -0.3395672 0.8409881 -0.42560107
-0.58826506 0.0034734756 -0.4276124 -0.058461245 -0.0045716465 -0.34482512 0.75139654 0.105475225
-0.49342036 0.40979537 0.45126614 0.10277492 0.39264828 -1.2050081 -0.43114096 0.33513054
0.9677346 -0.6527473 0.9080699 0.04821019 0.39541686 0.11007133 -0.43510753 -0.39848727
0.007127534 -0.6454826 0.34207132 0.32809028 0.35452202 0.062145304 0.025022255 -0.62652767
-0.45867243 -0.5196229 -0.4898069 -0.39461645 -0.42190322 0.40611017 -0.4210589 0.79085004
