turtlebot3_machine_learning/turtlebot3_td3/steer&spd/models13/TD3_stage2_critic_1_target.pth (torch_old, 50151 bytes, 5 tensors)

l1.weight f4 [128, 30]
000000 65 53 91 bb d0 4f e0 3d f3 46 9e 3d 38 14 90 3d
       -0.00443499 0.10952723 0.07728376 0.070351064
000010 9f 52 70 3a 0a a4 9f bd 7d 18 72 bc 58 ed 8a 3c
       0.0009167585 -0.0779496 -0.014776346 0.016958877
000020 73 ef f7 3c 7d 16 b0 bd 01 ac b7 3d 84 a6 39 3c
       0.030265545 -0.08598039 0.08968354 0.011331204
000030 ee ac 62 be 1d 6e ad be aa f0 91 be 8f 12 a4 be
       -0.2213628 -0.33873072 -0.28503925 -0.3204541
000040 9b c8 53 bd fe d0 3c be fb cb 47 bd 40 ea 36 bd
       -0.051704984 -0.18439099 -0.048778515 -0.044656992
000050 5e 9b cb bd 78 71 a5 bd 19 9a 00 3c 13 95 17 3d
       -0.09941743 -0.08078283 0.00784924 0.037007403
000060 05 f9 b2 3d a9 75 e1 3e fb 81 84 3e 8d 20 3f 3c
       0.08738903 0.4403508 0.25880417 0.011665476
000070 0a b2 21 3e ea 0f 23 be 47 93 58 3c ab dc fd bd
       0.15790573 -0.1592404 0.013218707 -0.12395605
000080 43 3e 59 3d c9 f3 d2 3d ab 09 05 3e 4b 8b 34 3e
       0.053037893 0.103004046 0.1299197 0.17631261
000090 2c 15 35 3e d7 9a 47 3e b2 1e 88 3e 98 8f 60 3e
       0.17683858 0.1949266 0.2658592 0.21929777
0000a0 8d 24 5e 3e 45 0e ce 3d 8f de f7 3d 1c a5 80 3d
       0.2169363 0.100613154 0.121029966 0.06281492
0000b0 49 ce 08 bb 34 05 22 3c 44 91 7f bd fd e8 8c bd
       -0.0020874909 0.009888936 -0.062394395 -0.068803765
0000c0 83 3b 31 3b 9d a3 0b be 7d d0 de bd 6e 5e 22 be
       0.0027043528 -0.13636632 -0.1087961 -0.15856335
0000d0 9d 12 3e be 9f 9d 7c bc ca 62 17 3e b2 10 8f 3e
       -0.18561788 -0.015418439 0.14783779 0.27942425
0000e0 2e a0 db bf f8 e5 8d bc d5 26 93 3d 8d dc ab 3c
       -1.7158258 -0.017321572 0.07185141 0.02097919
0000f0 c9 6e 75 be 73 5f ca be d6 14 71 3e 50 b2 85 3e
       -0.23968042 -0.39525947 0.23543105 0.26112604
000100 93 e8 42 3e a6 5d 8a 3d 92 35 06 3d 15 44 ca 3d
       0.19034033 0.06756143 0.032765932 0.09876267
000110 6b 19 d5 3d a4 7f e2 3c 73 18 16 3d b1 44 2c 3e
       0.10405239 0.027648754 0.03664441 0.16823079
000120 2f a9 d7 3d af 9b 38 bd 43 15 17 bd 0d fa 1f 3d
       0.10530316 -0.045070346 -0.03688551 0.039056826
000130 11 48 48 3e 31 1b 77 3d 51 6a c5 3d c9 44 f1 3d
       0.19558741 0.060328666 0.09639419 0.11780698
000140 a2 a4 bc 3d 4a 6e a9 3d 6d ea d8 bd 41 f7 a6 be
       0.09211089 0.08272989 -0.10591588 -0.32610515
000150 22 1a cb bf 8a d9 eb 3c 44 e0 3e bb 5e 6c b4 bb
       -1.586735 0.028790254 -0.0029125372 -0.0055060824
000160 29 6f 5f bc 18 ab 06 bb 54 ff 9c bd 64 ae 01 be
       -0.0136373425 -0.0020548757 -0.076658875 -0.12664181
000170 b1 9b 23 bd 28 3c 31 be a1 a0 8a be 03 cd da bd
       -0.0399434 -0.17308104 -0.27075675 -0.10683634
000180 a6 b7 54 bd 4f 5a cd bd bb 4f 80 be eb 87 ac bd
       -0.051932953 -0.100269906 -0.2506083 -0.08424362
000190 b2 08 76 bd 51 f8 3e bd de 4a b3 bd ab 40 bf bd
       -0.060066886 -0.04662353 -0.08754514 -0.09338506
0001a0 32 b6 cd bd 7a 45 85 ba 17 e7 2b 3e 3d 1d 2b bd
       -0.100445166 -0.00101678 0.16787373 -0.04177593
0001b0 2f ee 23 bd b2 15 4b 3e 24 05 92 bd 38 34 ed 3d
       -0.04002207 0.19832495 -0.07129887 0.115822256
0001c0 1b 4e 6e 3c b3 d0 40 3d 58 ee 95 3e 9c 71 ea bd
       0.014544989 0.04707403 0.29283404 -0.114474505
0001d0 f1 22 eb bf 81 a3 5e 3e 8f 32 0c bd 7b 8e 14 be
       -1.8370038 0.2174206 -0.034227904 -0.14507477
0001e0 d6 72 bf bd fe ff 37 be bf 37 d7 bd c9 e1 91 3b
       -0.09348075 -0.17968747 -0.105086796 0.0044519645
0001f0 5e c8 d1 3c 7b f5 85 3b 18 7b a7 3c 39 09 98 bc
       0.025608238 0.0040881014 0.020444438 -0.018559085
000200 85 32 87 3c 69 73 da bb bd d2 f6 bb 4f e8 65 3d
       0.016503582 -0.00666659 -0.007532446 0.05612975
000210 a0 21 17 3d e5 40 fa 3c 6a 66 c7 bb d9 6a 69 3d
       0.0368973 0.030548522 -0.0060852068 0.056986663
000220 d4 cb 02 3d 95 54 b6 bd 7b 7e 46 bd d8 e0 65 3b
       0.031932667 -0.089028515 -0.048460465 0.0035076644
000230 dd 4b 43 3d 7c 09 08 3e 32 59 84 3e c2 36 b2 3d
       0.04767977 0.13284868 0.258493 0.087018505
000240 7a f0 6e 3f 97 2a 80 bc 90 1b 86 3e a2 71 f2 3b
       0.9333569 -0.015645308 0.26192904 0.0073988
000250 bf 6d 0c 3d de bc 95 bc 7b 1c f1 3d ea e3 07 3e
       0.03428435 -0.018278535 0.1177301 0.13270536
000260 a5 15 44 3e a4 4e 0a 3e 91 c0 34 3e 10 2c 07 be
       0.19148882 0.13506562 0.17651583 -0.13200402
000270 91 09 f3 bd ee 0a 08 be 3c 83 54 3d 89 c0 31 3e
       -0.11867059 -0.1328542 0.051882967 0.17358603
000280 26 31 08 3d e9 8b e1 3c 44 64 27 3c 81 ed 55 3c
       0.033249997 0.027532535 0.010216776 0.013057114
000290 ea 6c 42 3c 7b c1 e3 3d 68 2b 85 bd 58 1f b7 3c
       0.011866787 0.11120888 -0.0650242 0.022353813
0002a0 fd 5a d6 3b db 15 2c 3e f3 59 c1 3c 05 ef 2e 3e
       0.0065416084 0.16805212 0.023602461 0.17083366
0002b0 0d b6 d6 3c aa 2b 77 3e 7a 59 93 be 76 3a d4 bc
       0.026209855 0.2413775 -0.28779203 -0.025906783
0002c0 d2 c6 82 3f d1 ea 9a be 60 69 ed 3b 72 b8 dc 3d
       1.0216925 -0.30257276 0.0072452277 0.10777368
0002d0 26 35 3e bd c8 2e 95 bd 43 0e 53 3e e9 72 22 3e
       -0.046437405 -0.072843134 0.20610909 0.15864147
0002e0 c0 6a 19 3e 83 eb 9d 3e 22 4b 85 3d 23 5d 9d 3e
       0.14982128 0.30843744 0.06508471 0.3073512
0002f0 2e 6c c4 3d d6 0b 0f 3e 18 08 9f 3d 39 c1 99 3e
       0.09590946 0.13969359 0.07765216 0.3003023
000300 a0 bc b9 3e 57 45 49 ba cd 05 7b 3e 46 68 75 3e
       0.36276722 -0.0007677874 0.24513932 0.23965558
000310 9a f2 b6 3d 3b 9c bf 3e dd 21 71 3e 80 a9 68 3e
       0.08932991 0.37423882 0.23548074 0.22720909
000320 d8 59 bc 3d 36 41 95 3e 4f 51 2a 3e 7c f0 dc 3d
       0.09196824 0.29151314 0.1663258 0.10788056
000330 1f 00 5d 3e f9 b4 a8 3e 01 c1 77 3e b8 fe 31 3d
       0.21582077 0.3295057 0.24194719 0.04345581
000340 24 15 88 be 28 22 31 be a4 4e b6 3d e9 de 8d 3d
       -0.2657863 -0.17298186 0.08901718 0.06927282
000350 04 67 e5 3d 5a 2d 2c 3e 44 90 7f 3e 37 eb 3b 3e
       0.11201289 0.16814175 0.24957377 0.18351446
000360 b5 e1 38 3d bb 0a 91 bc fe 56 06 3e 98 27 37 3e
       0.045137126 -0.017705312 0.13119122 0.17886198
000370 dd f4 44 3c 11 0c 77 3d 1a 2b 17 bc 2c 4d d3 bd
       0.012021271 0.06031424 -0.009226585 -0.10317454
000380 99 80 c9 3d 02 d3 0e bd 44 9b 98 3e f5 b8 52 3d
       0.09838981 -0.0348692 0.29805958 0.05144592
000390 b2 5b 12 3e 5a 65 64 3e 32 be 7c bc 7e 67 6d 3e
       0.14292791 0.22304288 -0.0154262055 0.2318401
0003a0 8f 74 16 3e df 46 13 3d 99 94 49 be 3d 35 20 3e
       0.14692901 0.03595626 -0.19685592 0.15645309
0003b0 9d e1 1a 3f 4b 88 81 3d c5 11 ea bd b6 7c 79 bd
       0.6050051 0.06324824 -0.114291705 -0.06090995
0003c0 fe 86 07 3e 36 b9 96 3d 2c d7 10 bc f7 c8 0f 3e
       0.13235089 0.07359545 -0.0088403635 0.14041506
0003d0 f9 f2 f9 3d d5 30 e9 3d 78 55 d8 3d 63 3d c8 3d
       0.122045465 0.11386267 0.10563177 0.097773336
0003e0 cb cc 9a 3d 1e 62 14 3e c7 31 7c 3e 7a 19 b2 3e
       0.075585924 0.14490554 0.24628364 0.34785062
0003f0 0d d0 ae 3e 33 03 84 3e 2c d8 13 3e 4e c0 b2 3d
       0.34143105 0.2578369 0.14437932 0.087280855

l1.bias f4 [128]
000000 af e8 f6 bd bd ee 46 be 60 18 4a bf 27 ce 07 3f
       -0.120560996 -0.19427009 -0.78943443 0.5304894
000010 23 9a d7 be 28 75 0e be 76 46 3f 3f e0 be 1f 3f
       -0.42109784 -0.13911879 0.7471689 0.6240063
000020 4a 72 58 3f 42 b6 c8 be 36 03 11 3f ca 81 d0 bd
       0.8454939 -0.39201552 0.56645525 -0.10181005
000030 bc 49 70 be 7c 43 68 be 4d 1d e5 be 9e ea 58 be
       -0.23465627 -0.22681993 -0.44748917 -0.2118325
000040 8c 4b 06 bf 56 67 12 be 96 d6 02 3f 30 db 51 be
       -0.52459025 -0.14297232 0.5110868 -0.2049377
000050 28 78 aa be 76 88 91 bd 9b 64 43 3f e3 6f f6 3e
       -0.33294797 -0.07106106 0.76325387 0.48132238
000060 61 a2 0f 3f e9 4e 62 3f d6 01 e9 be 4f 4a 51 3f
       0.56107146 0.8840166 -0.45509213 0.8175401
000070 8b 7d 3a 3e b8 24 ef be 85 b7 b3 be b6 e3 41 bc
       0.18211953 -0.46707702 -0.35100952 -0.011834076
000080 5a 84 cf be 20 05 e2 bd a6 fe 91 3d 3d d3 b3 3e
       -0.40530664 -0.11036134 0.071286485 0.351221
000090 f5 1c e9 3e 3c fd 12 be ca ee 72 3f ea f3 e2 bd
       0.45529905 -0.14354414 0.94895613 -0.11081679
0000a0 a1 64 50 bf c2 d1 09 3f 67 48 92 3d 0f a0 4c be
       -0.8140355 0.5383569 0.07142716 -0.19982933
0000b0 72 c6 38 3f 9b a1 9b be 7d a9 3d 3e 72 d0 f9 3c
       0.72177804 -0.30396733 0.18521686 0.030494902
0000c0 21 56 34 be 36 2c 12 3f 84 b2 a4 3e ad 09 34 3f
       -0.1761098 0.5709871 0.32167447 0.70327264
0000d0 85 20 11 bf a5 6a 63 3e 7b 97 8f 3e 4a bf 31 3f
       -0.56690246 0.2220865 0.28045258 0.6943251
0000e0 9f 0f 7c be 69 d6 5f 3f 17 bc 2c bf 14 31 a7 be
       -0.24615334 0.8743654 -0.674745 -0.3265463
0000f0 bb 85 ff 3c 5b 26 96 3f 91 7d d7 3e 98 f2 0f 3f
       0.031191697 1.1730455 0.42087987 0.56229544
000100 d2 9c b1 bd 03 0d dc 3e 79 5a f8 3e e9 fc c1 3e
       -0.08672489 0.42978677 0.48506525 0.37888268
000110 1d 16 4f 3e f9 0f d1 3d a1 70 f1 be 81 ce 3f bf
       0.2022328 0.10208125 -0.47156242 -0.74924475
000120 10 71 ba be a0 98 9a be f6 e7 ba be 9b bd 71 3d
       -0.36414385 -0.3019457 -0.36505097 0.059018712
000130 9d a1 4b 3f 47 67 49 3f b3 5b 32 bf a8 b8 85 be
       0.7954348 0.78673214 -0.6967117 -0.26117444
000140 92 b6 38 3f af be 21 bd 89 23 45 bf 15 f4 14 3f
       0.7215358 -0.03948849 -0.7700735 0.5818494
000150 62 24 c1 3e c0 b0 01 bf 22 ec ce be 3a 8c a6 3c
       0.3772307 -0.50660324 -0.4041453 0.020330537
000160 0c 4e 70 3f 47 ea 5b 3e 7b 58 22 3f ba cd fd be
       0.9386909 0.21476088 0.6341626 -0.4957102
000170 bb cc 56 bf 7b 26 15 3f 35 cb 26 bf ea bc 5c bd
       -0.83906144 0.5826184 -0.6515382 -0.0538911
000180 2a a3 84 3d 66 e0 34 bf 8a c2 03 bf c0 b5 7b bf
       0.064764336 -0.70654905 -0.5146872 -0.98324203
000190 ab 98 23 3f f7 56 fd 3e bd 66 33 bf 55 81 16 3e
       0.6390483 0.4948041 -0.7007864 0.14697774
0001a0 06 c2 60 be 40 30 a2 3d 59 7b 8c 3f f3 77 4d be
       -0.21949014 0.07919359 1.0975143 -0.20065288
0001b0 d9 54 48 bf b0 a3 4b 3e b0 7c df 3e fc 6a 01 bf
       -0.7825447 0.1988666 0.43649817 -0.5055387
0001c0 eb 14 25 bd 9a 9c 0f bf 88 e6 44 3d 83 66 2a 3f
       -0.040303152 -0.5609833 0.048071414 0.6656267
0001d0 e2 d6 43 bf 96 32 03 3f d1 57 69 bc 43 48 00 bf
       -0.7649976 0.51249063 -0.0142421285 -0.5011026
0001e0 a6 5c 0b 3f 78 07 c8 3d c3 a1 2a 3f ea 86 81 3f
       0.54438245 0.097670496 0.6665308 1.0119298
0001f0 b9 c8 0c 3f 64 46 fc 3d 04 6d a1 bd 04 c2 0c 3d
       0.5499378 0.123181134 -0.07882121 0.034364715

l2.weight f4 [64, 128]
000000 c5 6c 15 bd 3a 9e 64 3c bc f1 86 3c 5d a3 05 bd
       -0.036480684 0.01395374 0.01647269 -0.0326265
000010 10 37 35 3d cd e4 17 3d 76 44 90 bd ce 82 1f bc
       0.044241965 0.037083436 -0.07044308 -0.009735776
000020 f4 14 01 3d 7a 26 e0 3b 60 da b2 bc ee 3d ab bc
       0.031514123 0.0068405243 -0.021832645 -0.020903554
000030 5c 5a 8d 3d d2 39 d9 bc 98 90 3a bc a1 8d 44 bd
       0.06902 -0.026516829 -0.011387013 -0.04798663
000040 1a dc 6e 3d ef bd 85 bd 63 e1 67 bd c5 cb 81 bd
       0.058315374 -0.065303676 -0.05661143 -0.06337694
000050 7f 62 a1 bd 88 d8 b4 3c 87 e1 a6 bd ed a7 91 3d
       -0.07880115 0.022075906 -0.08148485 0.071121074
000060 43 87 69 3d cd ea 16 3c 16 cb 11 bd 0d d9 1a 3d
       0.05701376 0.009211254 -0.03559407 0.037804652
000070 8c 06 70 ba 16 31 9a 3d ed 69 93 3c 59 02 59 3d
       -0.0009156249 0.07528894 0.017994845 0.052980755
000080 a1 4e 42 bd ba de ec bc 03 fa f2 3c 4a a4 dd bc
       -0.047438268 -0.028914798 0.02966023 -0.027055878
000090 3e 54 9a bd 14 1a 70 bd b6 83 13 bd c5 f3 8b bc
       -0.07535599 -0.05861862 -0.03601428 -0.017084012
0000a0 bf ba 24 3c f5 2d 81 bd be b5 a9 bd 7e cd a4 bd
       0.010054289 -0.06307594 -0.08286618 -0.08047007
0000b0 85 2f 1a 3d fc 04 89 3d 19 b8 42 bd 56 7a ac 3d
       0.037642974 0.06690404 -0.04753885 0.08421771
0000c0 de 39 a1 bd 56 ec 19 bd 97 fa a0 bd 43 a8 f0 3b
       -0.078723654 -0.037578903 -0.07860296 0.007344277
0000d0 d6 33 a5 3c c2 5e 5d bd 24 07 82 3d 7d 09 02 bd
       0.020166319 -0.054045446 0.06349018 -0.03174733
0000e0 96 14 a5 bd e5 a3 1d 3d 20 8c 3e bd f1 f7 57 3c
       -0.08060567 0.03848638 -0.046520352 0.013181672
0000f0 55 e4 a7 3d ed 01 83 bd 0d 66 90 3d f5 f7 89 bd
       0.08197848 -0.06396852 0.07050715 -0.06736747
000100 60 28 98 bb 36 62 23 3d f5 28 1f bd b9 8a 48 bd
       -0.004643485 0.039888583 -0.03885742 -0.04896042
000110 3c 2b f3 bc ce 30 76 bd 26 1e 93 bd 18 ae 4c bc
       -0.029683702 -0.060105138 -0.07183485 -0.012492679
000120 0d af 08 bd 3b 64 76 3d 7c ba 8a 3c 02 c1 b4 bd
       -0.033370066 0.06015418 0.016934626 -0.08825876
000130 8a b8 e3 3c f7 77 af bc d6 df 99 bc 54 02 8e 3d
       0.027797956 -0.021419508 -0.018783491 0.06934038
000140 d5 c2 09 bc 47 ca 8c bd 04 da 88 bd e7 67 a7 bd
       -0.008408268 -0.06874519 -0.06682208 -0.08174115
000150 97 35 ac bd 89 24 52 bd 3c b8 81 3d 3a 7d 5d bd
       -0.08408659 -0.051304374 0.06333968 -0.054074503
000160 8b f9 ed bc 17 e1 37 3d 88 64 bf bc 9c f5 09 3d
       -0.029049655 0.044892397 -0.023363367 0.033681497
000170 be 59 17 3d 5e c9 a0 3c 18 57 4e bd 55 a7 18 bc
       0.03695082 0.01962727 -0.050376028 -0.009317239
000180 7e 1c 9c bd 50 6e b1 3d 7c 6e 86 3d ed e5 8f bd
       -0.07622622 0.086636186 0.06564042 -0.07026277
000190 4f 96 a2 bd 58 28 42 3d 39 28 ce bd 28 67 03 bc
       -0.07938825 0.047401756 -0.100662656 -0.0080202
0001a0 f7 66 36 3d b2 ba 3f 3d 54 15 0f 3d dc 11 7e bd
       0.04453179 0.046808906 0.03493245 -0.06202875
0001b0 c6 5a 98 bd 67 80 25 bd ce b3 9b bd de 9b 19 bd
       -0.07439189 -0.040405657 -0.076026544 -0.037502162
0001c0 96 ff 9b bc f7 d3 a8 bd c3 2b f2 3c 4f fb 26 bc
       -0.019042771 -0.08243554 0.029561883 -0.010191753
0001d0 41 fc c9 bc 07 af 3d 3d c0 10 f9 3c 05 eb 9a 3c
       -0.024656417 0.046309497 0.030403495 0.018910894
0001e0 ed 0b 92 3c a7 cc aa bc bc 4b f8 bb ff a1 a5 bb
       0.017827952 -0.020849539 -0.0075773876 -0.005054712
0001f0 fc b3 89 3c 94 77 ae 3c ec 86 9f bc 1a b7 57 bd
       0.016809456 0.021297254 -0.019473515 -0.052664854
000200 85 a8 41 3e 03 80 1a 3a ca 58 3b be 9a b9 86 bd
       0.18911941 0.0005893709 -0.18295589 -0.065783694
000210 e2 e4 c8 3e 54 a8 ab bd 51 a0 97 3c 57 f8 40 bc
       0.39237124 -0.083817154 0.018509062 -0.011777959
000220 77 77 17 be 28 b0 12 3d 34 ca 0a bd 64 79 89 3f
       -0.14791666 0.035812527 -0.033884242 1.074017
000230 f4 68 8c 3f 21 fb a5 3d 55 67 ea 3d 1c 1b f4 3d
       1.0969529 0.0810454 0.1144549 0.11919233
000240 19 06 0c 3d 0a 96 ef ba 0e a2 36 bd 63 92 4c bd
       0.034185503 -0.0018278968 -0.04458814 -0.049944293
000250 e6 25 e9 bd 97 9a a5 3f 05 2f c3 3c ca b8 50 bd
       -0.11384182 1.2937802 0.023826132 -0.05095748
000260 15 2b c5 be bd 43 e9 bb ac 24 84 3e 47 b3 84 bc
       -0.3850943 -0.0071186707 0.25809228 -0.016198767
000270 b9 b4 c1 3d b1 2d 60 3e d0 9a 1c bf 8d 25 87 40
       0.09458298 0.2189243 -0.61173725 4.223334
000280 73 ba 73 be a3 61 be 3e b4 29 09 40 97 30 00 40
       -0.23801593 0.37183866 2.1431704 2.0029657
000290 56 96 8f 3e 47 20 10 40 1c 4c 77 3d ef 8a 0a 3e
       0.28044385 2.25197 0.060375318 0.13529561
0002a0 37 77 4d 3e e5 c9 e0 bc f5 1c 10 3e ae 77 03 3f
       0.20065008 -0.02744002 0.14073546 0.5135449
0002b0 2d aa e8 bd dc 18 a2 3e c7 db 1b 3d f2 93 83 3f
       -0.113605835 0.3165959 0.038051393 1.0279524
0002c0 d6 a3 88 3e eb 66 b1 3d 05 f0 12 3e c4 ae fb bc
       0.26687497 0.08662208 0.14349373 -0.030722983
0002d0 f3 dd fd 3d ca db 92 bd 7e e3 49 be 6f 65 4c bc
       0.12395849 -0.07170828 -0.19715688 -0.0124753555
0002e0 c8 58 0d 3e 0d 83 8c 3d 93 84 19 3d 2f 02 43 3e
       0.13803399 0.068609335 0.03747995 0.19043802
0002f0 80 73 b3 bc ab 23 6d 3d 02 82 cc bc f6 51 06 3f
       -0.02190566 0.057895344 -0.024964336 0.5246881
000300 75 07 89 be 46 81 3a 3e c0 20 41 bc ba 41 23 3f
       -0.26763502 0.18213376 -0.011787593 0.63772166
000310 20 c0 e5 bc b5 10 09 3d 03 55 16 3d a0 87 aa 3e
       -0.028045714 0.0334632 0.036702167 0.333066
000320 0b 58 26 3d 5d 2b 3c be c4 83 bf 3d e5 64 9b 3d
       0.040611308 -0.18375917 0.09351304 0.075876035
000330 05 5d 53 bd d0 53 09 be c2 81 6d 3d 1e 80 01 40
       -0.051602382 -0.13410878 0.057985075 2.0234447
000340 b3 68 1b bd 8a d9 ea 3c 17 47 4f 3f 94 9e 05 bd
       -0.037941646 0.028668184 0.8096785 -0.032621935
000350 d3 ce bc 3f f4 74 61 3e f8 22 66 3e a5 9c 24 40
       1.4750618 0.2201727 0.22474277 2.5720608
000360 82 04 2b 3b 93 a5 65 3e b8 89 84 3d 30 d8 97 3d
       0.0026095216 0.22426443 0.0647158 0.07414281
000370 37 a9 e8 3d b8 06 17 bd 57 7f 2c 3e 63 6c d3 3e
       0.113604 -0.036871642 0.16845451 0.4129363
000380 08 32 37 be 04 02 0a 3f b8 db 1c 3d 8b ef d5 3e
       -0.17890179 0.53909326 0.038295478 0.4178432
000390 29 c8 30 be 2f c1 ed 3d 4c 9c 16 3e 87 8d 34 be
       -0.17263855 0.116091125 0.1470806 -0.17632113
0003a0 ce 75 a0 3f b3 fa 59 bd a0 45 16 3c e1 ed 2f 3f
       1.2535951 -0.0532176 0.009171873 0.6872235
0003b0 7e f6 3f 3e d5 61 15 3f e6 b3 f2 3e 29 99 a0 3d
       0.18746373 0.58352405 0.47402877 0.07841713
0003c0 5e ae d8 3f 18 f0 28 3e 2f 68 ac 3f 3f 54 a9 bd
       1.6928213 0.16497838 1.3469294 -0.08268022
0003d0 a4 70 45 3e db b3 96 bd 14 ac 96 3e 93 b3 76 3e
       0.1928125 -0.073585235 0.2942816 0.2409194
0003e0 5e 13 9d 3c f2 b1 eb 3f 6e 25 97 bd 05 1e 2d bd
       0.019174274 1.841368 -0.07380186 -0.042264957
0003f0 c7 8d 2f be 0a 2d 5b 3c a8 7c df 3c 3a 7b ee 3f
       -0.17143928 0.013377437 0.02728112 1.8631356

l2.bias f4 [64]
000000 d8 63 cf 3c fe 05 0c bf 51 5a 1a bf f2 00 11 3f
       0.025316164 -0.54696643 -0.6029406 0.5664207
000010 b9 7f 13 bf b0 ca 0e bf 7c a8 f4 bc bd b6 1c bf
       -0.57616764 -0.55778027 -0.029865496 -0.61216336
000020 f5 8c 09 bf 7b 63 24 3f b0 66 57 3f 15 a8 2c 3f
       -0.5373071 0.64214295 0.84141064 0.6744397
000030 f8 a4 32 3f 44 98 fb bb fe 49 24 bf 8a 3a 9c be
       0.6978297 -0.0076780636 -0.64175403 -0.30513412
000040 45 b0 14 bf 28 da 25 bf ec a1 40 3f 65 5f 85 bd
       -0.58081466 -0.64786005 0.75247073 -0.06512336
000050 3b d2 12 3f 27 07 5d 3f 3a f8 18 3f 06 81 15 bf
       0.57352036 0.8633904 0.59753764 -0.584
000060 c9 99 86 3d 6e 5f 9b bd df 28 03 bf f9 17 49 3f
       0.06572301 -0.07586561 -0.5123424 0.78552204
000070 0a 2d 66 3d ff 5b fa be 36 15 1a 3e fb 21 12 3f
       0.056195296 -0.48898312 0.15047154 0.570831
000080 15 00 85 ba ca 7f 1c bf d2 43 33 3f 1d f2 6a 3f
       -0.0010147119 -0.6113249 0.7002536 0.91775686
000090 0b 3b 13 bf ef 41 35 3f ed 78 28 3f 9e 48 fc be
       -0.5751197 0.7080373 0.6580952 -0.49274153
0000a0 86 b0 fa be 90 71 be bd fc 2b 0a bf 28 35 52 3f
       -0.48962802 -0.09299004 -0.53973365 0.8211236
0000b0 5f 96 11 bf c2 c5 50 bd 0f 7a 20 3f c8 17 38 bd
       -0.56870073 -0.050969847 0.62686247 -0.044944555
0000c0 98 53 1c 3f a5 c9 10 bf 42 7f 10 3f 73 93 3c 3f
       0.61065054 -0.56557685 0.5644418 0.7366249
0000d0 1e 6c 35 3f 9b 63 45 3e 8b ce 54 3f 2f f2 08 bf
       0.708681 0.19276278 0.8312766 -0.5349454
0000e0 e8 44 16 bf f5 7a 46 3f 43 66 11 3f a0 40 0c bf
       -0.5869889 0.7753137 0.56796664 -0.5478611
0000f0 cb 37 2a bf c8 a2 0c bf 9c a0 19 bf ca 1f 1d bf
       -0.66491383 -0.54935884 -0.60010695 -0.6137663

l3.weight f4 [1, 64]
000000 c9 97 5d 3d fd 85 57 bf ed 29 63 bf c2 e7 8b 3f
       0.05409983 -0.84188825 -0.8873585 1.0930102
000010 40 6d 47 bf 5f b8 17 bf f5 92 9e 3a f6 fc 50 bf
       -0.7790108 -0.592657 0.001209824 -0.8163599
000020 54 c3 22 bf 8d fc 84 3f 84 ff b9 3f 37 6d 62 3f
       -0.635793 1.0389572 1.4531102 0.884479
000030 98 92 80 3f 40 ae f7 bb ac 4e 36 bf 2d 98 9f c0
       1.0044737 -0.007558614 -0.71213794 -4.987326
000040 67 0f 5e bf fd 0a 4a bf 8f c1 a3 3f fc 1e 8d 3d
       -0.8674225 -0.78923017 1.2793444 0.068906754
000050 d2 fb 72 3f e9 b3 ae 3f 96 ea 85 3f f7 e2 32 bf
       0.949155 1.3648654 1.0462215 -0.6987757
000060 c6 36 b6 bd dd 77 9f 3d 63 44 46 bf 02 71 8a 3f
       -0.08897166 0.07786534 -0.774481 1.0815737
000070 04 b3 c5 3d c8 91 24 bf 3a dc e1 3f de 09 6d 3f
       0.09653285 -0.64284945 1.7645333 0.9259318
000080 11 0f dd 3d 16 11 3b bf 9b c5 85 3f 42 cd a1 3f
       0.10793889 -0.73072946 1.0450929 1.2640765
000090 ff cd 0b bf 62 51 92 3f dd 05 84 3f 1e 8b 7b bf
       -0.546112 1.1431086 1.0314289 -0.9825915
0000a0 c7 e6 2f bf cf 43 36 3d 32 89 25 bf f7 b9 b1 3f
       -0.68711513 0.04449826 -0.6466247 1.3884877
0000b0 e2 3c 61 bf a1 d7 d9 3d ba 37 82 3f c9 22 4b 3c
       -0.87983525 0.10636831 1.0173256 0.01239843
0000c0 71 3a 74 3f 42 25 20 bf 74 ad 7e 3f 50 a5 81 3f
       0.95401675 -0.6255685 0.9948342 1.0128574
0000d0 4d d0 6b 3f 4d 66 cb c0 72 78 a4 3f 0f 2f 41 bf
       0.92114717 -6.356238 1.2849257 -0.7546243
0000e0 36 31 59 bf 13 26 99 3f 1c eb 82 3f bc 11 66 bf
       -0.84840715 1.1964744 1.0228 -0.8987081
0000f0 df e1 51 bf 59 95 4f bf cc ca 5d bf ff ed 67 bf
       -0.81985277 -0.8108726 -0.8663757 -0.9059753
