turtlebot3_machine_learning/turtlebot3_td3/steer&spd/models120_60/TD3_stage2_critic_2_target.pth (torch_old, 104889 bytes, 7 tensors)

l1.weight f4 [24, 60]
000000 e5 9a 4d bc a7 ed b2 bc 68 24 5f 3b db 6a 95 3d
       -0.012549137 -0.021841837 0.00340488 0.07295772
000010 c5 b1 7c 3d 8f 5b 17 3d 3b 91 d7 3d c2 28 e8 3d
       0.06169297 0.03695255 0.105257474 0.11335899
000020 70 ad e5 3d d4 91 f6 3d f8 a0 87 3e 7e 1e 22 3e
       0.11214721 0.12039533 0.26489997 0.15831944
000030 89 7c 2a 3e 1e 69 f9 3d 0b 70 20 3e 51 51 33 3e
       0.16649069 0.12178253 0.15667741 0.17511488
000040 3c 47 39 3e 20 ce 7f 3e 4c 1e dd 3d 00 db f7 3d
       0.1809358 0.24980974 0.10796794 0.12102318
000050 2f 53 8d 3d 4d 57 57 bd ed 9d b2 bd ac d6 80 bd
       0.06900632 -0.05257349 -0.08721528 -0.062909454
000060 59 62 94 bd 89 9d ea bd ac e0 55 bd 9e 58 de 3c
       -0.07245321 -0.11455829 -0.052216217 0.027141865
000070 d2 5e f7 3d 1c 3c 15 3d 42 89 8b 3e 03 c6 b6 3d
       0.120786324 0.036434278 0.27253157 0.089244865
000080 39 0c 5c 3e 22 a8 db 3c b3 61 b9 3c d1 a5 c0 3d
       0.21489038 0.02681357 0.022629594 0.09406627
000090 17 37 21 3d 63 1f dc bd c4 39 61 bd 6c 7b ba 3c
       0.03935918 -0.10748174 -0.05498673 0.02276393
0000a0 46 a9 51 3b 03 a4 9a 3c 7a 2f a4 bd aa c0 15 bd
       0.0031991764 0.018877035 -0.08016868 -0.036560692
0000b0 ef e7 51 bc 30 e6 bb bd 29 de 52 3d 0d de ed 3d
       -0.012811645 -0.09174764 0.0514814 0.116146185
0000c0 de f3 9f bd 20 17 25 bd 7b 05 c1 bd 08 30 8f bd
       -0.07810186 -0.040305257 -0.094248734 -0.06991583
0000d0 61 e7 83 bd 85 29 e1 bd 0a 43 66 be 50 99 f1 bc
       -0.064406164 -0.10994247 -0.22486511 -0.02949205
0000e0 3d f0 07 be 5c 4d 72 be 36 d4 4d be d6 f2 9f be
       -0.13275237 -0.23662323 -0.20100483 -0.31239957
0000f0 b6 ca 09 be 32 19 93 bd e2 85 8c be 33 43 56 be
       -0.13456234 -0.0718254 -0.27445894 -0.20924072
000100 26 61 3d be 74 d6 36 be 9b 74 25 be 94 a5 39 be
       -0.1849409 -0.17855245 -0.16157763 -0.1812957
000110 7b 38 f0 bd 6a f1 2f be 33 65 ac bd 59 f0 95 bd
       -0.11729523 -0.17181936 -0.0841774 -0.07321233
000120 bd 25 30 be 7a 33 bc ba 3d ae 13 bd 14 d8 a5 ba
       -0.17201896 -0.0014358603 -0.03605484 -0.0012652897
000130 8f 91 a9 bc d0 ca ee bc b2 1e 61 3d b7 00 d4 bb
       -0.02069929 -0.029149443 0.054960914 -0.006469812
000140 dc 1d a5 bd 6c ad be 3c 67 a9 1b 3d d8 a5 64 bc
       -0.08062336 0.023276053 0.03800335 -0.013955556
000150 28 33 32 bd e9 61 b6 3b dd 5a b5 3c 91 2f 0b bd
       -0.043505818 0.005565871 0.022138054 -0.03398091
000160 45 ff 1f 3c 73 b2 16 bd 3d 1c 90 bd d7 2d e7 3c
       0.009765451 -0.036791276 -0.07036636 0.0282201
000170 cc 1b b6 bd 90 69 54 bc e3 8d 05 3e 10 39 53 3e
       -0.088920206 -0.012964621 0.13042407 0.20627236
000180 70 42 3c 3e f0 30 91 3e 03 c2 11 3e 43 1f 71 3e
       0.18384719 0.2835765 0.14234166 0.23547082
000190 68 b2 60 3e 8a 0c 2f 3e 82 0d 34 3e dd e0 09 3e
       0.21943057 0.17094627 0.17583278 0.13464685
0001a0 57 e1 58 3e 2f df 9e 3d 45 74 b2 3d ac ff 95 3d
       0.2117971 0.07757413 0.08713583 0.07324156
0001b0 37 7c 27 3e 61 8d 01 3e 12 72 93 3d 85 f1 36 3e
       0.16355978 0.12651588 0.071994916 0.1786557
0001c0 07 b9 41 3e 24 92 81 3d 81 74 0b 3e 14 93 4d 3d
       0.18918239 0.06326702 0.13618661 0.050189093
0001d0 af 14 bd 3c 9b 73 4c 3e 67 17 1f 3e e5 0b e1 3d
       0.023081152 0.19965975 0.15536271 0.10988597
0001e0 62 25 15 bd 78 4c 7c 3d 37 dc 2e bd a5 23 bf 3c
       -0.036412604 0.061596364 -0.042690482 0.023332426
0001f0 8a 97 31 bd 15 0d da 3d 80 bd af 3d 8f f8 d0 39
       -0.04335741 0.106470264 0.08581066 0.00039858042
000200 a1 29 86 3e 1a 9e 30 3e f1 30 6f 3d e5 7f ec 3d
       0.26203635 0.17247811 0.058396284 0.115478314
000210 de ab d1 3d 4f 00 82 3e 52 b8 a2 3d 32 e1 56 3e
       0.10237859 0.2539086 0.079453126 0.20984343
000220 11 4c b8 3d 28 df 46 3e 37 c3 14 3e 59 84 3f 3d
       0.089988835 0.19421065 0.14527594 0.046757076
000230 39 4d e0 3d bd 7c 29 3e 1e 32 d6 3d ab 18 33 3e
       0.10952229 0.1655149 0.10458778 0.17489879
000240 03 15 27 3e bb 12 2c 3e 1b a4 35 3e 9a d9 0e 3e
       0.16316609 0.1680402 0.17738383 0.13950196
000250 4c 2d 0b 3d 9c d8 b3 3d b3 9e bd 3d e9 36 1d bc
       0.033978745 0.08781549 0.09258785 -0.009595611
000260 e3 3b 9b bd e5 23 83 3c 8f 86 58 bd 3a 60 33 bd
       -0.07579782 0.016008327 -0.0528627 -0.04379294
000270 7e 85 ce bd 19 ec 08 bc 24 4b e3 bc b3 1a 70 bd
       -0.10084055 -0.008357071 -0.02774579 -0.058619212
000280 74 15 bb 3d 6d e9 20 be da 83 9e bc b0 ad 5d bd
       0.09134951 -0.15714045 -0.019349981 -0.05412072
000290 ba b4 74 3b 18 bb 49 bd c5 cd 23 bd 5e f9 b1 bd
       0.0037339167 -0.049250692 -0.03999116 -0.08690141
0002a0 39 24 b2 bc 29 62 3d 3c 9c 17 a8 bd 72 b0 e5 bb
       -0.021745788 0.011559048 -0.08207628 -0.0070095593
0002b0 10 b3 03 bd 5a 72 e0 bd a6 05 a7 3a 6b 97 cf bd
       -0.03215319 -0.10959311 0.0012742772 -0.101363026
0002c0 5c 45 96 bd 0c ff a5 bc a6 18 a1 bd e8 9b 5a bd
       -0.07337448 -0.020263217 -0.078660294 -0.05337134
0002d0 48 5b 0f 3e 36 a9 61 bd 72 42 85 3c 9e a0 9e bd
       0.13999665 -0.055093013 0.016267035 -0.07745479
0002e0 1f df 40 3d 1a f3 56 3d cc 9a b2 be f5 30 96 bc
       0.047087785 0.052477933 -0.34883726 -0.018333891
0002f0 54 8d 88 bd 14 e2 9c 3d 43 b1 b0 bd 2e b4 a6 3c
       -0.06667581 0.076603085 -0.0862756 0.020349588
000300 33 1b b8 bd 15 e0 9b 3d 19 6c c1 bd ba 17 e9 bc
       -0.08989563 0.076111 -0.09444446 -0.028453697
000310 5d 4d 10 be 79 81 20 3d a7 71 bb 3d 26 b0 00 bc
       -0.14092012 0.039185975 0.09152537 -0.007854497
000320 bf 29 19 3e 9f 09 00 3e 0b 14 b5 bd d7 6b e0 bd
       0.14957331 0.1250367 -0.088417135 -0.10958069
000330 f2 4c 1e be cf 08 f7 bd b1 8d 73 be fc b4 90 be
       -0.1545904 -0.12062227 -0.2378452 -0.2826308
000340 2c 0f e5 bd bd 37 8d be 18 2d cf be 39 02 f9 be
       -0.111845344 -0.27581587 -0.4046409 -0.48634508
000350 95 f6 ed be ed 9d d5 be 40 44 c9 be 78 aa 87 be
       -0.4647719 -0.4172205 -0.39309883 -0.26497245
000360 88 92 2f 3d b4 b3 dc be 25 0d ca bc e9 e6 bb bd
       0.042864352 -0.43105853 -0.02466447 -0.09174902
000370 11 59 b3 be 94 cc 22 3e 00 c9 b1 3d 1d 93 0a 3e
       -0.3502889 0.15898353 0.08680916 0.13532682
000380 81 e4 3b be ba 02 4c 3c ff 4d db bc 63 0f 5a 3d
       -0.18348886 0.012451822 -0.02677059 0.05323733
000390 d8 3d b7 3d 77 2c 97 3d 58 22 a8 3d 1b 3d 4a 3d
       0.08947343 0.07381528 0.082096756 0.04937468
0003a0 d1 5e 6d 3e d4 52 36 3e ea 2a 70 3e 4b 77 8d 3e
       0.23180701 0.17805034 0.2345387 0.27630076
0003b0 1e 56 38 3e 32 fa 0b 3d cf e4 38 3e 9d 8d 95 3e
       0.18001601 0.03417415 0.18056034 0.29209605
0003c0 34 dd bb bd cb f8 1a 3c 36 09 d0 bb a4 5e 98 3a
       -0.091730505 0.009458731 -0.0063487543 0.0011624885
0003d0 67 07 cd bd eb 30 8d bd 1d d7 58 bc a6 9b 0a be
       -0.100111775 -0.06894096 -0.013234881 -0.13535938
0003e0 e5 66 b8 bc 2b 7b 7f bd 4b 54 ab 3d 11 26 a0 ba
       -0.022510001 -0.06237332 0.08365687 -0.0012218376
0003f0 73 b5 32 bd ab 56 f4 bc d4 49 ff 3d da 59 16 bc
       -0.043630075 -0.029826483 0.124652535 -0.009176696

l1.bias f4 [24]
000000 ba fe 53 be 3d ac 3d 3e 03 f1 a6 3e 5b 6d 2e 3e
       -0.20702639 0.18522735 0.32605752 0.17033903
000010 d2 9e b5 3e ba b3 d1 bd 3f df 9f 3e 10 3a b6 3e
       0.35472733 -0.10239358 0.3122501 0.35591173
000020 60 1d 12 3f b9 89 db 3e 88 f5 44 3c 42 3d 54 3e
       0.5707607 0.42878512 0.01202143 0.20726493
000030 be be 22 bf b5 dd fe 3e 13 e7 39 3e 31 4d e0 be
       -0.635723 0.49778524 0.18154554 -0.43808892
000040 fd 14 f6 3e 24 ac 8c 3d c5 f4 5a be 2d d7 8c 3e
       0.48062888 0.06868771 -0.21382435 0.27507916
000050 48 fe 72 bd 64 15 21 3f 92 57 bf 3e c6 b5 41 bd
       -0.059324533 0.62923265 0.37371498 -0.047292493

l2.weight f4 [256, 30]
000000 cc 14 4e be 63 f0 e7 bd db c8 cd 3d 1d 2a 5a be
       -0.20125121 -0.11325147 0.10048076 -0.21305127
000010 4e 15 2d 3e 0a fc a1 bd 5b b0 83 be 56 6f 12 3e
       0.16902658 -0.07909401 -0.25720486 0.14300284
000020 3d ac 61 3d 3a 2a 5b 3d 85 89 0b be 96 c0 99 bc
       0.0550959 0.053507067 -0.13626678 -0.01876859
000030 b0 ca 5d be 82 c8 d8 3c 91 e5 8a bd cf 65 a0 bc
       -0.2165935 0.026462797 -0.067820676 -0.019579796
000040 ca 11 50 3c 72 11 da 3e 6b 71 89 3b fc c4 38 3d
       0.012699554 0.42591435 0.0041944287 0.045109734
000050 16 85 69 be d9 6b 9a 3d c1 8d 81 3e 3e f8 27 3e
       -0.22804675 0.075401016 0.25303462 0.1640329
000060 d9 e8 63 bf 7d cf 3a bf 9c 7a 54 bf c8 ad be 3d
       -0.8902717 -0.7297285 -0.8299959 0.0931049
000070 84 4f ae 3c c4 8d d4 3c b8 4e 55 3d 6a a6 cc bc
       0.02127815 0.025946505 0.052077025 -0.024981696
000080 2c ac 58 3e ea b4 8c 3d a0 b5 1a bd e0 2e d7 bd
       0.21159428 0.06870444 -0.037770867 -0.105069876
000090 c5 d9 48 3e dd b7 74 bd cf e7 16 3e cf b1 ef bc
       0.19614322 -0.05974566 0.14736865 -0.02925959
0000a0 4e 2f af bd 78 0b bf be 99 f3 ea bd d9 1b f2 bd
       -0.085539445 -0.37313437 -0.11472244 -0.11821718
0000b0 11 09 34 bd e5 56 8c be 26 16 47 3e cb 84 75 be
       -0.04395396 -0.27410045 0.19442043 -0.23976438
0000c0 01 cf 31 3d 61 04 ce bd 85 52 f6 3d 13 d8 02 3e
       0.043410305 -0.10059429 0.12027458 0.12777738
0000d0 fc 01 ff 3b 22 02 0b be cb 3e fb 3e 70 6c f6 3e
       0.007782219 -0.13575032 0.49071345 0.48129606
0000e0 b7 8a 36 3f ea e8 88 3d fa 85 6e be 80 cb e9 3d
       0.7130541 0.0668505 -0.23293296 0.11415768
0000f0 0e dd b5 bd 3b 50 ec 3d a5 c3 c2 3d 12 8d 99 3d
       -0.088800535 0.1153874 0.095099725 0.0749761
000100 56 00 e8 3d 68 32 58 bd 4f 75 48 3e 1f 8d 46 3e
       0.11328189 -0.052782446 0.19576 0.19389771
000110 44 1d fe 3d 70 4c 8f 3d 9f f5 22 3e a5 00 01 bf
       0.12407926 0.06997001 0.1591401 -0.5039161
000120 83 be ae bd bb cb 2f 3e 8e 9c 07 be 7a d9 29 be
       -0.08532431 0.17167561 -0.13243315 -0.16586867
000130 3c 75 b1 3d 47 91 2a 3c 2b fc 92 3d 1a 94 da 3d
       0.08664939 0.010410613 0.071770035 0.106727794
000140 d9 b3 8f bc 1f ba ea 3d ae 32 b6 3c fc a4 b6 3d
       -0.017541813 0.11461281 0.022240963 0.08918187
000150 27 31 31 be 5f 82 0f 3f 94 fa b2 3d 8e 05 0e 3e
       -0.17303906 0.56058306 0.087392 0.13869306
000160 aa a4 7e bd 0c 39 0d 3e 3d 45 45 3e bc b9 01 3e
       -0.062168755 0.13791293 0.19264694 0.12668508
000170 c5 ea f0 bd 5f 44 8b 3e 83 1f 49 bd 09 39 c3 bd
       -0.11763529 0.272006 -0.049102318 -0.09532363
000180 13 ba 3b 3e 74 44 21 be 52 d6 e7 3c d5 aa fb 3c
       0.183327 -0.15748769 0.028300438 0.030721107
000190 ec 0d 01 3e 46 b2 98 be b8 bc 4f bd 92 6c 8e bd
       0.12602967 -0.29823512 -0.050717086 -0.06954302
0001a0 5d 4c ef 3c 26 7f a6 3d fe 1c 89 bd 6a 8e dd bc
       0.029211218 0.081297204 -0.06694983 -0.027045447
0001b0 ce fe b3 3c 8f b2 00 be d8 15 20 3e cc ca 57 bd
       0.021972086 -0.12568115 0.15633333 -0.052683637
0001c0 03 43 f0 3d df c6 31 be cc 58 16 bf 0d 57 9d 3e
       0.117315315 -0.1736102 -0.58729243 0.30730477
0001d0 7a 38 40 bf d1 2a e2 3c 33 87 62 bd f9 6c 49 bd
       -0.75086176 0.027608307 -0.055304717 -0.04917619
0001e0 bc a7 a9 3d 3d b6 31 3e 10 a5 3b 3e 4e fc 83 be
       0.08283946 0.17354675 0.18324685 -0.2577843
0001f0 06 06 46 be 5c 1b 4a 3d 79 a6 06 3e 1a 95 dc bc
       -0.19338235 0.0493425 0.13149442 -0.026926566
000200 7f e4 b2 3d c8 f9 2b 3d 71 d1 d3 bd 95 d4 85 be
       0.087349884 0.041986257 -0.10342682 -0.2613875
000210 3c 31 2b 3e 2e 89 c6 3d ba 44 05 3e 3d dc 39 be
       0.16718 0.09694134 0.13014498 -0.1815042
000220 42 d6 96 3b 28 76 c7 bd 8c eb ff bc b8 ec 03 3e
       0.0046031782 -0.097393334 -0.031240247 0.1288327
000230 55 91 4f 3d 0e 9a 6e be 5c aa 06 3e fc 07 d8 3d
       0.05067571 -0.23300955 0.13150924 0.10548398
000240 03 53 0e 3f bd 3c c3 bd 8c e3 b9 3f f5 46 8e 3d
       0.55595416 -0.09533069 1.4522567 0.06947128
000250 8d d4 cf 3a 43 86 26 3e 15 d3 68 3d 26 01 84 bd
       0.0015856192 0.16262154 0.05684193 -0.064455315
000260 f4 31 77 3e 73 14 51 3f d4 bb 3f 3d 69 02 2f be
       0.2414015 0.8167183 0.046809986 -0.17090763
000270 e6 af 51 be 1f 28 8d bd 78 ec d9 bd b7 2d b8 3e
       -0.20477256 -0.06892418 -0.10640806 0.35972378
000280 18 ec 31 3b 0c be f9 3e 06 61 62 be 86 38 64 3e
       0.002714878 0.48777807 -0.22107324 0.22287187
000290 72 5c a7 3d 0b 6e 1d 3e 5e 90 81 be a1 c0 c8 3e
       0.081719294 0.1537401 -0.25305456 0.39209464
0002a0 4d ae 87 3e 01 a3 bd be 1b d7 17 3e 24 1c b0 3e
       0.26500168 -0.37038425 0.1482815 0.3439647
0002b0 f4 70 ab 3d 60 c2 76 bc 7d 7c 15 3f f1 ea a6 3d
       0.083711535 -0.015060991 0.5839308 0.0815028
0002c0 91 8a cf 3e 95 a8 18 3c 41 c4 36 3e e0 d9 e7 3c
       0.40535405 0.009317537 0.17848302 0.028302133
0002d0 55 5e d3 bc fd a8 0f 3e 02 f3 8b be a2 4e 8e be
       -0.025801817 0.14029308 -0.27333838 -0.27794367
0002e0 22 9b c0 3d a6 8d 83 3d e5 0d 6b bd 74 33 a9 3c
       0.09404589 0.06423502 -0.057386298 0.020654418
0002f0 8f 9a df 3d 3f 58 65 3e 22 b1 55 bd 83 86 66 be
       0.109181516 0.22396944 -0.05217088 -0.2251225
000300 d1 27 00 3e ed 54 2c 3e 16 54 e6 bd 76 1c 90 3d
       0.12515189 0.16829272 -0.11246507 0.070366785
000310 fc 1f 66 bc 21 f2 5f 3e 6a 02 48 bd 83 8d 02 3e
       -0.014045712 0.21869709 -0.048830427 0.12749295
000320 c6 9c d6 bd e4 5f 2f 3b fd ff 19 bc 85 2b 0a bb
       -0.10479121 0.0026760036 -0.009399411 -0.0021083069
000330 62 a7 4b bf e5 9e 52 be 45 70 a0 be 9e 7d c9 3d
       -0.7955228 -0.20568426 -0.31335655 0.09838413
000340 c6 d9 81 bd 55 c4 47 be 96 ce d1 3c 0f 2d d3 3c
       -0.06340365 -0.19508488 0.025611203 0.025778322
000350 81 8b 5b 3e 84 9a f4 be 2b b4 2f 3e 94 64 28 3e
       0.21439935 -0.47774136 0.17158572 0.16444618
000360 76 62 1c 3e e2 3e bf bd 0a 6d 59 bd 5a a9 9f bc
       0.15271935 -0.09338166 -0.053082503 -0.019489933
000370 c6 39 2a be f6 ca 9d be a1 8d f7 bd ca 71 04 be
       -0.16623601 -0.3081891 -0.120875604 -0.12934032
000380 5a d1 4f be 4d 0d 6d bd be cf 21 3e 10 52 bd 3c
       -0.20294705 -0.057874013 0.15801904 0.02311042
000390 8e 7b 26 3c da aa 1a 3e d6 7c 18 bd f7 d5 d5 3d
       0.010161294 0.15104237 -0.037228428 0.10441201
0003a0 68 4d 4f 3d 36 98 02 3e d5 3f 48 be b6 7b c1 3e
       0.05061093 0.12753376 -0.195556 0.37789696
0003b0 3c 5e 80 be 42 2f 8d 3d 6b a3 d1 bd 3c 9d 15 be
       -0.25071895 0.06893779 -0.10236248 -0.14610761
0003c0 d6 d4 9f 3c d7 54 62 3d 56 7f cd 3d b9 62 80 3d
       0.019510668 0.05525669 0.10034053 0.0626883
0003d0 53 db e5 3c 68 ee a7 3d b2 17 1f 3e 8d 46 a6 3d
       0.028058683 0.08199769 0.15536383 0.08118925
0003e0 9b 4e 1e 3d 96 eb 65 3d 0d b7 8f bd 1c 3a f0 3e
       0.038649183 0.056132875 -0.07017336 0.46919334
0003f0 98 42 cf bd e3 ae be 3d 80 21 6d 3e 1d 28 7b be
       -0.101201236 0.09310701 0.2315731 -0.24527021

l2.bias f4 [256]
000000 21 85 13 be a2 72 f2 3e fe de 34 3f ab 08 21 be
       -0.14406253 0.47353083 0.7065276 -0.15725963
000010 d1 ba 1e 3e bc a4 3c 3f 9d 30 f5 be fb fa 48 3f
       0.15500952 0.73688865 -0.47888651 0.78507966
000020 d4 3d d4 bd 3c fa 8b be 67 6d e0 be 3b 4b 8a 3b
       -0.10363355 -0.2733935 -0.43833467 0.004220394
000030 06 42 c3 3e 8c 81 20 3e 3a 07 75 3e c5 a5 4a 3f
       0.3813631 0.15674418 0.23928538 0.79159194
000040 ab 60 12 3f 0e 4d fb be d7 d0 d6 be f8 15 b4 3e
       0.57178754 -0.49082226 -0.41956207 0.3517301
000050 e8 ec 24 3d b6 ae ff 3e b0 14 fe 3e b8 bb 23 bd
       0.040264994 0.4993798 0.49625158 -0.039973944
000060 5f 02 28 bf 30 94 c0 bc ae ee 60 be a3 5e 2d 3f
       -0.6562862 -0.023508161 -0.21966049 0.6772253
000070 ea c9 fd bd 5c cf ee 3e af 9f 41 3b 75 9c 99 3d
       -0.12392028 0.46642578 0.0029544642 0.07500545
000080 45 42 43 3e 0a 4d de bc a3 4e fc 3e 03 1d a9 3d
       0.19068249 -0.027136344 0.49278745 0.08257487
000090 da a1 f3 3e 5d 74 2a 3f bf 45 2d be a6 74 eb 3e
       0.4758442 0.66583806 -0.16921137 0.45987433
0000a0 e6 45 0c 3f 48 44 35 3e 38 95 99 3e eb 39 d7 be
       0.54794157 0.17701828 0.29996657 -0.42036375
0000b0 7c a0 ee 3e f2 33 56 bd 71 40 f3 3c ea 4f dd bd
       0.46606815 -0.052295633 0.029693814 -0.10806258
0000c0 48 0b db 3d 81 97 54 bd a0 8f 5f 3f 83 f6 c3 3e
       0.10695511 -0.051902298 0.8732853 0.3827401
0000d0 d5 86 03 3f a9 b1 38 be c8 3a db 3d e3 40 97 3c
       0.5137761 -0.18036522 0.10704571 0.018463558
0000e0 6d 6d 3b 3f a8 34 fe bd 88 c9 ce bc 04 59 df 3e
       0.73213845 -0.12412387 -0.025242582 0.436226
0000f0 80 09 b4 bb 64 a2 8f be 60 f9 0f 3f f2 6f 1c 3f
       -0.0054942966 -0.28053582 0.5623989 0.61108315
000100 a2 d7 f7 3e b4 49 dd be 0e 63 2b 3f 68 9f 02 bf
       0.48406702 -0.43220294 0.6694802 -0.51024485
000110 4f 38 91 3e b1 1e 88 3c a9 dc ac bc c1 38 02 3f
       0.28363273 0.016616197 -0.021101313 0.5086785
000120 d0 b9 34 be 10 88 26 be f5 61 72 3e 58 1d fb 3c
       -0.17649007 -0.16262841 0.2367018 0.03065364
000130 d6 f2 69 3e bd 9b 7e 3e 7f 1a 37 3f c1 60 f4 3e
       0.22846541 0.24864097 0.71524805 0.47730067
000140 3b 51 9d bc f0 26 ed 3d 32 20 bf be a0 5a 79 3d
       -0.019203773 0.11579692 -0.3732925 0.060877442
000150 b5 d4 06 3f d3 b3 66 bd 3c 41 43 3e 0f 2b 26 be
       0.52668315 -0.056323837 0.19067854 -0.16227363
000160 90 04 b7 be ba 9d 8d be 46 21 e4 be 1c cd ec 3e
       -0.35745668 -0.27659398 -0.44556636 0.46250236
000170 ec 2c c7 3e cd 6a 5e 3e 86 fa 87 bc cc 94 03 3d
       0.3890146 0.21720429 -0.016598951 0.032124326
000180 55 a0 fb 3e 4c d0 cc 3e 76 3e 1f 3f 9a f3 41 3b
       0.4914576 0.40002668 0.6220468 0.002959466
000190 a5 16 ed 3e 2b 32 39 3f c5 8c 3d 3f 66 49 f4 bd
       0.4630634 0.72342175 0.7404292 -0.11928062
0001a0 0f a0 75 3f b0 01 ca 3e ee a4 9d 3e 6c 01 80 bc
       0.95947355 0.39454412 0.30789894 -0.015625678
0001b0 a7 87 65 3f e5 a7 34 3f e3 ac 05 3e 9b 78 8f 3e
       0.89660114 0.70568687 0.13054232 0.28021702
0001c0 17 b3 48 ba 18 b9 80 3e 92 b6 4c 3e ef b3 5d 3e
       -0.0007656081 0.25141215 0.1999152 0.2165067
0001d0 f9 b9 ee 3e a2 25 55 be 13 34 13 3f 7d 01 69 bc
       0.4662626 -0.20815137 0.57501334 -0.014221546
0001e0 49 22 c4 3e e7 a6 e8 3d ba 75 af 3d 0d 9e f3 3e
       0.38307407 0.11359959 0.085673764 0.4758152
0001f0 3d af c0 3e 23 0b d2 be 1c c7 1c 3f 46 3d 14 3e
       0.37633696 -0.41024122 0.61241317 0.14476499
000200 a5 3f a9 be 88 ff 6b bb 60 d2 30 3f 03 ce 2d 3f
       -0.3305637 -0.0036010463 0.69071007 0.67892474
000210 98 bd c4 3e 87 0e d4 bc 9b 29 1c 3d d5 2e db bd
       0.384259 -0.025885833 0.038125616 -0.10702292
000220 98 4e 24 3f 1a 7b 4a bf c8 e3 1c 3f 42 50 65 be
       0.64182425 -0.7909409 0.61285067 -0.22393897
000230 31 84 8c be e6 29 7d 3f 9d cc 14 3c de 23 1d 3f
       -0.27444604 0.98892057 0.009081987 0.61382854
000240 d6 09 b9 3e f9 91 f6 3e 44 2e c1 be 45 1d 03 be
       0.36140317 0.48158243 -0.3773061 -0.12804134
000250 f5 7d 15 3f e9 78 e5 3e 43 24 b0 be e3 02 27 be
       0.5839532 0.4481881 -0.34402665 -0.16309695
000260 9c 09 f7 3e 58 b7 68 3e e9 d8 2f 3f 56 f8 ec 3e
       0.4824952 0.2272619 0.68690354 0.46283215
000270 55 a0 4a 3e ab b4 c9 be 0c 6c 8c 3e 7d 0f 9d 3c
       0.19787724 -0.3939565 0.27426183 0.019172424
000280 f8 a9 72 bd c7 01 4c 3e 14 df fd bd 7a f0 21 3f
       -0.059244126 0.19922553 -0.123960644 0.63257563
000290 d5 4e 89 3e 00 f3 22 3f ed a8 a9 3e 97 70 a8 3d
       0.26817957 0.6365204 0.33136693 0.082246
0002a0 4f 59 15 3e 24 99 32 3f b4 9a 76 be 5f 4f ab 3d
       0.1458485 0.69764924 -0.24082452 0.08364748
0002b0 3c 04 99 3e 32 ba 66 3c 16 ab 01 3e ec 75 ce be
       0.29886043 0.014082478 0.1266292 -0.40324342
0002c0 41 50 45 3f c4 4f a0 3e 3a 35 36 3e 4a c2 b1 3e
       0.7707558 0.31310856 0.17793742 0.34718543
0002d0 ac 55 5a 3e 9c 14 fa 3d 3d 69 03 3e 1a 79 96 3d
       0.21321744 0.12210962 0.12833114 0.07347317
0002e0 db 40 1f 3f 37 cc 1a bd 7f 04 ca be 3e 78 44 3d
       0.62208337 -0.03779241 -0.39456555 0.047966234
0002f0 69 0c e9 be f3 3b 8d be ed 0c 26 3f d3 3f ea 3e
       -0.4551728 -0.275848 0.64863473 0.4575182
000300 7e 07 31 bd 81 0c 35 be c6 98 fe bd fc a0 94 be
       -0.043220036 -0.17680551 -0.12431483 -0.2902907
000310 5d 85 d4 be 3f 9f 99 be 4d a3 89 be 85 b2 b9 3d
       -0.41507998 -0.30004308 -0.268824 0.09067253
000320 d6 34 d6 3e 0f 6e b4 bd e8 f5 32 3f 43 4e da be
       0.41837186 -0.088100545 0.69906473 -0.42637834
000330 48 80 f1 bd 0e 46 8e 3e 3f 44 25 3f 0c 44 8d be
       -0.11792046 0.27787822 0.6455726 -0.27590978
000340 42 d2 df 3d e8 ea 41 3f f0 3a 37 3f 3f 47 6e 3d
       0.10928775 0.75749063 0.71574306 0.058173414
000350 d4 1b 16 3e 1e 42 82 3e 28 ab 45 bd 7d db bf be
       0.14659053 0.25441068 -0.04825893 -0.37472144
000360 21 de 6c 3f 8f ed 5f 3e 5a 03 d9 bd 70 f6 16 be
       0.9252644 0.21867965 -0.105963424 -0.14742446
000370 f6 26 1f 3f a7 12 bb bd f0 a1 df 3e ea 0f 18 3f
       0.62168825 -0.09134417 0.43678236 0.5939928
000380 a3 ac 09 3f 7f 8d f4 3e 2b df 28 3f 3b aa e2 bd
       0.5377905 0.47764203 0.6596553 -0.11067625
000390 a9 e0 41 3f 8c 11 85 3e 69 2b 3e 3e a7 f1 18 be
       0.7573343 0.2598995 0.18571247 -0.14935933
0003a0 13 18 ca 3e a2 c1 b1 3e 3c 6a 10 3f c9 f0 3f bf
       0.39471492 0.34718043 0.564121 -0.74976784
0003b0 68 a4 42 3e e3 74 bb 3e ed 80 f3 3e 87 1d 85 3d
       0.19008029 0.36612615 0.475593 0.064997725
0003c0 b1 15 b1 be d1 c0 b2 3e f3 42 6a 3f fa 8b 1a bf
       -0.34586862 0.34912732 0.91508406 -0.6036984
0003d0 88 54 19 3f 78 d5 47 3f 65 94 c6 3e 17 20 62 3e
       0.5989461 0.780601 0.3878509 0.22082554
0003e0 b5 58 24 3f e7 13 0f 3e 75 08 04 3f 8d 63 f1 3e
       0.64197856 0.13972436 0.51575404 0.47146264
0003f0 b4 da fe 3e 98 65 f4 be 37 73 09 3f 1b 60 01 3f
       0.49776232 -0.4773376 0.5369143 0.5053727

l3.weight f4 [64, 256]
000000 a9 b9 70 bf f7 5e ff 3d c4 bc 87 bd 78 13 80 3f
       -0.94033295 0.12469285 -0.06627801 1.0005941
000010 39 63 8c bd d3 46 b5 bd 30 08 23 3e 11 b2 1d 3e
       -0.06854863 -0.08851399 0.15921092 0.15399958
000020 34 8a 77 3e 7e 07 7e be 2e 08 a0 3e 89 27 5e 3f
       0.24173814 -0.24807546 0.3125624 0.86779076
000030 19 b2 c0 3d cc 88 48 3e 84 79 b9 3d 16 20 35 be
       0.094089694 0.19583434 0.090563804 -0.17688021
000040 39 2e 8d bd 95 dd ef be ba 02 ac bd d7 e7 9f 3d
       -0.06893582 -0.4684874 -0.083989576 0.07807892
000050 c4 0f 51 3f cd 73 9f be 1f 0b d6 3d 8a e0 18 3d
       0.8166468 -0.31143036 0.1045134 0.037323512
000060 f6 2a da bb 3e a6 1c bd 31 57 64 3e a9 0e 19 3e
       -0.0066579534 -0.03824448 0.22298886 0.14946999
000070 20 1d 79 3d 1a 11 1a bf fe 26 2e 3f 7a 76 9c be
       0.06081879 -0.60182345 0.6802825 -0.3055914
000080 36 06 91 bf e5 ad 13 3c 93 ab ee bd 95 52 b6 be
       -1.133002 0.009013628 -0.11653819 -0.3560988
000090 cf 7f 19 3e e4 1f 32 3c a6 4b 9b be e5 ea 46 bb
       0.14990161 0.010871861 -0.30331153 -0.003035241
0000a0 d3 6f 64 be aa 74 cc bd aa 6f b5 3c 90 f5 8a 3f
       -0.22308283 -0.099831894 0.022147972 1.085619
0000b0 c0 86 49 bd 9d 47 76 3f ec ce 88 bf 76 1f 12 3d
       -0.049200773 0.96203023 -1.0688148 0.035674535
0000c0 3f 64 9b be 2f 78 65 be cd 90 99 3d 90 80 92 bf
       -0.3034992 -0.22409128 0.07498322 -1.1445484
0000d0 11 be da bd f2 02 6b 3f f0 08 1f 3c ac c3 08 bf
       -0.106807835 0.9180137 0.009706721 -0.5342357
0000e0 1c 17 59 3e 06 4d fb bd 8b bf 3d be 80 aa 90 be
       0.21200222 -0.122705504 -0.18530099 -0.2825508
0000f0 c8 dc 45 3f 87 0b 54 bf 4f 59 f5 bc f4 87 30 be
       0.7729001 -0.8283009 -0.029949812 -0.17239362
000100 ea bc cc be 66 ac ae bc 45 c7 91 be 28 cd 45 3f
       -0.3998788 -0.02132244 -0.28472343 0.7726617
000110 69 5e 68 3e 21 db b3 be c4 80 01 3f a7 68 57 be
       0.22692265 -0.3512812 0.50587106 -0.21036015
000120 11 89 ef 3e 60 60 3e bd 1f 59 3a 3f d8 47 43 3f
       0.4678426 -0.04647863 0.7279224 0.762815
000130 8d 74 df 3e 48 f0 9f bf 65 c1 5f bf ea 72 8d ba
       0.4364361 -1.2495203 -0.8740447 -0.0010791693
000140 cc 75 2e 3c a7 bb cf be f0 c2 cb 3d 1c 33 4e bd
       0.010648202 -0.40572855 0.09949291 -0.05034171
000150 67 89 bd bd a4 48 75 3f 1a 7c 50 bd a8 88 48 3f
       -0.09254723 0.95813966 -0.050899602 0.7833352
000160 9d 7f 0c be 02 86 64 3e 8d fd b1 3e 8d b7 26 3d
       -0.13720556 0.22316745 0.34763756 0.04070239
000170 06 a8 85 bc a9 bb ca 3e aa 72 2e bf 94 da b1 3c
       -0.016315471 0.39596298 -0.68143713 0.021710671
000180 17 24 a1 3d dd 50 b0 3d 34 82 53 ba 43 76 08 bf
       0.07868212 0.086091734 -0.0008068413 -0.53305453
000190 80 09 43 3d ba d6 87 bd 72 1b 82 3e 38 a1 23 bf
       0.04761648 -0.06632753 0.25411564 -0.63917875
0001a0 f4 07 1a 3c 59 f2 ad bc a8 37 33 be d3 52 93 3e
       0.00940131 -0.021233724 -0.175017 0.28774127
0001b0 e9 c3 be 3d 71 bb 83 3e c6 f4 58 bd 66 f0 f9 be
       0.09314711 0.25728944 -0.05296781 -0.48816222
0001c0 4c a5 53 3f 79 1b 39 bc 44 46 8d 3d b4 f1 df bd
       0.826741 -0.011298054 0.06898168 -0.10934773
0001d0 03 43 ae bd 3e 00 b9 3e 0f f5 0d 3e e5 a9 03 bf
       -0.08508875 0.36132997 0.13863014 -0.51431113
0001e0 40 92 f7 be 76 7d fc 3e 6f 17 85 be c7 17 eb be
       -0.48353767 0.4931447 -0.2599444 -0.45916578
0001f0 3c 39 8f 3e 02 68 13 3f c6 76 85 3d df d1 25 bf
       0.27973354 0.5758058 0.06516795 -0.6477336
000200 c4 a9 5d 3e c5 83 27 3f 23 68 03 bd 25 a1 33 bd
       0.21646792 0.6543544 -0.032081734 -0.04385485
000210 45 6a 17 bf 1f 56 73 3f 98 73 21 3d 9c 75 24 3f
       -0.5914653 0.95053285 0.03941688 0.6424196
000220 47 4a 93 be 39 c5 83 be b6 2d b8 3c e5 03 0e 3e
       -0.28767607 -0.25736406 0.022482734 0.13868673
000230 c2 c2 cf 3e f1 9f 8b bb f5 2c 16 bc 04 d9 40 3c
       0.40578276 -0.00426101 -0.009165992 0.011770491
000240 05 5f 17 bf 10 e5 a3 be a2 ca a8 3e 00 d9 5f bc
       -0.59129363 -0.32010698 0.32967097 -0.013662577
000250 11 a8 0d bf f5 4e fa bb ca fa af be 7c 41 81 3f
       -0.55334574 -0.007638807 -0.34371024 1.0098109
000260 36 4b a4 be 28 9e a9 bd 11 bf ad bd 28 d7 a2 be
       -0.3208863 -0.08282119 -0.08483709 -0.31804776
000270 df 97 a2 be 3d 23 93 3c ce e1 7e bf ba ff be 3f
       -0.31756493 0.017961139 -0.995633 1.4921792
000280 9b 81 0b 3d f0 bf 3f 3f db 0b e6 bc 56 c9 36 3d
       0.03405915 0.7490225 -0.028081825 0.044625603
000290 af f6 39 bf ff 49 0f 3f f2 d8 e8 be 64 73 4b 3f
       -0.72642034 0.55972284 -0.45478016 0.7947295
0002a0 41 82 ec 3d 9c dd 21 3c a6 37 c0 3c 0e 07 a4 3e
       0.115482815 0.009879496 0.023464035 0.32036632
0002b0 af e5 66 bd 5d 61 c4 3f 7b bc 79 3e af f1 41 3f
       -0.056371387 1.5342213 0.24388306 0.75759405
0002c0 b1 a8 99 bc 48 01 11 39 f4 b1 f2 3c ae 2c 5f be
       -0.018757196 0.00013828755 0.02962587 -0.21794388
0002d0 17 fc 1e bd f3 5e c6 be d5 b7 8f 3e c4 54 20 bd
       -0.03881463 -0.38744316 0.2806994 -0.03914334
0002e0 18 ca 05 be 8b 3b d9 bd 29 08 77 be d4 ff 8f 3f
       -0.13065374 -0.1060706 -0.24124207 1.1249948
0002f0 a4 57 6b 3e 38 08 4c be ea c9 e2 bc 6e 2c 43 bd
       0.22982651 -0.1992501 -0.02768417 -0.047649793
000300 5e 5b aa 3e 79 5a 85 3e 16 55 25 3e 05 1a 37 bf
       0.33272833 0.26045588 0.16145739 -0.7152408
000310 c8 ce e1 be 1f 63 cf 3d 9b 6e 71 bd 8e 5d 20 3e
       -0.44103074 0.10126328 -0.058943372 0.15660688
000320 44 50 87 3e 0c d2 bc 3c fd f4 91 be 9b 38 5d 3d
       0.26428425 0.023049377 -0.28507224 0.05400906
000330 27 ad 10 bf c5 47 00 bd 1e fc 73 3e 68 17 0f 3e
       -0.5651421 -0.031318445 0.23826644 0.13973773
000340 14 ad 1a bd 06 04 2a be ca b1 7e 3b 92 4c a5 bf
       -0.037762716 -0.16603097 0.0038863295 -1.2913992
000350 10 57 e6 3f 39 ac f8 bd 7a 89 db 3e 7f cf 6d 3e
       1.7995319 -0.12142224 0.42878324 0.23223685
000360 08 82 d4 bc fc ab 82 3e a7 b6 99 be 5d 38 11 3f
       -0.02594091 0.2552184 -0.30022165 0.5672663
000370 a3 f5 49 3d a4 cc f8 be 88 38 d7 be 0b 43 8d 3c
       0.049306523 -0.48593628 -0.42035317 0.017243883
000380 70 bc 49 bf fa 1c 84 3c a3 a4 9e bd 74 0b ab 3c
       -0.7880316 0.016127098 -0.07746246 0.020879485
000390 c0 70 08 bc 06 76 87 be fb 24 f2 be e2 e7 ba be
       -0.008327663 -0.26457232 -0.4729384 -0.36505038
0003a0 39 c6 54 bf 74 11 2e 3e cb 13 07 3e cf bf 27 bf
       -0.83114964 0.16998845 0.13191144 -0.6552705
0003b0 37 2a 3c bd db e3 94 be c0 36 2a 3d 1a b0 ab 3f
       -0.045938697 -0.2908009 0.04155612 1.3413117
0003c0 13 44 24 3e ca c0 8f bc 2b 30 95 bc 49 a7 21 3d
       0.16041593 -0.017547984 -0.018211445 0.039466176
0003d0 1d 70 81 bc 20 57 7b 3d 75 ad 4e 3d 6a a1 2c bf
       -0.01580053 0.061362386 0.05045839 -0.674338
0003e0 50 58 98 3d f1 2b 1a bd c4 90 8e be d6 ef 3d be
       0.07438719 -0.037639562 -0.27844822 -0.18548521
0003f0 f3 ac a5 3c b8 e8 06 3f 20 c2 28 bd fd 3e 8f bd
       0.02022407 0.5269885 -0.041200757 -0.06994436

l3.bias f4 [64]
000000 0a 19 a1 3d eb cf 69 bd b9 08 8d 3e 66 75 99 be
       0.07866104 -0.05708305 0.27545717 -0.2997238
000010 e7 e0 a6 be 7d c6 1d 3f 56 8b 25 3f d6 0b 15 3f
       -0.32593462 0.61630994 0.64665735 0.58221185
000020 36 8f a8 be 8e 52 29 3f b3 5e c8 be c3 46 01 3e
       -0.3292176 0.66141593 -0.3913475 0.1262465
000030 db 6b d8 3e 32 57 0c bf 8e 1d 19 3f a1 09 c6 3e
       0.42269787 -0.5482055 0.5981072 0.3867922
000040 e6 9e 3c 3f de ba cb be 2f ea c6 be a8 4d e8 3e
       0.7367996 -0.39791006 -0.38850543 0.45371747
000050 52 64 41 3f 18 81 7f bd ed e3 10 3f 92 d2 3a 3f
       0.755437 -0.062378973 0.5659779 0.72977555
000060 6c 77 32 3f 0e f3 17 3e 51 5d 0c bf aa 16 f0 3d
       0.69713473 0.14838812 -0.5482989 0.11723073
000070 c0 f1 1c 3e 9b 02 60 be cf 69 c4 bd 47 52 a8 bb
       0.15326595 -0.21875994 -0.09590494 -0.0051367613
000080 eb d9 39 3f 81 34 05 bf 69 97 1b 3f cf b4 6c bd
       0.7259814 -0.5203324 0.6077791 -0.05778962
000090 a4 70 00 bf 87 9c a2 3e b1 34 c3 be cc a9 0c 3d
       -0.50171876 0.31760046 -0.38126138 0.03434162
0000a0 bc 6c bb be 5d 19 cc 3e cb e4 07 3f e3 09 3e 3f
       -0.36606395 0.398631 0.53083485 0.74233836
0000b0 4d a1 bd be 9b 0f c5 be 96 80 ff be 98 2c 3a bd
       -0.37037125 -0.3848847 -0.4990279 -0.045452684
0000c0 b3 45 4a 3f 6b 52 30 3f 1e 88 0d bf bd 17 06 3c
       0.790126 0.6887576 -0.55285823 0.008184371
0000d0 fa db d3 be b0 8b c6 be 1d 1d 2c 3f 0c b3 3d 3f
       -0.41378766 -0.38778448 0.67231923 0.7410133
0000e0 69 14 a6 be fa 30 19 3f 43 01 0a 3f a2 80 7e bd
       -0.32437447 0.5984036 0.53908175 -0.062134393
0000f0 7a 0b 31 3f 13 75 29 3f 80 30 29 3e de e2 04 bf
       0.69158137 0.66194266 0.16522408 -0.5190867

l4.weight f4 [1, 64]
000000 6d 31 2c c0 21 29 db bd 29 3a bf c0 7d 1d 6f bf
       -2.6905167 -0.10701204 -5.9758496 -0.9340437
000010 38 07 d0 bf e4 e8 d1 3e ce c3 1e 3f 75 ed 25 3f
       -1.6252203 0.40997994 0.62017524 0.64815456
000020 be 5d 05 c0 4d cd e1 3e e9 51 c2 bf 60 2b 2a c0
       -2.0838466 0.44101945 -1.5181247 -2.6588974
000030 54 cd 40 3f 01 b8 2f bf 6b e9 79 3f 36 a7 e8 c0
       0.75313306 -0.6864014 0.9762179 -7.2704115
000040 1b 2e cc 3e 4d f4 70 bf 2f ae 8d bf c5 fc 83 3f
       0.39878926 -0.94122773 -1.1068782 1.0311514
000050 89 37 e5 3e d4 3b 4c 3d d1 0f 1c 3f 1c 93 cb 3e
       0.44768932 0.049861744 0.60961634 0.39760673
000060 22 fe 03 3f cf de 8e c0 63 d4 73 bf 96 95 90 c0
       0.5155965 -4.4646983 -0.9524595 -4.51826
000070 cf db 6b c0 ee 22 14 c0 01 71 01 c0 1c c5 8f 3b
       -3.685291 -2.314632 -2.0225222 0.004387511
000080 5e 39 8b 3f d9 ec 2e bf e4 67 07 3f e8 a9 fc bf
       1.0876882 -0.6833015 0.528929 -1.9739351
000090 7e 4c 65 bf 6f 2d e5 c0 68 cc 73 bf 7f 02 b1 bc
       -0.8956984 -7.161796 -0.95233774 -0.021607636
0000a0 a1 53 3e bf 0b 49 9f c0 6c 6f 08 3f 9b ef d7 3e
       -0.7434636 -4.9776664 0.53295016 0.42174992
0000b0 8d 76 a0 bf 0c 82 ac bf a1 89 c4 bf b1 0a d8 3b
       -1.2536179 -1.3477187 -1.5354501 0.0065930714
0000c0 48 5d d3 3e da 88 c0 3e 2a d2 38 bf 58 3b 2f c0
       0.41282105 0.3760441 -0.72195685 -2.737997
0000d0 bb 63 53 bf ef 4d 6a bf ae 17 14 3f d5 0b d5 3e
       -0.8257405 -0.9152517 0.5784863 0.4161059
0000e0 e3 83 81 bf 55 3a 2e 3f 44 a2 01 3f a4 87 28 3d
       -1.0118374 0.6805776 0.5063822 0.041144982
0000f0 4d fd bd 3e 75 cf c9 3e 85 48 84 c0 ed 02 2f bf
       0.37107316 0.3941609 -4.1338525 -0.6836384
