turtlebot3_machine_learning/turtlebot3_td3/steer&spd/models120_60/TD3_stage2_actor_target.pth (torch_old, 103102 bytes, 8 tensors)

l1.weight f4 [24, 60]
-0.048330847 -0.08387946 -0.103128806 0.11914458 -0.05962892 -0.064466216 -0.08456641 0.053929213
-0.09370679 0.09015434 -0.09466792 0.10153288 -0.00034115836 0.07417134 0.0114943 -0.048424724
0.0478324 -0.10664697 -0.11577692 0.037037987 0.046114292 0.004702019 0.10164762 -0.08278721
-0.0091103 0.0394639 0.053030673 -0.062287286 -0.042827096 0.026393892 -0.07521592 -0.019991977
-0.043379188 -0.01814833 0.07041178 -0.06578348 0.11637296 0.001199626 -0.07932865 0.10726685
-0.109426044 -0.005179323 -0.06240128 -0.07586859 0.087865524 -0.058794454 -0.090732515 -0.10856922
0.0654318 0.122275315 -0.10881062 -0.09028101 -0.10123188 -0.049421612 -0.068574466 -0.047318313
-0.0130937565 -0.02463332 0.0016068473 0.06414434 0.20242412 0.11784634 0.105318554 0.09264779
0.16491324 0.086736724 0.124509275 0.100173436 0.09365804 0.13787965 0.16397773 0.121500716
0.13183507 0.12298044 0.029724795 -0.05218264 -0.0058577354 -0.00043347274 -0.14499694 0.012749047
0.0052092294 -0.06715494 -0.033476807 -0.066663004 -0.032674756 0.027927814 0.13149554 0.096088156
0.118771404 0.14059523 0.09818278 0.014157856 0.040273853 -0.11365012 -0.074092835 -0.09312142
0.01765037 -0.06436352 -0.04093551 -0.12764785 -0.06798227 -0.19944099 -0.051035687 -0.06639549
0.007213719 -0.022724196 0.010100123 -0.030807808 -0.06253201 0.002468536 0.10998585 0.032145865
-0.059030868 0.063188955 0.00529137 0.019611485 0.11335159 0.14730783 0.10027858 0.15140824
0.069824666 -0.002590127 0.09166234 -0.08981758 -0.07957452 0.029345443 0.036330927 0.03906306
-0.14307663 -0.020217357 -0.105934694 0.10666037 0.09953612 -0.016997958 0.09588832 -0.05918859
-0.054932814 -0.14675424 0.095992625 0.069820195 0.06231038 -0.0076003913 -0.07699363 -0.14670655
0.017273255 -0.12747808 -0.008905036 0.05867673 -0.051114388 -0.098952 0.013075688 -0.04354161
-0.09199315 -0.059491083 -0.014775168 0.086849265 -0.04749042 0.0007215952 0.04379269 -0.04007634
-0.06706647 -0.14617607 -0.034925748 0.095229685 -0.084536605 -0.13110204 -0.05332721 -0.027993908
-0.1133689 -0.020600317 -0.065372206 0.048689216 -0.055107903 0.041094087 0.051040623 -0.12577339
-0.09096944 0.08822464 -0.097712226 -0.01698492 0.038326174 -0.02418804 0.0033828036 0.02150567
-0.02273026 -0.042674348 -0.039669186 -0.0077008447 0.11005922 0.025324902 0.078841425 -0.018779462
0.059006818 0.12924656 0.15083843 0.12661982 0.16200384 0.19675232 0.15678748 0.11718626
0.14876129 0.13426274 0.09367398 0.08129747 0.086121514 -0.03500482 0.067231044 -0.029825442
0.020775983 -0.08729166 -0.17375955 -0.08270893 -0.14714499 -0.15605897 -0.23733874 -0.21153961
-0.21309316 -0.23905735 -0.23202512 -0.14209054 -0.10667989 -0.12143847 -0.10465189 0.07944586
0.055816438 0.2652806 0.24636197 0.33405656 0.20440178 0.1782447 0.11243994 0.2496317
0.16506343 0.10969807 0.17153345 0.0689077 0.052637864 0.110547945 0.012963238 -0.011606184
-0.03864002 0.044561446 0.05604587 0.029651068 -0.020278292 -0.036019992 -0.05488758 -0.04308056
-0.05335427 -0.058299396 -0.067183085 -0.12744157 -0.016574517 -0.124674164 -0.013686148 -0.03334257
00000000: 91f6 45bd ffc8 abbd 3235 d3bd 1302 f43d
00000010: 743d 74bd dd06 84bd 2731 adbd e1e4 5c3d
00000020: 58e9 bfbd d7a2 b83d 41e1 c1bd 78f0 cf3d
00000030: 80dd b2b9 25e7 973d 9752 3c3c 0159 46bd
00000040: e8eb 433d ba69 dabd 731c edbd 25b5 173d
00000050: 57e2 3c3d 6513 9a3b a12c d03d 578c a9bd
00000060: 5e43 15bc e6a4 213d b136 593d f420 7fbd
00000070: 776b 2fbd 0138 d83c ce0a 9abd 37c6 a3bc
00000080: 60ae 31bd ceab 94bc 0d34 903d 7db9 86bd
00000090: f254 ee3d c53c 9d3a 0f77 a2bd b9ae db3d
000000a0: c31a e0bd 4fb7 a9bb 7c98 7fbd fe60 9bbd
000000b0: d7f2 b33d 74d2 70bd f8d1 b9bd 8a59 debd
000000c0: 1c01 863d 7b6b fa3d 1ad8 debd 40e5 b8bd
000000d0: a952 cfbd 516e 4abd c570 8cbd d9d0 41bd
000000e0: 3287 56bc d1cb c9bc d99c d23a 1c5e 833d
000000f0: 4548 4f3e 6c59 f13d 41b1 d73d 20be bd3d
00000100: 04df 283e 06a3 b13d b8fe fe3d bb27 cd3d
00000110: c9cf bf3d 5330 0d3e c7e9 273e 5ed5 f83d
00000120: c6ff 063e 2bdd fb3d 6a81 f33c 77bd 55bd
00000130: 3ff2 bfbb ba43 e3b9 147a 14be 61e1 503c
00000140: 2fb2 aa3b 8788 89bd fa1e 09bd 9d86 88bd
00000150: f7d5 05bd dfc8 e43c c4a6 063e dec9 c43d
00000160: 6c3e f33d 32f8 0f3e 0e14 c93d 5af6 673c
00000170: 32f6 243d 65c1 e8bd fcbd 97bd 71b6 bebd
00000180: 8297 903c 05d1 83bd feab 27bd 1eb6 02be
00000190: 4a3a 8bbd 423a 4cbe cc0a 51bd 5cfa 87bd
000001a0: 1061 ec3b 1828 babc fc7a 253c a860 fcbc
000001b0: c810 80bd 29c7 213b 4340 e13d 62ab 033d
000001c0: 5aca 71bd 3669 813d 3b63 ad3b 44a8 a03c
000001d0: e124 e83d ddd7 163e db5e cd3d c30a 1b3e
000001e0: 3c00 8f3d 1fbf 29bb 77b9 bb3d 48f2 b7bd
000001f0: f7f7 a2bd db65 f03c bdcf 143d 9600 203d
00000200: ae82 12be df9e a5bc 4af4 d8bd c170 da3d
00000210: 98d9 cb3d 4d3f 8bbc 1861 c43d bc6f 72bd
00000220: 3b01 61bd be46 16be c897 c43d e4fd 8e3d
00000230: 2b39 7f3d b40c f9bb d6ae 9dbd 3e3a 16be
00000240: a480 8d3c 9d89 02be 6ee6 11bc 0357 703d
00000250: 525d 51bd 59a7 cabd 693b 563c b058 32bd
00000260: e866 bcbd ecac 73bd 8c13 72bc 07de b13d
00000270: 5185 42bd 6f29 3d3a f75f 333d 1727 24bd
00000280: 255a 89bd 2eaf 15be 4d0e 0fbd c807 c33d
00000290: 8721 adbd 9d3f 06be a26d 5abd 7b53 e5bc
000002a0: f42d e8bd ffc1 a8bc dde1 85bd 586e 473d
000002b0: d3b8 61bd 4652 283d f90f 513d bdca 00be
000002c0: 304e babd 1faf b43d 591d c8bd f523 8bbc
000002d0: e8fb 1c3d ff25 c6bc 07b2 5d3b a92c b03c
000002e0: cf34 babc 4ccb 2ebd 287c 22bd 5e57 fcbb
000002f0: ba66 e13d 2b76 cf3c 9d77 a13d 63d7 99bc
00000300: 22b1 713d 3659 043e 6475 1a3e a0a8 013e
00000310: 56e4 253e 7179 493e e68c 203e 5aff ef3d
00000320: e154 183e 2c7c 093e 25d8 bf3d 4a7f a63d
00000330: 7a60 b03d 3761 0fbd 6eb0 893d 7c54 f4bc
00000340: 6532 aa3c f8c5 b2bd 06ee 31be 4d63 a9bd
00000350: 2dad 16be eccd 1fbe ed08 73be d79d 58be
00000360: 1835 5abe 73cb 74be fe97 6dbe 2f80 11be
00000370: fc7a dabd bcb4 f8bd bb53 d6bd 83b4 a23d
00000380: c79f 643d dcd2 873e 5046 7c3e 7609 ab3e
00000390: b34e 513e c785 363e e946 e63d 749f 7f3e
000003a0: 6306 293e 62a9 e03d 77a6 2f3e 7b1f 8d3d
000003b0: cd9a 573d f666 e23d c363 543c dd27 3ebc
000003c0: ff44 1ebd 1086 363d 5b90 653d cce6 f23c
000003d0: a91e a6bc b389 13bd cdd1 60bd 3e75 30bd
000003e0: 028a 5abd 59cb 6ebd 4997 89bd 0b80 02be
000003f0: 48c7 87bc 2b55 ffbd de3b 60bc 3892 08bd

l1.bias f4 [24]
-0.017694216 0.12574095 -0.11555489 0.02677908 0.21826226 -0.081205755 0.10208164 0.09422363
0.13684013 -0.12628897 0.03883755 0.045381404 0.0737117 0.119127735 -0.0143260835 -0.10249915
0.0928688 -0.06963264 0.11295331 -0.07796363 -0.094041325 0.18158737 -0.105333656 0.14363728
00000000: 76f3 90bc 3cc2 003e 0ba8 ecbd cd5f db3c
00000010: 2480 5f3e 344f a6bd 2e10 d13d 52f8 c03d
00000020: d21f 0c3e e551 01be 1f14 1f3d dae1 393d
00000030: 29f6 963d 3ef9 f33d f3b7 6abc 13eb d1bd
00000040: ff31 be3d 8f9b 8ebd 1154 e73d 65ab 9fbd
00000050: bd98 c0bd 0af2 393e 2cb9 d7bd a715 133e

l2.weight f4 [256, 28]
0.124860674 -0.02735269 -0.111111365 -0.15194067 0.15048051 -0.2016255 -0.32042903 0.028160889
-0.17073764 0.00248228 -0.010149992 0.15995358 0.27211118 0.007865414 0.13722642 0.15528192
-0.07911079 -0.1470253 0.19547276 0.012145777 -0.4072794 0.10538166 -0.12749246 -0.11680942
-0.5770162 -0.22934061 0.19513963 0.11297374 -0.14475325 -0.09862269 -0.11915327 -0.0852608
0.06357214 -0.16454326 -0.042176023 0.010113334 -0.002131357 -0.14501022 -0.17322469 0.04089441
0.14991923 -0.052328832 0.090487495 -0.10596897 0.030366918 -0.16502903 -0.0064338157 0.04836914
0.12070473 -0.12942715 -0.0065803975 -0.11460718 -0.060406756 0.045969006 0.115693465 0.0017126456
0.085453026 -0.15864967 0.024154993 -0.13319476 -0.04145392 0.2478567 -0.4153731 -0.14199568
0.06651651 0.13135535 0.21795133 0.06327428 -0.16580872 -0.12378057 0.008993698 -0.002922751
-0.23095062 -0.21789357 -0.43282825 -0.284216 0.41919664 -0.5865976 0.19957209 0.027150441
-0.04064902 0.5420825 -0.35703987 0.081795685 -0.027393017 -0.16603214 -0.17826724 -0.22379233
0.0669145 0.019606946 -0.0404393 0.1566852 -0.11671115 0.10564561 -0.06478551 -0.14053039
0.0045870403 0.18531466 -0.12934072 0.13604443 -0.12720868 0.06343203 0.010130218 -0.0097212745
0.26711518 -0.019613307 -0.10030661 -0.1908943 0.0038017288 -0.032257225 -0.09439082 0.0974718
0.062437784 0.10539684 0.073991045 0.19658372 -0.17848352 0.26645035 -0.123524025 0.20673378
0.10885558 -0.056775343 0.03243141 0.011409726 0.048489887 0.020039571 0.10889406 0.005018426
0.019047126 -0.09886807 -0.07429557 -0.18201013 -0.47988868 0.18004058 -0.07258455 0.16172764
-0.30870384 0.30419338 0.38299212 -0.10271708 0.16047148 -0.066005796 -0.10043594 -0.11418974
0.06991865 -0.167409 0.09998794 0.019049197 -0.042697296 0.028364018 0.115188435 -0.1727852
-0.030989572 0.09381855 -0.18151762 -0.17533867 -0.16181117 -0.055865914 0.17953174 0.044394895
0.10704 -0.10461892 -0.12118883 -0.0028455704 0.078806594 -0.13423775 -0.06984615 -0.070420064
-0.024051428 0.11407695 -0.1850115 -0.0028950137 0.1720657 0.021628885 -0.12893894 0.100130625
-0.14401104 0.03560748 -0.032208316 0.35407197 0.18639466 -0.08174358 -0.009141965 -0.100911565
-0.26861864 -0.15669519 -0.07492041 -0.021464586 0.31240523 0.20574735 -1.0594884 -0.07770212
0.22726353 -0.62071204 -0.045974877 0.005494594 -0.12493219 0.04822626 -0.119481355 -0.13149224
0.117058285 -0.28989404 0.20732228 0.11819725 -0.05719781 -0.12143489 -0.16245016 -0.08576426
0.096251436 0.07954963 0.17964707 0.14531948 0.10384883 0.18575266 0.20090114 0.02625464
-0.022085674 0.013475089 -0.32021585 -0.09689146 -0.72089815 0.061650064 -0.14819103 -0.017930277
0.13508426 0.14346154 -0.16791388 0.09601105 0.008938336 0.20471238 -0.1310837 0.06996457
-0.106134176 0.08421148 0.14029981 0.08663449 -0.087359846 0.08486008 -0.10970813 0.054552097
-0.057382267 0.05226463 0.0292341 0.104891375 -0.21720108 -0.111134335 0.14393488 0.00029862512
0.39954552 0.34096763 0.36512467 -0.16200663 -0.11353909 0.25005022 -0.18344985 0.019107254
00000000: f4b6 ff3d c012 e0bc 5b8e e3bd 5696 1bbe
00000010: 9017 1a3e ea76 4ebe 460f a4be aab1 e63c
00000020: d9d5 2ebe bfad 223b 274c 26bc dfca 233e
00000030: 2852 8b3e f0dd 003c 1585 0c3e 3902 1f3e
00000040: d604 a2bd cd8d 16be 032a 483e 15ff 463c
00000050: ed86 d0be 57d2 d73d 628d 02be c739 efbd
00000060: 55b7 13bf 44d8 6abe afd2 473e c75e e73d
00000070: 323a 14be b1fa c9bd a106 f4bd 379d aebd
00000080: 1c32 823d 077e 28be c4c0 2cbd 66b2 253c
00000090: 3dae 0bbb 8f7d 14be d061 31be e680 273d
000000a0: 6d84 193e c256 56bd 8251 b93d 4206 d9bd
000000b0: 0bc4 f83c 5ffd 28be c2d2 d2bb b81e 463d
000000c0: 0b34 f73d 8d88 04be 60a0 d7bb 2bb7 eabd
000000d0: 136d 77bd ff49 3c3d b2f0 ec3d da7a e03a
000000e0: ff01 af3d 0f75 22be b1e0 c53c 3564 08be
000000f0: 96cb 29bd 26ce 7d3e c8ab d4be 5167 11be
00000100: cf39 883d 0482 063e a22e 5f3e f295 813d
00000110: c3c9 29be ab80 fdbd 4e5a 133c a08b 3fbb
00000120: 527e 6cbe 7e1f 5fbe aa9b ddbe c284 91be
00000130: f1a0 d63e 432b 16bf a05c 4c3e 9a6a de3c
00000140: 967f 26bd ebc5 0a3f eecd b6be 7f84 a73d
00000150: 5267 e0bc 5404 2abe b08b 36be d129 65be
00000160: 780a 893d bf9e a03c aea3 25bd 1672 203e
00000170: 4106 efbd ba5c d83d 44ae 84bd 33e7 0fbe
00000180: e24e 963b 20c3 3d3e e571 04be 3b4f 0b3e
00000190: fe42 02be a7e8 813d 37f9 253c fb45 1fbc
000001a0: 52c3 883e 16ac a0bc 8d6d cdbd cc79 43be
000001b0: 6d26 793b 2720 04bd f94f c1bd 4c9f c73d
000001c0: c3be 7f3d 4cda d73d 9e88 973d 3e4d 493e
000001d0: 62c4 36be 2e6c 883e 2afa fcbd 05b2 533e
000001e0: adef de3d 438d 68bd ccd6 043d dcef 3a3c
000001f0: 559d 463d 072a a43c d903 df3d 9c71 a43b
00000200: b808 9c3c 587b cabd 4728 98bd dd60 3abe
00000210: f8b3 f5be 8f5c 383e 35a7 94bd ee9b 253e
00000220: 6e0e 9ebe 3cbf 9b3e 8b17 c43e 555d d2bd
00000230: a352 243e 0c2e 87bd 5cb1 cdbd 4fdc e9bd
00000240: 8231 8f3d 446d 2bbe 7ac6 cc3d 100d 9c3c
00000250: 5ce3 2ebd a85b e83c eae7 eb3d 9aee 30be
00000260: d8dd fdbc f123 c03d c1df 39be fb8b 33be
00000270: d4b1 25be a8d3 64bd 2bd7 373e 6cd7 353d
00000280: ca37 db3d 7242 d6bd d931 f8bd c07c 3abb
00000290: 5a65 a13d 9f75 09be 800b 8fbd 6538 90bd
000002a0: 8007 c5bc 2da1 e93d a873 3dbe 45ba 3dbb
000002b0: fe31 303e 0f2f b13c 9208 04be 4911 cd3d
000002c0: a177 13be 26d9 113d deec 03bd ec48 b53e
000002d0: 3ede 3e3e 2e69 a7bd 2ec8 15bc b9aa cebd
000002e0: 6288 89be b474 20be df6f 99bd 80d6 afbc
000002f0: 94f3 9f3e 6faf 523e 519d 87bf 4a22 9fbd
00000300: c5b7 683e fce6 1ebf 2750 3cbd ff0b b43b
00000310: 73dc ffbd e688 453d a4b2 f4bd e7a5 06be
00000320: 41bc ef3d fe6c 94be 4b4c 543e 6611 f23d
00000330: 4048 6abd dbb2 f8bd 5659 26be 2ca5 afbd
00000340: 791f c53d ebea a23d 67f5 373e a1ce 143e
00000350: b2ae d43d f235 3e3e 07b9 4d3e f913 d73c
00000360: 04ed b4bc 9fc6 5c3c 55f3 a3be 086f c6bd
00000370: c88c 38bf c784 7c3d 64bf 17be 84e2 92bc
00000380: 8753 0a3e 95e7 123e 9ef1 2bbe 71a1 c43d
00000390: 1972 123c 1fa0 513e ce3a 06be 9649 8f3d
000003a0: e05c d9bd 1277 ac3d c1aa 0f3e 6c6d b13d
000003b0: b8e9 b2bd 1fcb ad3d a8ae e0bd 0572 5f3d
000003c0: ab09 6bbd 7013 563d 5a7c ef3c 4ad1 d63d
000003d0: f669 5ebe 669a e3bd aa63 133e c990 9c39
000003e0: 3b91 cc3e 4f93 ae3e 9ff1 ba3e 11e5 25be
000003f0: 2f87 e8bd 9506 803e 47da 3bbe d186 9c3c

l2.bias f4 [256]
-0.14075224 -0.13403757 -0.017314574 -0.05020915 0.20588666 -0.12687504 0.11074637 -0.019165479
0.2627112 0.07030028 -0.15018526 -0.04140777 -0.21083015 0.061263915 0.11325222 -0.017267536
-0.15160903 -0.08848852 -0.13285747 0.19261903 0.07952178 -0.27907467 0.033571843 0.07855386
0.109669685 -0.09450962 0.11989195 0.032116555 0.17520833 -0.2713847 0.20148593 -0.1167865
-0.17652705 0.053108018 0.09257392 0.06898574 0.085613996 0.12522185 -0.07219787 0.040004697
-0.0180533 -0.08430594 -0.1193079 0.16994886 -0.026222313 0.23301953 -0.19838126 -0.16988379
-0.13468726 -0.07124419 -0.0040198667 -0.16239253 -0.05120993 -0.1730708 0.027840769 0.041800667
0.058879945 -0.057039224 0.18098877 0.033628292 -0.25162983 -0.012506285 -0.18565503 0.16216597
-0.016041404 -0.022354828 -0.06654412 -0.04345092 0.1572683 -0.006332182 -0.22078715 -0.090094425
-0.111245915 0.16041188 0.1999708 -0.132625 -0.051449455 0.2191825 0.1483898 -0.0161995
-0.15473205 -0.11810062 0.25461656 -0.07863796 -0.2989523 -0.056254204 0.19276957 0.09925612
-0.20974675 -0.15965652 0.13459264 -0.09467769 0.24620245 -0.01907083 0.20911868 0.13169509
0.08106509 0.0068833446 -0.17314327 -0.052642558 0.10129881 0.06501268 0.11379825 0.029653156
-0.05712935 0.066394255 0.023819717 -0.010647897 -0.10152373 -0.11079462 -0.11737346 -0.1455633
-0.120461084 -0.059620522 0.05728618 0.019487053 -0.055683106 0.046390533 0.011063626 0.22308066
0.096018 -0.10607201 0.18453106 -0.06738288 -0.19842799 0.00051329396 -0.11199619 0.15666984
-0.09307168 -0.016079396 -0.109904446 0.26580516 -0.048596304 -0.0062624067 0.13933708 -0.13697582
-0.0068768947 -0.051182907 -0.08219244 -0.077445954 0.20587564 -0.18789458 -0.13090803 -0.1842669
0.21924049 -0.16566166 0.13982224 0.07270444 0.22611663 0.14409795 0.18105634 -0.25613877
-0.07724043 -0.12632564 0.109689586 0.031616874 -0.03258728 -0.043549977 -0.03740499 0.11826479
-0.12164053 -0.027005754 -0.055635907 0.13141379 0.056677353 -0.029773863 -0.1309513 -0.013691289
0.09701631 -0.070225775 -0.047067836 0.07996939 -0.06336531 0.120468296 -0.00076118845 -0.07615071
-0.02183655 -0.098207965 -0.09611894 0.15741682 0.0065668235 0.038672514 0.048569907 0.045605335
-0.102978915 0.11618002 0.056447376 -0.17517309 -0.037357613 0.10467379 -0.11817162 0.03690982
0.009331249 -0.26757604 0.06293175 0.1335759 0.1867885 -0.12448634 -0.051147386 0.0361911
0.06632016 -0.07272541 -0.099307165 -0.104544334 0.090352245 -0.090758905 -0.031520747 0.11656949
-0.14981939 -0.006985273 -0.058442783 0.19544613 -0.15046449 -0.36102006 0.15185736 0.11500225
0.03893409 0.17585331 0.13363884 0.064835265 0.10416201 0.17813721 0.08373814 0.09722851
-0.25474358 -0.15791969 0.034653798 0.008897734 0.002211267 -0.06409046 -0.010945932 0.026670681
0.113775544 0.08087698 -0.24094899 0.079856545 0.04965462 0.07953803 0.055647083 0.083666146
0.10341981 -0.03510414 0.17482111 0.25606224 0.087376356 -0.29515636 -0.08114371 0.017446501
0.09723384 -0.0518111 0.18979923 -0.06591658 -0.16900876 -0.092117466 -0.15117653 -0.113601096
00000000: 5b21 10be 2541 09be 4bd7 8dbc 1ca8 4dbd
00000010: f4d3 523e 88eb 01be fece e23d ec00 9dbc
00000020: 1582 863e 98f9 8f3d 2aca 19be 329b 29bd
00000030: dce3 57be dfef 7a3d c8f0 e73d a674 8dbc
00000040: 663f 1bbe 7839 b5bd ca0b 08be ec3d 453e
00000050: 51dc a23d e0e2 8ebe a182 093d d9e0 a03d
00000060: 809a e03d 428e c1bd e989 f53d a68c 033d
00000070: d069 333e eff2 8abe 5452 4e3e c32d efbd
00000080: 82c3 34be cb87 593d 6597 bd3d 6548 8d3d
00000090: 6456 af3d 283a 003e 7adc 93bd f7db 233d
000000a0: 84e4 93bc 98a8 acbd b357 f4bd 1307 2e3e
000000b0: 2dd0 d6bc ac9c 6e3e 7524 4bbe 04f6 2dbe
000000c0: 75eb 09be 79e8 91bd 16b9 83bb 3a4a 26be
000000d0: 81c1 51bd 7939 31be 5312 e43c 2d37 2b3d
000000e0: 192c 713d f6a1 69bd 1f55 393e d2bd 093d
000000f0: a0d5 80be 29e7 4cbc 5a1c 3ebe d60e 263e
00000100: 4369 83bc 7921 b7bc 4948 88bd 98f9 31bd
00000110: f10a 213e 317e cfbb 0716 62be 6d83 b8bd
00000120: e6d4 e3bd 0343 243e 25c5 4c3e d9ce 07be
00000130: aabc 52bd 6171 603e 7ff3 173e d0b4 84bc
00000140: 1472 1ebe bdde f1bd 1a5d 823e f00c a1bd
00000150: 4710 99be cf6a 66bd 6365 453e cb46 cb3d
00000160: dac7 56be 007d 23be a7d2 093e 60e6 c1bd
00000170: 7f1c 7c3e 6e3a 9cbc 3523 563e 14db 063e
00000180: 7405 a63d ae8d e13b 784c 31be b99f 57bd
00000190: c075 cf3d 5e25 853d 0f0f e93d 2deb f23c
000001a0: 7700 6abd b6f9 873d 9121 c33c 8474 2ebc
000001b0: aceb cfbd 4ae8 e2bd 7f61 f0bd 8c0e 15be
000001c0: 4db4 f6bd a634 74bd eaa4 6a3d 50a3 9f3c
000001d0: f813 64bd 0004 3e3d 3644 353c 426f 643e
000001e0: 16a5 c43d 483c d9bd b6f5 3c3e 0900 8abd
000001f0: b530 4bbe 938e 063a 425e e5bd 0f6e 203e
00000200: 5d9c bebd f0b8 83bc 9515 e1bd 9d17 883e
00000210: eb0c 47bd e034 cdbb 61ae 0e3e 6443 0cbe
00000220: 9357 e1bb 2ba5 51bd 8354 a8bd fc9b 9ebd
00000230: 10d1 523e 7067 40be c10c 06be 76b0 3cbe
00000240: 9480 603e 36a3 29be 902d 0f3e 11e6 943d
00000250: 1e8b 673e 6a8e 133e d566 393e 9f24 83be
00000260: 3b30 9ebd 825b 01be efa4 e03d b280 013d
00000270: 3d7a 05bd 7661 32bd fa35 19bd cf34 f23d
00000280: ac1e f9bd 2c3b ddbc 7ae2 63bd 5691 063e
00000290: 8326 683d 51e8 f3bc 1918 06be 6e51 60bc
000002a0: 7db0 c63d 88d2 8fbd 34ca 40bd fec6 a33d
000002b0: acc5 81bd 15b8 f63d 7e8a 47ba e7f4 9bbd
000002c0: 91e2 b2bc 4221 c9bd 02da c4bd e031 213e
000002d0: 822e d73b 1267 1e3d 3df1 463d a9cc 3a3d
000002e0: 9ce6 d2bd caef ed3d 5d35 673d 9360 33be
000002f0: 4c04 19bd 365f d63d f603 f2bd c02e 173d
00000300: 18e2 183c baff 88be 5de2 803d 1fc8 083e
00000310: 7c45 3f3e b2f2 febd ec7f 51bd 1e3d 143d
00000320: ddd2 873d 0ff1 94bd 8e61 cbbd 571b d6bd
00000330: 990a b93d cedf b9bd e61b 01bd fcbb ee3d
00000340: 416a 19be b8e4 e4bb b361 6fbd 0823 483e
00000350: 5d13 1abe 9fd7 b8be 7f80 1b3e 4d86 eb3d
00000360: 5a79 1f3d e412 343e 9fd8 083e 5ac8 843d
00000370: e452 d53d 9a69 363e e77e ab3d be1f c73d
00000380: c06d 82be b3b5 21be 24f1 0d3d cdc7 113c
00000390: e7ea 103b dc41 83bd 9156 33bc 797c da3c
000003a0: 2703 e93d d5a2 a53d 55bb 76be d48b a33d
000003b0: a562 4b3d d6e4 a23d 32ee 633d 2859 ab3d
000003c0: c4cd d33d 5cc9 0fbd 4e04 333e 971a 833e
000003d0: 60f2 b23d bc1e 97be ac2e a6bd f7eb 8e3c
000003e0: 8922 c73d e037 54bd bb5a 423e 46ff 86bd
000003f0: a210 2dbe 15a8 bcbd 05ce 1abe b1a7 e8bd

l3.weight f4 [64, 256]
0.04708062 -0.011815236 0.065580234 -0.004076781 -0.1397139 -0.042418182 0.2610997 0.1446163
-0.31164894 0.053628583 0.052206323 0.05552991 0.0069513265 0.10462174 -0.0780424 0.1079314
-0.1297043 0.13977538 0.049477737 0.17201844 0.07673375 0.06409524 -0.058751065 0.043481093
0.09412856 0.062242 0.10594607 0.93377894 0.32933515 0.13423797 0.027546557 0.0126763005
0.16392466 0.115027755 0.0698825 -0.0009859373 -0.4808452 0.10500949 -0.08952451 0.19661543
-0.006251835 -0.041156434 0.0023110723 0.17391497 -0.031507805 0.026649402 0.0069163274 0.41654906
0.046201464 -0.10453267 0.11519227 0.055919036 0.96937823 0.05362736 -0.014659719 0.017623495
0.09094474 0.036495604 -0.015142357 0.08924464 0.08255657 -0.22207989 0.13311368 0.14004941
-0.87179404 0.06630709 -0.014417138 0.034406107 0.13008972 -0.20101203 0.009330766 0.14939812
-0.054649726 -0.03600409 -0.0113503095 -0.13742028 -0.012567316 -0.2956586 -0.032329705 -0.03707326
0.06460802 0.039094985 0.30416003 0.14168897 0.56795985 -0.06625776 -0.040063996 0.06567324
0.087569036 0.0321529 0.0006930596 0.08721564 0.24792935 -0.009562921 -0.013858613 -0.04634973
-0.08794238 -0.0343327 -0.08684205 -0.17751247 -0.029145613 0.039014652 0.037970737 -0.018267002
0.082399175 0.051174324 -0.062360298 -0.03118264 0.053989783 0.13239169 -0.060130626 0.03203925
0.16830735 0.065296575 -0.11444713 0.18828551 0.09106143 0.1915435 -0.034922417 -0.1514199
-0.088046975 -0.019383332 -0.08881772 -0.11155697 -0.015625514 0.100012526 0.02160161 -0.1261368
0.061128143 0.096642874 0.017506279 -0.4193439 -0.0021860837 -0.09024563 -0.056244314 0.16344313
-0.12528992 0.041108597 -0.28781763 -0.41812158 0.079432786 0.15407784 0.037741322 -0.058963507
0.071203955 0.3194607 0.092836715 0.36920074 -0.04064079 -0.02351198 -0.008807287 0.03537642
-0.15339872 0.20746972 0.1747438 0.09136695 -0.0050247307 -0.019165102 -0.17662701 -0.039319944
-0.05242867 0.096068054 -0.0012646549 0.17540228 -0.07845915 -0.013388621 -0.0048292866 -0.0058347094
0.014038099 0.051463213 0.05338033 -0.21286479 -0.14111139 0.0682211 -0.05418895 0.041597944
0.025007766 -0.30177692 0.04128691 1.0333583 0.15682968 -0.029593749 0.10078309 -0.01871075
0.11416273 0.14903788 -0.031614345 0.014780065 -0.06975196 0.04947007 0.07269031 0.025354778
-0.011553115 0.06435887 -0.108738154 0.044022188 0.0014677708 0.45216656 0.02205588 0.060078938
0.005252672 -0.016156737 0.03862289 -0.100769974 0.11849818 0.10841326 -0.044948965 0.07205624
-0.012953451 0.22268277 -0.039187483 -0.09801291 -0.041207246 0.11801165 0.18529308 -0.026313525
0.09269596 0.11736826 -0.5616623 -0.14731766 -0.1890523 0.0037571215 0.21297784 0.05968305
0.0959435 0.048143905 -0.18741953 0.08514938 0.069149084 -0.062233075 0.070471525 -0.0034024273
0.09780638 -0.23966399 -0.5110177 -0.07558368 0.016443402 -0.115853906 -0.07680767 0.0710927
-0.058694005 0.0738932 0.037960898 0.33976305 -0.107497916 0.012788996 0.064441666 0.18398972
-0.13955575 -0.052086566 0.107866034 0.07740339 0.23078936 -0.12191447 -0.023299847 -0.04218355
00000000: 9cd7 403d b194 41bc ee4e 863d 8596 85bb
00000010: 2911 0fbe b0be 2dbd dcae 853e 4c16 143e
00000020: 7390 9fbe a5a9 5b3d 4cd6 553d 5573 633d
00000030: f4c7 e33b ec43 d63d b2d4 9fbd 230b dd3d
00000040: 34d1 04be 4721 0f3e 2ba9 4a3d 9a25 303e
00000050: 9626 9d3d 5d44 833d f5a4 70bd 3b19 323d
00000060: 79c6 c03d 78f1 7e3d 41fa d83d 230c 6f3f
00000070: 9e9e a83e ae75 093e 51a9 e13c 42b0 4f3c
00000080: dedb 273e ac93 eb3d 8e1e 8f3d 913a 81ba
00000090: 5831 f6be 370f d73d a058 b7bd 8e55 493e
000000a0: 31dc ccbb a693 28bd 5c75 173b c416 323e
000000b0: 540e 01bd d94f da3c 5ca2 e23b eb45 d53e
000000c0: bf3d 3d3d 3915 d6bd ede9 eb3d 5c0b 653d
000000d0: 2c29 783f 5da8 5b3d 512f 70bc 265f 903c
000000e0: 3c41 ba3d 6a7c 153d a617 78bc e5c5 b63d
000000f0: 6b13 a93d e968 63be f44e 083e 1d69 0f3e
00000100: e52d 5fbf 03cc 873d dc35 6cbc 6bed 0c3d
00000110: 3d36 053e 19d6 4dbe 12e0 183c d2fb 183e
00000120: 64d8 5fbd 0679 13bd a6f6 39bc e7b7 0cbe
00000130: 25e7 4dbc 9060 97be 276c 04bd 21da 17bd
00000140: 3651 843d 1022 203d ddba 9b3e ea16 113e
00000150: d165 113f 26b2 87bd 251a 24bd b17f 863d
00000160: 6557 b33d c2b2 033d 71ae 353a 1d9e b23d
00000170: 31e1 7d3e ccad 1cbc 3c0f 63bc 37d9 3dbd
00000180: 221b b4bd 72a0 0cbd 3fda b1bd d4c5 35be
00000190: c8c2 eebc d4cd 1f3d 3487 1b3d aea4 95bc
000001a0: e6c0 a83d 2b9c 513d 836d 7fbd bc72 ffbc
000001b0: 6424 5d3d b091 073e 884b 76bd 973b 033d
000001c0: c358 2c3e 36ba 853d 4263 eabd ebcd 403e
000001d0: 6a7e ba3d fb23 443e cf0a 0fbd d10d 1bbe
000001e0: f951 b4bd cbc9 9ebc 11e6 b5bd fb77 e4bd
000001f0: 1401 80bc 5ed3 cc3d dcf5 b03c 012a 01be
00000200: 8161 7a3d b3ec c53d 5469 8f3c 3eb4 d6be
00000210: 6644 0fbb b3d2 b8bd 7060 66bd a35d 273e
00000220: 004c 00be 7d61 283d d55c 93be 0814 d6be
00000230: a8ad a23d 95c6 1d3e a596 1a3d b883 71bd
00000240: 61d3 913d 5a90 a33e 2d21 be3d e107 bd3e
00000250: f576 26bd 329c c0bc 704c 10bc dde6 103d
00000260: 8e14 1dbe f172 543e 0af0 323e 981e bb3d
00000270: 7fa6 a4bb 2200 9dbc b6dd 34be f30d 21bd
00000280: 72bf 56bd 54bf c43d c7c2 a5ba a89c 333e
00000290: 31af a0bd f25b 5bbc fe3e 9ebb 1731 bfbb
000002a0: 0e00 663c 17cb 523d 55a5 5a3d 3af9 59be
000002b0: 817f 10be 81b7 8b3d 3cf5 5dbd 9b62 2a3d
000002c0: 16dd cc3c 8182 9abe 771c 293d 1645 843f
000002d0: f697 203e 976e f2bc 5d67 ce3d 4947 99bc
000002e0: 26ce e93d 639d 183e 0b7e 01bd 1628 723c
000002f0: 1eda 8ebd 21a1 4a3d a8de 943d d3b4 cf3c
00000300: 4749 3dbc 95ce 833d 1cb2 debd 9c50 343d
00000310: 3762 c03a 6082 e73e 88ae b43c 5515 763d
00000320: 9b1e ac3b 225b 84bc 0933 1e3d 7d60 cebd
00000330: 2caf f23d c507 de3d 681c 38bd 3992 933d
00000340: b63a 54bc f406 643e 0e83 20bd feba c8bd
00000350: eec8 28bd 18b0 f13d 78bd 3d3e 768f d7bc
00000360: 61d7 bd3d c55e f03d 1ac9 0fbf 71da 16be
00000370: ed96 41be 0a3a 763b dd16 5a3e 3776 743d
00000380: 077e c43d 8b32 453d e8ea 3fbe cc62 ae3d
00000390: 099e 8d3d 1ce8 7ebd 6053 903d 42fb 5ebb
000003a0: b64e c83d 7a6a 75be 0ed2 02bf 9ecb 9abd
000003b0: 50b4 863c d044 edbd 574d 9dbd 0d99 913d
000003c0: 2069 70bd 5155 973d e37c 1b3d 6cf5 ad3e
000003d0: de27 dcbd f088 513c fef9 833d cd67 3c3e
000003e0: b4e7 0ebe b958 55bd dee8 dc3d ab85 9e3d
000003f0: 0c54 6c3e 4bae f9bd 52df bebc a8c8 2cbd

l3.bias f4 [64]
-0.042684957 -0.085003495 -0.059320465 0.03933325 -0.066199906 -0.027944319 0.083119266 0.017206479
-0.058146372 -0.047352687 0.027536813 -0.06244449 -0.02137017 -0.002360155 -0.06054534 0.013962447
0.03640074 0.022302693 0.09309611 0.032728177 -0.021948494 -0.038885705 0.06942238 0.06650998
0.009912511 -0.059083663 -0.05323946 0.0402328 -0.0010570365 -0.022986101 -0.0050593494 0.022280913
0.0975076 -0.016733393 0.043601435 0.06588948 -0.052994173 0.005218438 0.041588806 -0.01990853
0.007835734 0.04040466 0.05167684 0.08793862 -0.046792947 -0.025654703 -0.0067638806 0.052017394
0.0017978434 -0.042161036 0.0010257214 0.09954765 -0.051691547 -0.0021114268 -0.0078141065 0.029408189
0.06921982 -0.063409746 0.06662094 0.06634928 -0.026838694 -0.06293736 -0.048101064 -0.055585485
00000000: 6cd6 2ebd 5016 aebd 04fa 72bd e71b 213d
00000010: d193 87bd 7ceb e4bc 6f3a aa3d 9af4 8c3c
00000020: e42a 6ebd e4f4 41bd e294 e13c cbc5 7fbd
00000030: 7f10 afbc d5ac 1abb 64fe 77bd bfc2 643c
00000040: f118 153d 23b4 b63c 2ca9 be3d fb0d 063d
00000050: 54cd b3bc 9e46 1fbd 522d 8e3d 6236 883d
00000060: 1668 223c b601 72bd 9f11 5abd 26cb 243d
00000070: 428c 8aba 594d bcbc e6c8 a5bb 7686 b63c
00000080: 11b2 c73d 7814 89bc 6b97 323d 10f1 863d
00000090: 6b10 59bd 6eff aa3b 0659 2a3d 3717 a3bc
000000a0: 7361 003c 5b7f 253d 18ab 533d 2a19 b43d
000000b0: f6a9 3fbd d029 d2bc 8ba3 ddbb 3110 553d
000000c0: 9da5 eb3a 0db1 2cbd 8071 863a a3df cb3d
000000d0: 84ba 53bd dd5f 0abb bd06 00bc 71e9 f03c
000000e0: 1fc3 8d3d f8dc 81bd 8f70 883d 22e2 873d
000000f0: d2dc dbbc 4de5 80bd 9f05 45bd 9bad 63bd

l4.weight f4 [2, 64]
0.23650785 -0.78080416 -0.021463092 0.17329183 -0.10137488 -0.4350771 1.0186541 -0.22626828
-0.32834825 -0.23995328 0.078342184 -0.2981072 -0.90684384 -0.15451874 -0.01876412 0.2542253
-0.10535217 0.38228044 0.37729505 -0.10328088 1.4057683 0.19921255 -0.25912133 -0.6732129
-0.18270673 0.053809542 0.8866563 0.065977186 0.6115227 0.018485129 1.4114189 -0.13673617
-0.14638926 -1.1037275 -0.1940365 -0.18292142 0.19013622 0.11438365 0.09266072 -0.0255937
-1.0689217 -1.5942478 -0.11976037 -0.0058087097 -0.13678849 -0.017513886 -0.16932078 0.06805292
0.1912063 0.19641648 0.32090005 0.027316066 -0.11556521 -0.050393168 1.1773937 0.36506423
-0.16241159 0.13972291 -0.2840648 -0.05441404 0.014552581 -0.04502055 0.2201359 0.019971114
-0.17517966 0.31902987 -0.04389104 0.051897336 -0.3611381 0.13003816 0.6420286 0.19146167
-0.37418622 -0.64255506 -0.07994257 -0.4404934 1.1019971 0.5010673 0.07400296 -0.17204401
-0.19769241 0.14021614 0.73936665 -0.6129885 0.306176 -0.21478216 0.20531256 0.59948355
0.35298374 -0.1514102 -0.23305316 -0.112240866 0.17878224 0.60123485 -0.03270002 0.1720495
0.5014027 -0.9773749 0.53789383 -0.14798237 -0.13672347 0.120607875 -0.09375298 -0.06489835
0.9164113 0.12357514 -0.47972342 0.5352601 -0.29333645 -0.09583078 -0.1555877 -0.052840684
0.15181434 0.024696965 -0.17702132 0.60525453 -0.26248592 -0.10799403 0.046935815 0.57179064
0.25989038 -0.16369703 0.3302744 0.318437 -0.09631151 -0.060954373 0.10963965 -0.108372524
00000000: 1d2f 723e c8e2 47bf 5ed3 afbc 6a73 313e
00000010: a29d cfbd 6dc2 debe 4263 823f dfb2 67be
00000020: 431d a8be 50b6 75be de71 a03d 82a1 98be
00000030: eb26 68bf 293a 1ebe 36b7 99bc d229 823e
00000040: e1c2 d7bd 43ba c33e d12c c13e ed84 d3bd
00000050: 37f0 b33f 60fe 4b3e 8dab 84be ae57 2cbf
00000060: 7917 3bbe 6567 5c3d e8fb 623f 0c1f 873d
00000070: c08c 1c3f 206e 973c 60a9 b43f 9104 0cbe
00000080: 11e7 15be f146 8dbf 81b1 46be c14f 3bbe
00000090: 12b3 423e fa41 ea3d e7c4 bd3d e1a9 d1bc
000000a0: 6dd2 88bf 5010 ccbf ed44 f5bd fd56 bebb
000000b0: 4812 0cbe 4879 8fbc 6d62 2dbe 545f 8b3d
000000c0: 96cb 433e 6721 493e 034d a43e f1c5 df3c
000000d0: 74ad ecbd 1169 4ebd d6b4 963f b3e9 ba3e
000000e0: 394f 26be 8613 0f3e f170 91be 42e1 5ebd
000000f0: f36d 6e3c 7867 38bd 4e6b 613e 769a a33c
00000100: 4c62 33be e257 a33e 17c7 33bd 4d92 543d
00000110: 18e7 b8be b928 053e fd5b 243f 870e 443e
00000120: 5695 bfbe 7d7e 24bf eeb8 a3bd 5a88 e1be
00000130: 3e0e 8d3f f245 003f dd8e 973d 4e2c 30be
00000140: e16f 4abe d294 0f3e 2247 3d3f d0ec 1cbf
00000150: 1ac3 9c3e dbef 5bbe 753d 523e c177 193f
00000160: 49ba b43e 470b 1bbe 7da5 6ebe 8ade e5bd
00000170: b112 373e 87ea 193f 75f0 05bd be2d 303e
00000180: ed5b 003f 3e35 7abf 69b3 093f b188 17be
00000190: 3d01 0cbe 4301 f73d 9001 c0bd 6de9 84bd
000001a0: ee99 6a3f f714 fd3d 4f9e f5be ce06 093f
000001b0: 3230 96be ee42 c4bd 6252 1fbe 796f 58bd
000001c0: 3875 1b3e 4a51 ca3c 1445 35be f6f1 1a3f
000001d0: 8e64 86be f92b ddbd c53f 403d df60 123f
000001e0: 5a10 853e 32a0 27be ba19 a93e 2d0a a33e
000001f0: f83e c5bd 4bab 79bd c18a e03d 6af2 ddbd

l4.bias f4 [2]
-0.017956017 0.010768717
00000000: 7f18 93bc 466f 303c
