turtlebot3_machine_learning/turtlebot3_td3/models/TD3_stage2_crtic_2.pth (torch_old, 48615 bytes, 5 tensors)

l1.weight f4 [128, 27]
0.16557737 0.010124897 0.11999904 -0.021929936 -0.041005533 -0.0033477328 0.25839317 0.067831494
0.082206346 0.08169098 -0.06905516 -0.05828504 -0.16791105 -0.09340208 2.0620541e-06 -0.025951164
0.04165054 -0.019067014 0.20250708 0.2198589 0.11256566 0.17937528 0.2091839 0.12455592
-0.77331793 0.09201072 -0.08068072 -0.07968176 0.09412154 0.14238867 0.42274722 0.15953077
-0.2322445 -0.1372819 -0.18603513 -9.0920934e-05 -0.022018656 0.015854321 -0.033152785 -0.0029905022
-0.04704797 0.004371551 0.060931884 0.023050357 -0.13299657 -0.15744145 0.111764535 -0.106836095
-0.095395975 -0.24361981 -0.024919374 0.65231866 -0.079983495 0.18098113 0.008977213 0.14834194
-0.26167455 0.030945837 0.1815088 0.17082192 0.017816931 0.00071559654 -0.08492828 -0.012793635
0.017614849 0.10464974 0.14169697 0.029733915 -0.09258203 0.18718044 0.11023237 0.10482582
-9.341658e-05 -0.16120717 0.19524156 -0.2321685 -0.7711422 -0.041900076 0.29263183 0.30477396
-0.06758601 0.15374202 0.033960354 -0.14388256 0.15853836 -0.101903304 0.049780253 0.23671743
0.027988285 0.048628584 0.33506602 0.09610407 0.13780747 0.018261626 0.13957107 0.06514178
0.2664649 0.06405303 0.14613792 0.1985275 0.019395523 0.23019004 0.15697536 0.19272602
0.13941804 0.12314241 0.52162546 -0.03242104 -0.65382755 -0.7933206 -0.10608459 -0.27400887
-0.3838073 -0.25303534 0.3149136 0.17428853 0.07223185 0.17608126 0.11477034 0.06199901
0.23143007 -0.040440433 -0.1971007 0.016708214 -0.07315643 0.26106015 0.10947809 -0.113572024
-0.020581406 0.039435618 -0.012877998 -0.3199388 0.037848905 -1.1837243 -0.021527886 -0.06683932
-0.05939935 0.036590785 0.014396697 -0.12125317 0.07713972 -0.0811599 0.017323732 -0.0012651235
-0.1908858 -0.10539199 -0.11873129 -0.17116646 -0.10262006 -0.117222056 -0.04768011 -0.1905835
-0.16172682 -0.10929478 0.09932171 -0.08711071 -0.056480646 0.018536642 -0.0781733 0.069214776
0.07164593 -0.1320379 -0.13767615 -0.22891344 -0.13745931 -0.3499951 0.19289385 -0.063329175
-0.12327008 0.1650641 -0.025303653 -0.13441058 0.06319082 0.08966167 -0.12072673 0.1531655
0.29781932 -0.031717353 0.17420247 0.31914532 0.26073503 0.17172062 0.2693309 0.09641398
0.015944272 -0.17783697 0.03262147 -0.4407012 -0.02094317 -0.15171611 -0.21628946 -0.35273764
-0.46948877 -0.25450638 -0.1650684 -0.032253325 0.12563981 0.2911417 0.27346775 0.36123028
0.33098415 0.12629235 0.087408476 1.1312613 0.3238555 -0.090191394 0.358359 0.18938407
0.21531604 0.23329416 -0.13140231 0.064181566 0.11099878 -1.0999146 -0.23142911 -0.21093932
0.08525031 0.053548686 0.02534473 -0.085842736 0.10873864 0.045722954 0.009335689 0.13371082
-0.09584623 0.0115548065 -0.02801678 0.046682537 0.14922827 0.009878548 0.09712861 0.04699166
0.17075562 -0.11330547 -0.0056717796 -2.1406298 -4.017146 0.1476251 0.0060754535 0.030452859
-0.03010623 0.12663803 -0.06418427 0.34005338 -0.06573799 -0.27568114 -0.4723371 -0.22981639
0.23774178 0.12271258 -0.031970453 -0.19778661 -0.41020852 -0.26405078 0.22307035 0.14737605
00000000: 1d8d 293e e5e2 253c 0fc2 f53d 69a6 b3bc
00000010: 6bf5 27bd a365 5bbb 1c4c 843e 3deb 8a3d
00000020: cd5b a83d 9a4d a73d cb6c 8dbd 4bbc 6ebd
00000030: e0f0 2bbe 9749 bfbd d261 0a36 8997 d4bc
00000040: c299 2a3d 6d32 9cbc 045e 4f3e b122 613e
00000050: d388 e63d 27ae 373e 4e34 563e 2d17 ff3d
00000060: 2af8 45bf 1e70 bc3d ef3b a5bd 3130 a3bd
00000070: cbc2 c03d 56ce 113e 5372 d83e 095c 233e
00000080: 81d1 6dbe a093 0cbe fe7f 3ebe ceac beb8
00000090: 7860 b4bc ece0 813c 37cb 07bd 4dfc 43bb
000000a0: 5fb5 40bd 3a3f 8f3b b693 793d 1ad4 bc3c
000000b0: 4130 08be 5538 21be cee4 e43d e2cc dabd
000000c0: f75e c3bd 7977 79be b723 ccbc 5bfe 263f
000000d0: 63ce a3bd 1e53 393e 2915 133c f3e6 173e
000000e0: 35fa 85be 2082 fd3c 71dd 393e f1eb 2e3e
000000f0: d0f4 913c df96 3b3a e1ee adbd 659c 51bc
00000100: 044d 903c 9a52 d63d 0319 113e 8a94 f33c
00000110: a69b bdbd 3bac 3f3e 82c1 e13d ebae d63d
00000120: a5e8 c3b8 7e13 25be 67ed 473e 94bd 6dbe
00000130: 9369 45bf 6a9f 2bbd d7d3 953e 550b 9c3e
00000140: 896a 8abd 8c6e 1d3e 031a 0b3d f355 13be
00000150: e157 223e aeb2 d0bd 61e6 4b3d 0e66 723e
00000160: b047 e53c c42e 473d c68d ab3e 36d2 c43d
00000170: 671d 0d3e 6899 953c b8eb 0e3e 0e69 853d
00000180: 166e 883e 3c2e 833d 2ea5 153e cb4a 4b3e
00000190: 5ce3 9e3c f0b6 6b3e 26be 203e f859 453e
000001a0: 9ac3 0e3e 1632 fc3d 3f89 053f edcb 04bd
000001b0: 3e61 27bf 0f17 4bbf e142 d9bd e44a 8cbe
000001c0: 6482 c4be d98d 81be 5b3c a13e b178 323e
000001d0: 4bee 933d a54e 343e b60c eb3d adf2 7d3d
000001e0: 01fc 6c3e dea4 25bd c4d4 49be aadf 883c
000001f0: 0ad3 95bd ada9 853e 0d36 e03d 7398 e8bd
00000200: 569a a8bc 3e87 213d 3dfe 52bc 05cf a3be
00000210: 7407 1b3d 4784 97bf 405b b0bc 0ee3 88bd
00000220: bc4c 73bd 38e0 153d 20e0 6b3c 9553 f8bd
00000230: 6efb 9d3d 2937 a6bd 80ea 8d3c 80d2 a5ba
00000240: 9177 43be c1d7 d7bd 6429 f3bd 4346 2fbe
00000250: 772a d2bd 1e12 f0bd 384c 43bd 5228 43be
00000260: b79b 25be f1d5 dfbd 2e69 cb3d 1a67 b2bd
00000270: 4058 67bd 28da 973c 5319 a0bd 7ac0 8d3d
00000280: 1abb 923d f134 07be fafa 0cbe 4968 6abe
00000290: 22c2 0cbe 8f32 b3be f785 453e bab2 81bd
000002a0: 0675 fcbd 9006 293e 9b49 cfbc eda2 09be
000002b0: 306a 813d 8aa0 b73d 933f f7bd 6bd7 1c3e
000002c0: c67b 983e 0eea 01bd 2262 323e 0467 a33e
000002d0: 107f 853e 88d7 2f3e bde5 893e b174 c53d
000002e0: 909d 823c e51a 36be 179e 053d 96a3 e1be
000002f0: 0391 abbc 785b 1bbe fc7a 5dbe 079a b4be
00000300: d560 f0be a94e 82be b107 29be 101c 04bd
00000310: b9a7 003e 8610 953e f703 8c3e 2df3 b83e
00000320: c176 a93e c852 013e 3703 b33d 2ccd 903f
00000330: 63d0 a53e 44b6 b8bd d57a b73e e6ed 413e
00000340: cf7b 5c3e aae4 6e3e 548e 06be a071 833d
00000350: 5453 e33d 00ca 8cbf c1fb 6cbe 7a00 58be
00000360: b797 ae3d de55 5b3d c09f cf3c 51ce afbd
00000370: 5db2 de3d fe47 3b3d b8f4 183c 7deb 083e
00000380: 074b c4bd 5f50 3d3c 7283 e5bc 3036 3f3d
00000390: 4ccf 183e a2d9 213c 5deb c63d 547a 403d
000003a0: 90da 2e3e b30c e8bd 56da b9bb 1400 09c0
000003b0: 768c 80c0 092b 173e 9914 c73b 4678 f93c
000003c0: 57a1 f6bc 66ad 013e 0b73 83bd 7a1b ae3e
000003d0: a4a1 86bd 1426 8dbe 2bd6 f1be fd54 6bbe
000003e0: 9572 733e bc50 fb3d 73f3 02bd 9388 4abe
000003f0: da06 d2be aa31 87be 8e6c 643e bfe9 163e

l1.bias f4 [128]
-0.19512075 -0.4413683 -0.44952798 0.53023803 0.037434198 0.0047091097 -0.14942111 -0.680105
0.11630096 0.4091405 -0.009722859 0.85180473 -0.20386831 0.6087145 0.16838644 -0.44568595
0.51323116 0.22772987 0.47329214 -0.14001998 -0.3608793 -0.60657 0.35919136 0.17447129
-0.22820027 -0.15751284 0.037425783 0.8168211 0.67226756 0.24986237 0.1618752 -0.63651276
0.55640006 0.10801503 0.56240547 -0.18196958 0.51633996 -0.15874645 0.5130564 0.22029732
0.5639093 0.38209993 0.5847544 0.58768773 0.037252832 0.67812145 0.7542159 0.10603465
0.374248 0.46279845 0.9642925 -0.12272713 -0.2814839 -0.282879 -0.50133777 0.52858144
-0.38777813 0.17388575 0.5681675 0.93589085 0.5381914 0.50257474 0.4954036 0.07416832
0.03454956 0.2514217 -0.19834875 0.12347571 -0.084919654 0.18497048 0.6923409 0.2016921
-0.057391286 -0.6452956 0.66379416 0.36258906 -0.14042222 0.48924297 0.35569823 0.48427615
0.88050485 0.20636696 -0.17668763 -0.22956525 0.23589115 0.032531843 0.9646967 1.0488563
0.5497556 -0.09601736 -0.5655762 -0.3898801 -0.17982951 0.046117935 0.9775671 0.7232243
-0.17134501 0.19687395 0.16888323 -0.45188773 0.6747553 1.067354 0.120470315 -0.3389008
-0.2065615 0.59566855 0.83709055 0.21081376 0.88536924 0.6760709 0.09379797 0.5900259
-0.5023114 -0.4356526 0.11721694 0.467043 -0.043819193 0.43159905 -0.080778725 0.5571897
-0.052364707 0.59313214 0.9775848 0.36675915 0.2368138 0.34094167 -0.1284118 -0.099514805
00000000: bccd 47be 07fb e1be 8828 e6be aebd 073f
00000010: 9a54 193d e04e 9a3b d901 19be 5c1b 2ebf
00000020: 332f ee3d dd7a d13e a04c 1fbc e00f 5a3f
00000030: dbc2 50be b7d4 1b3f 7f6d 2c3e f330 e4be
00000040: 1e63 033f 0532 693e 5953 f23e 6661 0fbe
00000050: 2cc5 b8be 2c48 1bbf eee7 b73e 9aa8 323e
00000060: 55ad 69be 0c4b 21be c74b 193d 301b 513f
00000070: ba19 2c3f ecdb 7f3e 9dc2 253e 80f2 22bf
00000080: 3c70 0e3f fc36 dd3d cef9 0f3f 3c56 3abe
00000090: db2e 043f 6e8e 22be aa57 033f 9f95 613e
000000a0: 5c5c 103f 9aa2 c33e 77b2 153f b472 163f
000000b0: 6d96 183d 5e99 2d3f 4b14 413f b228 d93d
000000c0: 6f9d bf3e ebf3 ec3e e0db 763f 5d58 fbbd
000000d0: a81e 90be 84d5 90be ac57 00bf 1d51 073f
000000e0: db8a c6be 1b0f 323e 6d73 113f 8b96 6f3f
000000f0: e9c6 093f bda8 003f 8aa5 fd3e 8fe5 973d
00000100: d783 0d3d 58ba 803e ef1b 4bbe d5e0 fc3d
00000110: 5bea adbd e768 3d3e 413d 313f 6088 4e3e
00000120: 2013 6bbd 1832 25bf 6aee 293f 46a5 b93e
00000130: d8ca 0fbe 0e7e fa3e 141e b63e 0bf3 f73e
00000140: c468 613f dc51 533e 9aed 34be 2713 6bbe
00000150: 738d 713e 1c40 053d 5df6 763f ec40 863f
00000160: c8bc 0c3f c0a4 c4bd 9ac9 10bf 5d9e c7be
00000170: 3a25 38be 29e6 3c3d d641 7a3f 3a25 393f
00000180: 1175 2fbe 5399 493e baef 2c3e d45d e7be
00000190: c3bc 2c3f 0e9f 883f 24b9 f63d 6884 adbe
000001a0: dc84 53be bc7d 183f 914b 563f 90df 573e
000001b0: 8fa7 623f fc12 2d3f 2619 c03d f00b 173f
000001c0: 7b97 00bf dc0d dfbe 6f0f f03d 4320 ef3e
000001d0: c17b 33bd 8dfa dc3e 516f a5bd fca3 0e3f
000001e0: 607c 56bd 82d7 173f ff42 7a3f dbc7 bb3e
000001f0: 517f 723e e88f ae3e 627e 03be 6bce cbbd

l2.weight f4 [64, 128]
0.6148432 0.29461578 0.2690264 -0.057259038 1.1741757 -0.03575726 0.19753554 0.34802863
4.7025924 -0.030729445 0.08478693 0.0019478896 0.24682656 0.06537624 2.308892 0.38574442
0.018754661 -0.079196386 2.5090957 0.04752537 -0.22887631 0.4228177 -0.049050316 0.09269369
-0.7705709 0.8955623 0.06397582 -0.034678586 0.083490185 0.5103729 -0.02298999 0.52548945
-0.1099269 4.21586 -0.16004288 0.32376695 -0.087773755 0.31833398 -0.019697025 2.49209
0.05101207 0.27068475 -0.07363807 0.096394524 0.030516876 -0.45485407 0.021135004 -0.48846683
-0.062084027 -0.07097887 -0.07654173 0.009737864 0.37513903 0.3796813 0.62621874 2.1476054
0.4026574 -0.12030539 -0.038110618 -0.079191655 0.0014570797 -0.13324523 0.044942018 0.19420467
0.4414517 0.5569907 0.27083728 0.28824767 -0.19774343 0.5531416 0.080025375 -0.10002574
-0.06875479 -1.9200608 -0.16414624 -0.012939628 0.4692267 -0.11612278 -0.19320169 -0.24136226
0.048152603 0.52872187 -0.07196061 -0.92351633 0.008789409 0.115956165 -0.013591117 0.07024543
-0.16445667 0.3107665 0.33698854 0.21571559 0.22088708 -0.1974529 -0.09825709 0.01854856
0.34247765 0.15996647 -0.20269766 0.22620106 0.068636864 -0.05363331 1.3955032 0.35487533
0.3547289 4.1666036 0.018752981 1.8070979 0.0025660219 -0.03800481 0.54777646 -0.16863121
0.47051227 0.12189116 0.28666234 2.5009348 2.0877523 0.007066148 0.25649512 -0.05397587
0.023158789 -0.7611629 0.04653539 -0.083291315 0.20809016 -0.27690268 -0.0020105168 0.09677287
-0.50798935 -0.19461587 -0.19012244 0.19511858 -1.8031528 0.013477877 -0.12305577 -0.16366132
-4.671712 0.22444351 -0.05559792 0.03131978 -0.25739148 0.095586345 -2.8582003 -0.34543693
0.17741318 0.21048325 -2.606729 0.05669222 0.44498488 -0.40998402 0.20557082 -0.15727393
0.8386343 -0.8690597 -0.0669186 0.21590175 0.07528968 -0.5698262 0.03623945 -0.5790655
0.3233467 -4.3502207 0.113315664 -0.18789232 0.057264958 -0.47490576 0.2046878 -2.90753
0.07141698 -0.23914644 0.17231475 0.1702067 -0.0120525 0.63483995 0.18296327 0.5654335
0.26326945 0.1370946 0.21816796 0.016195104 -0.20363724 -0.3753892 -0.5782639 -1.9769931
-0.48354602 0.086866826 0.22392936 0.24056591 0.0704661 0.09306979 0.20324963 -0.29311773
-0.5144225 -0.36710277 -0.15949129 -0.31409445 0.08547588 -0.9962333 0.13179848 0.2204927
-0.053510323 1.7669225 0.21004349 -0.19048788 -0.6030777 0.14767721 0.12255247 0.19286297
0.107367 -0.6337667 -0.07024545 0.5556638 0.20436504 -0.48916024 0.08889675 0.15538551
0.31689116 -0.34842518 -0.31637055 -0.04565354 -0.19787547 0.3049539 0.21217367 0.03852128
0.032035194 -0.005179651 0.28414586 -0.22504617 0.092235625 0.2223412 -1.2639309 -0.26893175
-0.44339755 -4.2091765 0.14929506 -1.7151694 0.21841165 0.13345318 -0.3909944 0.24712954
-0.49815452 -0.1890912 -0.5869256 -2.7059724 -2.1164434 0.120597616 -0.06526228 0.23702449
-0.08663037 0.62227434 0.20560768 0.13524242 -0.8068193 0.28496233 0.026844405 0.08594357
00000000: 5d66 1d3f e1d7 963e d4bd 893e 7488 6abd
00000010: 644b 963f 3476 12bd c246 4a3e cf30 b23e
00000020: a37b 9640 51bc fbbc c5a4 ad3d 5450 ff3a
00000030: 1ac0 7c3e fae3 853d e3c4 1340 4b80 c53e
00000040: 60a3 993c b731 a2bd 0695 2040 f6a9 423d
00000050: 8d5e 6abe 907b d83e fce8 48bd 30d6 bd3d
00000060: 2244 45bf 9243 653f c105 833d 220b 0ebd
00000070: e7fc aa3d cca7 023f 8155 bcbc 7a86 063f
00000080: 5b21 e1bd 53e8 8640 48e2 23be c8c4 a53e
00000090: bac2 b3bd acfc a23e a85b a1bc 677e 1f40
000000a0: 08f2 503d 3197 8a3e 8ecf 96bd 7e6a c53d
000000b0: 87fe f93c a2e2 e8be 5123 ad3c 5318 fabe
000000c0: d24b 7ebd 5f5d 91bd e9c1 9cbd 908b 1f3c
000000d0: 3912 c03e 9665 c23e df4f 203f 5e72 0940
000000e0: 1c29 ce3e ac62 f6bd e119 1cbd 3c2f a2bd
000000f0: 7bfb be3a 7071 08be 1f15 383d 97dd 463e
00000100: f505 e23e f196 0e3f 2fab 8a3e 3395 933e
00000110: 417d 4abe b09a 0d3f 58e4 a33d 4cda ccbd
00000120: 50cf 8cbd 8dc4 f5bf f415 28be bc00 54bc
00000130: 7b3e f03e c8d1 edbd aad6 45be ab27 77be
00000140: aa3b 453d 515a 073f 1660 93bd 916b 6cbf
00000150: 7401 103c 6d7a ed3d 47ad 5ebc d6dc 8f3d
00000160: 5467 28be c91c 9f3e c389 ac3e 8ce4 5c3e
00000170: 3930 623e 1831 4abe 033b c9bd 26f3 973c
00000180: 3b59 af3e 40ce 233e fa8f 4fbe 40a1 673e
00000190: 7c91 8c3d 9aae 5bbd d99f b23f 38b2 b53e
000001a0: 079f b53e d154 8540 da9f 993c fc4e e73f
000001b0: b42a 283b efaa 1bbd 143b 0c3f a9ad 2cbe
000001c0: fce6 f03e 13a2 f93d 68c5 923e 510f 2040
000001d0: bc9d 0540 258b e73b 5453 833e cd15 5dbd
000001e0: 80b7 bd3c 92db 42bf e59b 3e3d a394 aabd
000001f0: 9615 553e 30c6 8dbe e0c2 03bb db30 c63d
00000200: 970b 02bf 6249 47be 75af 42be 2acd 473e
00000210: b6cd e6bf 50d2 5c3c aa04 fcbd d596 27be
00000220: aa7e 95c0 85d4 653e a5ba 63bd 2b49 003d
00000230: d1c8 83be c6c2 c33d c1ec 36c0 1cdd b0be
00000240: cdab 353e ec88 573e a6d4 26c0 1a36 683d
00000250: 0fd5 e33e 6de9 d1be 2881 523e 6b0c 21be
00000260: bdb0 563f b27a 5ebf 9e0c 89bd 5915 5d3e
00000270: 7a31 9a3d 21e0 11bf d16f 143d a33d 14bf
00000280: b38d a53e 0235 8bc0 0b12 e83d d866 40be
00000290: a98e 6a3d d926 f3be ae99 513e f914 3ac0
000002a0: 1143 923d cee2 74be 4773 303e aa4a 2e3e
000002b0: d977 45bc df84 223f b95a 3b3e 40c0 103f
000002c0: 41cb 863e 8762 0c3e 6c67 5f3e 98ab 843c
000002d0: 4886 50be 0333 c0be 1a09 14bf 1c0e fdbf
000002e0: 5893 f7be 3ce7 b13d bd4d 653e e956 763e
000002f0: 8850 903d 609b be3d ac20 503e 8713 96be
00000300: 31b1 03bf e5f4 bbbe af51 23be fdd0 a0be
00000310: fa0d af3d 2509 7fbf 2ef6 063e d7c8 613e
00000320: a42d 5bbd 842a e23f a415 573e 410f 43be
00000330: 4d63 1abf b238 173e cafc fa3d df7d 453e
00000340: 3be3 db3d 893e 22bf d9dc 8fbd fc3f 0e3f
00000350: 1245 513e 3673 fabe 800f b63d 611d 1f3e
00000360: 8f3f a23e c964 b2be 52fb a1be 35ff 3abd
00000370: de9f 4abe eb22 9c3e 0e44 593e 7dc8 1d3d
00000380: 5637 033d 10ba a9bb 917b 913e 8172 66be
00000390: 08e6 bc3d 69ad 633e 7dc8 a1bf 6cb1 89be
000003a0: 0105 e3be 93b1 86c0 cee0 183e ac8a dbbf
000003b0: 4ea7 5f3e f3a7 083e 6b30 c8be 870f 7d3e
000003c0: 1c0e ffbe 20a1 41be c240 16bf a72e 2dc0
000003d0: cf73 07c0 e2fb f63d 3ba8 85bd 8cb6 723e
000003e0: 436b b1bd 5f4d 1f3f d28a 523e fd7c 0a3e
000003f0: b68b 4ebf 95e6 913e cce8 db3c 2f03 b03d

l2.bias f4 [64]
-0.46545574 0.4445749 0.4650632 0.46737835 0.01714244 -0.28499514 -0.31497517 0.024586007
-0.031714395 0.56505716 -0.34850708 0.49207544 0.43288675 -0.04719401 -0.42189845 0.040168397
0.10229302 0.06818083 0.534027 0.024608923 0.5320071 -0.329028 0.04998506 -0.29778334
-0.021841908 0.48837775 0.5752462 -0.22906049 -0.04370045 -0.7110714 -0.060563818 -0.080061674
0.03785194 0.04007659 0.47405422 -0.3148552 -0.0790976 -0.17172968 0.56086147 -0.052571673
-0.29919758 -0.035723746 -0.06380389 0.4444473 0.011437789 -0.29506892 0.006594377 -0.4292637
-0.32568705 0.044869535 -0.33322912 -0.44525218 0.46092147 0.41962406 -0.13381338 -0.315015
0.55940515 -0.23029765 0.4657469 -0.42867908 0.059538387 0.4799762 -0.44784024 -0.05307704
00000000: 3750 eebe 529f e33e c41c ee3e 374c ef3e
00000010: 4d6e 8c3c e2ea 91be 6d44 a1be 9868 c93c
00000020: f4e6 01bd 96a7 103f 856f b2be 50f1 fb3e
00000030: 55a3 dd3e 824e 41bd 1303 d8be 9e87 243d
00000040: 017f d13d 64a2 8b3d feb5 083f a798 c93c
00000050: 9e31 083f 5c76 a8be 22bd 4c3d 0f77 98be
00000060: cded b2bc a60c fa3e 5643 133f d58e 6abe
00000070: 3eff 32bd c608 36bf c411 78bd 60f7 a3bd
00000080: a30a 1b3d 5a27 243d 3cb7 f23e b334 a1be
00000090: ecfd a1bd e8d9 2fbe 9e94 0f3f 6555 57bd
000000a0: 6d30 99be 1053 12bd 9dab 82bd 998e e33e
000000b0: 9065 3b3c 4613 97be a515 d83b 74c8 dbbe
000000c0: 74c0 a6be 1ec9 373d 029d aabe 18f8 e3be
000000d0: e6fd eb3e f7d8 d63e 6006 09be a549 a1be
000000e0: 2d35 0f3f 26d3 6bbe 6176 ee3e d37b dbbe
000000f0: 86de 733d 71bf f53e 514b e5be 4f67 59bd

l3.weight f4 [1, 64]
-0.8704914 0.9064306 1.0417944 0.89056575 -0.088578634 -0.81125045 -0.79142576 -0.006044507
0.028945163 0.95895815 -0.9399411 0.9549075 0.9822438 -0.055495877 -0.7607382 -0.122153
-3.4092298 -0.012626201 1.1129382 0.045801513 0.8794933 -1.2402791 -0.0010897517 -1.670101
-0.02668208 1.0302459 0.97458535 -2.3620086 -0.071020074 3.2605655 0.090813644 0.047106873
-0.1183427 -0.10919933 -8.41417 -2.1306472 -0.10441698 -2.0232708 0.8518959 0.063824
-0.9092114 -4.8311415 0.030945787 0.9307793 0.043249164 -0.77662253 0.0568677 -0.9185713
-0.7355055 0.06485735 -0.8232402 -0.73362225 1.019354 0.9486613 1.7973354 -0.80716735
0.91362053 -1.5814991 0.9201838 -0.84287566 0.038845602 0.90262395 -0.8135055 0.027078485
00000000: 86d8 5ebf d60b 683f 8559 853f 1efc 633f
00000010: b768 b5bd 1cae 4fbf e19a 4abf 0011 c6bb
00000020: 681e ed3c 487e 753f fb9f 70bf d174 743f
00000030: 5474 7b3f a54f 63bd bdbf 42bf 5a2b fabd
00000040: d230 5ac0 20de 4ebc c274 8e3f 5e9a 3b3d
00000050: 7926 613f 77c1 9ebf 00d6 8eba dfc5 d5bf
00000060: 6194 dabc 19df 833f 6d7e 793f 262b 17c0
00000070: f972 91bd 1bad 5040 81fc b93d 23f3 403d
00000080: a85d f2bd e6a3 dfbd 71a0 06c1 865c 08c0
00000090: 92d8 d5bd 457d 01c0 da15 5a3f 28b6 823d
000000a0: 14c2 68bf b698 9ac0 0582 fd3c 8d47 6e3f
000000b0: 0926 313d bcd0 46bf 1bee 683d 7d27 6bbf
000000c0: 174a 3cbf eed3 843d dfbf 52bf abce 3bbf
000000d0: 317a 823f 78db 723f 160f e63f 85a2 4ebf
000000e0: 09e3 693f 906e cabf 2a91 6b3f b3c6 57bf
000000f0: 911c 1f3d 5d12 673f e541 50bf b3d3 dd3c
