turtlebot3_machine_learning/turtlebot3_td3/steer&spd/models117_laser72_2/TD3_stage2_crtic_2.pth (torch_old, 106041 bytes, 7 tensors)

l1.weight f4 [24, 72]
0	0x3ef122d2	0.47096878
1	0x3e867049	0.26257542
2	0xbcef5316	-0.029214423
3	0x3dbcad31	0.09212721
4	0xbe4ee095	-0.20202859
5	0xbe4c5024	-0.19952446
6	0xbeb4eb8d	-0.3533596
7	0xbe8e6c78	-0.2781713
8	0xbea7cf98	-0.3277557
9	0xbe999c86	-0.3000223
10	0x3d725d03	0.059170734
11	0x3e301684	0.17196089
12	0x3e99cf9a	0.300412
13	0x3e05bb05	0.13059624
14	0x3ec944d3	0.3931032
15	0x3dda90b6	0.10672133
16	0x3e504406	0.20338449
17	0x3e92bc98	0.2865951
18	0x3e823b16	0.25435704
19	0x3df9fc41	0.12206317
20	0x3e863650	0.26213312
21	0x3cdb72a6	0.026788067
22	0xbdd22652	-0.10261215
23	0xbd115e78	-0.035490483
24	0xbe845700	-0.25847626
25	0xbdc995ce	-0.09843026
26	0xbde73c05	-0.11290745
27	0xbdeb63e5	-0.11493663
28	0xbdb5c78d	-0.08875952
29	0xbe35bcdc	-0.17747825
30	0xbdba5c9c	-0.09099695
31	0xbd02a5f4	-0.031896546
32	0xbd803a71	-0.06261147
33	0x3e0fb922	0.14035466
34	0xbe253168	-0.16132128
35	0x3d1097b2	0.035300918
36	0xbd77eb31	-0.06052703
37	0x3d2f1427	0.04274383
38	0x3e325f58	0.17419183
39	0x3e0c9948	0.13730347
40	0xbcd4562e	-0.02592
41	0x3d9fef41	0.07809306
42	0x3db54ce2	0.08852555
43	0x3ed43ce8	0.41452718
44	0xbd1655ef	-0.036703046
45	0x3e2dd286	0.1697484
46	0x3e0765e3	0.1322246
47	0x3ea2890c	0.31745183
48	0x3e968191	0.29395726
49	0x3dfcf7e3	0.12351968
50	0x3e16b314	0.1471675
51	0x3eab6c9e	0.33481306
52	0x3e66dd47	0.22545348
53	0x3da6aaac	0.08138022
54	0x3e86645d	0.26248446
55	0x3d66fedb	0.056395393
56	0x3decc36d	0.11560712
57	0x3ea9a138	0.33130813
58	0x3e9275ed	0.28605595
59	0x3e0330de	0.1281161
60	0x3ed44c4f	0.4146447
61	0xbc289fef	-0.010292037
62	0x3d32900b	0.0435944
63	0xbaee160f	-0.0018164533
64	0xbbae0e9a	-0.0053117992
65	0x3decb91a	0.11558743
66	0x3b281c8b	0.0025651779
67	0x3f0b4d00	0.5441437
68	0x3ede73d9	0.4344776
69	0x3eb7c866	0.3589508
70	0x3d45b2e6	0.048266314
71	0x3ea0f9c0	0.31440544
72	0x3d7143ef	0.058902677
73	0x3dd37516	0.10325067
74	0xbdedf005	-0.11618046
75	0x3d72c776	0.059272252
76	0xbd91b373	-0.07114305
77	0xbdae35f6	-0.08506386
78	0xbde587b2	-0.112075225
79	0xbd83003e	-0.063965306
80	0xbd5d5a46	-0.05404117
81	0xbd8f99b3	-0.07011738
82	0x3d9b3cb8	0.075799406
83	0xbdc5275f	-0.0962665
84	0xbd20109e	-0.039078347
85	0x3d5726ee	0.05252736
86	0xbcb3b2ac	-0.021935783
87	0x3d46845e	0.04846608
88	0xbbd140b0	-0.006385885
89	0x3d9fd3e2	0.07804085
90	0x3cb6defc	0.022323124
91	0xbd81cfd4	-0.06338468
92	0xbdbb23fd	-0.091377236
93	0xbde3d385	-0.111243285
94	0x3d8331c2	0.06405975
95	0xbde42c05	-0.111412086
96	0xbdc2f335	-0.09519044
97	0x3cf99eac	0.030471168
98	0x3dd66e7a	0.104702905
99	0x3dba6bda	0.09102602
100	0xbdce3d23	-0.10070255
101	0xbda53b1d	-0.080679156
102	0xbda966bd	-0.08271549
103	0xbd9bfe33	-0.07616844
104	0x3cec8afb	0.028874865
105	0xbdc24573	-0.09485903
106	0xbde30886	-0.1108561
107	0x3dd2c126	0.102907464
108	0xbdf64721	-0.120252855
109	0x3db2d2e8	0.087316334
110	0xbc5bd9ac	-0.013418596
111	0x3d74fcf7	0.05981156
112	0xbc5363da	-0.012902224
113	0xbcd54694	-0.02603463
114	0xbc8b0e70	-0.016974658
115	0xbdf79f8e	-0.120909795
116	0xbd5ba0fc	-0.053620324
117	0xbd39868e	-0.045294337
118	0x3ccbce34	0.024878599
119	0xbbd518e1	-0.00650321
120	0xbd7fc4c0	-0.062443495
121	0xbd3f0376	-0.04663416
122	0x3cdfdde3	0.027327484
123	0xbd4964d2	-0.049168415
124	0x3d8ef71c	0.06980726
125	0x3cef745b	0.029230287
126	0x3da1485a	0.07875128
127	0xbd9001eb	-0.07031616
128	0x3d67531a	0.056475736
129	0x3d6a4fe2	0.05720509
130	0x3c9dd0b4	0.019264556
131	0xbd66fff6	-0.056396447
132	0x3d9afb22	0.07567431
133	0x3c684ef6	0.014178982
134	0xbc534ad4	-0.012896258
135	0xbdefff29	-0.1171859
136	0xbd8bb94e	-0.068224534
137	0xbba3604f	-0.004985846
138	0xbd4600da	-0.048340656
139	0xbd9071a7	-0.070529275
140	0xbbc8355f	-0.006109878
141	0x3aeffd6e	0.0018309781
142	0xbd48ea79	-0.049051736
143	0x3ca81e54	0.020522274
144	0xbf7a99ee	-0.9789113
145	0xbf8a0e19	-1.0785552
146	0xbf439e28	-0.764132
147	0xbf7edcfa	-0.99555933
148	0xbf37c517	-0.7178511
149	0xbe790d4c	-0.24321479
150	0xbe93e1e4	-0.28883278
151	0xbe04cc3c	-0.12968534
152	0xbe806e02	-0.2508393
153	0xbe4f571f	-0.20248078
154	0x3dbac9b4	0.09120503
155	0xbdb480c0	-0.088136196
156	0xbd8cf126	-0.06881933
157	0x3d5d06cd	0.053961564
158	0x3e6aa3e9	0.2291409
159	0x3de3ac8c	0.11116895
160	0x3d88620d	0.06659327
161	0x3d796753	0.060889553
162	0xbc87361d	-0.016505295
163	0x3d571802	0.05251313
164	0xbc8ba59c	-0.017046742
165	0x3e3b735a	0.18305722
166	0xbc1e9208	-0.009678371
167	0x3b99f040	0.0046978295
168	0x3c81a2c1	0.015824677
169	0x3de9323c	0.113865346
170	0xbdb0c017	-0.08630388
171	0xbe281752	-0.16415146
172	0xbda7062b	-0.08155473
173	0x3d694b60	0.05695665
174	0xbd2f0f4d	-0.0427392
175	0x3d5c3981	0.053765777
176	0x3e25d34d	0.16193886
177	0x3d9db914	0.077013165
178	0x3dd1d6cf	0.102460496
179	0x3e75131e	0.23933074
180	0x3e52a2ab	0.20569865
181	0x3e35ba3c	0.17746824
182	0x3dc77e4f	0.09740888
183	0x3d8595f7	0.06522744
184	0x3e5251ce	0.20539019
185	0x3c094c1e	0.008379964
186	0x3db11a82	0.08647634
187	0x3d23bc17	0.0399743
188	0x3e821f0a	0.25414306
189	0x3e06bbb8	0.13157547
190	0x3c403756	0.011731943
191	0x3e67b25d	0.22626634
192	0x3e1c09f3	0.1523817
193	0x3e3a0444	0.1816569
194	0x3e30dc5b	0.17271559
195	0x3d1dae27	0.038496163
196	0x3d953afa	0.072866395
197	0x3e433c87	0.19066058
198	0xbd83be55	-0.06432787
199	0x3e3baa86	0.18326768
200	0x3df62af1	0.12019909
201	0x3e79ba06	0.24387369
202	0x3e8b2a99	0.27180937
203	0x3ea8088f	0.3281903
204	0x3c419d67	0.011817313
205	0x3ecace48	0.39610505
206	0x3eb3e510	0.35135698
207	0x3e71b4a6	0.23604068
208	0x3e611b98	0.21983182
209	0x3d3b88c3	0.045784723
210	0xbcb748e3	-0.022373622
211	0xbf169dba	-0.5883442
212	0xbf0129d9	-0.5045448
213	0xbf38dacf	-0.72208875
214	0xbf85cdb8	-1.0453405
215	0xbf5f0048	-0.87109804
216	0x3d9ba716	0.076002285
217	0x3e9d1d47	0.306864
218	0x3f433825	0.76257545
219	0x3f5bec37	0.8590731
220	0x3f492d0c	0.7858436
221	0x3eb91046	0.36145228
222	0x3f0b9189	0.54518944
223	0x3e077e6a	0.13231817
224	0x3e359e3e	0.17736146
225	0xbe6cff00	-0.2314415
226	0xbdf88251	-0.12134231
227	0xbe31dc5f	-0.17369221
228	0xbf0de9e9	-0.55435044
229	0xbe8ce7d3	-0.27520618
230	0xbed316dd	-0.4122838
231	0xbe3ffc6d	-0.18748637
232	0xbdbecbe6	-0.09316234
233	0xbe1a7dbb	-0.15087025
234	0x3adfd72e	0.0017077678
235	0x3e8b5ea0	0.2722063
236	0x3c864059	0.016388105
237	0x3e3febff	0.18742369
238	0x3e8078c2	0.2509213
239	0x3e32e043	0.17468362
240	0x3e769210	0.24079156
241	0x3dde9ac1	0.10869361
242	0x3e66e480	0.22548103
243	0xbcb3d0a9	-0.021950083
244	0xbd9493e8	-0.072547734
245	0xbce5dea0	-0.028060257
246	0xbe1492c8	-0.14509118
247	0x3d8b7c7a	0.068108514
248	0xbe81436c	-0.2524675
249	0xbe586e16	-0.21135744
250	0xbdf4a864	-0.119461805
251	0xbdaf57c6	-0.08561663
252	0xbcdda1f5	-0.027054766
253	0xbc1a26c7	-0.009408659
254	0xb7db3f9e	-2.6136458e-05
255	0x3e0e408f	0.13891815

l1.bias f4 [24]
0	0x3c03c131	0.008041666
1	0xbcb9d46c	-0.022684298
2	0x3f13bd4b	0.57710713
3	0x3ef71031	0.4825454
4	0x3ea7d9e3	0.32783422
5	0x3ed986f8	0.42485785
6	0x3e8fd1ac	0.28089654
7	0x3ea9e1ba	0.33180028
8	0xbd9719db	-0.073779784
9	0x3f11ded6	0.56980646
10	0x3d14c546	0.036320947
11	0x3dc2b5d7	0.095073394
12	0x3b41fe13	0.0029600903
13	0xbe944ed0	-0.2896638
14	0x3f1959f8	0.59902906
15	0x3e8a1a37	0.26973125
16	0x3f1b07e6	0.6055893
17	0xbe9a0c0f	-0.30087325
18	0x3e81c296	0.2534377
19	0x3f1da614	0.6158154
20	0x3f13c3f1	0.5772086
21	0x3ec3275e	0.38115972
22	0x3f625c42	0.88422024
23	0xbde4441c	-0.11145803

l2.weight f4 [256, 30]
0	0x3d48aea1	0.048994664
1	0xbd1bc297	-0.038027372
2	0x3db23e05	0.087032355
3	0x3e897c76	0.2685277
4	0xbeb31b40	-0.34981728
5	0x3c720ba4	0.014773283
6	0xbd3177d3	-0.043327164
7	0xbd6efd8c	-0.05834727
8	0xbd206b16	-0.039164625
9	0x3c1725de	0.009225337
10	0xbe10568c	-0.14095515
11	0x3e1f8342	0.15577415
12	0x3d2c7ac4	0.042109266
13	0x3e4ad7d8	0.198089
14	0xbe331bc2	-0.17491058
15	0x3e0f3fb7	0.13989149
16	0x3eb37066	0.3504669
17	0xbb95ec3a	-0.0045752795
18	0xbdbe9236	-0.09305231
19	0xbd959935	-0.073046125
20	0x3e174880	0.1477375
21	0x3d9b6740	0.07588053
22	0xbe997fa7	-0.29980204
23	0x3dc71960	0.09721637
24	0x3fb4ea91	1.4134084
25	0xbeaf3aee	-0.34224647
26	0x3fdbfc95	1.7186457
27	0xbf7dd960	-0.9915981
28	0x3fa7fe8f	1.312456
29	0xbfa16ebf	-1.2611922
30	0x3e8c4e20	0.27403355
31	0x3de41328	0.11136466
32	0x3ef52e76	0.4788701
33	0xbe6a2851	-0.22866942
34	0xbe57bd5f	-0.21068333
35	0xbe6dcf1a	-0.23223534
36	0xbdefb0ba	-0.1170363
37	0xbe904d3f	-0.28183934
38	0x3c9cc0be	0.019134875
39	0x3e16d6dc	0.147304
40	0x3dc55ef1	0.09637249
41	0xbe3915dc	-0.18074745
42	0x3e4a2aaa	0.19742838
43	0xbe8bfaba	-0.27339727
44	0xbee7cc35	-0.45272985
45	0x3e3e7f37	0.18603216
46	0xbd3cc3ae	-0.046085052
47	0xbdfbd6db	-0.1229684
48	0x3e270390	0.16309953
49	0x3e89efac	0.26940668
50	0xbddcc5ad	-0.10779891
51	0x3d4934e0	0.04912269
52	0xbe2851fb	-0.16437523
53	0xbe03f1c8	-0.12885201
54	0xbfa62f5e	-1.2983205
55	0xbed78074	-0.4209019
56	0xbf9be4b6	-1.2179172
57	0x3c52529f	0.012837081
58	0xbee82f65	-0.4534866
59	0x3e5513b9	0.20808305
60	0xbe36e176	-0.17859444
61	0xbd08c4d4	-0.033390835
62	0x3f2ff53f	0.6873359
63	0xbee9cc3f	-0.4566364
64	0x3ec32f9f	0.3812227
65	0x3e532d1a	0.20622674
66	0xbee8d9ca	-0.4547866
67	0x3b826612	0.003979453
68	0x3d2e9add	0.042628158
69	0xbdcb7a09	-0.09935386
70	0xbe3c2f3d	-0.18377395
71	0x3b75aa9c	0.0037485724
72	0xbeefd045	-0.46838585
73	0xbee80aa2	-0.45320612
74	0xbf14f9ea	-0.5819384
75	0xbd6fc837	-0.05854055
76	0xbf04778e	-0.51744926
77	0x3bf12fa6	0.0073604165
78	0xbe55a025	-0.20861872
79	0x3e56a6cb	0.20962064
80	0xbe878654	-0.26469672
81	0xbcd085f9	-0.025454508
82	0xbde18129	-0.110109635
83	0x3e05cdfc	0.13066858
84	0xbf4489d1	-0.7677279
85	0x3e452e4c	0.19255942
86	0xc0375d4a	-2.865069
87	0x3e8876e2	0.266532
88	0xbfa2117a	-1.2661583
89	0x3f28e9f1	0.65981966
90	0xbe9d36b9	-0.30705813
91	0x3e2c52fe	0.16828534
92	0x3e2b8f04	0.16753775
93	0x3f044704	0.5167086
94	0xbfcf6eca	-1.6205685
95	0x3e8a5b49	0.2702277
96	0xbf2781c2	-0.6543237
97	0xbf1499a2	-0.58046925
98	0xbef89d12	-0.48557335
99	0xbe8c5ea3	-0.27415952
100	0xbd6c3948	-0.057671815
101	0x3d97867d	0.073986985
102	0xbef23c61	-0.4731169
103	0xbe4807aa	-0.19534174
104	0xbfba0646	-1.4533165
105	0xbef5b6d0	-0.47991037
106	0xbf9daba1	-1.2318002
107	0x3d2fd7f3	0.042930555
108	0x3c470e58	0.012149416
109	0xbdd2007d	-0.102539994
110	0xbeb1a760	-0.3469801
111	0x3e5aa2dd	0.2135119
112	0xbfa2c80a	-1.2717297
113	0xbd8a026f	-0.067387454
114	0xbd7eec52	-0.06223709
115	0xbf2bb491	-0.670724
116	0xc03371f0	-2.8038292
117	0x3e39b7ed	0.18136568
118	0x3f69abaf	0.91277593
119	0xbc218a73	-0.009859669
120	0xbe2609f2	-0.16214731
121	0x3dcdff98	0.10058516
122	0xbe35334a	-0.17695346
123	0xbe2ef4d8	-0.17085588
124	0x3d98e910	0.07466328
125	0x3e2d5160	0.16925573
126	0xbdfe2282	-0.124089256
127	0x3c104f80	0.008808017
128	0x3c7b7fb0	0.015350267
129	0xbb57b740	-0.0032915622
130	0xbd38cf18	-0.045119375
131	0xbe2e487e	-0.17019841
132	0x3e113b1e	0.14182708
133	0xbdcaa1cc	-0.098941416
134	0xbe071d6a	-0.13194814
135	0xbd0f3e70	-0.034971654
136	0xbd925ab9	-0.0714621
137	0xbe171ec6	-0.14757833
138	0xbc2f1a00	-0.010687351
139	0xbcb80a38	-0.02246581
140	0x3d12b7d4	0.035819843
141	0xbd69ad30	-0.05704993
142	0x3e1074be	0.14107034
143	0x3d97046c	0.0737389
144	0xbda6b474	-0.081398875
145	0xbe1d7820	-0.15377855
146	0xbd948d8a	-0.07253559
147	0xbdaab5ed	-0.08335481
148	0xbd60ea88	-0.054911166
149	0x3dd9abbc	0.10628459
150	0x3e3ddb35	0.18540652
151	0x3e306dde	0.17229411
152	0xbc9b6dfd	-0.018973345
153	0x3e2302c2	0.15919021
154	0xbeb1d7c6	-0.34734935
155	0xbe965a6f	-0.2936587
156	0x3e683e0f	0.22679923
157	0xbe5887be	-0.21145532
158	0x3dcecfe1	0.100982435
159	0xbea0334b	-0.31289133
160	0x3e534446	0.20631513
161	0x3d1d76bc	0.038443312
162	0x3e6b587a	0.2298297
163	0x3d55ac8a	0.0521665
164	0x3d8a7586	0.06760697
165	0xbe3b6f91	-0.18304278
166	0xbe8d0b8e	-0.27547878
167	0x3d0969eb	0.033548277
168	0x3e355a09	0.17710127
169	0xbeab1c30	-0.33419943
170	0xbdef80ad	-0.11694465
171	0xbe4a5c35	-0.19761737
172	0xbeb81953	-0.3595682
173	0xbdc91701	-0.09818841
174	0x3dbb4010	0.09143078
175	0x3d95e5cc	0.07319221
176	0x40245713	2.5678146
177	0x3dde8a67	0.10866242
178	0x3d030757	0.03198942
179	0xbd855374	-0.06510058
180	0x3e80dfee	0.25170845
181	0x3c5e85a9	0.013581672
182	0xbc0a2bae	-0.008433266
183	0x3e6ff6ae	0.23433945
184	0xbf4defca	-0.80444014
185	0x3ed4d767	0.4157059
186	0xbf1543e2	-0.58306706
187	0xbdc91fc2	-0.098205104
188	0x3e747b54	0.23875171
189	0xbe0ef9cd	-0.13962479
190	0x3dac8765	0.08424262
191	0x3e65f889	0.2245809
192	0xbe178309	-0.1479608
193	0x3e9161bd	0.2839488
194	0xbdcc87cf	-0.09986841
195	0x3c9ca4b4	0.019121505
196	0xbceb2f8a	-0.028709192
197	0xbe0af633	-0.1357048
198	0x3e88ba29	0.2670453
199	0xbd16f176	-0.03685137
200	0x3d47e8a0	0.048805833
201	0xbe2fa781	-0.17153741
202	0x3d19fff5	0.037597615
203	0x3c3d12a0	0.011540085
204	0x3f5e07bf	0.8673057
205	0xbe54aff7	-0.2077025
206	0xbfd9908c	-1.6997237
207	0xbb91946b	-0.0044427416
208	0x3ee06dd4	0.43833792
209	0xbe0b1305	-0.13581474
210	0x3da5d920	0.08098054
211	0x3d9c388f	0.07627975
212	0xbe0be8eb	-0.1366307
213	0x3e6dbf39	0.23217477
214	0x3c3fa3f3	0.011696803
215	0x3df31e35	0.11870996
216	0xbbb51591	-0.0055262526
217	0x3e804b41	0.25057414
218	0xbd50b564	-0.050954238
219	0xbe285b4d	-0.16441078
220	0x3e9389f0	0.28816175
221	0x3ea005f7	0.3125455
222	0x3e79caad	0.24393721
223	0x3e8b4abb	0.27205452
224	0xbe1590c7	-0.1460601
225	0x3de5211b	0.11187955
226	0x3ce5fc34	0.028074361
227	0xbd8641bf	-0.06555509
228	0x3e041ec5	0.12902363
229	0xbe0e486e	-0.13894817
230	0xbdc97419	-0.09836597
231	0x3abcc2ac	0.0014401278
232	0xbdaa51f0	-0.083164096
233	0x3e172a7a	0.14762297
234	0x3e25ff43	0.16210656
235	0x3ec086a2	0.37602717
236	0x3f92531e	1.1431615
237	0x3c447c81	0.011992575
238	0x3e16da4b	0.1473171
239	0x3e2200af	0.15820573
240	0xbe11c29f	-0.14234398
241	0x3dc88a24	0.09791973
242	0x3f21a86c	0.63147616
243	0xbe6e7855	-0.2328809
244	0x3f9abd88	1.208909
245	0x3e953030	0.29138327
246	0x3d5eaac8	0.05436209
247	0xbfb776fe	-1.4333189
248	0xbf5a80f3	-0.8535301
249	0xbea401d6	-0.3203265
250	0xbee55e84	-0.44798672
251	0xbe9e2172	-0.30884892
252	0xbea6b0de	-0.32556814
253	0xbf26500c	-0.6496589
254	0xbcdad2c6	-0.026711833
255	0x3da7b342	0.081884876

l2.bias f4 [256]
0	0xbf049430	-0.51788616
1	0xbe90b4d9	-0.28262976
2	0x3ea210e3	0.3165351
3	0xbd092722	-0.033484586
4	0xbdc193dc	-0.0945203
5	0xbe154bfc	-0.14579767
6	0x3df5b24b	0.11996897
7	0x3d80b1eb	0.06283935
8	0x3dcf0dbf	0.10110044
9	0xbdfece8a	-0.12441738
10	0x3cdfcc48	0.027319089
11	0xbc82c630	-0.015963644
12	0x3f971c8c	1.1805587
13	0x3f0ff0e3	0.5622694
14	0x3dfe18fe	0.12407111
15	0xbd7e3bd2	-0.062068768
16	0xbdf30d59	-0.1186778
17	0xbd009f36	-0.031401835
18	0xbe06c11c	-0.13159603
19	0x3c8ecf32	0.017432783
20	0x3b893950	0.0041877404
21	0x3c982802	0.018573765
22	0x3e50982c	0.20370549
23	0x3f4d22e0	0.8013134
24	0x3d31e750	0.043433487
25	0xbef6d97c	-0.48212802
26	0x3e877638	0.2645738
27	0xbea0b8a9	-0.31390885
28	0xbf212625	-0.6294883
29	0x3ea0a4b4	0.3137566
30	0xbe362871	-0.17788865
31	0x3e8436b9	0.25823
32	0x3d9ad523	0.07560184
33	0xbe86bd4b	-0.26316294
34	0xbece4c89	-0.40292767
35	0x3ec4dd0b	0.38449892
36	0xbe57e626	-0.21083888
37	0x3ea1e816	0.3162238
38	0xbf1738b5	-0.59070903
39	0xbf09e924	-0.5387137
40	0x3f319302	0.6936494
41	0xbf415001	-0.755127
42	0x3d6624bc	0.056187376
43	0x3e38cec4	0.18047625
44	0x3e356e6c	0.17717904
45	0xbc9bb1cb	-0.019005677
46	0x3e74f756	0.23922476
47	0x3e151d2d	0.14561911
48	0x3db4ef30	0.08834684
49	0x3e592fa5	0.21209581
50	0x3e14d73a	0.14535227
51	0x3e013b1e	0.12620208
52	0x3e86eb79	0.26351526
53	0xbeef4aeb	-0.46736845
54	0xbd4e887a	-0.050423123
55	0x3c10011b	0.008789326
56	0xbe88f3d1	-0.26748517
57	0xbeb9058f	-0.36137053
58	0xbe9c35ac	-0.30509698
59	0xbcfb9043	-0.030708438
60	0xbd6ffaba	-0.05858872
61	0x3c6ab910	0.014326349
62	0x3e59d845	0.21273907
63	0xbf2535e2	-0.64535344
64	0xbd5a34ad	-0.05327289
65	0x3e783642	0.24239448
66	0x3d94f6cf	0.072736375
67	0xba7f2d08	-0.0009734188
68	0xbe46e4ed	-0.19423266
69	0x3f1af33c	0.60527396
70	0x3ee46b43	0.44613084
71	0xbe376f13	-0.17913465
72	0xbe49f18a	-0.19721046
73	0xbe51f3c4	-0.20503145
74	0xbe480e03	-0.19536595
75	0x3d823935	0.063585676
76	0x3c752bd0	0.014964059
77	0xbdf56cb3	-0.11983623
78	0x3d403a58	0.04693064
79	0x3ddc0e31	0.10744894
80	0x3e5d68c5	0.21621998
81	0x3d8598f5	0.06523315
82	0xbd14e06e	-0.036346845
83	0xbdfb676b	-0.12275585
84	0x3e4ff00f	0.20306419
85	0xbe311422	-0.17292836
86	0xbe72ac37	-0.23698507
87	0x3f81b303	1.0132755
88	0xbd9f163d	-0.077679135
89	0x3f7decd5	0.991895
90	0x3eaa0743	0.33208665
91	0xbb889550	-0.00416819
92	0x3e88843d	0.2666339
93	0x3d8ef619	0.06980533
94	0x3dea4c45	0.114403285
95	0xbe9fa3ad	-0.31179562
96	0x3e5d23b1	0.21595646
97	0x3dfc51ed	0.123203136
98	0x3f70a97d	0.9400862
99	0xbcc19ca1	-0.023634257
100	0xbf155529	-0.5833307
101	0x3d71b178	0.059007138
102	0x3b74f73d	0.003737881
103	0xbf1589ed	-0.58413583
104	0xbebaec5b	-0.3650845
105	0xbc82342b	-0.015894016
106	0xbd18b968	-0.037286192
107	0x3e19f561	0.15035011
108	0x3d75f67c	0.06004952
109	0x3d556499	0.05209789
110	0x3b6991f7	0.003563998
111	0x3e971073	0.29504737
112	0xbe92cc45	-0.2867147
113	0x3f12297c	0.5709455
114	0xbea1b0e7	-0.31580278
115	0xbd61396f	-0.054986414
116	0x3ee51380	0.4474144
117	0x3f4916ab	0.78550214
118	0x3c8b4097	0.016998572
119	0x3d70e3dd	0.058811057
120	0xbeb4a2a2	-0.3528033
121	0xbed26c8b	-0.41098437
122	0x3e18cfb6	0.14922985
123	0x3e84da9a	0.2594803
124	0x3de9469e	0.11390422
125	0x3e0bc5c5	0.13649662
126	0x3da99825	0.082809724
127	0x3ee14c90	0.44003725
128	0xbd96192a	-0.073290184
129	0xbda2c6df	-0.07948088
130	0xbe3dcea4	-0.18535858
131	0x3ebb80f8	0.36621833
132	0x3d0701f6	0.032960854
133	0x3ccbbfc8	0.024871722
134	0x3e89b927	0.26899073
135	0xbdf3c713	-0.11903205
136	0x3e9cdb1f	0.30635926
137	0x3dac9a30	0.084278464
138	0x3dcd687c	0.100296944
139	0x3d7d6845	0.061867017
140	0x3e187904	0.14889914
141	0x3e4a88e2	0.19778779
142	0x3f1de5a5	0.61678535
143	0xbe506e92	-0.20354679
144	0x3e31f96e	0.17380306
145	0x3eb0ca87	0.34529516
146	0x3e859342	0.2608891
147	0x3d3d01f5	0.046144444
148	0xbe034c90	-0.12822175
149	0xbe95ab97	-0.29232475
150	0x3ecbfe41	0.39842418
151	0xbe36b5ba	-0.1784276
152	0xbe8b517f	-0.27210614
153	0xbd48b2a8	-0.048998505
154	0x3e2d9949	0.16953005
155	0x3f29b519	0.6629196
156	0xbe97ce30	-0.29649496
157	0xbeb9f951	-0.36323026
158	0x3e4a232b	0.19739978
159	0xbe746a3b	-0.23868649
160	0x3f32a5f7	0.6978449
161	0x3d1fe096	0.03903254
162	0xbd9988bb	-0.074967824
163	0x3d7b03e3	0.061283004
164	0xbeae3887	-0.34027502
165	0xbd991267	-0.07474213
166	0x3f5de771	0.86681277
167	0x3e809aff	0.25118253
168	0xbe457710	-0.192837
169	0x3f37e141	0.71828085
170	0x3e1439fb	0.14475243
171	0xbe1b4e89	-0.15166678
172	0x3e9c8a81	0.3057442
173	0x3efa1e54	0.48851264
174	0x3ecce39e	0.40017408
175	0xbe3e2866	-0.18570098
176	0xb941cb8b	-0.0001848174
177	0x3e561f5c	0.209104
178	0xbedd6704	-0.43242657
179	0x3f0c284d	0.54748994
180	0x3e057b39	0.13035287
181	0x3f551f9b	0.8325135
182	0xbe2454f6	-0.16048035
183	0x3e9d3850	0.30707026
184	0x3e0b94dc	0.13631004
185	0xbdd57a44	-0.10423711
186	0x3f4cdd37	0.8002505
187	0x3e98124c	0.2970146
188	0xbd208be3	-0.039195906
189	0xbca20427	-0.01977737
190	0x3e0d015e	0.13770053
191	0xbce76251	-0.028245123
192	0x3e1ff445	0.15620525
193	0xbe42aa9d	-0.19010396
194	0x3de7fffd	0.11328123
195	0x3de3c8e9	0.11122305
196	0xbee60dbb	-0.4493235
197	0xbda29bb3	-0.079398535
198	0x3e9a3550	0.301188
199	0x3e0de657	0.13857399
200	0xbe17a0f9	-0.148075
201	0x3de8b276	0.11362164
202	0x3ed8610a	0.42261535
203	0x3dfccb69	0.12343485
204	0x3e63176b	0.22176902
205	0x3e4cdcae	0.20006058
206	0xbe90cfbc	-0.2828349
207	0x3e43b22b	0.19110934
208	0xbe22f965	-0.15915449
209	0xbc7fa358	-0.015602909
210	0xbecde3b3	-0.40212783
211	0x3ea30ffb	0.3184813
212	0xbf166df0	-0.587615
213	0x3eee7c78	0.46579337
214	0x3d258788	0.040412456
215	0xbdbd14de	-0.09232496
216	0x3db997f7	0.09062188
217	0x3cf5b111	0.029991658
218	0xbec61ee9	-0.38695458
219	0x3f1f1238	0.62137175
220	0x3ee1d555	0.44108072
221	0xbe439889	-0.19101156
222	0x3e90109f	0.2813768
223	0xbd744198	-0.059632868
224	0x3d825c86	0.06365304
225	0xbdf1213f	-0.11773919
226	0xbd437d6b	-0.04772703
227	0x3e8189e0	0.25300503
228	0x3ec052cd	0.37563172
229	0xbe750d15	-0.23930772
230	0x3e21a54e	0.15785715
231	0xbde8ee18	-0.11373538
232	0xbcc0f92a	-0.02355631
233	0x3e323db4	0.1740635
234	0xbedd4bed	-0.4322199
235	0xbe5b5689	-0.2141973
236	0xbf08a56a	-0.533774
237	0xbe074a9e	-0.13212058
238	0x3bd115d7	0.0063807773
239	0x3d217b10	0.039424002
240	0x3e84fd04	0.25974286
241	0x3d534e97	0.05158862
242	0xbe25ce74	-0.16192037
243	0x3e475957	0.19467674
244	0x3e97efa1	0.2967501
245	0xbedb77ef	-0.4286494
246	0x3ea258d6	0.317084
247	0x3ef8a25d	0.48561373
248	0x3edf0c0f	0.43563887
249	0x3b90f580	0.004423797
250	0xbf1bfc48	-0.60931826
251	0x3ecb8417	0.39749214
252	0x3e22bb72	0.15891817
253	0xbe995da2	-0.2995425
254	0x3f5ec47c	0.8701856
255	0x3e2c5ad6	0.16831526

l3.weight f4 [64, 256]
0	0xbedfbe97	-0.43700096
1	0xbe04cc16	-0.12968478
2	0x3e614185	0.2199765
3	0xbea3b8ce	-0.31976932
4	0xbd599c66	-0.05312767
5	0xbd306c62	-0.043072112
6	0xbdc02b67	-0.09383278
7	0x3d7bfa48	0.061517984
8	0x3ddcd3cf	0.10782587
9	0xbe331e69	-0.1749207
10	0x3ef574d5	0.47940698
11	0x3d8ead9e	0.069667086
12	0x3d56e2fc	0.052462563
13	0x3e1ea218	0.15491521
14	0x3d8ba03e	0.06817673
15	0x3c8626d8	0.016375944
16	0x3eb7da6b	0.35908827
17	0xbe84bea5	-0.259267
18	0x3f7280ed	0.94727975
19	0x3d048b18	0.032359213
20	0x3eae4d07	0.34043142
21	0x3d862240	0.065495014
22	0xbef45bfc	-0.47726429
23	0x3de6909e	0.11258052
24	0x3e1a0d72	0.15044191
25	0x3e6911be	0.22760674
26	0x3d5298e2	0.05141533
27	0x3ea65f5b	0.32494625
28	0x3eba2963	0.363597
29	0xbfe0184b	-1.7507414
30	0x3ec41bd7	0.3830249
31	0xbe56bcf6	-0.2097052
32	0x3d3cc3de	0.04608523
33	0x3e968a54	0.2940241
34	0x3dec0638	0.11524624
35	0xbca60913	-0.020267999
36	0xbdbf446f	-0.093392245
37	0xbdb5e9d6	-0.08882491
38	0xbdc88a9d	-0.097920634
39	0x3fa95d3b	1.3231577
40	0xbe64b528	-0.2233473
41	0x3ed7f139	0.42176226
42	0xbd628532	-0.055302806
43	0x3d48b876	0.04900404
44	0xba137760	-0.0005625393
45	0x3f0a61e8	0.54055643
46	0x3da19e57	0.07891529
47	0xbe986dd2	-0.29771286
48	0x3d00136c	0.031268522
49	0x3d13bcc0	0.036068678
50	0x3d28f072	0.04124493
51	0xc002ccf9	-2.0437605
52	0x3d0efe51	0.034910504
53	0x3d9ebc5d	0.07750771
54	0xbf30f20e	-0.69119346
55	0xbeff7e57	-0.49901077
56	0xbd3f5b92	-0.046718188
57	0x3f221512	0.633134
58	0xbd6f3c09	-0.058406863
59	0xbf0d357a	-0.55159724
60	0xbeb71ef9	-0.35765818
61	0xbd09ad7e	-0.03361272
62	0xbd05748c	-0.03258185
63	0xbe7f8b79	-0.24955548
64	0x3e8b016b	0.2714952
65	0x3d2be738	0.041968554
66	0x3e9c1361	0.30483535
67	0xbea31b2b	-0.31856665
68	0x3d3d1ada	0.046168186
69	0xbb9dc89e	-0.004815175
70	0xbe92ec9a	-0.28696138
71	0xbebda751	-0.37041715
72	0x3f1c3d38	0.6103091
73	0x3ef7ff9a	0.48437196
74	0x3db5ba76	0.08873455
75	0xbdcda038	-0.10040325
76	0x3c109a41	0.0088258395
77	0x3c6a38b2	0.014295744
78	0x3e0146c4	0.12624651
79	0x3d862c34	0.065514
80	0xbf30b2bc	-0.69022727
81	0x3dd43517	0.103616886
82	0xbfbc787b	-1.4724268
83	0x3dedd958	0.11613721
84	0xbe867273	-0.26259193
85	0x3e964bbd	0.2935466
86	0xbe499255	-0.19684727
87	0xbc9e7cc8	-0.01934661
88	0xbb5a3368	-0.00332948
89	0xbe583bbb	-0.21116535
90	0x3e0a6121	0.13513614
91	0x3db87738	0.09007114
92	0x3d1aba3e	0.03777527
93	0x3ee9b4d2	0.45645767
94	0x3b2669c0	0.0025392622
95	0xbe1ab256	-0.15107092
96	0x3c054288	0.008133538
97	0x3db6fb18	0.08934611
98	0x3d35a234	0.044344142
99	0xbf9236b1	-1.142294
100	0x3c6b457e	0.01435983
101	0x3e22e3f3	0.15907268
102	0xbc8ef309	-0.017449873
103	0x3c11a518	0.008889459
104	0xbf097b73	-0.53703994
105	0x3c50aa67	0.01273594
106	0xbea48f1d	-0.32140437
107	0x3f63e007	0.89013714
108	0x3ecb3ce3	0.3969489
109	0x3fd13fd5	1.6347605
110	0xbd8bc819	-0.06825275
111	0xbec2a713	-0.38018093
112	0x3f2d2380	0.67632294
113	0x3cee2ec2	0.02907503
114	0x3ebd0c1f	0.3692331
115	0x3bb6b44a	0.0055756913
116	0xbbd4f510	-0.0064989403
117	0xbe0a0250	-0.13477445
118	0x3daafb59	0.08348722
119	0x3e9eeaa4	0.31038392
120	0xbc7669c8	-0.015039869
121	0x3e23b66c	0.15987557
122	0x3f84882a	1.0354054
123	0xbf297a26	-0.6620201
124	0x3dcfcbb4	0.10146275
125	0xbf12e7e6	-0.573851
126	0xbf544f50	-0.8293352
127	0xbd4d050a	-0.050053634
128	0xbb9be735	-0.0047577866
129	0xbf9c1b58	-1.2195845
130	0x3ea52ee4	0.32262337
131	0x3f5f2e28	0.87179804
132	0xbf7638f1	-0.96180636
133	0xbe7d238f	-0.24720596
134	0x3b12db95	0.0022408713
135	0x3eee514b	0.46546397
136	0x3d7460aa	0.0596625
137	0x3eac9b48	0.3371222
138	0xbf3d92cb	-0.74052113
139	0x3d8b1f35	0.06793062
140	0xbf686999	-0.9078613
141	0x3ebd411d	0.3696374
142	0x3e5b6d0a	0.21428314
143	0xbd509a79	-0.050928567
144	0x3d75c52e	0.0600025
145	0xbd2a4c53	-0.041576695
146	0x3e2ef750	0.1708653
147	0xbeb182c1	-0.3467007
148	0xbe0bf696	-0.13668284
149	0x3d1000a4	0.03515686
150	0x3d65cbb3	0.056102466
151	0x3d42e238	0.04757902
152	0xbe3c0b98	-0.18363798
153	0xbe9e31d4	-0.3089739
154	0xbe1e64e8	-0.1546818
155	0xbf9e27b7	-1.235587
156	0x3ecff4a4	0.40616333
157	0x3ed99a6e	0.42500633
158	0xbd2918c1	-0.041283373
159	0xbde754f4	-0.112955004
160	0xbcb0bb31	-0.021573635
161	0xbd018310	-0.03161913
162	0xbd5bb036	-0.053634845
163	0xc01219b8	-2.2828197
164	0x3de9d2ff	0.114171974
165	0x3d3c9080	0.046036243
166	0xbe035ebe	-0.1282911
167	0x3da17ac7	0.07884746
168	0xbe67e03b	-0.22644131
169	0xbe5df8a9	-0.21676888
170	0x3e895516	0.26822728
171	0x3d7308fc	0.05933474
172	0x3b884eed	0.0041597993
173	0xbcca488d	-0.024692798
174	0x3d8d1ed9	0.06890649
175	0xbeadf9be	-0.339796
176	0x3e464028	0.19360411
177	0x3dcdf1fd	0.10055921
178	0xbc3d806d	-0.011566264
179	0x3e856afd	0.26058188
180	0xc001ccea	-2.028132
181	0xbf67fa34	-0.90616155
182	0x3e36fca3	0.17869811
183	0xbe2234af	-0.1584041
184	0x3d34a187	0.044099357
185	0x3e94322b	0.28944525
186	0xbfae9eff	-1.3642272
187	0x3ddabd3a	0.10680623
188	0x3db593e5	0.08866099
189	0x3cd88eff	0.026435373
190	0xbe33c71e	-0.17556426
191	0x3e93bc55	0.28854623
192	0xbd986d06	-0.074426696
193	0x3ec99704	0.39373028
194	0xbcf5862d	-0.029971207
195	0x3c3207e5	0.01086614
196	0xbea0d113	-0.3140951
197	0x3d16bd98	0.036801904
198	0x3b9b3030	0.004735969
199	0xbe4ef918	-0.20212209
200	0xbcd13630	-0.025538534
201	0xbdb8b24d	-0.09018383
202	0xbea309a5	-0.31843296
203	0xbe9a86a3	-0.30180845
204	0x3e0763b2	0.13221624
205	0x3da13fc2	0.07873489
206	0xbf038985	-0.51381713
207	0x3dc1cd94	0.09463039
208	0x3d4c71aa	0.049913086
209	0x3dfd1b51	0.12358726
210	0x3dc75de0	0.09734702
211	0xbd889fe9	-0.066711254
212	0x401c6198	2.4434566
213	0xbd3edff1	-0.046600286
214	0x3c0a9da0	0.008460432
215	0x3d7ee243	0.0622275
216	0x3f64af50	0.89330006
217	0xbdd0ccc4	-0.10195306
218	0x3dd80fd5	0.10549895
219	0x3bc1eb38	0.005917933
220	0xbfc48124	-1.535191
221	0xbb97c11f	-0.004631176
222	0x3d3b8aef	0.045786794
223	0xbe9cbf1b	-0.30614552
224	0x3daef0e9	0.08542044
225	0x3d62e1e2	0.0553912
226	0x3e7c70f1	0.24652459
227	0xbfb670bf	-1.4253157
228	0xbc729c04	-0.014807705
229	0x3c33c401	0.010972024
230	0xbd16eabc	-0.036844954
231	0x3d81906b	0.06326374
232	0xbe411b20	-0.18858004
233	0x3c913e08	0.017729774
234	0xbd1ce50a	-0.038304366
235	0xbcad3790	-0.021144658
236	0x3d73c057	0.0595096
237	0xbd85b914	-0.065294415
238	0x3c0c5806	0.008565908
239	0x3d598b28	0.053111225
240	0xbe2a968e	-0.16658995
241	0x3d0f0df8	0.03492543
242	0x3fa46ec0	1.2846298
243	0x3d947848	0.07249504
244	0x3dbb11d8	0.09134263
245	0xbc30517e	-0.010761617
246	0x3d9761f3	0.07391729
247	0xbf014fef	-0.50512594
248	0xbebc5a52	-0.3678766
249	0x3c6f5d88	0.014609702
250	0xbe0954c0	-0.13411236
251	0x3e968ce4	0.29404366
252	0x3c9c73f0	0.019098252
253	0x3ce8fb4c	0.02844014
254	0xbd4e7ca4	-0.050411835
255	0x3e82a9fa	0.25520307

l3.bias f4 [64]
0	0x3dc7880c	0.09742746
1	0x3d3a644d	0.04550581
2	0x3cc4d22b	0.024025997
3	0x3e136ae8	0.1439625
4	0x3d5291f0	0.051408708
5	0x3cd9bccf	0.026579289
6	0xbbe4a6ae	-0.0069778776
7	0xbd9c8b4b	-0.076437555
8	0x3c9facd4	0.01949159
9	0xbd6db175	-0.058030564
10	0x3edf0301	0.4355698
11	0x3f0fa1dd	0.5610636
12	0x3e9af571	0.30265382
13	0xbb04a3ee	-0.0020239311
14	0x3d5f2bea	0.05448524
15	0x3ee96be5	0.4559013
16	0x3e5695fb	0.2095565
17	0x3d809b6f	0.062796466
18	0x3e84c261	0.2592955
19	0x3dce96da	0.100873664
20	0x3ca71b63	0.020398801
21	0x3c1acb77	0.009447924
22	0x3dabf6f5	0.08396713
23	0x3d9ad008	0.0755921
24	0x3e94660b	0.28984103
25	0x3e365a6b	0.17807929
26	0x3ef606ad	0.48051968
27	0xbb341a87	-0.0027481632
28	0x3e6932f1	0.22773339
29	0x3e7d8bde	0.24760386
30	0x3e3b78ee	0.1830785
31	0x3e6be447	0.230363
32	0x3a8568df	0.0010178349
33	0x3e23fc50	0.16014218
34	0x3b9be0be	0.004757016
35	0xbd5cc9a6	-0.053903244
36	0xbdf43f6f	-0.119261615
37	0x3d4f2458	0.05057177
38	0x3c40f9e4	0.011778329
39	0x3bf1792d	0.0073691816
40	0x3d5a4aad	0.053293873
41	0x3ed0b07a	0.4075964
42	0x3e9b824c	0.30372846
43	0xbd70adb4	-0.058759406
44	0x3e0e3d65	0.13890608
45	0xbcd1da3b	-0.025616756
46	0x3e801c61	0.2502165
47	0xbcdd1d2b	-0.026991447
48	0x3a3986df	0.00070772873
49	0xbe524fdf	-0.20538281
50	0x3c7e0dcb	0.015506218
51	0xbd8873b4	-0.066626936
52	0x3dfd7ca4	0.12377289
53	0x3cc05446	0.023477685
54	0x3b8fc57b	0.004387555
55	0x3f2058f0	0.6263571
56	0xbd5a516e	-0.053300314
57	0x3d63bdb4	0.055600837
58	0x3e8f870e	0.28032726
59	0xbbef5410	-0.007303722
60	0x3da3a1e3	0.07989862
61	0xbe7ff111	-0.24994303
62	0xbc59c5f8	-0.013291828
63	0xbc942613	-0.018084561

l4.weight f4 [1, 64]
0	0x3deb4453	0.11487641
1	0x3dc079e6	0.0939825
2	0x3d7e48b4	0.062081054
3	0xbf1cb124	-0.61207795
4	0x3e8fee46	0.28111476
5	0x3e6b920d	0.23004933
6	0x3dcb92fb	0.09940144
7	0xbfa10698	-1.2580137
8	0xbdd15676	-0.10221569
9	0x3c1145d6	0.008866748
10	0xc1180f67	-9.50376
11	0xc084d258	-4.1506767
12	0xc09f30e3	-4.9747176
13	0x3dc1957c	0.0945234
14	0x3d235faa	0.039886154
15	0xc0a9ef29	-5.3104444
16	0xc10ded38	-8.870415
17	0xc0b2f0ea	-5.5919085
18	0xbf24b7f7	-0.6434321
19	0xc10d078e	-8.814344
20	0xc11ea2d5	-9.914754
21	0xbca916ef	-0.020640818
22	0xc106a9f9	-8.416497
23	0xbff67b8c	-1.9256454
24	0xc12a6b0c	-10.6511345
25	0xbf72ae1a	-0.9479691
26	0xc0dad3a2	-6.838334
27	0x3e941055	0.2891871
28	0xc10ec030	-8.921921
29	0x3facf219	1.3511382
30	0xbfa86f4d	-1.3158966
31	0xbf10e5fd	-0.56600934
32	0x3d0050f6	0.03132721
33	0xc0c913e8	-6.28368
34	0x3d78e296	0.060762964
35	0xc0e8df74	-7.277277
36	0xbfbdd5fb	-1.4830927
37	0x3e618278	0.22022426
38	0x3d047736	0.03234025
39	0x3ddb29d5	0.10701338
40	0x3b420968	0.0029607657
41	0xc07ec6bf	-3.9808805
42	0x3fa1e59a	1.2648194
43	0x3e855cb5	0.26047292
44	0xc13df3c2	-11.872011
45	0x3e38d1c2	0.18048766
46	0xbf2475dc	-0.6424234
47	0x3d78b1e6	0.060716532
48	0x3e520c14	0.2051242
49	0x3fb87cf8	1.4413137
50	0x3ca62de3	0.020285552
51	0x3e924bbb	0.28573403
52	0xbf77723c	-0.9665868
53	0xbf9f9b6a	-1.2469304
54	0x3e6a34b8	0.22871673
55	0xc0fcb366	-7.896899
56	0x3d9bfc2b	0.076164566
57	0xc059f80a	-3.405764
58	0xbf24529b	-0.64188546
59	0x3dca9d92	0.098933354
60	0x3e677fb4	0.22607309
61	0x4051debc	3.2792196
62	0xbc928488	-0.017885461
63	0xbf8523cd	-1.040155
